PINN's/NAVIERSTOKES/Inverse/Models/NSinverse_1_2.pth (torch, 20948 bytes, 12 tensors)

layers.0.weight f4 [30, 3]
0	0x3eaaed94	0.33384383
1	0x3dc79518	0.09745234
2	0xbf01e249	-0.5073591
3	0xbe906a91	-0.28206304
4	0x3dda0b6e	0.10646711
5	0x3e2d88a6	0.16946658
6	0x3d92e8af	0.07173287
7	0xbdf0df78	-0.11761373
8	0x37b269de	2.1268552e-05
9	0x3e8907fc	0.26763904
10	0xbe097e12	-0.13426998
11	0xbe2d8739	-0.16946115
12	0x3c7de490	0.015496388
13	0xbe2aaf9e	-0.16668555
14	0xbe2d9153	-0.16949968
15	0xbe31fffd	-0.17382808
16	0x3e204279	0.15650357
17	0x3e2d884d	0.16946526
18	0xbe7513bc	-0.2393331
19	0xbb3f6a16	-0.002920752
20	0x3e2d89b9	0.16947068
21	0x3ea54de6	0.32285994
22	0x3cd0b8c0	0.02547872
23	0x3eed6cb1	0.46371987
24	0xbd9f8fde	-0.07791112
25	0x3d3f9460	0.04677236
26	0x3f18ce0f	0.5968942
27	0xbaa2ac69	-0.0012411001
28	0xbe2e37f7	-0.17013536
29	0xbe2d8522	-0.16945317
30	0x3d7801b7	0.06054851
31	0xbd0b1f8d	-0.033965636
32	0xbeada27c	-0.33913028
33	0x3dee8dba	0.11648126
34	0xbcd6b5c2	-0.026209716
35	0xbeadb4bf	-0.3392696
36	0xbebf3d7c	-0.37351596
37	0x3e0a9f3b	0.13537304
38	0x3ead8798	0.33892512
39	0x3e30d91d	0.17270322
40	0x3c3a9588	0.01138819
41	0xbe2d9177	-0.16950022
42	0x3e551cda	0.20811787
43	0xbe3ef244	-0.18647105
44	0xbeda954d	-0.42692032
45	0xbe83dfaf	-0.25756595
46	0x3e9a3583	0.3011895
47	0x3e7ed18e	0.24884626
48	0xbeb2240e	-0.34793133
49	0xbdfb1889	-0.12260539
50	0x3ead98a6	0.33905524
51	0x3cc4308a	0.023948926
52	0x3e2ba75a	0.16763058
53	0x3e2d76e2	0.16939881
54	0x3d851c19	0.064995
55	0xbe80618e	-0.25074428
56	0x36afe63b	5.2422088e-06
57	0xbed9502b	-0.42443976
58	0xbe89cd3e	-0.269144
59	0xbecb7224	-0.3973552
60	0x3e789419	0.24275245
61	0x3e2f81b6	0.17139325
62	0xbe2d8480	-0.16945076
63	0xbafd4667	-0.001932335
64	0x3e1a3bc0	0.15061855
65	0x36bd2374	5.636766e-06
66	0xbe29659e	-0.1654267
67	0x3d803ac5	0.062612094
68	0x3e2d8e4d	0.16948815
69	0x3ec1117d	0.37708655
70	0xbe0ac4c0	-0.13551617
71	0xbead89d9	-0.33894232
72	0x3e40fffe	0.18847653
73	0x3e5a09b6	0.21292767
74	0x3ecaea5e	0.39631933
75	0x3f1108c3	0.56653994
76	0x3c4de4e2	0.012566777
77	0xbf0228db	-0.5084359
78	0x3d9c8b22	0.07643725
79	0xbd3b625f	-0.04574811
80	0xbf18dec5	-0.5971492
81	0x3ed7857a	0.42094022
82	0x3e56b937	0.20969091
83	0xbead9160	-0.33899975
84	0x3d8b577a	0.06803794
85	0x3e27820f	0.16358207
86	0x3651f224	3.1284371e-06
87	0xbe0e8d33	-0.1392105
88	0xbe1a8ea6	-0.15093479
89	0xbe773970	-0.24143004

layers.0.bias f4 [30]
0	0xbea4615c	-0.3210553
1	0x3c845741	0.016154887
2	0x3e241397	0.16023098
3	0x3dc39652	0.09550156
4	0xbf5a1cb2	-0.85200036
5	0x3e794514	0.24342757
6	0x3e632976	0.22183785
7	0x3e1bb3e4	0.15205342
8	0xbf29036a	-0.66020834
9	0xbf9f9f35	-1.2470461
10	0xbdf6a921	-0.120439775
11	0x3d940d6f	0.07229125
12	0x3efdbebf	0.4955959
13	0xbf2dfb06	-0.67961156
14	0xbee3e0f4	-0.44507563
15	0xbd322cb4	-0.043499663
16	0x3d8aa01c	0.0676882
17	0x3dd4f67f	0.10398578
18	0x3e8f2f91	0.27965978
19	0x3d6e6842	0.058204897
20	0xbf3d115c	-0.73854613
21	0x3f432d79	0.7624126
22	0x3e26844b	0.16261403
23	0x3f05abaa	0.52215064
24	0x3f13195c	0.5746057
25	0xbf5b9d79	-0.8578716
26	0xbea85c38	-0.32882857
27	0xbe155e61	-0.14586784
28	0xbe941cb8	-0.2892816
29	0xbd8b8203	-0.06811907

layers.2.weight f4 [30, 30]
0	0xbb7fc920	-0.0039029792
1	0x3d844b88	0.06459719
2	0xbea88b10	-0.32918596
3	0x3c9dafe7	0.019248916
4	0x3d35e503	0.044407856
5	0x3eba8fe7	0.36437914
6	0xbcef907a	-0.029243696
7	0xb89782f4	-7.224633e-05
8	0xbcc23d97	-0.023711009
9	0xbce807a6	-0.02832396
10	0xbc7d12fd	-0.015446422
11	0xbc05282e	-0.008127255
12	0x3d8b1eba	0.0679297
13	0xbed919c7	-0.4240248
14	0x3afcd004	0.0019288068
15	0x3b1930d0	0.0023375042
16	0x3dbd426e	0.09241186
17	0xbd05d461	-0.032673243
18	0xbddee571	-0.10883606
19	0x3762c56c	1.3516616e-05
20	0x3dd4197f	0.103564255
21	0x3e2d3d5d	0.1691794
22	0x3bdc745f	0.0067277397
23	0x3d71ec2f	0.059063133
24	0x39543c61	0.00020240388
25	0x3c54747e	0.012967227
26	0xbcbb7faf	-0.022888033
27	0x3d30263f	0.043005224
28	0xbe15f630	-0.14644694
29	0x3a9541b9	0.0011387385
30	0xbc478c32	-0.012179421
31	0xbe804294	-0.25050795
32	0x3e8b7457	0.27237198
33	0x3e07e7d1	0.13272025
34	0xbdd72baa	-0.10506375
35	0x3dd4dbd5	0.10393492
36	0x3e3a8324	0.18214089
37	0x3a84be8e	0.001012759
38	0xbd925417	-0.07144945
39	0xbebea472	-0.37234837
40	0xbc90b6cb	-0.017665287
41	0xbcdc5516	-0.02689604
42	0xbe486b53	-0.19572191
43	0xbec1f2d5	-0.3788058
44	0x3ade1566	0.0016943633
45	0xba03965e	-0.000501966
46	0x3d44697f	0.04795217
47	0xbe60c427	-0.21949826
48	0x3eaf9d9b	0.3429993
49	0x3ae5c5ec	0.0017530299
50	0x3e82863c	0.25493038
51	0xbec2ab74	-0.38021433
52	0xbe1ab748	-0.15108979
53	0xbe49060c	-0.19631213
54	0x3aec0753	0.0018007554
55	0x3cabf596	0.020991128
56	0xbd954da0	-0.072901964
57	0x3c52ad06	0.012858635
58	0xbe1f0e04	-0.1553269
59	0x3a2ded3e	0.0006634778
60	0xba7a189f	-0.0009540412
61	0x3e0dd252	0.13849762
62	0xbe823e00	-0.25437927
63	0x3c798ec9	0.015231797
64	0xbc5c79a9	-0.01345674
65	0x3dbac869	0.091202565
66	0xbe75d46e	-0.24006817
67	0xb8f16662	-0.00011510846
68	0xbbb9ce2e	-0.0056703305
69	0x3dad45bb	0.08460566
70	0xbcf5a4c4	-0.029985793
71	0xbcf39ed4	-0.029738821
72	0xbdd2d6ca	-0.10294874
73	0x3d0cc792	0.034370013
74	0x3b0861ed	0.0020810321
75	0x3be70cba	0.0070510777
76	0x3cfcd271	0.030862065
77	0x3e1f9af9	0.15586461
78	0xbe932ba6	-0.2874424
79	0xbab864aa	-0.0014068086
80	0x3dae350f	0.08506214
81	0x3e128787	0.14309512
82	0xbd4e8497	-0.050419416
83	0xbe8b0a28	-0.27156186
84	0x3a087d53	0.0005206663
85	0x3d52a4af	0.051426586
86	0xbbcc6303	-0.006237389
87	0xbd0e26fa	-0.03470514
88	0x3d60be7e	0.054869168
89	0xbb93fb76	-0.0045160605
90	0x3b85a70f	0.004078753
91	0xbeb15ddc	-0.34641922
92	0xbf0e5a97	-0.5560698
93	0xbefd5e59	-0.49486044
94	0x3d89732f	0.06711423
95	0x3dc0e708	0.09419066
96	0xbf0971e8	-0.5368943
97	0xb9358879	-0.00017312345
98	0xbcb4c37e	-0.022065874
99	0x3dfd9399	0.12381668
100	0xbc56a46d	-0.013100726
101	0xbc29db1f	-0.010367184
102	0xbdcafaf6	-0.09911148
103	0x3f22ed8b	0.6364371
104	0x3a54ca47	0.00081173
105	0x3a8dbe83	0.0010814223
106	0x3cf597d2	0.02997962
107	0x3d316ffd	0.04331969
108	0xbd648d75	-0.055798966
109	0x39b3fdf8	0.00034330762
110	0xbdc2eb37	-0.0951752
111	0x3cd8fd03	0.026487833
112	0x3d640681	0.055670265
113	0xbd50b3a6	-0.050952576
114	0xb93b5629	-0.00017865807
115	0xbc66e273	-0.014092076
116	0xbcb30c42	-0.02185643
117	0x3c1a3d97	0.009414098
118	0x3d796734	0.060889438
119	0x3a524b94	0.0008022126
120	0xbc811612	-0.015757594
121	0xbd875277	-0.06607526
122	0x3de04141	0.10949946
123	0x3e1242c2	0.14283279
124	0xbe9cf843	-0.3065816
125	0xbe521d15	-0.20518906
126	0x3e893e45	0.2680532
127	0x3ab8fed1	0.0014114027
128	0x3d79248c	0.06082587
129	0xbe8cd72c	-0.27507913
130	0xbc468304	-0.0121161975
131	0xbcdfa403	-0.027299887
132	0x3cb47783	0.022029644
133	0xbe046add	-0.1293139
134	0xbb19b117	-0.00234515
135	0xbb2d6b23	-0.0026461564
136	0xbc3577f9	-0.011075967
137	0xbd518469	-0.051151667
138	0xbeb7e417	-0.35916206
139	0x3aa1794c	0.0012319474
140	0x3ea0be97	0.3139541
141	0x3ed7de5f	0.42161843
142	0xbe43f897	-0.19137798
143	0x3b8259dd	0.0039779977
144	0x39d857db	0.00041264188
145	0x3cb9343a	0.022607911
146	0x3d79c117	0.06097516
147	0xbc63ea17	-0.013910792
148	0x3f4df6f6	0.8045496
149	0xbb006b40	-0.0019595176
150	0x3c790aa4	0.015200291
151	0x3d5c5f85	0.053802032
152	0xbee4a927	-0.44660303
153	0x3e37312d	0.17889853
154	0x3d9a096e	0.0752133
155	0xbd64eaf9	-0.05588815
156	0xbc66c3b3	-0.014084744
157	0xba987e43	-0.0011634309
158	0x3d4fc30b	0.050723117
159	0xbce1f1e9	-0.027581172
160	0x3c2780ab	0.010223548
161	0x3d0557e5	0.032554526
162	0x3e044f00	0.12920761
163	0x3de306c9	0.110852785
164	0x3ab2df0e	0.0013646798
165	0x3b91c1ba	0.004448143
166	0xbe1e28c9	-0.15445246
167	0xbd7d35d5	-0.061818916
168	0x3e1c51e3	0.15265612
169	0xb8a2cd38	-7.762987e-05
170	0xbdc80fa0	-0.09768605
171	0xbe70958c	-0.23494548
172	0x3e3ee4b2	0.18641928
173	0x3df2dde9	0.11858732
174	0x3a8d162b	0.0010764053
175	0x3c584cfd	0.013201949
176	0x3d47311a	0.04863081
177	0xbd942bed	-0.07234941
178	0x3ee6ea0c	0.4510044
179	0x3af32f90	0.0018553603
180	0xb993d972	-0.00028200034
181	0x3b695a8b	0.0035606946
182	0xbdd2aebd	-0.10287235
183	0x3c4b81c7	0.012421078
184	0xbdf6a145	-0.120424785
185	0xbd97f040	-0.07418871
186	0xbd919466	-0.07108383
187	0x3a4c19d6	0.0007785832
188	0x3c98a81e	0.018634852
189	0xbe8502f5	-0.2597882
190	0x3c8905cf	0.016726403
191	0x3cb5bbfe	0.022184368
192	0x3e8197bc	0.25311077
193	0xbec7daa6	-0.39034003
194	0x39c18181	0.00036908317
195	0xbacd77a2	-0.0015675912
196	0xbd08daf9	-0.033411954
197	0xbdedf088	-0.11618143
198	0xbd151eca	-0.036406316
199	0x3a42f1f2	0.00074365654
200	0x3d8aa8aa	0.06770451
201	0x3e9add79	0.30247095
202	0xbe516638	-0.2044915
203	0x3e74bb1c	0.23899502
204	0xbafbb240	-0.0019202903
205	0x3caea7d4	0.021320261
206	0x3c8f0bbf	0.017461656
207	0x3caef519	0.021357106
208	0x3e15a8c9	0.14615168
209	0xbacaba6e	-0.0015466937
210	0x3b696ac3	0.0035616613
211	0x3eee6813	0.46563777
212	0x3c3c7e78	0.011504762
213	0x3ec6977f	0.38787457
214	0xbdcd1508	-0.10013777
215	0xbe6364ce	-0.22206423
216	0x3ece2408	0.40261865
217	0x3a9ce343	0.0011969585
218	0xbd46aff8	-0.04850766
219	0x3e3ed5ce	0.18636248
220	0xbbf66686	-0.007519546
221	0xbbc63b7d	-0.006049572
222	0x3e49e11b	0.19714777
223	0xbf001102	-0.5002595
224	0xba4aa7ca	-0.0007730691
225	0xbb1516df	-0.0022749228
226	0xbd5855cd	-0.0528162
227	0x3e3e4280	0.18580055
228	0xbe00748e	-0.12544462
229	0x3a14d423	0.0005677363
230	0xbe14427b	-0.14478485
231	0x3e4b0ae0	0.19828367
232	0x3eef5f67	0.46752474
233	0x3e70054b	0.23439519
234	0xb9d84e33	-0.00041256993
235	0x3c25a366	0.010109758
236	0xbd490aff	-0.049082752
237	0xbbf20322	-0.0073856274
238	0x3dc76d07	0.09737592
239	0xb9a82727	-0.00032072628
240	0x3bcc017b	0.0062257624
241	0xbe5d2fd4	-0.21600276
242	0xbe89132b	-0.26772436
243	0x3d6c2886	0.057655834
244	0xbd46bcc4	-0.048519865
245	0x3e0ec6eb	0.13943069
246	0x3eaf9c1f	0.34298798
247	0xbb30dfbe	-0.002698883
248	0xbc3d9a05	-0.011572366
249	0x3d2ed9f9	0.042688344
250	0x3c4c6718	0.012475751
251	0x3cc89622	0.024485651
252	0xbdeaffd0	-0.114745736
253	0xbf2df504	-0.6795199
254	0xbbd7605c	-0.006572766
255	0xba0339af	-0.0005005849

layers.2.bias f4 [30]
0	0x3f63d29b	0.88993233
1	0xbf269ea7	-0.65085834
2	0x3e83b79b	0.25726017
3	0x3c1d233a	0.009590918
4	0x3ebb580b	0.3659061
5	0x3e6b8e2f	0.23003457
6	0xbd87c2c4	-0.066289455
7	0x3eeafb80	0.45895004
8	0x3e36143c	0.17781156
9	0x3eeede31	0.46653894
10	0xbf2b5879	-0.66931874
11	0xbe4c418e	-0.19946882
12	0x3db4b6ce	0.0882393
13	0x3e147c56	0.14500555
14	0xbe5452c0	-0.20734692
15	0x3e6d250c	0.23158664
16	0x3d81d11a	0.06338711
17	0xbf058370	-0.5215368
18	0x3d0ab81d	0.03386699
19	0x3eae1b90	0.34005404
20	0x3eeaef08	0.4588549
21	0xbda4dd99	-0.08050079
22	0x3da38011	0.07983411
23	0xbf03847e	-0.5137404
24	0xbe62b84f	-0.2214062
25	0x3fa62f33	1.2983154
26	0xbf1ddeb8	-0.61667967
27	0x3e45990e	0.19296667
28	0xbe9f8fdb	-0.3116444
29	0x3dc6b385	0.097022094

layers.4.weight f4 [30, 30]
0	0xbbf88f17	-0.007585417
1	0x3de586fb	0.11207386
2	0x3e0fc092	0.14038303
3	0x3c37ebe1	0.0112256715
4	0xbdec9db7	-0.11553519
5	0x3dc581ed	0.09643922
6	0x3e70bf79	0.23510541
7	0x3e89a509	0.26883724
8	0x3d277a39	0.040888045
9	0xbe4faa67	-0.20279847
10	0xbdf18d8d	-0.11794577
11	0x3ed568e7	0.41681597
12	0x3dfdede7	0.12398892
13	0x3e19a8fb	0.15005867
14	0xbe7b3741	-0.24532796
15	0xbe8f3482	-0.27969748
16	0xbe433dec	-0.1906659
17	0x3e03c4a5	0.12867983
18	0xbb824822	-0.003975884
19	0x3e69905a	0.22808972
20	0x3e144eea	0.14483228
21	0x3e8794b0	0.26480627
22	0x3d819dc8	0.063289225
23	0xbb80399c	-0.0039131176
24	0x3e4e5534	0.2014969
25	0xbde8db95	-0.11370007
26	0xbd780c74	-0.06055875
27	0xbda04883	-0.078263305
28	0x3e1e39c4	0.15451723
29	0xbe33b7e0	-0.17550611
30	0x3e7aba70	0.24485183
31	0xbe94ea0c	-0.29084814
32	0xbd68af9b	-0.056808095
33	0x3e6c46cd	0.23073883
34	0x3e6d1bb7	0.23155104
35	0x3d434d3a	0.04768107
36	0x3e83a29c	0.2571
37	0xbcaccab1	-0.021092745
38	0xbe3eeb32	-0.18644407
39	0x3d1c6862	0.038185485
40	0xbe80fb98	-0.2519195
41	0x3db6b087	0.08920389
42	0xbc23ea0c	-0.010004532
43	0x3ec5b101	0.38611606
44	0xbd35ce9d	-0.044386495
45	0x3df841e0	0.1212194
46	0x3ea55ed5	0.32298914
47	0xbe5eb7a4	-0.21749741
48	0xbe074aad	-0.1321208
49	0xbd1e59be	-0.038659804
50	0xbdef096b	-0.11671718
51	0xbe674a4c	-0.22586936
52	0x3e1709e3	0.14749865
53	0x3e0686c8	0.13137352
54	0x3e448876	0.1919268
55	0x3ebdec57	0.37094375
56	0xbdc7ab27	-0.097494416
57	0xbebf0509	-0.3730853
58	0x3d80111e	0.06253265
59	0xbe792702	-0.24331287
60	0x3c92e5d7	0.017931862
61	0x3e21bae2	0.15793946
62	0xbe0b770e	-0.13619635
63	0x3dfd7efb	0.12377735
64	0xbe83eae6	-0.2576515
65	0xbe023608	-0.12715924
66	0x3d0bae7f	0.03410196
67	0xbcef1504	-0.029184826
68	0x3e169ab4	0.14707452
69	0xbe318228	-0.17334807
70	0xbde892e0	-0.11356139
71	0x3d9b9c1b	0.07598134
72	0xbee349d2	-0.44392258
73	0x3e047138	0.12933815
74	0xbef8e1a6	-0.48609656
75	0xbd07e495	-0.033176977
76	0xbd8b16d8	-0.067914665
77	0xbda4b8ad	-0.080430366
78	0x3d8e28d4	0.06941381
79	0x3cdea8c3	0.027180081
80	0xbe5c1d8e	-0.21495649
81	0x3e49d83a	0.1971139
82	0x3db330ce	0.08749543
83	0x3dadc46a	0.08484729
84	0xbe73f3a7	-0.23823415
85	0xbe842abe	-0.2581386
86	0x3e3f5efe	0.1868858
87	0x3d0fcada	0.035105564
88	0x3e668d0c	0.22514743
89	0xbdc0552b	-0.093912445
90	0xbddc69fb	-0.10762402
91	0x3e44dc1b	0.19224589
92	0x3db8f727	0.090315156
93	0xbeacdde2	-0.33763033
94	0xbe0ef48c	-0.13960475
95	0xbeab7cd6	-0.3349368
96	0x3e15b37b	0.14619248
97	0x3c5bef39	0.013423734
98	0xbe910616	-0.28324956
99	0xbe233f4f	-0.15942119
100	0x3ce1eb7d	0.02757811
101	0xbed3ce74	-0.4136845
102	0xbe5412a8	-0.20710242
103	0xbe757528	-0.23970473
104	0x3efb7ab1	0.49117044
105	0x3d249a77	0.04018637
106	0xbeae41fb	-0.34034714
107	0x3d8308d9	0.06398172
108	0xbe00c45b	-0.12574904
109	0x3e7fa563	0.24965434
110	0xbe45691c	-0.19278377
111	0x3d4c03a7	0.04980817
112	0xbe42bd3f	-0.19017504
113	0x3e78185f	0.24228047
114	0x3df8e421	0.12152887
115	0xbe2b6d88	-0.16741002
116	0x3bf7f3bd	0.0075668977
117	0x3e10e34b	0.14149205
118	0xbc4efcbe	-0.012633501
119	0xbcfd4ab8	-0.030919418
120	0x3de0e736	0.109816
121	0x3e6444c1	0.22291853
122	0xbe2709d2	-0.1631234
123	0xbe174c81	-0.14775278
124	0xbf02069c	-0.50791335
125	0xbe36ed0f	-0.17863868
126	0x3e62dae1	0.22153808
127	0x3cf3f0fc	0.029777996
128	0x3d898c26	0.06716184
129	0x3d7de2b6	0.061983787
130	0xbe5b63b5	-0.21424754
131	0x3dccb818	0.099960506
132	0x3e0752bb	0.13215153
133	0xbe074762	-0.13210824
134	0xbe41c90c	-0.1892435
135	0x3e944184	0.28956234
136	0xbe8660f0	-0.26245832
137	0x3ea9f204	0.33192456
138	0x3ddb722e	0.107151374
139	0xbe15287a	-0.14566222
140	0xbe1a65ca	-0.15077892
141	0x3c2cf4fc	0.010556456
142	0x3d8da6f9	0.06916613
143	0xbde17acf	-0.11009752
144	0xbe6d33fe	-0.23164365
145	0xbf0b51ad	-0.544215
146	0x3e8ca9e1	0.27473357
147	0x3e599ab2	0.21250418
148	0xbd1a4cab	-0.037670773
149	0xbde8a6e2	-0.11359955
150	0xbed88334	-0.422876
151	0x3e03c549	0.12868227
152	0x3e688096	0.22705302
153	0xbed256ac	-0.4108175
154	0xbd48499b	-0.04889832
155	0xbd21f736	-0.0395424
156	0x3dc46871	0.09590233
157	0x3ec29942	0.3800755
158	0xbeded81b	-0.4352425
159	0xbeb12891	-0.34601262
160	0x3e8049ea	0.25056392
161	0xbd924d2c	-0.071436256
162	0x3c5b670d	0.013391268
163	0xbe9153f6	-0.2838437
164	0x3e1b3d01	0.1515999
165	0xbe0f2f21	-0.13982822
166	0xbd1c4968	-0.038155943
167	0xbc881a9b	-0.016614249
168	0xbe206021	-0.1566167
169	0xbe09576d	-0.13412257
170	0xbd81a7cb	-0.06330832
171	0xbd7fa672	-0.062414594
172	0x3d805d8d	0.062678434
173	0x3e75688b	0.23965661
174	0x3e52aa6f	0.20572828
175	0x3e203a1e	0.1564717
176	0x3da4c17c	0.08044717
177	0x3c817658	0.015803501
178	0xbdc5e52c	-0.09662852
179	0xbe5b7afa	-0.2143363
180	0x3ee3c23b	0.44484124
181	0x3e804e30	0.25059652
182	0x3d496cd1	0.04917604
183	0xbe04eb5c	-0.12980407
184	0x3e4d502e	0.20050117
185	0xbe26fd36	-0.1630753
186	0x3de7a2ef	0.11310374
187	0xbd6e73af	-0.058215793
188	0x3ebeaa9c	0.3723954
189	0x3d49aaf6	0.049235307
190	0xbea7dd91	-0.3278623
191	0x3d8a14da	0.06742258
192	0x3e4eca01	0.20194246
193	0x3d27575c	0.040854797
194	0xbd21e3f6	-0.03952404
195	0xbdece96a	-0.11567958
196	0x3d4f9d6b	0.050687235
197	0xbc9ec42e	-0.019380655
198	0x3d833264	0.064060956
199	0xbdcaff87	-0.09912019
200	0x3e3d3df6	0.18480667
201	0x3e4b283e	0.1983957
202	0xbd6b744e	-0.057483964
203	0x3e0c7b7b	0.13718979
204	0x3e817e07	0.25291464
205	0x3e3e21b3	0.18567543
206	0x3e476f87	0.19476138
207	0xbec80465	-0.39065853
208	0x3db3d624	0.087810785
209	0x3e137628	0.14400542
210	0xbe5ddbb5	-0.21665843
211	0x3e7b7bed	0.24558993
212	0x3d8d1d12	0.0689031
213	0xbdedf1c6	-0.1161838
214	0xbccba9a4	-0.024861164
215	0x3e8f075a	0.27935296
216	0x3ee9f00f	0.45690963
217	0x3eb8eb12	0.36116844
218	0x3d52046b	0.051273745
219	0x3e2ff8d8	0.1718477
220	0xbdf80b3a	-0.12111516
221	0x3e343f5c	0.17602295
222	0x3d5ea184	0.054353252
223	0xbde0a0cb	-0.10968169
224	0x3dbde637	0.092724256
225	0x3db43fe2	0.08801247
226	0xbc6098af	-0.013708278
227	0x3e6d560e	0.23177359
228	0x3ee0df14	0.43920195
229	0x3e986d15	0.29770723
230	0xbe8ab10b	-0.27088198
231	0xbdb3bfd1	-0.087768205
232	0x3ea3acfe	0.3196792
233	0x3ddb54ef	0.10709559
234	0x3da6e269	0.08148653
235	0x3d2da39b	0.042392354
236	0xbe3a3250	-0.18183255
237	0x3ecc1464	0.39859307
238	0x3d3735d8	0.044729084
239	0xbe2ca648	-0.16860306
240	0x3e59697b	0.21231644
241	0xbe56ba69	-0.20969547
242	0x3da1be4f	0.078976266
243	0xbd604d1c	-0.054761037
244	0x3dc214ff	0.09476661
245	0x3cab1b46	0.020887028
246	0xbd5e993d	-0.05434536
247	0xbe3c64f7	-0.1839789
248	0xbcdee7cf	-0.027210144
249	0xbcde657c	-0.027148
250	0x3dc0e93f	0.09419488
251	0x3d75af01	0.05998135
252	0x3e8d332c	0.27578104
253	0xbdf17d2d	-0.117914535
254	0x3e79ad7a	0.24382582
255	0x3ce947b4	0.028476574

layers.4.bias f4 [30]
0	0xbdcb46f9	-0.09925646
1	0x3e98cbc8	0.29842973
2	0xbe4d446c	-0.20045632
3	0xbe4adf25	-0.19811685
4	0xbf049997	-0.5179686
5	0x3d3d1730	0.04616469
6	0x3e26c032	0.16284254
7	0xbdc4e912	-0.09614767
8	0x3e4e59ad	0.20151396
9	0xbd2570ab	-0.04039065
10	0x3cf48fa1	0.029853644
11	0x3d40d675	0.047079522
12	0xbe80badf	-0.2514257
13	0xbe56842c	-0.20948857
14	0xbe8b5e02	-0.2722016
15	0x3edf14fa	0.4357069
16	0xb8c77104	-9.51011e-05
17	0xbe2719af	-0.16318391
18	0x3cfcf538	0.030878648
19	0x3e1653ba	0.14680377
20	0xbed0e7a4	-0.40801728
21	0xbf0d99b3	-0.5531265
22	0xbe3f8659	-0.18703593
23	0xbf74cee5	-0.95628196
24	0xbf3063f6	-0.6890253
25	0xbd8abcae	-0.06774269
26	0x3ee59379	0.44839075
27	0x3ecc1938	0.3986299
28	0x3e59abd5	0.21256955
29	0xbe617911	-0.2201884

layers.6.weight f4 [30, 30]
0	0xbdbb4283	-0.091435455
1	0xbe020de2	-0.12700608
2	0xbd0f8d5d	-0.035046924
3	0xbd79af81	-0.06095839
4	0x3c371395	0.011174102
5	0xbdff9ac1	-0.12480689
6	0x3deffe0a	0.11718376
7	0xbda7bf5b	-0.08190795
8	0x3db72e8e	0.089444265
9	0x3e2c9026	0.16851863
10	0xbe7566bd	-0.23964973
11	0xbc2ccd61	-0.010547013
12	0x3cce9376	0.0252168
13	0x3d8f5b6d	0.0699986
14	0x3d4473c1	0.047961954
15	0x3d914211	0.07092679
16	0xbd6b73c2	-0.057483442
17	0x3c6901d7	0.01422163
18	0xbac0f21c	-0.0014720592
19	0x3e34dddb	0.17662756
20	0xbd697be6	-0.057002924
21	0x3d8385c8	0.06422001
22	0xbdc0f715	-0.09422127
23	0xbd27b653	-0.040945362
24	0x3e8362cf	0.25661322
25	0xbdfbc2bc	-0.12293002
26	0xbe150f46	-0.14556608
27	0x3e0a6948	0.13516724
28	0xbe824e92	-0.2545057
29	0x3dd4fc61	0.103997
30	0xbe0bd52b	-0.13655536
31	0x3c1fe3f7	0.009758941
32	0xbe6fb061	-0.23407127
33	0x3d597616	0.05309113
34	0xbd326495	-0.043552954
35	0xbdef7b29	-0.11693413
36	0x3d3194b0	0.04335469
37	0x3d1d2c5b	0.03837238
38	0xbeb4fe43	-0.35350236
39	0xbd37bb3c	-0.044856295
40	0xbe0046b1	-0.12526967
41	0xbd84d46e	-0.0648583
42	0x3e212d01	0.15739824
43	0xbde21381	-0.11038876
44	0xbe01117e	-0.12604329
45	0xbdd628a2	-0.10456969
46	0x3e8ed37f	0.27895734
47	0xbe25c867	-0.16189729
48	0x3de5c140	0.112185
49	0x3e2c0235	0.16797717
50	0xbc0d3544	-0.008618657
51	0x3e5f1652	0.21785858
52	0xbd7fbe03	-0.06243707
53	0x3deba7f9	0.115066476
54	0x3bc019e3	0.005862461
55	0x3d2dc3b8	0.04242298
56	0x3e14699a	0.14493409
57	0xbddf99c3	-0.109179996
58	0x3b44bffa	0.0030021654
59	0xbcb43400	-0.021997452
60	0xbe4cd760	-0.20004034
61	0xbe04cfbe	-0.12969872
62	0x3d88ea67	0.06685334
63	0x3e5c0147	0.21484862
64	0x3e4dfb61	0.20115425
65	0xbda12662	-0.07868649
66	0x3dee927b	0.11649033
67	0xbdea6437	-0.11444896
68	0x3df88948	0.12135559
69	0x3e58b6ee	0.21163532
70	0xbc892980	-0.016743422
71	0xbbebbc43	-0.0071940734
72	0xbe17ea79	-0.14835538
73	0x3e2dcbd1	0.16972281
74	0xbe01e398	-0.12684476
75	0xbd6997ed	-0.057029653
76	0x3e3d9bae	0.18516418
77	0x3e2e0e11	0.16997553
78	0x3dbfdb8a	0.09368046
79	0x3d23c5f7	0.039983716
80	0x3d97b413	0.07407393
81	0x3ea5dd88	0.32395577
82	0xbdc7f49e	-0.09763454
83	0x3e7ed605	0.2488633
84	0x3d449afe	0.047999375
85	0x3e53eaab	0.20694987
86	0xbe38733e	-0.18012711
87	0xbdabf3b2	-0.083960906
88	0xbdf1ceae	-0.11806999
89	0x3d376b22	0.044779904
90	0x3dcd0e20	0.1001246
91	0x3e0b17de	0.13583323
92	0xbe865090	-0.2623334
93	0x3de7d21c	0.11319372
94	0x3d339761	0.043845538
95	0x3da14ad6	0.07875602
96	0x3dcfc429	0.101448365
97	0xbe7e82f7	-0.24854647
98	0x3e8ba71f	0.2727594
99	0x3ccedd94	0.025252141
100	0xbe11a45b	-0.14222853
101	0x3e15f20d	0.14643116
102	0xbde551e7	-0.11197262
103	0x3e7e9ee7	0.24865304
104	0xbe075633	-0.13216476
105	0xbe722443	-0.23646645
106	0xbe008aa1	-0.12552883
107	0x3e778e2d	0.2417533
108	0xbe584d04	-0.21123129
109	0x3c1fb8b0	0.009748623
110	0xbe587558	-0.21138513
111	0xbea8be45	-0.32957664
112	0x3ea38fca	0.3194564
113	0xbcee7648	-0.029109135
114	0xbd26f8c2	-0.040764578
115	0xbdc78bf7	-0.09743493
116	0x3deee44a	0.116646364
117	0x3e41ebd8	0.18937624
118	0xbe56af4b	-0.20965306
119	0x3e8751ee	0.26429695
120	0xbd14394c	-0.036187455
121	0x3d57df98	0.05270347
122	0xbe39dfc8	-0.18151772
123	0xbe815422	-0.252595
124	0xbdf7afe6	-0.12094097
125	0xbc41f250	-0.011837557
126	0x3e2f22fe	0.17103192
127	0xbe08794c	-0.13327521
128	0x3ebda4ba	0.3703974
129	0x3e063157	0.13104759
130	0x3d274588	0.040837795
131	0x3ddca4f6	0.10773651
132	0x3d19e5a9	0.037572537
133	0x3dfd2b70	0.12361801
134	0x3db2ac29	0.08724243
135	0x3e5993cf	0.21247791
136	0xbdf5ce43	-0.12002232
137	0x3cfff278	0.031243548
138	0x3b4861e4	0.0030575925
139	0x3e0385d4	0.1284402
140	0xbe083564	-0.13301617
141	0xbbef14e4	-0.0072961915
142	0xbdc4d9a0	-0.09611821
143	0xbcf8ef44	-0.030387528
144	0xbe4f2fd3	-0.20233087
145	0x3d2a3986	0.041558765
146	0x3d21094c	0.039315507
147	0x3e3c6aba	0.18400088
148	0x3e0abfc4	0.13549715
149	0xbde3c1e5	-0.11120967
150	0x3d123efb	0.035704594
151	0x3ec1ba1d	0.37837306
152	0xbed347eb	-0.41265807
153	0x3db3a52f	0.08771741
154	0xbd5261c7	-0.05136278
155	0xbe326e36	-0.17424855
156	0x3ea26c45	0.31723228
157	0xbe745531	-0.23860623
158	0x3e8cd489	0.275059
159	0x3e4bc4c0	0.19899273
160	0xbe8c4bf1	-0.2740169
161	0x3e6ac9e2	0.22928575
162	0xbec01aa8	-0.37520337
163	0xbe8adcfe	-0.2712173
164	0x3ea6bd4d	0.325663
165	0x3d69614e	0.056977563
166	0x3e1f90fb	0.1558265
167	0xbc05a81a	-0.008157754
168	0xbe3015ea	-0.1719586
169	0xbcc7bb09	-0.024381177
170	0x3e71f72b	0.23629443
171	0xbeb3693d	-0.35041228
172	0x3d4a0733	0.049323272
173	0xbd59184a	-0.05300168
174	0xbc20f865	-0.009824847
175	0xbcf04ed0	-0.029334456
176	0x3e18aeb3	0.14910392
177	0xbe4d3d3a	-0.20042887
178	0xbbf94808	-0.0076074637
179	0xbda3722b	-0.0798076
180	0x3d107a29	0.03527275
181	0x3de3bca5	0.111199655
182	0xbde8b344	-0.11362317
183	0xbc880bd8	-0.01660721
184	0xbeac571f	-0.33660218
185	0x3e0e1104	0.13873678
186	0xbc3b1a3e	-0.011419831
187	0xbe938451	-0.28811887
188	0xbe467181	-0.19379236
189	0x3e3e2eea	0.18572584
190	0xbe4ad9d5	-0.19809659
191	0x3dce93c9	0.100867815
192	0x3e4aad6e	0.1979272
193	0x3e466a19	0.1937641
194	0xbc81537f	-0.015786884
195	0x3e1c4245	0.15259655
196	0xbcd9b833	-0.02657709
197	0xbdb818d4	-0.089891106
198	0xbd42e3d4	-0.047580555
199	0x3c3bd4d9	0.011464321
200	0xbb398719	-0.0028309284
201	0x3dca6325	0.098821916
202	0x3e42947b	0.19001953
203	0xbc65f38c	-0.014035117
204	0xbda3bb70	-0.07994735
205	0xbce0baee	-0.027432885
206	0xbdb5428c	-0.088505834
207	0x3e2805d4	0.16408473
208	0xbd7f7820	-0.06237042
209	0xbd1696e4	-0.036764994
210	0xbe435d54	-0.1907857
211	0x3e1fb9b6	0.15598187
212	0x3c6b1bad	0.01434986
213	0xbe12046b	-0.14259498
214	0xbdc95d00	-0.098321915
215	0xbc674f03	-0.014117959
216	0x3d067e06	0.03283503
217	0xbe8ee563	-0.27909383
218	0x3d100b74	0.035167173
219	0xbcdee644	-0.027209409
220	0x38979a2a	7.2289564e-05
221	0xbde4604a	-0.11151178
222	0x3ea960f1	0.33081773
223	0xbdf573b9	-0.11984963
224	0xbe16792f	-0.14694665
225	0xbcd9f3bc	-0.02660548
226	0xbe9058f0	-0.28192854
227	0x3dbf3f6b	0.09338268
228	0xbdf6e68a	-0.120556906
229	0xbe14a2c0	-0.14515209
230	0xbcf59094	-0.029976167
231	0xbcbe1a68	-0.02320595
232	0xbd8ed9a0	-0.069751024
233	0xbe5829ff	-0.2110977
234	0x3e104db2	0.14092138
235	0x3e7c054e	0.24611399
236	0x3e77cc47	0.2419902
237	0x3cf4ade8	0.029868081
238	0xbe1f11e8	-0.15534174
239	0x3c5aaa72	0.013346301
240	0x3e81ae67	0.2532837
241	0xbd611170	-0.05494827
242	0xbd7e72c2	-0.06212116
243	0xbda66d15	-0.081262745
244	0x3ceefa3e	0.02917206
245	0x3d93c79f	0.07215809
246	0x3e84e715	0.25957552
247	0xbe3c9c55	-0.18419011
248	0xbe05bd4f	-0.13060497
249	0xbe5b8e8e	-0.21441099
250	0xbe2131b3	-0.15741615
251	0x3c9ce42e	0.019151773
252	0x3eafa537	0.34305736
253	0xbe06060e	-0.13088247
254	0xbe5f42e0	-0.21802855
255	0xbbe0d64e	-0.0068614846

layers.6.bias f4 [30]
0	0xbd9c71c9	-0.0763889
1	0xbd8749ff	-0.066059105
2	0xbe5924a5	-0.21205385
3	0x3be43352	0.0069641257
4	0x3e31f46b	0.17378394
5	0x3f23f9ee	0.6405324
6	0x3bdefa6e	0.006804756
7	0x3e8f906e	0.2803988
8	0x3eed062b	0.46293768
9	0xbe3a9f47	-0.18224822
10	0x3e0c7087	0.13714801
11	0x3ecfaba9	0.40560654
12	0xbdbc7069	-0.09201128
13	0x3e8b84f4	0.27249873
14	0xbe6fc61d	-0.23415418
15	0x3e4b2592	0.1983855
16	0x3c27a72c	0.010232728
17	0xbf28a11f	-0.6587085
18	0x3ee91e06	0.4553072
19	0x3e770e9b	0.24126665
20	0x3ec17ec5	0.3779203
21	0x3ecd874d	0.4014229
22	0x3eb78bd3	0.35848865
23	0x3d2cc38f	0.042178687
24	0xbc9d1296	-0.019173902
25	0xbe1c08b0	-0.15237689
26	0x3e0659a0	0.13120127
27	0xbe6cf9c8	-0.23142159
28	0xbcd41849	-0.025890486
29	0xbd705165	-0.058671374

layers.8.weight f4 [30, 30]
0	0x3dd16341	0.10224009
1	0x3d15ec15	0.0366021
2	0x3e331254	0.1748746
3	0xbe20cf4b	-0.15704076
4	0x3e15fd1d	0.14647336
5	0x3e2818d0	0.16415715
6	0xbe01d2f4	-0.12678128
7	0x3e8f83eb	0.28030333
8	0xbe2218cd	-0.15829773
9	0x3cf0b0a1	0.029381098
10	0x3d413ed9	0.047179077
11	0xbdc8b9ab	-0.09801038
12	0x3da42e63	0.0801666
13	0xbd86dbf3	-0.06584921
14	0xbcd699f9	-0.026196467
15	0xbe42630e	-0.18983099
16	0xbe0b96c9	-0.13631739
17	0x3e360879	0.1777667
18	0x3e766191	0.24060656
19	0x3d5ff1ac	0.054673836
20	0xbdebf6f6	-0.115217134
21	0x3d5c9d4d	0.05386095
22	0x3e4bbaf6	0.19895539
23	0xbd864f75	-0.06558124
24	0x3b3b9e8a	0.0028628432
25	0x3a0588cc	0.00050939317
26	0xbbd592c3	-0.0065177395
27	0xbc428ca6	-0.0118743535
28	0x3d8a3a61	0.06749416
29	0xbd5c6f38	-0.053817004
30	0x3ca73cc3	0.020414716
31	0x3cc56ae2	0.024098817
32	0x3e04adb5	0.12956889
33	0x3dfc7c2e	0.12328373
34	0x3cd6378a	0.02614953
35	0xbe50842d	-0.20362921
36	0xbba96a74	-0.005170161
37	0xbca4398d	-0.020046974
38	0xbe512650	-0.20424771
39	0xbbe0f1e5	-0.0068647736
40	0xbccb7d68	-0.024840072
41	0xbe2c5cab	-0.16832225
42	0x3e4ac0d0	0.19800115
43	0xbdabee78	-0.08395094
44	0x3e65331c	0.22382778
45	0x3eb9d5a3	0.36295804
46	0x3d84c999	0.06483764
47	0xbd9fce68	-0.07803041
48	0x3e40f31d	0.1884274
49	0xbc4feeb2	-0.012691187
50	0xbe35e2dd	-0.17762323
51	0x3c8c8c7b	0.01715683
52	0xbe6eeb4e	-0.23331949
53	0xbe8a71d7	-0.27039978
54	0x3ca22eca	0.019797701
55	0x3e37db09	0.17954649
56	0xbdb30c94	-0.087426335
57	0x3e1f6d84	0.1556912
58	0x3e1c8918	0.15286672
59	0x3c48a18e	0.012245549
60	0x3e6e8993	0.23294668
61	0x3e1b938e	0.15193006
62	0xbe57b6fc	-0.21065897
63	0x3bfdc877	0.0077448445
64	0xbcf62c86	-0.030050527
65	0xbe30693a	-0.17227641
66	0x3e5d632b	0.21619861
67	0x3da157a7	0.078780465
68	0x3eafee0d	0.34361306
69	0xbceb3445	-0.028711447
70	0x3d3c2a07	0.045938518
71	0x3ec5888d	0.38580742
72	0x3dbc3f0f	0.09191715
73	0xbc788051	-0.015167312
74	0xbbcde116	-0.006282936
75	0x3df411bb	0.11917444
76	0x3d773ecb	0.06036262
77	0xbe290c9b	-0.16508715
78	0xbe0ffdb4	-0.14061624
79	0x3e50b554	0.20381671
80	0xbd4f0d18	-0.050549597
81	0x3e5f9ea5	0.21837862
82	0x3ea8afe1	0.32946685
83	0xbe36cc16	-0.1785129
84	0xbd01f564	-0.031728163
85	0xbe1a29b4	-0.15054971
86	0x3dad6542	0.08466579
87	0xbe19506d	-0.14972086
88	0xbe3aad2a	-0.1823012
89	0xbed147ff	-0.4087524
90	0xbddbb528	-0.10727912
91	0xbbb4a87a	-0.005513248
92	0xbe68bc7e	-0.22728154
93	0x3e179633	0.1480339
94	0x3e26748e	0.162554
95	0xbea7e823	-0.32794294
96	0x3e27be8f	0.16381286
97	0x3e4b9490	0.19880891
98	0x3f1668c9	0.5875364
99	0xbe5d469b	-0.21608965
100	0x3e2e7697	0.17037426
101	0xbb67d514	-0.0035374807
102	0x3ce1f59a	0.027582932
103	0x3e8c148e	0.27359432
104	0xbe2996bc	-0.16561407
105	0x3e5e3a16	0.21701846
106	0x3e03b890	0.12863374
107	0xbe855962	-0.26044756
108	0x3e5906cb	0.21193998
109	0x3d840623	0.06446483
110	0x3d1204e9	0.035649214
111	0x3d9550ea	0.07290824
112	0x3e0b076b	0.13577048
113	0xbd3eae1a	-0.046552755
114	0xbdb428a1	-0.08796812
115	0xbe2d55f4	-0.1692732
116	0x3a7ade76	0.00095698924
117	0xbd179967	-0.03701153
118	0x3d5fe9e0	0.0546664
119	0x3cb9dbcc	0.022687815
120	0x3de9fdee	0.11425386
121	0x3d50edfc	0.05100821
122	0x3d1d090e	0.038338713
123	0xbcd0835e	-0.025453266
124	0xbdf4032a	-0.11914666
125	0x3e188206	0.1489335
126	0xbb972ac3	-0.004613252
127	0xbdc1d948	-0.09465271
128	0x3df6cd29	0.1205085
129	0xbd2100ee	-0.039307527
130	0xbe0423e4	-0.12904316
131	0x3c42185e	0.01184663
132	0xbcfaa243	-0.03059495
133	0xbdbe732e	-0.092993125
134	0xbd0c77d0	-0.03429395
135	0xbe11651a	-0.14198723
136	0x3d6a3c0e	0.05718618
137	0x3d106370	0.03525108
138	0xbe9876d1	-0.2977815
139	0xbe1d1342	-0.15339378
140	0x3e83ef88	0.25768685
141	0x3d1ef13e	0.038804285
142	0x3ce41e0a	0.027846355
143	0x3e1da2a3	0.15394072
144	0x3e508486	0.20363054
145	0x3a4d69f9	0.00078359206
146	0x3e339bbc	0.17539877
147	0x3de092dd	0.10965512
148	0x3d1b31e2	0.03788937
149	0x3e0b117c	0.13580889
150	0x3e6aa359	0.22913875
151	0xbe6c55f5	-0.23079665
152	0xbce9d6c4	-0.028544791
153	0xbdc8b695	-0.0980045
154	0xbcd89cec	-0.026442014
155	0xbdb5935e	-0.08865999
156	0x3e1a0c97	0.15043865
157	0x3d3fb36b	0.046801966
158	0x3e0f1fd0	0.1397698
159	0x3dc74de4	0.09731653
160	0x3e13c905	0.14432152
161	0x3dc9efca	0.09860189
162	0x3dd50b94	0.10402599
163	0x3e159502	0.14607623
164	0xbdb50759	-0.08839292
165	0x3e315aca	0.1731979
166	0xbcad0eae	-0.021125164
167	0xbe9d6ae7	-0.30745623
168	0x3e9fd105	0.31214157
169	0xbdefd9ba	-0.1171145
170	0xbc5f9e8d	-0.013648641
171	0x3edb5d87	0.42844793
172	0x3ea6eab8	0.3260095
173	0xbdc34116	-0.095338985
174	0xbd240d0c	-0.040051505
175	0x3e96e29b	0.2946976
176	0xbea75ccf	-0.32687995
177	0xbce06196	-0.027390283
178	0xbce18dca	-0.02753343
179	0x3e1b5f9d	0.15173192
180	0x3cb4f5a7	0.022089792
181	0x3e03fc07	0.1288911
182	0x3e42651e	0.18983886
183	0x3d68b1e1	0.056810264
184	0xbe32fba0	-0.174788
185	0xbce27e2b	-0.027648052
186	0xbdc037b9	-0.09385628
187	0x3deaaa5b	0.11458274
188	0xbe4a22ca	-0.19739833
189	0x3e63ae9d	0.22234578
190	0xbe9313c6	-0.28726023
191	0xbe23dade	-0.1600146
192	0xbd1a574e	-0.037680916
193	0x3d97d399	0.07413406
194	0x3e69cafc	0.22831339
195	0xbd79782f	-0.06090563
196	0xbe0addb3	-0.13561134
197	0xbd91d052	-0.07119812
198	0x3a7173fd	0.0009210704
199	0x3da1037e	0.07861994
200	0xbef7d976	-0.48408097
201	0x3e6666ee	0.22500202
202	0xbe3601c0	-0.17774105
203	0xbd00fc4f	-0.03149062
204	0x3e71dfab	0.23620479
205	0x3e2952f2	0.16535547
206	0xbe98f2a1	-0.2987261
207	0xbcb629fe	-0.02223682
208	0x3e44ff34	0.19237977
209	0x3cca0915	0.024662534
210	0x3db3e6d7	0.087842636
211	0xbe445ccd	-0.19176026
212	0xbe00f842	-0.12594703
213	0xbd39b12f	-0.04533499
214	0x3e49366d	0.19649668
215	0xbebbd07d	-0.366825
216	0x3d8c1ee8	0.068418324
217	0xbe8e637f	-0.27810284
218	0x3e8be935	0.2732636
219	0xbd6ee141	-0.058320288
220	0xbe59d002	-0.21270755
221	0xbbbf041b	-0.005829347
222	0x3d6b1192	0.057389803
223	0xbe461ef4	-0.19347745
224	0xbdd5ae09	-0.10433585
225	0x3e9d0026	0.30664176
226	0x3bbcbd6d	0.005759886
227	0x3da9405c	0.08264229
228	0xbe7f78e6	-0.24948463
229	0x3ddd295f	0.107989065
230	0xbde25007	-0.1105042
231	0x3be56c4c	0.0070014354
232	0x3e26df49	0.16296114
233	0x3e321a69	0.17392887
234	0x3d494611	0.049139086
235	0xbe9b4c17	-0.3033149
236	0x3e4803e9	0.19532742
237	0x3e3229db	0.17398779
238	0xbe061c66	-0.1309677
239	0xbe302da5	-0.17204912
240	0x3d162eac	0.036665604
241	0x3dfaf811	0.12254346
242	0xbe1775d2	-0.14791039
243	0xbe00ae45	-0.12566479
244	0x3d2c5705	0.042075176
245	0xbdcae979	-0.099078126
246	0x3e877d7e	0.2646293
247	0x3da4e994	0.08052364
248	0x3bea9c56	0.00715975
249	0xbda8271e	-0.08210586
250	0x3e035b96	0.12827906
251	0xbe8ff65e	-0.2811765
252	0xbe22cdc8	-0.15898812
253	0x3d9f9294	0.077916294
254	0x3d22caec	0.039744303
255	0x3e85ac8e	0.2610821

layers.8.bias f4 [30]
0	0xbd8aff07	-0.06786924
1	0xbecff439	-0.40616015
2	0x3e3777c4	0.1791678
3	0x3e56fa1a	0.20993844
4	0x3e4469d0	0.1918099
5	0x3e46cfd4	0.19415218
6	0xbe3a3940	-0.18185902
7	0xbe352971	-0.1769159
8	0x3daa7d5b	0.08324691
9	0xbe8b78e0	-0.27240658
10	0xbd81e012	-0.06341566
11	0x3e57beb8	0.21068847
12	0x3e700616	0.23439822
13	0x3ead9bee	0.33908027
14	0xbeb68d78	-0.35654807
15	0xbdc946b3	-0.09827938
16	0xbe240fd9	-0.1602167
17	0x3e7d76b4	0.24752313
18	0xbddea67d	-0.10871599
19	0x3da8a300	0.08234215
20	0x3ceb49d8	0.028721735
21	0x3dd06bb0	0.1017679
22	0xbcd5bf5d	-0.026092226
23	0x3ecefc1d	0.40426722
24	0xbe76c616	-0.24099001
25	0xbe4bcc0b	-0.19902055
26	0x3d30ecd9	0.043194626
27	0x3d3d01fc	0.04614447
28	0xbd9af452	-0.07566132
29	0xbe5805ef	-0.21096013

layers.10.weight f4 [3, 30]
0	0x3eb86735	0.3601624
1	0x3e966b7f	0.29378888
2	0xbe02db51	-0.12778975
3	0xbd156442	-0.036472566
4	0xbdd71798	-0.10502547
5	0xbd01f685	-0.03172924
6	0xbe89d4c2	-0.26920134
7	0xbee11af7	-0.43965885
8	0xbe8d830c	-0.27639043
9	0x3f074fd9	0.5285621
10	0x3f01405f	0.5048885
11	0xbf2dc992	-0.67885697
12	0xbeb6a894	-0.3567549
13	0x3f65a6e7	0.897078
14	0xbe7cdcae	-0.24693558
15	0xbe66c39b	-0.22535555
16	0xbd3152b6	-0.04329177
17	0xbe992e9a	-0.29918367
18	0x3e821453	0.2540613
19	0x3e001535	0.1250809
20	0x3e5249eb	0.2053601
21	0xbe0d128c	-0.13776606
22	0xbec066ee	-0.3757853
23	0xbe8a936d	-0.27065602
24	0x3e9df7ae	0.30853027
25	0x3effa2f4	0.4992901
26	0x3df4da07	0.11955648
27	0x3e4a3d1d	0.19749875
28	0x3df8d13b	0.121492825
29	0x3e563c3e	0.20921418
30	0xbde7efc5	-0.11325029
31	0x3e6a7d66	0.22899398
32	0xbed05d55	-0.40696207
33	0xbcea9a58	-0.02863805
34	0xbe76eb49	-0.24113192
35	0x3f199e81	0.6000748
36	0x3e9292d6	0.28627652
37	0x3d903ad5	0.07042471
38	0xbeeed7c0	-0.4664898
39	0x3e093dbc	0.13402456
40	0x3d1f30f3	0.03886504
41	0x3e9a5ac8	0.30147386
42	0x3eab9dbb	0.33518776
43	0xbf17fea5	-0.5937293
44	0xbf083a3f	-0.53213876
45	0xbe795a24	-0.24350792
46	0xbf3995e1	-0.7249432
47	0x3dcf9bc4	0.10137132
48	0xbe939405	-0.28823867
49	0x3dfdc0f8	0.123903215
50	0xbe2fbf97	-0.1716293
51	0xbe807bfc	-0.25094593
52	0x3d0f2721	0.034949426
53	0xbf0e3ad2	-0.555585
54	0xbdf85a47	-0.12126594
55	0x3d3d73c7	0.046252992
56	0x3de93a13	0.1138803
57	0xbe0446ac	-0.12917584
58	0x3eb94648	0.36186433
59	0x3e8d1235	0.27552953
60	0xbabcbdea	-0.001439986
61	0x3e87f758	0.26555896
62	0x3ecdede4	0.4022056
63	0x3f6d767b	0.9275891
64	0xbe964a5a	-0.293536
65	0xbe54df6a	-0.2078835
66	0x3e7848a8	0.24246466
67	0x3ef5ba69	0.47993782
68	0x3db0bdda	0.08629961
69	0xbd402602	-0.046911247
70	0x3e586a07	0.21134196
71	0x3d4b78e8	0.049675852
72	0x3dd9e130	0.10638654
73	0x3d0a0a36	0.033701144
74	0x3ebe1265	0.3712341
75	0xbd814024	-0.06311062
76	0xbe12e57c	-0.14345354
77	0xbe04db40	-0.12974262
78	0xbca3a9c6	-0.019978415
79	0xbdef7573	-0.116923235
80	0xbe00c6b5	-0.125758
81	0xbe32fd6a	-0.17479482
82	0x3e7e141d	0.2481236
83	0xbe84a8b2	-0.25909954
84	0xbd607951	-0.054803196
85	0xbeae23cc	-0.34011686
86	0xbc93e080	-0.018051386
87	0x3e6d61c9	0.23181833
88	0x3e0322b7	0.12806211
89	0x3e687f39	0.22704782

layers.10.bias f4 [3]
0	0xbdd68df5	-0.10476295
1	0xbbc48e28	-0.0059983917
2	0xbd0e1f11	-0.034697596
