PINN's/NAVIERSTOKES/Inverse/Models/NSInverse_0005_01.pth (torch, 20704 bytes, 12 tensors)

layers.0.weight f4 [30, 3]
000000 1c 4c 61 3e 7c 9b 8f bd 17 e2 02 bf ac 14 77 be
       0.2200169 -0.07012078 -0.51126236 -0.2412898
000010 de f5 ad bd a1 88 2d 3e 13 9b 86 3b de c3 0c 3e
       -0.08494161 0.16946651 0.0041078418 0.13746592
000020 00 79 1d 36 8e b0 24 3d a8 04 ca bc f1 59 04 38
       2.3465254e-06 0.04020744 -0.024660423 3.1555017e-05
000030 77 f9 92 be fa b3 69 be 00 98 76 be d9 92 30 be
       -0.28705952 -0.22822562 -0.24081421 -0.17243518
000040 0a 82 e1 3d 6d 89 2d 3e 78 1b 0d bd 6f 24 bd bd
       0.11011131 0.16946955 -0.034450024 -0.09235465
000050 92 51 65 35 68 81 4e 3d 8e 86 8e bc ea 37 15 3f
       8.542785e-07 0.05041638 -0.017398145 0.58288443
000060 37 47 54 be 4b f1 69 3d d9 4b d2 3e 03 29 2e be
       -0.20730291 0.05711488 0.41073492 -0.17007832
000070 2b 2a 44 be 48 bd 2e be 42 e0 1c 3e 6b 8c 07 3e
       -0.19156711 -0.17064393 0.15319923 0.13237159
000080 75 25 ae be 3e c6 1a 3e 17 d7 84 be eb 29 03 bf
       -0.34012952 0.15114686 -0.2594535 -0.51235837
000090 15 7b 7c be 7e cb e2 3d 57 87 2d 3e d7 eb 9c 3e
       -0.24656327 0.11073969 0.1694616 0.30648682
0000a0 17 30 c0 3d 53 0e 7b be a1 10 0a 3e 21 55 a2 be
       0.093841724 -0.24517183 0.13482906 -0.31705573
0000b0 02 db ac be fd 30 e3 be 3b 86 68 3e f5 b6 ad 3e
       -0.3376084 -0.44373313 0.22707455 0.33928648
0000c0 5c 54 a2 be d4 e1 09 bc 12 ed ce 3e 7a a8 53 3e
       -0.31704986 -0.008415658 0.40415245 0.20669737
0000d0 26 bf 75 3e aa d7 ad 39 0d c1 e3 3d a7 3f fd bd
       0.23998699 0.00033157814 0.11120806 -0.12365656
0000e0 e6 40 8d 38 7b 6c 0c bd a1 a5 56 be f3 3f af be
       6.735492e-05 -0.034283143 -0.2096162 -0.34228477
0000f0 31 ba c9 3e c9 d3 46 3e 28 8c ad be bd bd 05 3e
       0.39399865 0.19416727 -0.33895993 0.1306066
000100 0c 1a 19 be 08 81 c6 bd c5 c0 9c bd a3 b0 81 bd
       -0.14951342 -0.096925795 -0.07653955 -0.06332519
000110 7e 89 62 3e c8 d6 23 3e c6 f0 2a 3d f9 91 2d be
       0.22122762 0.15999901 0.041733526 -0.16950215
000120 93 b3 84 be 5b f2 69 3e ad 39 2b 3f e5 db 17 3f
       -0.25918254 0.22846358 0.6688488 0.5931991
000130 e6 e9 43 3e 9c 20 02 bf 72 94 54 3e 3b 63 84 be
       0.19132194 -0.5083101 0.20759752 -0.25856957
000140 ba e1 02 bf b0 fc 18 3f a0 bd 50 3e 96 20 02 bf
       -0.5112568 0.5976057 0.20384836 -0.5083097
000150 8d a7 05 3e 6b 25 1c be 5a 7c c6 bd 19 c7 e6 3d
       0.13052197 -0.15248649 -0.09691687 0.112684436
000160 d2 0c aa 3b 5b 99 2d be
       0.0051895166 -0.16953032

layers.0.bias f4 [30]
000000 a2 46 20 bd f6 73 9d 3f 25 67 96 be 92 96 19 bf
       -0.03912986 1.2301013 -0.29375568 -0.5999538
000010 cd 22 2d bf e5 a2 97 be 62 b8 9d 3d b6 f7 66 3e
       -0.67631227 -0.29616466 0.07701184 0.22555432
000020 b8 ed a1 be f6 94 44 bf 50 91 e2 3e 9a f4 2d 3e
       -0.31626678 -0.76789796 0.4425149 0.1698784
000030 b0 4d 71 be bd 7f 47 3e 12 32 85 bf a2 a3 04 3f
       -0.23564792 0.19482322 -1.0405905 0.51812184
000040 fa 40 ee be dc 55 11 bd 36 8e 44 3f f0 3a dc be
       -0.46533948 -0.035482273 0.76779497 -0.43013716
000050 21 f1 64 bf a7 d3 b1 3e 01 b5 d1 be 42 85 5c 3f
       -0.89430434 0.3473179 -0.40958408 0.86140835
000060 63 55 c0 3e 89 37 3d bf 2a 0c 32 be 78 77 82 be
       0.37565145 -0.73912865 -0.17387453 -0.25481772
000070 c8 9c b1 3e 6f 07 13 bf
       0.34689927 -0.5743322

layers.2.weight f4 [30, 30]
000000 21 b9 69 bc 97 57 60 3e 4a 05 d6 bd 5d 30 3d 3f
       -0.01426533 0.21908413 -0.104502276 0.7390192
000010 49 c8 db 38 92 98 c6 bd 13 68 65 be c0 28 22 3b
       0.0001048004 -0.09697069 -0.22402982 0.0024743527
000020 48 25 9c 3b be 46 d0 3b 50 be 9e 3c d0 7e 5c bc
       0.0047651865 0.0063560894 0.019377857 -0.013457969
000030 a0 f0 30 be 2a 25 19 3c ab 3e ae bb dd df e2 3b
       -0.17279291 0.0093472395 -0.005317529 0.0069236592
000040 17 1f 90 bb 0d 0b 80 3d 29 d8 80 bd 33 52 06 bc
       -0.0043982374 0.06252108 -0.06291229 -0.008198309
000050 ea 87 97 3d 87 c7 f7 3c 73 53 8c ba c9 3a c2 3e
       0.073989704 0.03024651 -0.0010706022 0.37935475
000060 36 8f 49 3b d7 35 32 3e e0 cf 68 3c 08 d1 41 3e
       0.0030755526 0.17403351 0.0142097175 0.18927395
000070 c9 dc dd bc af e2 87 3e 90 e7 1d 39 7b 49 64 be
       -0.027082818 0.26540133 0.0001505895 -0.22293656
000080 12 ad 75 3e 8e 6f cd 3e 3a d0 97 38 9d 79 f6 bd
       0.23991802 0.40124172 7.239026e-05 -0.12034915
000090 4b fe 56 3f 48 13 c6 ba 51 3c 96 3a 85 0d 2d 3a
       0.8398177 -0.0015111947 0.0011462067 0.0006601441
0000a0 c8 bc 8e bb 92 33 14 bc 3c 72 dd bd d3 4f 0e 3c
       -0.0043560006 -0.009045498 -0.10812804 0.008686024
0000b0 4e 10 91 3c 6a 62 0b bd b0 6b 01 bb 85 c2 3a bc
       0.01770797 -0.0340294 -0.0019748025 -0.011398916
0000c0 99 6a f8 bd 8c 1b 6e ba df 73 0f 3d da 74 0f 3c
       -0.12129707 -0.00090830843 0.035022613 0.008755887
0000d0 7c 40 b5 3b 98 a7 9b be ee 67 5d bb 64 74 9c bd
       0.005531369 -0.304013 -0.003378387 -0.07639387
0000e0 2a fe 44 3c 9d a4 be bd 46 5d e1 bb 78 ac c5 bd
       0.012023488 -0.09308741 -0.006877574 -0.096520364
0000f0 3c 1c cf 3a 36 2b 67 be ec 87 79 3f eb fc 9a bd
       0.0015801261 -0.22575077 0.97473025 -0.075677715
000100 ef ed 95 3a a1 60 9d 3c 86 5a 82 3e 2c 5e 35 3b
       0.0011438708 0.019211115 0.2545969 0.002767454
000110 43 40 97 3b 82 56 b8 3a 6c d8 11 3c f0 3d 06 bc
       0.004615815 0.0014063867 0.008901697 -0.008193478
000120 c3 9b 9b 3e a0 e1 76 3b 9d ad 07 3c 4e 88 19 3d
       0.30392274 0.0037671104 0.008281139 0.037483506
000130 28 ff 8e ba e2 89 4e 3d 58 37 0c 3d f2 fb b8 ba
       -0.0010909783 0.050424464 0.034232467 -0.0014113171
000140 d3 27 c7 bb b0 99 08 bd 85 3d 85 3a bf 6e 53 be
       -0.0060777455 -0.033349693 0.0010165429 -0.20647715
000150 c4 30 ed b7 d2 c0 40 3e 02 56 39 3c b4 bc 31 3e
       -2.827531e-05 0.18823555 0.01131201 0.17357141
000160 b9 ce fe 3c f2 d7 80 3e f5 8e 07 bc 6c 04 d2 3c
       0.031104432 0.25164753 -0.00827383 0.025636874
000170 1b 56 c9 3e 68 36 9f 3e 48 d2 d8 bb bd f0 0c 3e
       0.39323506 0.31096196 -0.0066168644 0.1376371
000180 8b 61 ac be cb 9e 18 bb 25 2d aa 3b 1e d9 8b 3b
       -0.3366817 -0.0023288007 0.00519337 0.0042678257
000190 ee 47 0a bd 83 34 cc 3c 82 64 80 be ea 73 39 bc
       -0.033760004 0.024927383 -0.2507668 -0.01131914
0001a0 1e 33 83 bb e6 ae f6 3d a0 03 b6 b8 31 1b 3e bd
       -0.0040038964 0.12045078 -8.6791115e-05 -0.04641265
0001b0 ac 3a 40 bc b7 d4 d6 3a bc 0b 92 bd 00 1b 9c 3d
       -0.011732738 0.0016390298 -0.071311444 0.07622337
0001c0 24 5a 94 3b ab 88 96 3e 26 ef 32 3b be 1a 70 bd
       0.004527347 0.29401144 0.0027303188 -0.058619253
0001d0 1f 3b 03 bd 6c 98 97 bd b4 51 97 bd 78 a4 75 3d
       -0.032038804 -0.07402119 -0.073886305 0.059971303
0001e0 d0 bf e8 3a f0 a2 ac 3e 8c c8 b8 be 0a 9b 13 3f
       0.001775736 0.3371806 -0.36090505 0.57658446
0001f0 18 b5 29 3a 8e cd 82 bc 8e fe fc 3e 4f e4 27 3b
       0.00064738235 -0.015967157 0.4941296 0.002561826
000200 6e 30 4f 3a 18 16 f3 3b 18 3a 16 bc e5 01 97 3b
       0.000790364 0.0074184053 -0.009169124 0.00460838
000210 c1 3a 08 3e 23 71 6d bb 2f 91 ec bb 32 06 2a 3d
       0.13303663 -0.0036230765 -0.0072194557 0.041509815
000220 71 8a 34 bb be 91 86 bc 15 28 b1 bd 61 40 0f 3c
       -0.0027548338 -0.016426917 -0.08650223 0.0087433765
000230 ff 89 05 3c bc 99 a1 3c 6a e0 4e 3b c1 50 88 3e
       0.008150577 0.019726627 0.0031566867 0.2662411
000240 cf 81 c4 3a cb 2c 6f bd a4 32 57 3b 71 14 74 bd
       0.0014992299 -0.058392327 0.003283658 -0.059589807
000250 21 23 a1 bc f6 cd 29 3e 48 d7 73 3b d3 37 16 be
       -0.019670071 0.16582474 0.0037207175 -0.14669733
000260 9e ec 39 bf c0 8b 22 3f e5 07 6d 3a 99 e1 bd bd
       -0.72626674 0.6349449 0.0009042009 -0.09271545
000270 b7 81 bc 3e 01 24 f2 39 01 89 a7 bb c4 69 22 bb
       0.36817715 0.00046184662 -0.0051127677 -0.002478228
000280 95 1a 0c bb 23 78 78 39 11 39 65 3e 51 99 5d 3a
       -0.0021378149 0.00023695877 0.2238505 0.0008453327
000290 8d 9e d6 3c 4d b3 07 3c f2 35 b0 ba 91 1b 18 3d
       0.02619865 0.008282495 -0.0013443811 0.037135664
0002a0 7c d8 9e bd 8d f3 14 bb cb d7 80 bc b2 1b 99 bc
       -0.07756135 -0.0022728175 -0.015727898 -0.018689964
0002b0 08 f8 b3 3b b5 68 cd bd 32 bf 5c ba 16 09 ac bc
       0.005492214 -0.10029737 -0.00084208243 -0.021000426
0002c0 6a 5a 0b 3b d2 a6 e9 bc b1 b2 8b 3c 7d f1 f5 bd
       0.0021263608 -0.028521929 0.01705298 -0.12008951
0002d0 a0 31 75 3b db 02 d8 3e 5b 5f e1 be 5c dd 80 3e
       0.0037413612 0.4218968 -0.44018063 0.25168884
0002e0 4a 36 12 bb 68 ec a7 be 7a 57 34 be be d4 f3 39
       -0.002231019 -0.3279755 -0.17611495 0.00046507077
0002f0 80 da ed ba 21 73 ce bc ae aa 55 3c 29 89 86 b9
       -0.0018146783 -0.025201382 0.0130411815 -0.00025660664
000300 8c 58 30 3e 0a e3 eb 3b 81 4f 5a 39 02 25 0c 3d
       0.17221278 0.007198696 0.00020819718 0.03421498
000310 75 4e b1 b9 aa 2a 49 bd bf 68 40 3e b8 f1 6e 3b
       -0.00033818526 -0.049112953 0.18789957 0.0036459994
000320 83 9e 6e bc e3 1f 33 bd 5a 4f 27 bb cc 31 5f 3e
       -0.014564159 -0.04373158 -0.0025529475 0.2179634
000330 6b 72 1a ba 86 24 cd bd 4c 12 af 3a c8 a7 d4 bd
       -0.00058916834 -0.10016732 0.0013356893 -0.10383564
000340 f3 37 4e 3d a0 a4 40 be 2a ae 7b bb 3d d5 d2 be
       0.050346326 -0.188128 -0.003840337 -0.41178313
000350 c2 23 58 3f 1a 62 67 3e 00 da ad b7 d3 7e eb bd
       0.8442956 0.22596017 -2.0724721e-05 -0.11498799
000360 b3 aa 33 3f c7 86 ab b9 57 3d b2 bb ae 75 4d bc
       0.7018234 -0.0003271608 -0.005439441 -0.012540264
000370 f3 9e f8 bb 46 fa 97 3a 00 df a1 3e 21 33 59 3a
       -0.0075873076 0.0011594973 0.31615448 0.0008285512
000380 5e cc 1c bc f2 c2 e2 bc 7d 4f 03 bb ce 79 9f bc
       -0.009570209 -0.027680848 -0.0020036392 -0.01946726
000390 dc 81 91 3e 24 cd ee ba b0 a0 31 bd 97 1d 57 3d
       0.28419387 -0.0018219096 -0.043366134 0.052518453
0003a0 3a 74 7a bb 92 f7 53 bf 4e 41 19 3b 67 9e e3 bd
       -0.003821625 -0.8279964 0.0023384872 -0.11114197
0003b0 a4 01 1d bc 03 60 c7 bd 87 51 4d bd 88 39 c4 be
       -0.009582911 -0.0973511 -0.05012658 -0.38325143
0003c0 7e 76 f1 ba 00 05 b7 3d 80 25 02 3e a5 07 c6 3e
       -0.0018422154 0.089365005 0.12709618 0.38677707
0003d0 b1 05 85 b9 98 df 82 3e 95 b7 d1 3e fd 5d bb 3b
       -0.00025371977 0.25561213 0.40960374 0.0057179914
0003e0 4f 8e 90 ba ec de 80 3c 47 33 16 bb 82 b8 2f 3c
       -0.0011028739 0.015731297 -0.0022918747 0.010725142
0003f0 f1 d4 57 3d d5 9c 71 bb 28 52 46 bc 56 c6 a7 3d
       0.05269331 -0.003686716 -0.0121045485 0.081921265

layers.2.bias f4 [30]
000000 2f 71 05 3e 2b 42 37 3e b2 7d 0b 3d 8e 56 54 3e
       0.13031457 0.17896335 0.03405542 0.20736143
000010 10 06 22 bf 15 e9 0c bf 65 33 9b be 68 7c 03 bd
       -0.632905 -0.55043155 -0.30312648 -0.032101065
000020 f8 5a f0 be f4 bc c4 be f8 61 81 3e d8 a0 2f 3e
       -0.46944404 -0.3842541 0.25270057 0.17151201
000030 84 49 2a be 3d 54 9b 3e 71 b0 5b be b7 f6 86 be
       -0.16629606 0.30337706 -0.21454026 -0.26360103
000040 2b 49 8f 3d b0 ad 47 3f 58 ac 01 3f 34 04 bd 3d
       0.069963776 0.779994 0.506536 0.09229317
000050 10 c1 33 be cd 7f ab 3e 96 65 07 3e 46 d5 9a be
       -0.17554116 0.33495942 0.13222346 -0.3024084
000060 2f 1f fe 3d 12 d6 45 be ea ae 0b 3f 35 2f 2d be
       0.124082915 -0.19319943 0.5456377 -0.1691254
000070 dc 02 db 3d fa 69 40 3f
       0.10693905 0.7516171

layers.4.weight f4 [30, 30]
000000 b4 84 87 be 28 75 ce bd 55 7b a2 bd 89 e1 05 be
       -0.26468432 -0.100809395 -0.0793368 -0.13074316
000010 94 98 cb 3d 31 0f 47 3d 61 50 d8 3e d4 ca ab 3c
       0.09941211 0.048598472 0.42248824 0.02097074
000020 f4 b4 06 3e b1 20 9a 3e e2 81 53 be d8 c5 49 3e
       0.13154966 0.30103067 -0.20655015 0.19704378
000030 8c 67 01 3e 4d 7f 89 3e 47 90 a3 3d 2c 89 9d be
       0.12637156 0.26854935 0.07986503 -0.30768716
000040 3a 9b bb 3d ec 11 93 be 7e 60 99 bd 13 7d 93 bd
       0.091604665 -0.2872461 -0.074891075 -0.072015904
000050 f2 2b bc 3d 48 69 4f be ec 6a 92 3e a1 6f c0 bb
       0.091880694 -0.20255005 0.285972 -0.005872682
000060 f4 64 d8 3d ed 4f 8e bd e0 2e e2 be 5c 0d 4e 3e
       0.1056613 -0.069488384 -0.44176388 0.20122284
000070 37 1d 80 3e 97 94 ce bc 23 c8 31 3e 71 c3 43 be
       0.2502229 -0.025217338 0.17361502 -0.19117524
000080 e6 84 6c bd 96 c1 67 bd 58 20 4f 3e 61 65 11 3e
       -0.05774393 -0.056581102 0.20227182 0.14198829
000090 0a 45 06 3e 3f 8c 68 bd 4c da 29 bd 22 7f a6 3b
       0.13112274 -0.056774374 -0.04146795 0.0050810734
0000a0 b2 50 86 bc a9 66 1a 3e 9b 94 98 bd 9c 3d 50 3d
       -0.0163959 0.15078224 -0.07450219 0.050840005
0000b0 ca db a5 bd a8 9a c0 bd 39 3b 53 3e 81 a9 6c be
       -0.08098562 -0.09404498 0.2062806 -0.23111536
0000c0 09 8d f0 bd b6 1c af bd d1 fe 47 be 43 ca 53 bd
       -0.1174565 -0.08550398 -0.19530798 -0.051706564
0000d0 0e af 41 3e 62 db 2d 3e aa 2c b2 bd 1f b6 f0 3d
       0.18914434 0.16978219 -0.08699925 0.11753487
0000e0 93 2f 22 be 2f 40 5b bd 78 c2 b1 3d 1f a6 c0 bd
       -0.1583846 -0.053528007 0.0867967 -0.09406685
0000f0 0b 5c 8e bd c5 59 00 be 20 08 1f 3d 47 bb dd 3d
       -0.069511496 -0.12534244 0.038826108 0.10826736
000100 48 b2 e9 be 2d b0 d8 be 07 69 f9 bc 35 4d 15 be
       -0.4564383 -0.4232191 -0.030445589 -0.14580233
000110 31 85 f4 bd 02 72 a6 be 40 04 ba 3b a2 13 89 be
       -0.11939467 -0.32508856 0.005676776 -0.2677279
000120 7a 36 a9 bd 8b ba 9e bd 26 75 6e be de df b0 3e
       -0.08262344 -0.07750424 -0.23286876 0.34545797
000130 50 04 ac be 13 78 4f 3e 35 7b b5 3d 04 90 e6 bc
       -0.3359704 0.20260648 0.088613905 -0.028144844
000140 dd d1 14 3e 8a 94 cd 3b 4d d3 94 bc 19 11 a0 3d
       0.14533181 0.0062738108 -0.018167162 0.07815761
000150 a0 2e d6 bc 06 d4 0c 3e 0e 3b 5b be 06 69 cc 3e
       -0.02614528 0.13752756 -0.21409246 0.39923877
000160 b9 a3 c0 3e 37 34 10 bf 4d b9 81 3d ba 1f 4c 3e
       0.3762491 -0.56329674 0.063341714 0.19933978
000170 31 c9 ac be 4f ae 4d bd 8d 57 84 3e 39 0f b3 3d
       -0.33747247 -0.05021506 0.25848046 0.08743138
000180 78 f3 3e 3e 32 37 5a be b4 50 a9 3e e4 de 96 3c
       0.18647563 -0.21310118 0.33069384 0.01841683
000190 0f 89 a8 3d 74 14 5f be f2 95 c0 3d 8c 54 2b 3d
       0.08229267 -0.21785146 0.094036 0.041828677
0001a0 67 e7 6f 3e d8 57 46 be 56 75 73 be 39 68 ad bd
       0.23428117 -0.19369447 -0.23775229 -0.084671445
0001b0 9e 57 97 be 9e 70 4d 3d 6c 8e 0e be 29 4b b5 bd
       -0.29559034 0.05015623 -0.13921517 -0.08852226
0001c0 13 45 62 be 11 7a 91 bc 59 0f d7 3c 31 b7 26 bd
       -0.22096662 -0.017758401 0.026252436 -0.04070205
0001d0 df 81 2b 3d 0e 32 8e 3e fa 58 09 be e8 8c 2a be
       0.0418719 0.27772564 -0.13412848 -0.16655314
0001e0 b8 15 08 be 38 7d 6a 3c a5 75 c2 bd 42 8f 15 be
       -0.13289535 0.014312081 -0.09495095 -0.1460543
0001f0 ab 82 36 3e ae 92 fc bd 57 57 51 bc 13 16 ec 3d
       0.17823283 -0.123326644 -0.012777171 0.11527648
000200 7b d9 a3 bd ee 82 02 be 4c 26 aa be 1c 26 1d bd
       -0.080004655 -0.12745258 -0.33232343 -0.038366422
000210 1a 42 3d 3e 72 95 33 be 89 e1 9f bd bf e0 28 3b
       0.18482247 -0.17537478 -0.07806689 0.0025768725
000220 a5 63 2b bc 1a ab ff 3d 3c 9b ac 3d 68 52 81 be
       -0.010460769 0.12483807 0.08428046 -0.25258183
000230 b7 d4 19 3d 92 3b f4 3d b0 32 48 3e c8 d4 2d 3d
       0.037556376 0.11925425 0.19550586 0.042439252
000240 54 ec b8 3c bd 02 05 3b c9 ba fe 3c c1 7c 5e bd
       0.022573628 0.0020295822 0.031094925 -0.054318193
000250 cb e7 19 3e 90 0a 6a 3e c3 9d 5b be bb 8c 10 bd
       0.15029828 0.22855592 -0.214469 -0.03529046
000260 58 07 52 3e 22 8b e4 bd 88 c9 9c be fa f6 c2 3b
       0.20510614 -0.1115935 -0.30622506 0.005949852
000270 e4 cc 3a bd 21 02 85 3e 37 15 da 3d 46 13 a4 3e
       -0.045605555 0.25978187 0.10648578 0.32045954
000280 de a5 a2 bd 6c 74 83 be 51 2a 9c 3e 66 f7 25 be
       -0.07941793 -0.2567476 0.30501035 -0.16207656
000290 ac fd 51 3e 7d 05 9a bd bf cd 2c be 66 84 30 3d
       0.20506924 -0.07520578 -0.16875361 0.043095015
0002a0 f6 cd b3 be 00 3f 18 3d 12 2d ad 3e d9 89 54 bd
       -0.35118073 0.037169456 0.33823448 -0.051889274
0002b0 c0 9b bc 3d 29 5b 04 be e6 79 83 bd 93 3d 3b 3d
       0.092093945 -0.129254 -0.06419735 0.04571302
0002c0 ab a2 4f be 88 b1 11 3f 37 02 ba bd 9b 73 f7 be
       -0.20276897 0.56911516 -0.09082454 -0.48330387
0002d0 2a a3 c2 3d 8f b1 05 bd a5 3d 4b 3e ba 16 05 3e
       0.09503777 -0.032640036 0.19847734 0.12996951
0002e0 0c b3 f2 bd a9 f3 51 be f2 69 d0 bd ff ab a6 3d
       -0.11850557 -0.20503105 -0.101764575 0.081382744
0002f0 01 d4 77 3d de 54 13 bd 61 dd 91 bd 88 5d da 3d
       0.060504917 -0.035969608 -0.07122303 0.10662371
000300 00 9e 5a bd 58 67 02 be 2c 5c 06 bb 69 f5 05 3e
       -0.053373337 -0.12734735 -0.0020501716 0.13081898
000310 9c 79 56 be 5c 09 af 3d 87 60 51 3e f0 eb e2 bd
       -0.20944828 0.08546707 0.20446979 -0.11080158
000320 b3 8d 97 bd eb 42 5b 3e b7 45 d3 bd f4 fb ec bd
       -0.07400074 0.21412246 -0.103160314 -0.11571494
000330 ad cd 32 3e 33 6a 7a 3e 97 cf 90 3e bf 90 1d bf
       0.17461272 0.24454574 0.28283378 -0.6154899
000340 95 62 d7 3d 29 cf 24 3c 91 82 4b be c4 41 8d be
       0.1051685 0.010059156 -0.19874026 -0.27589238
000350 c6 e6 6a bd c7 33 2a be ed 58 31 be 1e b1 00 be
       -0.05734899 -0.16621314 -0.17319079 -0.12567565
000360 6c fd be 3c 21 0c 26 bc 77 71 49 be 9c f4 f9 bd
       0.0233142 -0.010134728 -0.1967219 -0.12204859
000370 2b 9d 0e 3e 07 77 c6 3e 32 a5 88 bd 47 19 29 be
       0.13927142 0.38762686 -0.066721335 -0.16513549
000380 b3 87 29 be f7 44 6c be 69 ef 10 3e 03 24 96 bd
       -0.16555671 -0.23073183 0.14153828 -0.073310874
000390 25 9b 72 be be 3e 00 3e 85 ff da 3d 4e 21 35 be
       -0.23691995 0.12523934 0.10693268 -0.17688486
0003a0 11 e7 48 3e a2 f0 86 3e ab 24 cb 3d 3f f8 44 be
       0.19619395 0.26355463 0.09919103 -0.19235323
0003b0 59 cb 22 be a7 03 b9 3e 85 92 b7 3e 88 8b 80 be
       -0.15897883 0.361356 0.35853973 -0.25106454
0003c0 10 1e 4f be 01 dd 5d 3e e6 3b c1 3d e2 1b 2c 3e
       -0.20226312 0.21666338 0.09435253 0.16807511
0003d0 9d d1 9d bd 3f 14 98 be 63 27 22 3e 0b cc 31 bd
       -0.07705996 -0.29702947 0.15835337 -0.04340748
0003e0 04 cb ca bc 01 0c 4c be 7d a8 a7 bd 95 df 21 3e
       -0.024755009 -0.19926454 -0.081864335 0.15807946
0003f0 aa 48 4d be 51 cc 47 3e 4c 28 f1 bd dc 7d 34 3e
       -0.2004725 0.19511534 -0.11775264 0.17626137

layers.4.bias f4 [30]
000000 01 8f 39 be 11 5b d9 bd a4 05 37 3e d7 b4 b6 b9
       -0.18120958 -0.10613073 0.17873245 -0.0003484848
000010 08 45 00 3e 02 38 20 bf 68 9b ff 3e d6 8c 72 be
       0.12526333 -0.6258546 0.49923253 -0.23686537
000020 f0 41 f0 3d f6 9b af 3e 03 b6 ce 3e df 38 fa bd
       0.117313266 0.34298676 0.4037324 -0.122178786
000030 81 40 97 be e0 57 a4 3e 81 61 06 3e 32 4e 13 be
       -0.295414 0.32098293 0.13123132 -0.14385298
000040 f6 0e 17 bd 3a 78 2f bf 46 88 c2 bc ee 77 48 be
       -0.036879502 -0.68542826 -0.02374662 -0.19577
000050 8f 35 39 bf f2 e5 8b bd 01 d6 91 be 8b 7b 5f be
       -0.7234735 -0.06830968 -0.28483585 -0.21824472
000060 29 df 3a bf fd b5 81 be 97 5e 3c 3f 9a 8f c5 3e
       -0.72996765 -0.2533416 0.7358183 0.38586122
000070 79 59 9d be 7c a5 96 be
       -0.30732325 -0.2942313

layers.6.weight f4 [30, 30]
000000 de 46 2c be da bb b1 bd f9 6e 2d 3e 1a bb 96 3d
       -0.16823909 -0.08678408 0.16936864 0.073599055
000010 bf d9 ba 3d 0b 09 b4 bd e4 6e 63 3d 78 9f 46 be
       0.09123563 -0.08790787 0.055525675 -0.1939677
000020 4c fd de 3d c8 6c d1 3d af 46 21 be 53 68 82 bd
       0.10888156 0.102258265 -0.1574962 -0.063675545
000030 a8 ab 0f 3e b0 cf 08 be 39 a2 d1 bd 81 36 b9 3d
       0.14030325 -0.13360476 -0.1023602 0.09043599
000040 33 22 72 3d 34 2c e5 3d 91 e2 2d bd bd 52 55 3c
       0.059114646 0.11190072 -0.0424524 0.013020215
000050 d2 e8 f8 3d 60 dd ad 3c a2 cb 01 3e 5b 5f e5 bc
       0.12153782 0.021223724 0.12675336 -0.02799957
000060 cf 81 1e 3e dc e7 2b 3e f1 0a 88 bd 92 70 10 3d
       0.15479206 0.16787666 -0.06642712 0.035263605
000070 7c 3d 1e bd f5 14 7f 3e 8f 1e 8f be d4 be 96 3c
       -0.038632855 0.24910338 -0.27953002 0.01840154
000080 f3 1d 33 be 71 11 c8 3d 2e 42 c2 3d 3d 8b 4e bd
       -0.17491893 0.09768952 0.09485279 -0.050425757
000090 c1 8a 97 bc 14 a2 e1 3b fa bf a3 bd 14 65 59 be
       -0.01849878 0.0068857763 -0.07995601 -0.21229964
0000a0 23 6f 12 be ef 10 ea bd 10 4d 82 3d 27 24 39 3d
       -0.14300208 -0.11429011 0.06362355 0.045200493
0000b0 2a a4 0c 3e e9 52 33 3d 7a 05 20 3e a7 20 11 bd
       0.13734499 0.04378024 0.15627089 -0.03543153
0000c0 e7 d1 72 bd 13 74 32 3d f5 ba ef 3d e1 09 9d 3e
       -0.05928221 0.04356773 0.11705581 0.306716
0000d0 17 b3 0e be dc 40 84 3d da 3b 8d 3c f7 9a 26 3d
       -0.13935505 0.064576834 0.017240454 0.04067513
0000e0 a4 29 0f 3d c4 3a 6b be 21 5f aa 3d 24 61 43 3c
       0.03495182 -0.22971636 0.08318926 0.011925016
0000f0 e6 91 78 be bb d2 28 be f1 c2 91 3e 01 fe 6a 3e
       -0.24274406 -0.16486637 0.2846904 0.22948457
000100 b3 df 28 3e cd 36 80 3e bd bb 6c bd 4f 6a 16 bd
       0.16491584 0.2504181 -0.05779623 -0.036722478
000110 65 c8 f4 3c 2d 6a 04 be 2e cc 4f be cd 4a c3 bd
       0.029880712 -0.12931128 -0.20292732 -0.095357515
000120 7a e7 76 3d 06 4c d7 be a6 51 91 bd a8 51 86 3d
       0.060279347 -0.4205019 -0.07095651 0.065585434
000130 08 d4 7b 3d 7d 9a 8c 3e 46 b8 c9 be ef a2 f4 3d
       0.061481506 0.27461615 -0.39398402 0.119451396
000140 e6 59 67 3e 98 c9 d2 3d 56 f1 ed bd e2 cb 13 be
       0.22592887 0.10292357 -0.11618297 -0.14433244
000150 ef 57 51 3e da 55 62 bd f4 b5 29 be ec e5 10 be
       0.204437 -0.055257656 -0.16573316 -0.14150208
000160 0f 42 df bc 51 8b af 3e 3c 1f ac be d7 5b 41 bd
       -0.027253179 0.34285977 -0.3361758 -0.047206726
000170 d9 12 d2 be 76 60 24 3e df c0 d0 3c 10 78 7d be
       -0.41030005 0.16052422 0.025482593 -0.24752831
000180 f0 16 a9 bc c5 54 3b bd e7 4d 61 3d 62 f5 0b be
       -0.02064082 -0.04573514 0.055005934 -0.13667825
000190 37 b8 8f bc 14 e6 79 3d 76 25 4e bd 7c 4b 80 3e
       -0.017543895 0.061010435 -0.050328694 0.2505759
0001a0 bf 1a 85 bd 91 f5 81 bd 57 e5 ea be 4b d0 2d 3e
       -0.06499242 -0.06345666 -0.45878097 0.16973989
0001b0 97 e2 9b bd 7e 81 43 3d ef 13 fe bd 5c f8 98 bd
       -0.07611578 0.047730915 -0.12406146 -0.07469246
0001c0 0a 81 08 be 99 2f d0 bc 9f c2 35 3d 61 c4 c1 bc
       -0.13330474 -0.025413321 0.04437506 -0.023653211
0001d0 2a e9 44 3d f1 f4 93 3d 7f 90 57 bd 40 ce cb 3d
       0.048073925 0.07224453 -0.052628037 0.099514484
0001e0 f2 bf 0b be 2e 30 95 bd 17 87 db bd 8d 02 30 be
       -0.1364744 -0.0728458 -0.10719126 -0.17188473
0001f0 fb ec 1b 3e c9 e1 ff 3d 04 7f 96 3e 3a a0 0b 3e
       0.1522712 0.12494237 0.2939378 0.1363534
000200 48 3b d5 3d d9 13 03 3e 5f 92 85 3e 18 c4 93 be
       0.104116976 0.1280054 0.26088235 -0.28860545
000210 59 46 8c be 89 ed 03 3f a8 07 56 3e ef 9b 0d bd
       -0.2739742 0.51534325 0.20901358 -0.034572538
000220 cf 4c b9 be 2c c4 1e bd ee e0 77 3d 24 f2 78 be
       -0.36191413 -0.038761303 0.060517244 -0.2431112
000230 31 b0 b6 be fe 23 b9 bc 17 66 35 be bc 75 99 bd
       -0.35681298 -0.02260017 -0.17714725 -0.07493159
000240 88 bc 27 be 31 99 9e 3e 37 45 9b 3e 7c e6 83 3e
       -0.16380513 0.3097625 0.30326244 0.25761783
000250 63 b4 27 3e e1 f9 e4 bd 56 a5 50 bd 13 ff 01 be
       0.16377406 -0.11180473 -0.050938927 -0.1269496
000260 b0 e5 c7 be fb 6c 60 3e 0d 82 84 be c5 98 2e 3d
       -0.39042425 0.21916573 -0.2588047 0.04262616
000270 1f 59 62 3e 66 af 9f be ea c4 82 bd 06 07 3d 3e
       0.2210431 -0.31188506 -0.063852146 0.1845971
000280 d1 ca c2 3d 90 9b 50 3e f5 2c 02 be aa d9 2b be
       0.095113404 0.20371842 -0.12712462 -0.16782251
000290 54 9b 1c be 49 3d 0d bd a2 05 36 3e 7c aa 80 be
       -0.15293628 -0.034482274 0.17775586 -0.2513007
0002a0 94 98 91 be de 6a 83 3d cd 11 d4 3e 55 d1 ad 3b
       -0.2843672 0.06416868 0.4141983 0.0053044953
0002b0 6f 9f 8b bd b6 50 22 3e 0a a6 46 3c ad 8d b5 bd
       -0.06817519 0.15851101 0.012124548 -0.08864913
0002c0 f1 8c 5d be 9f db b7 bd 24 0b 48 be cc b9 33 bb
       -0.21635796 -0.08977436 -0.195355 -0.0027423976
0002d0 f7 ef 6c bd 68 05 73 3c 73 a8 3e 3e 15 9a 61 bd
       -0.057846036 0.014832832 0.18618946 -0.055078585
0002e0 47 78 02 be ac a6 86 be 0b 35 22 3e ee 84 fb 3d
       -0.12741195 -0.26299036 0.15840547 0.12281214
0002f0 18 3d 43 3c 80 a0 44 3e 6a 95 81 3c 2a 68 7e bd
       0.011916421 0.19201851 0.015818316 -0.062111057
000300 e7 cf be 3d af 8c b9 3d cd ff 10 be c9 a1 74 3d
       0.09316998 0.090600364 -0.1416008 0.059724603
000310 e3 82 0d be 78 68 c7 3d 6d 60 16 3d 03 8e 8a bd
       -0.1381946 0.09736723 0.036713053 -0.06765368
000320 6c c8 ec 3d aa be 98 bd 0b 0b ba 3d dd 5a 51 bc
       0.11561665 -0.07458241 0.090841375 -0.012778011
000330 49 bc bb 3d ea 6e 93 3d b2 28 05 bc 5b d9 1b 3e
       0.09166772 0.071988896 -0.008127378 0.15219633
000340 a2 6d cd bd 8a f6 37 be 02 cb fa bd 96 a4 80 bd
       -0.100306764 -0.17965141 -0.12245752 -0.06281392
000350 b4 f2 7a 3d 2a 05 5b be 8b 1b 21 3d 1c c7 e1 3d
       0.061266616 -0.21388689 0.039332908 0.11024305
000360 69 1b 46 3d cd 32 4f bd 2d 39 3b 3e 91 21 5c bc
       0.048365984 -0.050585557 0.1828353 -0.013435737
000370 ed ed bf 3d 14 0a 97 be ba 64 d1 3d 4a f0 d8 3d
       0.093715526 -0.29499876 0.1022429 0.105927065
000380 8c d8 1b be 11 fa aa 3d 3a fe 28 be d4 9e 94 bd
       -0.15219325 0.08348478 -0.1650323 -0.072568566
000390 8c 3e 32 be 1a 80 29 be 0c 7b ea bd a5 be 71 be
       -0.17406672 -0.16552773 -0.114492506 -0.23607881
0003a0 52 81 07 3e 6e 3a 4e be 74 67 0f 3e 64 7a 5e 3d
       0.13232926 -0.20139477 0.14004308 0.05431594
0003b0 26 05 8e 3e 0d f7 4b 3d e0 ed 0b be 24 20 f1 bd
       0.27738303 0.049796153 -0.13664961 -0.117737085
0003c0 79 e7 99 bd 7e 90 4d be b1 4b b8 3c 7f e9 17 3e
       -0.07514853 -0.2007465 0.02249703 0.14835165
0003d0 55 10 90 bd 12 72 5d be 1a 97 8e 3e 1f a1 8c be
       -0.07034365 -0.21625546 0.27849656 -0.27466676
0003e0 5d 51 00 3e 86 8e 94 3d 75 8a 23 3e 23 f8 63 3d
       0.12531038 0.07253747 0.15970786 0.055656563
0003f0 b8 23 27 3e de 56 9e be 59 75 13 be 72 41 0c bd
       0.1632222 -0.3092565 -0.14400233 -0.0342421

layers.6.bias f4 [30]
000000 d0 16 0c bd e4 c5 d6 3b 06 10 62 bc 58 f8 f5 3c
       -0.034201443 0.006554352 -0.013797766 0.030025646
000010 a5 e9 3a 3f 67 25 da 3e e0 4b 75 be cd 47 08 3e
       0.73012763 0.4260666 -0.23954725 0.1330864
000020 81 18 d9 3e b9 9e 28 be 49 24 cc 3e a7 fe 46 bd
       0.42401507 -0.16466798 0.39871433 -0.0485827
000030 42 05 fa bc db 69 fd 3e 97 a3 90 bd fc 37 dc 3d
       -0.030520085 0.49494824 -0.07062452 0.10752866
000040 3d 18 ae 3e 6d 08 39 be 64 46 0c 3f b8 e9 6d be
       0.34002867 -0.1806962 0.5479491 -0.23233688
000050 9c 90 54 3e fa b7 95 3d 40 e4 26 3e 2d 89 3b 3e
       0.20758289 0.07310481 0.16298008 0.18314047
000060 f6 09 af bd 73 08 61 3e b0 9a 53 3e 2d b8 1d be
       -0.08546822 0.2197588 0.20664477 -0.15402289
000070 ae fa 16 3d d2 0c e7 3d
       0.03686016 0.11281742

layers.8.weight f4 [30, 30]
000000 45 86 14 3e fc b2 89 bd 50 33 fa 3d e5 7b 80 bd
       0.14504345 -0.06723592 0.12216818 -0.06273631
000010 51 f3 d3 3e b9 0d 88 3e 4e 1e c5 bd c0 06 51 3e
       0.41396573 0.2657297 -0.09624921 0.20412731
000020 4d 9c f7 bc fb 97 36 bc 6f eb db bd 01 c9 c3 bb
       -0.030225897 -0.011144633 -0.10738265 -0.0059748893
000030 87 91 71 3e a7 d5 1a be b5 09 77 bc cd 91 e6 bb
       0.2359067 -0.15120564 -0.015077998 -0.007036424
000040 ca 61 6d be 69 00 59 3e 96 78 ba bc 0a a3 7f 3d
       -0.23181835 0.21191563 -0.022762578 0.062411346
000050 d8 e5 df 3d e6 04 ce bd 24 93 a3 3d df 6a a8 bd
       0.10932511 -0.10059528 0.07987049 -0.08223509
000060 a9 10 fc bd 3a 1c 04 be c8 2d 00 3d 42 f1 3f 3d
       -0.12307865 -0.12901393 0.03129366 0.04686094
000070 c5 12 02 3d 31 1d ea 3c 6a fe e2 3c 0b 95 ed 3d
       0.03175618 0.028578373 0.027709205 0.11600693
000080 5a 74 00 3e 65 98 30 3d ab 0f 16 be aa 7a f3 bc
       0.12544385 0.043114085 -0.14654414 -0.029721577
000090 8d cd 18 3d d2 5f 57 3d 6d 65 39 be 4e 1a 96 bd
       0.037305404 0.052581616 -0.18105097 -0.07329236
0000a0 c6 b7 2a be 83 63 aa bd 51 94 04 3e a1 03 a6 be
       -0.16671667 -0.083197616 0.12947203 -0.32424644
0000b0 5e 8c 5f 3e 00 d1 67 3e 2f a6 9c bd 9c 7b 10 be
       0.2183089 0.22638321 -0.076488845 -0.14109653
0000c0 70 81 db bd 61 64 d6 bd 36 b3 33 3e 53 9a 4f be
       -0.107180476 -0.104683645 0.17548832 -0.20273714
0000d0 3b 3d f8 3b 0b 16 cd bd aa aa cf 3d bf 43 5b 3c
       0.0075756586 -0.1001397 0.101399735 0.013382851
0000e0 46 8d b5 3d fa 79 16 3d ed ba aa 3d 15 02 6d bd
       0.088648364 0.03673742 0.083364345 -0.057863314
0000f0 87 01 12 3e ab 84 ea 3c 8d a6 1b be 83 29 a0 bc
       0.14258395 0.028627714 -0.15200253 -0.019551044
000100 9f 43 3c 3e 4e 3a 9b bd 3b ad 23 3e 52 99 3b 3d
       0.1838517 -0.0757948 0.15984051 0.045800515
000110 4f 03 8d bb ee 1a c0 3d cd cc 29 3b bd e1 95 3d
       -0.004303373 0.093801364 0.0025909424 0.07318447
000120 49 3b bd bd 5a 91 88 be 1f cb 22 be f4 5d af 3d
       -0.09239823 -0.26673394 -0.15897797 0.08562842
000130 4e 90 ac 3c 99 40 1c bd a7 e2 6e 3d 68 3b 70 3e
       0.021064904 -0.038147543 0.05832162 0.23460162
000140 22 9c 02 3e c0 e0 8c bd fd 24 17 be 26 41 39 bd
       0.12754872 -0.06878805 -0.14760204 -0.045228146
000150 eb 95 90 3d 98 f1 46 be 64 95 d3 3d 63 a1 99 bb
       0.070598446 -0.19428098 0.103312284 -0.0046884282
000160 4f 11 ea bc 9e b2 2d be 76 1d 43 be 6e cb 6f 3e
       -0.028572707 -0.16962668 -0.19054207 0.23417446
000170 58 09 d2 bc 34 66 f6 3d 6f ef ea 3d e9 d8 b9 be
       -0.025639221 0.120312124 0.114714496 -0.36298302
000180 be cd 10 3e 39 31 81 3e c1 e4 b1 bd e0 bc 0b bd
       0.14140984 0.25232866 -0.086862095 -0.034115672
000190 dd ea 51 be 55 04 91 bc 0e 1a 38 be 4b aa 9b 3e
       -0.2049975 -0.017702261 -0.17978689 0.3040336
0001a0 e8 31 da be 9e 27 5e 3e a6 98 c4 3e 52 48 99 3d
       -0.426162 0.216948 0.38397712 0.07484497
0001b0 f6 2b bd bd 85 46 22 3e a8 cd b4 3e ae 0f cc 3e
       -0.092369005 0.15847214 0.35313153 0.39855713
0001c0 19 cd b2 3d 9d fa 26 3e 8c 22 6c 3d 3e 4e 04 be
       0.087305255 0.16306539 0.057650134 -0.12920472
0001d0 7a c3 62 3d 9f 55 e4 be 01 21 2f bb 27 c3 cc 3e
       0.055362202 -0.44596574 -0.0026722553 0.3999264
0001e0 ac 2a a9 3d 3d 12 ea 3c db ae 10 3e da 12 cd 3c
       0.08260092 0.02857315 0.14129202 0.025033403
0001f0 52 05 93 bd 7c bf d0 3c 88 94 02 be f5 22 4e be
       -0.07178749 0.025481932 -0.12751973 -0.20130523
000200 c8 4b 18 3c 7d 6b 2b be 19 a0 88 3d 16 25 5e bd
       0.009295411 -0.16740222 0.06671161 -0.054234587
000210 da 7b 85 3c d0 66 91 bd 72 10 aa bd ad 98 67 bc
       0.016294409 -0.07099688 -0.08303918 -0.014135522
000220 ed 1a 89 3e 8e 0e 17 bc 7f 6d 06 3e f7 a9 27 be
       0.26778355 -0.009219779 0.13127707 -0.1637343
000230 88 5a f7 bc f8 c8 03 bd 37 49 10 3d d2 14 eb 3d
       -0.030194536 -0.03217408 0.035226073 0.114785805
000240 3e 65 3b 3e ba 56 06 bd 45 14 99 bb eb 62 34 3d
       0.1830034 -0.032797553 -0.004671606 0.044039648
000250 a7 1e 8a bd e7 43 08 3b 15 78 f2 3d 10 83 11 be
       -0.06744128 0.0020792426 0.1183931 -0.14210153
000260 14 50 c0 bd 97 61 86 be f9 18 cf ba a5 44 68 3c
       -0.09390274 -0.2624633 -0.0015800289 0.014176522
000270 f1 b9 51 3e 84 45 90 3c c1 9d 5d bd 93 c1 59 bb
       0.20481087 0.017611273 -0.054105524 -0.0033226951
000280 8a 5e 2e bd 84 93 7f bc 53 03 dc 3d a2 50 5a 3e
       -0.04257063 -0.015599135 0.107428215 0.21319821
000290 f0 cc a9 be 7b 2f 21 3c 1e 91 7a 3e 4c fc 18 be
       -0.33164167 0.00983798 0.2446942 -0.14939994
0002a0 53 5c 6c 3b 50 b4 52 be 22 40 c5 3d 87 e3 64 3e
       0.0036065772 -0.20576596 0.09631373 0.2235242
0002b0 4c d2 ad 3d b2 e7 6c 3e 36 90 97 3d 22 cc 8c 3e
       0.084873766 0.2313526 0.07400553 0.2749949
0002c0 1a e3 a0 3d 0e cf 7b bc 76 30 9d be 1f 08 0c 3e
       0.07855816 -0.01536919 -0.30701035 0.13674973
0002d0 2f 2b 27 bd a6 d9 01 3e 7a 02 e9 3d 23 e8 30 3d
       -0.040812667 0.12680683 0.113774255 0.043190133
0002e0 1e 7c a0 3e 2c 2a ff bc 78 66 d3 bd f5 36 17 3d
       0.31344694 -0.031148039 -0.10322279 0.036917645
0002f0 9c d0 13 3d d7 55 3a 3e b9 44 99 be 97 1d e1 bd
       0.036087617 0.18196808 -0.29935244 -0.10991972
000300 b0 97 1a bd a4 e3 17 3e 1b e1 2e 3e 48 ad 03 3c
       -0.037742317 0.14832932 0.17078058 0.008036919
000310 e3 78 c3 be 68 e0 d4 3d ff 31 bc bd fc 55 35 3e
       -0.38178167 0.103943646 -0.091892235 0.17708582
000320 45 db 8b bd dd c6 92 bd 65 6b 0a be 9c 85 be 3d
       -0.06828932 -0.071668364 -0.1351753 0.09302828
000330 44 5b b9 bb ae 12 4c bc 4c 87 f5 bd e9 c0 45 be
       -0.0056566317 -0.012455625 -0.119886965 -0.1931187
000340 66 48 86 3e 0b ff 87 bd 74 3d d4 3d 30 d7 1a be
       0.2622711 -0.066404425 0.10363284 -0.1512115
000350 ca 90 bb bd 5d c8 1e be 6c 56 78 3e 0d 8e 12 be
       -0.09158476 -0.1550612 0.24251717 -0.14312
000360 9c f8 41 3c 75 d9 96 bd b8 ef dc 3d 0a 12 a6 3d
       0.011839058 -0.073656954 0.1078791 0.081089094
000370 dc 5d c4 bd 58 1b 22 3d 33 49 b5 bd 62 cd 4c be
       -0.09588215 0.03957686 -0.08851852 -0.20000222
000380 b7 4a 80 3d b9 fe 90 3d 5a 5d b5 3d 18 28 8d 3d
       0.06264251 0.070798345 0.08855696 0.06892413
000390 28 ed c9 3d 5f 67 61 3d a3 c9 d0 bd c3 61 55 3e
       0.09859687 0.055030223 -0.10194709 0.20838074
0003a0 a4 dd c4 3d 3e 6a d9 3d 6e b6 6a bc 10 59 63 be
       0.09612587 0.10615967 -0.014325721 -0.22201943
0003b0 5e 47 be bd f5 2d ce 3d 88 f8 eb bd 1d ed 1f be
       -0.09290956 0.10067359 -0.11522013 -0.15617795
0003c0 9c 02 28 3d b2 dc 52 bd 9d 5b 94 bd c7 35 09 3d
       0.041018113 -0.051480003 -0.07244036 0.03349855
0003d0 90 b6 b5 bd 0b fb 7f be cb 60 61 3e f0 72 c7 3d
       -0.08872712 -0.24998109 0.2200958 0.097387195
0003e0 cf 97 dc bc a6 6f 3d 3c 26 da b2 b9 0c 32 6a bd
       -0.026927857 0.011562264 -0.0003411334 -0.057176635
0003f0 d4 f8 9d 3c 71 eb 14 be 99 02 44 3d e9 8b 5d bd
       0.01928369 -0.14542939 0.04785404 -0.054088507

layers.8.bias f4 [30]
000000 ad ec 99 bd 10 42 26 be 6e 74 3d be e3 7a 6a 3e
       -0.075158454 -0.16236138 -0.18501446 0.2289844
000010 2e 7f 80 3e 3f 18 73 bc f3 0a 84 3d 73 4c bf bd
       0.2509703 -0.014837324 0.06447401 -0.093407534
000020 38 2e b7 be 5b 59 56 be a8 44 b5 bd 4d 0e 67 3e
       -0.3577745 -0.20932524 -0.08850986 0.22564049
000030 27 8e c0 ba e1 9a 80 3e 8b 5a 9a bd 1e 8b 1d bd
       -0.0014690802 0.25118163 -0.07536801 -0.03846275
000040 8e bb 77 bd 3c fd 2b 3e 30 fa fa bd 35 cd 31 3d
       -0.0604816 0.1679582 -0.12254751 0.04340859
000050 2c 9d 6b bc 77 19 fc 3d 5e 11 1c be 32 38 69 bd
       -0.014380734 0.123095445 -0.15241 -0.056938358
000060 cf 2d aa be d2 40 68 3d 68 41 34 3d d9 8f 85 3d
       -0.33238074 0.056702442 0.04400769 0.065215774
000070 f0 b4 38 be 87 77 66 3d
       -0.18037772 0.056266334

layers.10.weight f4 [3, 30]
000000 b6 47 40 be 2f f9 08 be 43 4c 0d 3e 95 e1 d1 bd
       -0.18777356 -0.13376306 0.13798623 -0.102481045
000010 56 fa 94 bd de 7a ef 3e 31 28 08 bf b3 52 73 bd
       -0.0727431 0.46773428 -0.5318633 -0.05940504
000020 b5 1c c5 3e b6 ac 50 3d a0 00 f8 3e 28 6c a5 be
       0.38498464 0.05094596 0.48437977 -0.3230908
000030 71 49 15 3f e8 a0 ff bc 3d ee 85 3c 48 fe 9e 3d
       0.5831519 -0.031204656 0.016348952 0.07763344
000040 82 c1 86 3e 05 22 fb 39 e1 d0 e6 3d 37 9b af be
       0.2631951 0.00047899797 0.11270309 -0.34298107
000050 2c bf 97 3e 10 b4 ba bc 12 2c 6c be 0e ab c0 3e
       0.2963804 -0.022790939 -0.23063686 0.37630504
000060 a3 a9 ce 3e 51 35 6c 3f e2 eb 04 3d 8d 64 a0 3d
       0.40363798 0.92268854 0.032451518 0.078316785
000070 c8 c2 be 3d 1f 8f 15 3f f2 d4 8a 3e 68 90 6a 3d
       0.09314495 0.5842151 0.2711559 0.057266623
000080 73 5d 86 3e f6 fd 8d 3f 1d 4c 9a bd 21 32 f7 3d
       0.2624317 1.1093128 -0.07534049 0.12070108
000090 7b 9d 14 3e 62 a6 95 3e c7 1b a1 3e 38 17 33 be
       0.14513199 0.29228503 0.31466505 -0.17489326
0000a0 bc ee 3a 3e 08 d1 90 3d 1b 39 84 3e 8b 58 10 bf
       0.18255132 0.070711195 0.25824818 -0.56385106
0000b0 c4 52 8b be 89 80 42 be 9a a8 18 3f 2b ce 75 bd
       -0.27211583 -0.18994345 0.59632266 -0.06001107
0000c0 b0 ad be 3e de a9 b5 bd f1 13 8d 3c 7d 2d 09 be
       0.37241888 -0.0887029 0.017221423 -0.13396259
0000d0 57 89 c3 bc a8 38 41 3f 00 e4 0c 3e fc c2 8a be
       -0.0238692 0.75477076 0.1375885 -0.27101886
0000e0 bd b3 44 be c1 95 a4 be 72 62 a7 be 50 b3 27 bf
       -0.1920919 -0.32145503 -0.32692295 -0.65507984
0000f0 a5 fb a8 ba 57 46 70 be 05 9e c8 bd 21 94 de be
       -0.0012892379 -0.23464333 -0.09795765 -0.43472388
000100 18 5a 7c be da e9 5a 3e a9 46 1b 3d 65 78 2f bd
       -0.24643743 0.2137827 0.037909184 -0.042839427
000110 6d 4d b1 3d 11 72 6f 3d 53 36 62 be 3d 07 4a 3d
       0.08657346 0.05845839 -0.22091036 0.04932331
000120 40 a3 e9 3e 2b ff 53 be 30 40 9f 3d a7 0f d9 3d
       0.45632362 -0.20702808 0.07775915 0.105986886
000130 15 72 34 3e c0 74 59 3f c3 f9 bf bd 48 64 23 3f
       0.17621644 0.8494377 -0.0937381 0.6382489
000140 03 7e 78 be bc 78 7b be dc 3e e1 bc a7 fe b7 bd
       -0.2426682 -0.24557775 -0.027495794 -0.08984118
000150 45 5f e0 be 44 1c 59 be c5 b4 54 be 3a d7 bb bd
       -0.43822685 -0.21202189 -0.20772083 -0.091719106
000160 e9 c3 99 bc 21 6d fe 3d
       -0.018770175 0.124231584

layers.10.bias f4 [3]
000000 7b 45 b2 be 70 a7 fa bd 69 c1 80 bd
       -0.34818634 -0.122389674 -0.0628689
