BURGERS/POINT_20NEURONS_9LAYERS/20_45.pth (torch, 17524 bytes, 17 tensors)

layers.0.weight f4 [20, 2]
00000000: 9874 e1bd 9573 b63e 85c9 623e b874 4f3d
00000010: fc76 01be 3e75 6ebe 11a3 8f3e 5bb3 c1be
00000020: f71e ef3e 8c4f 0f3e f275 f93e 678a 973d
00000030: 0f39 f6bd 8c5e 8fbe a955 80bd cae9 fbbe
00000040: de8b 9fbe a0bd 013e a9ac 223f cf17 13bf
00000050: 6471 393f acec 6abe f86e 3e3e f580 633e
00000060: f93f 71be a86a 0fbe b50c 53bf b544 803e
00000070: 0c07 e8bd dd64 2bbe 088e 5b3b f296 e93e
00000080: b1d0 363f e2fc 333d 8532 813f f266 f8be
00000090: da0f c13e 1e2a d73d d757 00bf 34a9 923e
-0.110085666 0.35635057 0.22147186 0.05064842 -0.12643045 -0.23286912 0.28054097 -0.3783215
0.46703312 0.13995188 0.48722798 0.07399445 -0.12022602 -0.2800182 -0.062663384 -0.49201804
-0.31161398 0.12669992 0.6354471 -0.57458204 0.72438645 -0.22941846 0.18597019 0.22217162
-0.2355956 -0.1400553 -0.82441264 0.2505242 -0.11329469 -0.16737695 0.0033501405 0.45622975
0.7141219 0.04394234 1.0093542 -0.4851604 0.37707406 0.1050608 -0.5013403 0.28644717

layers.0.bias f4 [20]
00000000: c8c4 3e3f 4cf8 0a3f b074 c9be 71e4 a8bd
00000010: 5a3a 3abf ae89 223f 492a 313f cdd8 0d3e
00000020: 69f5 05bf 045d c1be 2fb4 fbbe 55d0 9a3e
00000030: d499 eb3d b377 9b3e f6d0 ab3e 9cd2 113f
00000040: a632 813d 5018 6ebc e789 30bd 5c38 a6bd
0.74519014 0.5428512 -0.39346838 -0.08246697 -0.7274529 0.6349133 0.6920515 0.13852234
-0.5232759 -0.37766278 -0.49160907 0.3023707 0.1150395 0.3036476 0.33557862 0.5696199
0.063084885 -0.014532164 -0.043100264 -0.081162184

layers.2.weight f4 [20, 20]
00000000: 6324 d4be 72a9 d4be 62ce 013f 9eed b7be
00000010: cbf1 87be e646 86be e67f 13be aec6 6d3e
00000020: 6238 be3e 9f44 b93e 4c78 e0bb be81 87be
00000030: 009b 35bf 5371 babd 8633 12bf d02f afbe
00000040: d29d 5f3e 7081 8c3e 1029 e0bc fcd3 4e3e
00000050: ac1b 6ebe e215 273e 1ded 123e 49f8 c43b
00000060: a16a 423e 528d 043f 8844 453d c031 373e
00000070: 5792 2bbe 6380 d13c c7eb d23e 8486 c53c
00000080: 4a7a dcbd 2dde 3abd 8d9b a1bd 22a8 f5bd
00000090: 7229 8fbe 2205 09bd 24e3 183d e092 da3e
000000a0: 63a6 11be a689 793d 89a6 42be e836 1b3e
000000b0: b5e5 273d 5f20 95bd c91e d8bd a50c c5bd
000000c0: 61f4 593e 9b16 87bd a09c 093d 9b95 2c3e
000000d0: 0adf 853b 18f9 f03d e767 d4bd 7391 3c3e
000000e0: ea21 2d3e 874c ae3e fdcc a3be e160 4bbe
000000f0: 39a6 ec3e d195 093f d9ac 4dbf 0237 623d
00000100: 9893 883f 64fa eb3e 608d 18bf 5f56 b53d
00000110: e336 c3be 98c5 f2be 5b4d c23e 7b4a 993e
00000120: e219 483e 0534 aebe c2af b3bd a72e 843e
00000130: bd7f 78be e5eb 99be eb98 313d 3512 bebe
00000140: f223 57be 582b 523e 303a e4bc d082 deba
00000150: 3d42 fb3e 4129 cb3d b094 513d 727b b7be
00000160: 86da 63bd 411a 6cbe 8698 b83d fd6f 273e
00000170: 6693 f53d 6d7c 3b3d 2f6d f33d 234c 903b
00000180: 346d b1be 132f e33c f70c 98bd 647b 49be
00000190: f89e 793d 00db c43e 98dc 8bbe 3a7e 0f3d
000001a0: 7d34 39bc a064 123e bf7c ee3d 83fa be3d
000001b0: 45c8 68be 2dd4 793e c84e fd3a 588c fd3d
000001c0: 9969 a63e 3c9f c8be 9597 53be a3dc 48be
000001d0: 413f 453e 883f a83d 6ed3 f1bd d199 373e
000001e0: 3f46 173d b428 ab3e 4d16 7cbe 3a33 363e
000001f0: 9edd 753e 8b90 c23d 87da e8bd 9720 cdbe
00000200: c9ef 81bd c76e 83be 13aa 35be f934 0b3e
00000210: 9dad 803e 72c6 0e3e 1dd8 813e 3cd9 e23e
00000220: 0dd7 0dbe 432e 97be 6642 093e f65e ccbd
00000230: 0bdc dc3d 275c b03e d8b6 b5be b8e4 d83d
00000240: 6441 463e 50f3 2c3e b5b0 40be 3b41 3abd
00000250: dbc4 99bd 63c8 a53d f6a9 d2bd 0798 5c3e
00000260: e0a8 013e 2244 f9bd 19e1 a2bc 48d9 083d
00000270: 6f0a 863d cbbe e63d 59bc 353e 0f52 383d
00000280: 5bf9 57bd 4532 753e bd8a dfbd fbc9 f1bb
00000290: 4362 203e 1dee 243e e2b0 c0bc b19d 123e
000002a0: 2d3f e2bd f8a8 1fbe d6fb d83e 7301 873c
000002b0: 690b 9a3c d6b2 24be 4781 7abe cac1 fc3d
000002c0: c442 fbbc 4bed 87bd 11ee 3bbd 3214 993e
000002d0: e0d0 06bc da2d 5b3d 8108 babe 377e f33e
000002e0: bdd7 b43d e2bc 18be 2e05 6fbd 8256 413b
000002f0: 078d aabe 4f9f c0bd 4310 cdbe 1454 513e
00000300: a057 b93e 3aea bf3e d4fc 84bd fd04 803e
00000310: e294 223e 9d5e 873d f450 2bbe 1a23 f7be
00000320: 0496 4a3f 3a8b 8fbf 1be0 843f 7726 83be
00000330: 1558 91bf 53e2 83bf 2bd5 873e 82ee a2be
00000340: ac5c 963f 8f81 15bd 491f afbf b839 3bbf
00000350: 8169 4bbf c87f 5e3f 851e 94be 3cfa 5b3e
00000360: a4f4 4f3f b655 a5bf 486b 833f e758 9a3e
00000370: 8332 dfbd 12f9 6b3e 428c 8fbe 2e65 383e
00000380: 0eac 933b ff37 c93d 07b4 85be 9cd6 9bbd
00000390: 01a3 1ebf b2c1 843e 823e c03e 1192 61bb
000003a0: 8527 dd3c d784 18bf 117f ef3d 08bd b43d
000003b0: 787f fd3b fc53 8f3e 5bca 3abe d39b a73e
000003c0: 1010 bbbd 5dc4 873c 96d9 1bbe 1c27 d2be
000003d0: 1c2c fa3d 4e93 a03e a14f 143e d2a7 f73d
000003e0: 61ad f23c 5b8e 473d b659 c33d 1f9b c8bd
000003f0: 66ea 62be b564 3bbe 22bf f0bd 9343 a63d
-0.4143401 -0.41535527 0.5070554 -0.35923475 -0.2655166 -0.26225966 -0.14404258 0.23220322
0.37152392 0.36185166 -0.006850278 -0.26466173 -0.70939636 -0.09103646 -0.5710987 -0.34216166
0.21837547 0.27442503 -0.02736333 0.20198053 -0.23252743 0.16316941 0.14348264 0.006011043
0.18985988 0.5177814 0.04816106 0.17890072 -0.16755043 0.025573915 0.4119551 0.024111994
-0.10765512 -0.04562204 -0.07890997 -0.119949594 -0.27961308 -0.03345216 0.037325993 0.42690182
-0.14223628 0.060922287 -0.1900884 0.15157664 0.04099055 -0.07281565 -0.10552747 -0.096215524
0.2128463 -0.065961085 0.033596635 0.16853945 0.004085426 0.11766261 -0.1037138 0.1841486
0.16907468 0.3404276 -0.3199233 -0.19861175 0.46220568 0.53744227 -0.8034187 0.05522824
1.0670042 0.4608947 -0.5959072 0.088543646 -0.38127813 -0.47416377 0.37949643 0.29939637
0.19541124 -0.34024063 -0.087737575 0.25816843 -0.24267478 -0.30062786 0.043358725 -0.37123266
-0.21009806 0.20524347 -0.027859777 -0.0016976241 0.49073973 0.09919978 0.05116719 -0.3583637
-0.055628322 -0.2305689 0.090134665 0.16351314 0.11991005 0.04577296 0.118860595 0.0044036075
-0.34653628 0.027732408 -0.07424348 -0.19675976 0.06094262 0.38448334 -0.27316737 0.03503249
-0.011304018 0.14296198 0.11644887 0.09325125 -0.22732647 0.24397345 0.0019325847 0.12380284
0.3250244 -0.39183986 -0.20663293 -0.19615416 0.1926241 0.082152426 -0.11807905 0.1792977
0.036932226 0.33429492 -0.24617882 0.17792979 0.24010321 0.09500226 -0.11369806 -0.40063927
-0.063445635 -0.25670454 -0.1774066 0.13594426 0.25132456 0.13942888 0.25360194 0.44306362
-0.13851567 -0.29527482 0.13404235 -0.0997905 0.10784157 0.34445307 -0.3549106 0.105905
0.19360882 0.16889691 -0.18817408 -0.045472365 -0.0750825 0.08094861 -0.10286324 0.21542369
0.12662077 -0.121711984 -0.019882726 0.03341034 0.06544959 0.112668596 0.1774763 0.045000132
-0.05272804 0.23944958 -0.10915134 -0.0073788143 0.15662484 0.16106458 -0.023521844 0.14317967
-0.11047206 -0.155918 0.42379636 0.016480183 0.018804269 -0.16083845 -0.24463378 0.1234165
-0.030671485 -0.06637057 -0.045881335 0.2989822 -0.008228511 0.053510524 -0.36334613 0.47557232
0.08830211 -0.14915803 -0.05835455 0.0029501026 -0.3331072 -0.09405386 -0.4005147 0.2044223
0.36199665 0.37483388 -0.06493536 0.25003806 0.15877107 0.06609843 -0.167301 -0.48268968
0.79135156 -1.1214364 1.0380892 -0.25615284 -1.1355006 -1.0303444 0.26529822 -0.31822592
1.1747031 -0.03650051 -1.3681422 -0.73134947 -0.7945786 0.8691373 -0.28929535 0.21482176
0.81232667 -1.2916782 1.0267115 0.30145952 -0.10898306 0.23044232 -0.28036696 0.18007347
0.0045065945 0.098251335 -0.26113912 -0.07609293 -0.61967474 0.25929028 0.3754769 -0.0034419338
0.026996383 -0.595777 0.11694158 0.08825117 0.0077361427 0.27993762 -0.18241255 0.32736072
-0.09133923 0.016573125 -0.15219721 -0.41045463 0.122154444 0.31362385 0.14483501 0.12092556
0.02962369 0.048719745 0.095385954 -0.09795212 -0.22159728 -0.18300135 -0.11755206 0.081183575

layers.2.bias f4 [20]
00000000: 30cc c2be 8acc debd 6285 a13d 09b2 e0bd
00000010: 3a9b be3e 20ef 2d3e e154 8d3e 91fe 233e
00000020: 4926 fcbd 1dd9 103e 0971 3dbe c8ac 453e
00000030: 9d9d b8bc ae94 863e 9d8c 4cbc 146d 07bf
00000040: 15df a53e d3ab 923e 890d e9bc 147d 2ebe
-0.38046408 -0.108788565 0.07886769 -0.109714575 0.37227803 0.1698575 0.2760382 0.16015078
-0.1231199 0.14145322 -0.1850015 0.19304192 -0.022536093 0.2628531 -0.012484697 -0.52900815
0.3239676 0.28646716 -0.028448837 -0.17039901

layers.4.weight f4 [20, 20]
00000000: d7d4 09bf ce0e 19be 2377 093e 9ebf 033e
00000010: 4b69 6d3e 2d56 14bd 97b6 4a3e 9294 a43d
00000020: 29d0 ae3c 1506 0e3f 2ef5 b6be 0e68 de3e
00000030: 2ae0 ad3d 06f5 d6be f45a 2e3d 343f 713e
00000040: 46b8 aa3e b73b ac3e 75c3 c7bd 575d 31bc
00000050: e529 4cbe 31a4 94be 4134 cd3d 8cf2 373e
00000060: be0d 5c3e db7b be3c 2d86 8f3e 028c 90bc
00000070: 844e 223e ee53 35be 3bea 1cbe 72ee c5bd
00000080: 73ee 8cbe b6a6 31bd 7bef 413e 91c3 fdbd
00000090: b340 823e 5d4b c43c 296e fd3d c648 5dbe
000000a0: eadf 00bf 79cc 16be e212 553e ff15 52be
000000b0: c705 d43d af29 5fbe b0aa 833d cb85 cfbc
000000c0: 490a c8bd 4f92 22bd b56d 863e 1ee6 933e
000000d0: 3433 44be cea3 933e d35f 123d dda2 2fbe
000000e0: 4204 94bd f361 493e cf09 22be c3d7 e53c
000000f0: d171 063e 52c7 89bb 1548 b13e 1fb0 9abe
00000100: f7ee da3c 7938 3d3d 8f53 aa3d 0b8b 4dbe
00000110: 2c16 1fbe 76c0 233e 9b59 f83e 6669 d9bd
00000120: bb0e 1bbd be3a 2b3e da5e c83e cc6b b1bd
00000130: 2b8a 52be 4220 e73d 1d13 39be 9fd4 143e
00000140: 65d1 dcbd c177 92bd db95 11bd 6677 e8bd
00000150: bc15 5d3e 8f91 923e 07e3 713e 0980 463e
00000160: e885 6abd fdb0 da3d f432 babd b7aa d63d
00000170: 86f5 e9bb 9f75 90be 499e efbd b2c7 9e3c
00000180: 1cd5 ce3d e5f6 b23d 1721 373e 531a 0cbd
00000190: 714d 3a3c c856 4b3e aca6 79bc 6663 ab3c
000001a0: 1662 543d 781f 3dbd b472 873e 0e48 ce3c
000001b0: b09d 2fbe 290a c8bd 1224 3e3e 5d47 393e
000001c0: cdbc 4dbe 661e 503e 8b88 daba 81b9 2dbd
000001d0: 9189 dabd 56a1 203d 47ea d23d 851e 42be
000001e0: e630 343e 4006 803d ceb0 32bd de59 a5bd
000001f0: b5ae 0f3e 5d4a 1b3d c5fb 103c 2693 febc
00000200: 970e 5bbe f957 33be 6e6a 773d 378d a6be
00000210: d30c 8dbd 42cf 15be 156f c93d 38de a83d
00000220: 18a8 8dbe 99cf 33be 29e2 3d3e 305f 813e
00000230: bdf9 c33e a9aa c73d 5bbc 993c f122 b33d
00000240: 3b8d c1bd 21aa 98bd b086 14bf a011 33be
00000250: aa8c 143e 95b7 01be 895f 893d c5fa 903d
00000260: 709d 243e f6ac a53d 08e6 3f3d e269 b93e
00000270: a5b2 b1be cc3f 0c3e 9f73 1fbe fb67 2b3e
00000280: 70cc 063e e349 003d 3a5c afbd e2b8 593d
00000290: 77d9 28be 3208 753e c11c 973d 936c 1f3d
000002a0: 431e a03e 4645 673b a012 8dbd 2796 f93d
000002b0: ada9 dbbd 2c19 b3be 2bc0 26be 5774 a0bc
000002c0: 5b63 febd ad36 30be 7300 6c3d ff62 503e
000002d0: 39cf 3e3e a4d3 44bd e024 88bd 58e5 d8be
000002e0: ca5a 52be d1a6 853e f3cd 19be 6ab3 10be
000002f0: a0e7 a13d 1c4c 0abd 54c0 4b3e a092 2d3e
00000300: a7b4 24be 2df6 3abe 4dc3 163e 23b7 0a3e
00000310: d98d b63d f892 323d e44f f1bd 01f4 923e
00000320: 77c9 7cbe 61d9 05be b2a2 5b3e 0f20 2dbe
00000330: 73ef 76bc cce4 663e d63f 74be 3bb0 edbd
00000340: 1625 99bd 47ac 7a3c 68a9 fa3e 5cc8 683e
00000350: c53e 4fbe f613 55be f0d3 0d3e 7030 bcbd
00000360: 92c4 b3be e39c 24be 9724 72be 972e 8a3e
00000370: d602 6bbd b0a3 8ebd aa4a b3bc 2ce9 43be
00000380: cf49 cc3b 5813 1ebe 3824 67be c568 78be
00000390: 31d4 12bd 7e72 39be 2e08 103d a890 c13c
000003a0: 49bb d43d c7bc 473e 3716 a33d 3ce6 2cbe
000003b0: fcd6 8ebe 82f1 26be b30a d3bd e787 443e
000003c0: 1753 963d 71c8 583d 1887 a9be e3fc 873c
000003d0: 22ca 873d 2638 6d3e 1baa 923e 70f5 9b3d
000003e0: a82d dd3e cbe9 3abf a37c 57be 6097 f03d
000003f0: 5bda 303e 7b7d c13e 237f 82be 347c f43c
-0.5384039 -0.14947054 0.13424353 0.12866065 0.23184697 -0.036214996 0.19796215 0.0803615
0.021339493 0.5547803 -0.35733932 0.43438762 0.084900215 -0.41983813 0.04256721 0.23559266
0.33343714 0.3363931 -0.09754077 -0.010825477 -0.19937856 -0.29031518 0.10019732 0.17963618
0.21489617 0.023252418 0.28032055 -0.017644886 0.15850264 -0.17707798 -0.15323727 -0.096646205
-0.27525672 -0.04337188 0.18939011 -0.12390817 0.25439987 0.023961717 0.12374527 -0.21609792
-0.50341666 -0.14726438 0.20807984 -0.20516203 0.103526644 -0.21793245 0.064290404 -0.025332352
-0.09767587 -0.039690312 0.26255575 0.28886503 -0.19160157 0.2883591 0.035735916 -0.17151971
-0.072273746 0.19666271 -0.15824054 0.028056985 0.13129355 -0.004204669 0.34625307 -0.30212495
0.026725275 0.046196435 0.08316719 -0.20072572 -0.15535802 0.15991387 0.48505864 -0.10615806
-0.037855845 0.16721627 0.39134866 -0.08663139 -0.2056052 0.112854496 -0.18073697 0.14534234
-0.10782126 -0.071517475 -0.035543304 -0.113508984 0.21590322 0.28626677 0.2362176 0.19384779
-0.05725661 0.10678289 -0.0909175 0.1048178 -0.0071398644 -0.28214738 -0.117001124 0.019382332
0.10099241 0.08738498 0.17883717 -0.034204792 0.0113710025 0.19857323 -0.015237492 0.02092142
0.051851355 -0.04617259 0.264547 0.025180843 -0.17149997 -0.09767563 0.18568447 0.18093629
-0.20091553 0.20324096 -0.0016672773 -0.04241324 -0.1067077 0.039216362 0.10298591 -0.18956955
0.17596778 0.06251192 -0.043625645 -0.080737814 0.14031489 0.037912715 0.008849089 -0.031076025
-0.21392284 -0.17514028 0.060404234 -0.32529613 -0.06887212 -0.14629844 0.0983564 0.0824551
-0.27667308 -0.17559661 0.18543305 0.25267935 0.38276473 0.09749348 0.018766573 0.08746899
-0.09450766 -0.074543245 -0.58018017 -0.17487192 0.14506784 -0.12667687 0.06707675 0.070790805
0.16075683 0.0808963 0.046850234 0.36213595 -0.34706607 0.13696212 -0.1557145 0.16738884
0.13163924 0.031320464 -0.08562513 0.053154834 -0.16489206 0.23928908 0.07378531 0.038921904
0.31273088 0.0035289093 -0.06888318 0.121868424 -0.107257225 -0.34980142 -0.16284244 -0.019586725
-0.12421294 -0.17208357 0.057617616 0.20350264 0.18633737 -0.0480534 -0.06647658 -0.42362475
-0.20542446 0.26103833 -0.1501997 -0.14130941 0.07905507 -0.03376399 0.19897586 0.16950464
-0.16084538 -0.18257971 0.14722939 0.13546424 0.08913774 0.04359719 -0.11782816 0.28701785
-0.24686228 -0.13071205 0.21448782 -0.1690676 -0.015071738 0.22548217 -0.23852476 -0.11605879
-0.07477777 0.015299863 0.48957372 0.22732681 -0.20238788 -0.20808396 0.13850379 -0.09188926
-0.3511091 -0.16075473 -0.2364677 0.2698867 -0.05737575 -0.06964815 -0.021886189 -0.19131917
0.0062343846 -0.15437067 -0.2257241 -0.24258716 -0.035846893 -0.18110082 0.03516405 0.023628548
0.10387284 0.19505607 0.079632215 -0.16884702 -0.27898395 -0.16303065 -0.10304775 0.19192468
0.07340067 0.05292553 -0.3311088 0.016600078 0.06630351 0.2316595 0.28645405 0.07615173
0.43198895 -0.7301299 -0.21043639 0.117476225 0.17270796 0.37791047 -0.25487623 0.02984438

layers.4.bias f4 [20]
00000000: 4289 1abe 1792 3b3e cb5a a63e 392e 283e
00000010: 0f08 713c 8edc 903e 4b35 8d3d 7d5e eabe
00000020: 4851 f1bd 409c 473c e5c3 eabd 6614 32be
00000030: 9611 d2bd c40e e73d 5cee dc3d 1e9a 593e
00000040: fb01 d7bc 650e 323d 8573 793e 53b0 40bd
-0.15091422 0.18317448 0.32491145 0.16423883 0.014711394 0.2829327 0.068949305 -0.45775214
-0.11783081 0.012183249 -0.11463145 -0.17390594 -0.102572605 0.11282113 0.10787651 0.21250197
-0.026246062 0.04347076 0.24360473 -0.047043156

layers.6.weight f4 [20, 20]
00000000: f6c5 aabc 3b00 9fbc 8710 243c 391a 043f
00000010: b5ea 363d c489 d6bc 988c af3e 8c39 80bc
00000020: 517c 1dbe e8e6 5cbd 1067 463e 123d 9abd
00000030: 3305 d6be 2149 573d 43a0 c4bd 6446 603d
00000040: fc69 bd3b 1dbd 313f 0e87 4a3e acaf f4be
00000050: 793e 4b3e fa57 02be 88f2 863c 4f6f 1fbe
00000060: 558e e53d 6566 0fbe f2ee 9bbc 9903 dd3d
00000070: dc1a 16bc a8d6 bebd ccee 27bd d958 4fbd
00000080: aa25 08be c67e 893d b2a3 9cbd 83d2 36be
00000090: cfc8 bf3d 3d01 403e 986e be3a f632 d33d
000000a0: 754a 373e 6103 933e 04aa c43d 364c 37bb
000000b0: 28f6 043e 4229 273e b53e b3bd c71d 8d3d
000000c0: 3349 8d3d 7cac c2be 224c abbd 810f 5bbe
000000d0: 0eb9 3f3e 3107 643e 9243 65be 757f 803b
000000e0: 5490 573e 7f18 3abd 7ca4 ab3d eab0 9dbe
000000f0: 475e 3dbd afc6 b4bd 3ccc f1bd 0fd5 c03d
00000100: d4ef 073e aa2f 01bd f3a3 843c 2176 29be
00000110: 97ad 1d3e dd0d a13d d5ce 233e 1a11 f03b
00000120: fab8 91be a124 5d3d 53a7 e93c 5c7c 9ebd
00000130: d3bb 9d39 1f8c 073c 1aa6 1dbe b303 74bd
00000140: d990 e93d d27b 833d 71c3 d4bd 6d21 f13d
00000150: 70bb 783e 4be0 6a3d 3352 913d 757d c3bd
00000160: 8bb4 7b3c c7c9 3e3e 476b 343e 874a 1c3c
00000170: a2b4 d33d f17a 8cbe ae8e 57be 603c 89be
00000180: 7e61 58be 099b 7c3d a752 cb3c 9592 c23d
00000190: 3bee fe3d 17af 233e b5d4 523e b702 2cbe
000001a0: 090d 683e 4746 bd3b 75df e83d 8074 a3be
000001b0: be62 c83d fc09 33be 6085 793d c413 7a3d
000001c0: 9edb f6bc 0557 a7bd b13b d43d 4855 7dbd
000001d0: b341 a0bd c1b6 46be 5acc f23c f0ea 8e3e
000001e0: df64 b13d 4a9c 95be 52b5 063e 2dd8 8e3c
000001f0: f071 c2bd ef42 18bd e220 e03d de9e 253e
00000200: 17b2 9c3c 3b39 8dbd 3c6b 1dbe 3643 003e
00000210: f5dd c73d 1785 c03c d336 4a3e 3bb7 603e
00000220: ae39 25be 64d9 263e c2cd 2b3e d328 fc3d
00000230: ce00 173b 458c 8cbd 3804 2dbe b880 47be
00000240: 3b92 82be 6f09 4ebe ad2c debd 0d0b 39be
00000250: 0f2b 133e 5768 793e 10e4 33be 1f8c c73d
00000260: 823e a83d a9a0 2cbe 89dc 0cbe b532 ebbb
00000270: 0e14 a6bd ee3c 13be 3eec ea3a f41c ebbb
00000280: 5a1e 45bd 5de5 0f3e 0f2b 333d b896 283e
00000290: 6980 c33d 8516 88bd b795 e8bd 1626 37be
000002a0: d557 9f3d 8643 0f3e b8fb b73c c2ad a13c
000002b0: 0afd ea3d 7982 273e fdf5 363e 9e0a 41be
000002c0: 4a3e 7f3c 9263 a4bd a84d 18be e893 d43d
000002d0: fae0 debe 73ac 9abc 76bd 103b 78f1 963e
000002e0: a7d6 3dbe dadf 693e 28b9 acbc 6f32 12be
000002f0: f622 d3bb b7ff 4a3e 9140 6ebd a229 5f3e
00000300: d23c de3e 6ce1 833c 3627 cc3c 6be4 373e
00000310: 7123 86bd ddc1 343e c087 8dbd 2d1b 283e
00000320: 4352 4c3e 42b6 633d b0bf 4d3e 9fb8 eb3d
00000330: 45a8 133e 931e b3bd 9c18 19be c127 61be
00000340: c002 34bd c26f 39be d5d7 58bd d058 9abb
00000350: c194 17bd ecd5 ecbd 0d47 c5bd b281 5abe
00000360: ddce b93c d1d6 aebe cfb9 973e eaa9 11be
00000370: 9286 6d3e 593b 953e aff8 783e e73e e53c
00000380: d12a 0dbe 3c29 593d cdfc 2c3d 7940 f13b
00000390: e31c 93be 4119 64be e448 f5bd 56fe 1d3e
000003a0: 2b8f 813d bfd6 4e3e 0304 063e e0b6 d8bd
000003b0: 07f5 863d 117a 963d 5bda a13d 8c4d cd3d
000003c0: 5319 30be 3cab 5c3d ba52 cabd c994 9abd
000003d0: e84c c3bd e1a4 993c 38ff 193e 8827 a93d
000003e0: 4ecb 29be 5f95 c23c 359b 65be a54b f6bd
000003f0: 7cbe e33d 74e2 713e 5e8b 5e3e b93a 6c3e
-0.020846348 -0.01940929 0.010013706 0.5160251 0.044657428 -0.026188739 0.34286952 -0.01565244
-0.15379454 -0.053931147 0.19375253 -0.075311795 -0.41800842 0.052559976 -0.0960088 0.05475463
0.0057804566 0.6942919 0.19778082 -0.47790277 0.1984805 -0.12728873 0.01647307 -0.15569805
0.11208788 -0.14003904 -0.019034836 0.10791702 -0.009161677 -0.09318286 -0.04099922 -0.05062184
-0.13295618 0.06713633 -0.0764841 -0.17853741 0.09364473 0.18750472 0.0014528809 0.103124544
0.17899497 0.28713515 0.096027404 -0.002796901 0.12984526 0.16324332 -0.08752195 0.06890445
0.06898727 -0.3802222 -0.083641306 -0.21392633 0.18722937 0.22268368 -0.22389057 0.003921444
0.2105115 -0.045433518 0.08380982 -0.30799037 -0.046232488 -0.088269584 -0.11806533 0.09415638
0.13275081 -0.031539597 0.016191458 -0.16548969 0.1539825 0.07863972 0.15996869 0.0073262574
-0.28461438 0.05399001 0.02852217 -0.077385634 0.00030085313 0.008273154 -0.15395394 -0.05957384
0.114045806 0.06420101 -0.1038884 0.117739536 0.24290252 0.05734281 0.070957564 -0.095454134
0.015362869 0.1863166 0.17619048 0.009539253 0.10337187 -0.27437547 -0.21050522 -0.26803875
-0.2113094 0.06167129 0.024819685 0.095006146 0.124477826 0.1598476 0.20588954 -0.1679791
0.22661223 0.0057762 0.11370746 -0.3192482 0.097844586 -0.17484277 0.060918212 0.061054006
-0.030134019 -0.081708945 0.10362948 -0.06184891 -0.07825031 -0.19405653 0.029638458 0.27913618
0.08661818 -0.29220802 0.13155106 0.017437065 -0.09494388 -0.037173208 0.10943772 0.16173884
0.019127889 -0.068956815 -0.15372938 0.12525639 0.09759132 0.023500962 0.19747476 0.21944897
-0.16135284 0.16293865 0.16777709 0.12312474 0.002304125 -0.06862692 -0.1689614 -0.19482696
-0.2550219 -0.20120786 -0.10848365 -0.18070622 0.14371894 0.24356209 -0.17567468 0.09743523
0.082150474 -0.16858162 -0.13756002 -0.0071776756 -0.08109294 -0.14378712 0.0017923189 -0.0071750823
-0.04812465 0.14052339 0.043742236 0.16463745 0.09545977 -0.0664492 -0.11356681 -0.17885622
0.077804245 0.13990602 0.022458896 0.019736174 0.114740446 0.16358365 0.17867275 -0.18851706
0.015578816 -0.08026804 -0.14873374 0.103797734 -0.43531018 -0.018881058 0.0022085584 0.294811
-0.18538915 0.22839299 -0.021084383 -0.14277051 -0.0064433767 0.1982411 -0.058167044 0.21793225
0.43405777 0.0160987 0.024921041 0.17958228 -0.06549729 0.17652078 -0.06910658 0.16416617
0.19953255 0.055593736 0.20092654 0.11509823 0.14419658 -0.08746066 -0.14950794 -0.21987821
-0.043947935 -0.18109038 -0.05294021 -0.0047102943 -0.037007097 -0.1156424 -0.096326925 -0.21338537
0.022681648 -0.34148267 0.29633948 -0.14224973 0.23195866 0.2914684 0.24313615 0.027984096
-0.13785864 0.05301784 0.042233277 0.007362422 -0.28732976 -0.22275259 -0.119767934 0.15429053
0.06326135 0.20199107 0.13087468 -0.10581756 0.06589704 0.07347501 0.07902976 0.100245565
-0.1719716 0.05387424 -0.0987906 -0.0754791 -0.09536153 0.018755378 0.15038764 0.08259493
-0.16581461 0.023752866 -0.22422488 -0.12026147 0.111203164 0.23621541 0.21732852 0.23069276

layers.6.bias f4 [20]
00000000: d23c 7d3d 5a60 d13d 8e7b 4a3e 7b5e 333e
00000010: c058 153e 61ec 763e 7bdc 463e 806d 3bbe
00000020: 8cae 9a3d 97fa 713d 904e 853e 73ca 2a3e
00000030: 3b8b e73d f4dc de3a e93a 853d f024 653e
00000040: 0836 2bbe fafd 13bd d196 24be 0c73 0e3e
0.06182558 0.10223456 0.19773695 0.1751651 0.14584637 0.24113609 0.19420044 -0.1830349
0.075528234 0.05907687 0.260365 0.16678791 0.11305853 0.0017003105 0.06505377 0.22377372
-0.1671983 -0.036130883 -0.16073157 0.13911074

layers.8.weight f4 [20, 20]
00000000: b09a 61be 3139 8fbd cdf2 773e b5a2 f3bd
00000010: 350f 25be ae4d 8f3d 2b6c 00be b419 223d
00000020: 80d8 f8bc 8ed0 293e d596 b9be 3272 ee3a
00000030: 99fe 933d e3c4 f5bc a856 943d 0de4 a3be
00000040: a661 143e 16ba 0ebe a1e2 fdbc bdce aabe
00000050: f760 793e cb0b 053e 0e7a 103e e1a5 953d
00000060: 0062 87be 0069 39be 2c17 c2bd fcad 7a3e
00000070: aa7f 6bbe ce98 34bd 7b18 25bd be58 0dbe
00000080: b93a 27be bab5 083e 3750 adbe e00d 833e
00000090: 8297 fe3d c335 613d bbdc 983c 6621 30bb
000000a0: 3a06 8abe 7c28 4abe 7fca 19be 79ca 903d
000000b0: ceb5 153e 7aea 563e 97af b2bd 986b dbbd
000000c0: 6a4c 2a3e 3e84 24be 1628 513d b522 a83c
000000d0: 9c61 773e 7802 e43d e78d 863c 39c1 e83d
000000e0: d6c8 cb3d ee15 85bd 60b1 fdbd 08b0 4fbe
000000f0: 85e6 bd3d 9c21 97bd bc2a 6bbd dea1 573b
00000100: d409 6c3e d9ed db3c 865b 4f3e 142b 89bd
00000110: 0466 1d3d 7134 623e fd3d aebd e196 1bbe
00000120: 454c 113e 9bae 523e b16a 81bd fc13 b0bd
00000130: a8a9 313e 83b4 84be 882f ff3d a83a 09be
00000140: ea47 1ebe 3e99 b33d 335e f23d beae a03d
00000150: d442 87bd 44b8 b6bc 3a89 3cbe 5b69 c33d
00000160: 0a42 45bd 1a26 bcbd 38ae 8d3d 7822 14bd
00000170: 43d0 45be 8b06 15be d596 0c3e bfb7 43bd
00000180: 7fa8 1d3e 7c2f 3abd 41b5 48be bf6b 22bd
00000190: fc5b 30be 29eb 4d3e 3713 4cbe 18ac ffbb
000001a0: aca0 febc 31c9 96bb 0fa6 b83c c6a7 03bd
000001b0: 6d2b f93d a703 96be 516e f5bd e87b 1e3c
000001c0: 7736 9cbd cfa3 a5bc 2862 653d 6bf5 a93e
000001d0: ba2e 123c 2d2b 853e 4035 733e 6062 e9bc
000001e0: 5dd9 773e c35d 153c 3658 8fbe 23ff 1d3e
000001f0: cdf0 3c3e e547 8f3d bd7e 8a3d b1de 0cbe
00000200: 551d 0e3d a74f 88be 7590 853d c818 babd
00000210: aaf0 5ebd d54c ef3c 4fbb cebe 692a de3e
00000220: 4faf eabd 534a c53e 3122 313e 9e87 863e
00000230: 041a 0a3e 9810 0cbe a1ce fa3d 895e cfbd
00000240: a44a 09be f100 abbd 612a 6dbd a6f8 f0bc
00000250: d239 0a3d 9e64 44bd 7c6f adbc da37 4d3e
00000260: ae41 e13b c644 4cbe 20a8 a3bd 3746 fe3d
00000270: 0fbe 60be 5704 3bbd a62e 0abe a9e8 0a3e
00000280: d1cf dc3d c59b 703d 95c3 30be 6a27 813c
00000290: 0718 b43d 9b7f 3b3d 2347 1b3e dd36 b53c
000002a0: 5eff 273e fc0e a83d ed55 df3c 00ab 3b3e
000002b0: fe7f b0bd 0723 4f3e ef69 cdbb 6ce1 57be
000002c0: 5119 903d b9c0 343e 2e5f 193e d855 84bd
000002d0: 9059 f93d b922 cdbd c1ca 8bbe da34 d0bc
000002e0: 704f 9d3e 6db0 0b3e 471e 19be 3bd7 563e
000002f0: fbbd 51bd 44ed 8d3e e455 1d3e e8cd b4bd
00000300: fadf 85bd 2d5a cf3d 4539 91be 08d1 e33e
00000310: c5f4 6b3e ee57 713e 93fe 343e b83d 8ebd
00000320: 9a44 423e cbab c13d 68b6 50bc 4680 10be
00000330: f0c1 03be 500f 8bbe 2338 613e 785a d83d
00000340: 2fa6 eebd 6778 f93d 1a5e 51be e505 f4bd
00000350: cf02 ae3e ed3e 8e3c 8ba9 5dbd dd1b 9abb
00000360: dbe5 4cbc 7397 88be c4a1 27be 1262 8c3c
00000370: d44c 3ebd 2890 52bd 52b5 8dbe 4bf3 933d
00000380: 1b4f 853d 795c bebe a8e6 253e 39d7 8e3e
00000390: 4547 8ebd e6a7 b5bc e329 d5be db0d 8fbe
000003a0: 87fd 403e 967a 513e 90f1 803e b653 0bbf
000003b0: 7186 b03e 974a febd 1f1b 443e 5a7a 263e
000003c0: dd36 eebc 36ae a43d 73af 0abe 0182 d8bd
000003d0: 806d d53d 2de4 053d 59c9 633e e1fb 323c
000003e0: e662 34bc 4a2e 3bbe 8da1 24be 92d8 7dbe
000003f0: a91c 4fbe 03d6 f13c 2d52 e0bd ab6b aa3d
-0.22031665 -0.0699333 0.24213715 -0.11896268 -0.16119082 0.06997238 -0.12541263 0.039575294
-0.030376673 0.16583464 -0.36247888 0.0018191992 0.07226295 -0.03000111 0.07243091 -0.32009926
0.14490375 -0.13938174 -0.030991854 -0.33360854 0.24353395 0.1299278 0.1410906 0.073070295
-0.26441956 -0.1810646 -0.09477076 0.24480432 -0.22997919 -0.04409104 -0.04030655 -0.13803384
-0.16330995 0.13350573 -0.33850262 0.25596523 0.124312416 0.05498291 0.01865994 -0.0026875376
-0.26957875 -0.19742006 -0.15018652 0.070698686 0.14620134 0.20987883 -0.08724897 -0.10713881
0.16630712 -0.16066071 0.05106362 0.020524362 0.24158329 0.111332834 0.016425086 0.11364979
0.09950416 -0.064983234 -0.12387347 -0.20281994 0.09272484 -0.07379457 -0.0574138 0.0032902877
0.23050624 0.026846813 0.20249757 -0.066976696 0.038427368 0.22090317 -0.08507917 -0.15194274
0.14189251 0.20574419 -0.06319178 -0.08597562 0.17349875 -0.2591897 0.12460238 -0.13401282
-0.1545712 0.08769463 0.11834373 0.078458294 -0.06604543 -0.022304662 -0.18411723 0.09541579
-0.048158683 -0.09186955 0.06917995 -0.036165684 -0.19317727 -0.14553277 0.13729413 -0.047782656
0.15396307 -0.04545544 -0.19600393 -0.039653536 -0.17222589 0.20109238 -0.19929205 -0.0078024976
-0.031082474 -0.0046016206 0.02254012 -0.032142423 0.12166486 -0.29299662 -0.11983932 0.009673096
-0.07627576 -0.020219712 0.056001812 0.33195052 0.008922273 0.26009503 0.23750782 -0.028489292
0.24204011 0.009116593 -0.27996987 0.15429358 0.18451233 0.06996135 0.06762455 -0.13756825
0.034695942 -0.2662327 0.065216936 -0.09086758 -0.054428734 0.029211441 -0.4037728 0.4339173
-0.11459219 0.38533267 0.17298199 0.26275343 0.13486487 -0.13678205 0.122464426 -0.10125453
-0.1340738 -0.08349789 -0.057901744 -0.02941544 0.033746548 -0.04794752 -0.021171324 0.20040837
0.0068742847 -0.1994811 -0.07991052 0.12415736 -0.21947502 -0.045658436 -0.13494357 0.13565315
0.10781825 0.058742303 -0.17262109 0.015765864 0.08793645 0.04577599 0.15163855 0.022120887
0.16406009 0.08205983 0.027262652 0.1832695 -0.086181626 0.20228206 -0.006268732 -0.21082085
0.07036079 0.17651643 0.14977714 -0.06461686 0.12175286 -0.100163884 -0.27303126 -0.025415827
0.30724669 0.1364152 -0.14952956 0.20980541 -0.05120657 0.27720082 0.15364796 -0.08828336
-0.06536861 0.101246215 -0.28364006 0.44495416 0.23042591 0.23568699 0.17675237 -0.06945366
0.18971482 0.09456595 -0.012738802 -0.14111432 -0.1286695 -0.2716012 0.2199407 0.105641305
-0.11652791 0.12181168 -0.20446053 -0.11915187 0.33986518 0.01736399 -0.054116767 -0.0047030286
-0.012505974 -0.26678047 -0.16370302 0.017136607 -0.046459988 -0.05140701 -0.276774 0.07224139
0.06509229 -0.37179926 0.1620127 0.27898577 -0.06947187 -0.022174787 -0.4163352 -0.27940258
0.18846713 0.20456919 0.25184298 -0.5442461 0.3447757 -0.12416571 0.19150971 0.16257611
-0.029078895 0.080410406 -0.13543491 -0.10571671 0.10421276 0.03268831 0.22244777 0.01092431
-0.011009907 -0.18279377 -0.16077252 -0.24789646 -0.20225777 0.029520994 -0.10953174 0.08321317

layers.8.bias f4 [20]
00000000: 2fc2 9d3d 4018 6a3c 39d9 2d3e 4489 bcbd
00000010: eb73 16bb 9a6d 2e3e df0c 2b3b 8076 df3c
00000020: 62df 2abe ab17 3dbe 9867 a8bc e026 d3be
00000030: 0ce1 63bb e6d0 a13d b7ce cc3c 2b23 0dbe
00000040: ff1b 8ebe ad32 553d 3626 483e a88a ecbd
0.07703053 0.014288008 0.16977395 -0.09205869 -0.0022957276 0.17033997 0.00261002 0.027278185
-0.16686776 -0.1846606 -0.02055721 -0.41240597 -0.003477159 0.07901172 0.025000913 -0.13782947
-0.27755734 0.05205028 0.19545826 -0.11549884

layers.10.weight f4 [20, 20]
00000000: 3584 8a3e c4c7 b53d 3e6a 0fbe 4bae ec3c
00000010: e14f 9abc cbc4 b8bd 7959 75be bd1a 693d
00000020: cf3a 173d fe29 92be 1312 1e3e e292 5d3d
00000030: 5f2a 073e 73f2 6bbd dd82 b3bd 9789 88be
00000040: dd00 54be 1111 8e3d 204a 453e 37f3 2d3d
00000050: f305 cf3d f482 a0b9 f4b6 fabd 1140 523c
00000060: b411 9bbc 1289 09be aa85 b63e 3329 fcbd
00000070: 515f 863e becb 743e 9c81 423d c095 2f3d
00000080: 0be4 8bbd 1462 b1bd 71e7 0e3e 69e5 4c3e
00000090: 8bc6 eb3d 26de 15be 800c 81bd 22cc e1bc
000000a0: b8cd 18be e0fe dbbc e342 16bd 596c 833d
000000b0: 907f 363d 2b2a 34be 6163 fdbc b236 803d
000000c0: c5b2 b4bd b564 6c3c 0acc ba3d 9793 c73d
000000d0: e8a5 c33d fa65 943e da55 06be 0362 b0bd
000000e0: f5c1 77bd 9eea 81be b6a1 23be d924 63be
000000f0: cb96 043e 2569 35be 39d5 443e e7ad bd3d
00000100: 213e 2dbe 2310 22be 4b3b 91bd ada2 00be
00000110: 2949 183e 5cd9 d43d 1f58 1bbe da01 523e
00000120: 1cb9 5e3d c5e7 e8bd 9cf2 35be 465d 163e
00000130: ce13 48be 1a74 a53d 8a13 82bc ed60 9b3c
00000140: 0df7 e9bd 9272 453e 62a2 103e cae8 f8bd
00000150: 62b0 d7bd fded 0c3e 16ed 983c cbc0 73bd
00000160: 435c 01bd 0cdc d5bb 40f1 3e3e 1868 5a3e
00000170: 883f 073d 9f4c 563d 3ded 39be bf89 ba3d
00000180: e35f 603e 8792 f7bc 3e79 1abe 9dcd b23d
00000190: ee27 b0bd eb75 293e b75e 213e 9d2e 15be
000001a0: 0fb0 8f3d f363 543e 262a 873e b545 ba3d
000001b0: cd91 0e3d 5378 1e3e 023d 55be 1391 88be
000001c0: 1e1b 4fbd f30c 3dbe 4994 ccbd 6fa7 b63d
000001d0: 72a9 c0bd 46c6 0cbe 2ce2 1c3e a3b0 e83c
000001e0: 1ccf f13d 063f 1e3e 94f0 d5bd 675f ba3d
000001f0: 3681 e53d 200b 263e 23e0 1fbd 75a1 2dbe
00000200: 9461 3b3e ac96 ba3d 7bf5 bebd 3af6 6dbe
00000210: 66cd 94bd dbdc e43b d1ce 5a3d 2158 42be
00000220: 6693 553d bedb 193e d0a3 35bd 73ef ccbd
00000230: bf5c dd3c ef49 e83d e487 a63b 487b fcbd
00000240: a988 74be 2f1e 583e de23 04be 1810 8cbd
00000250: 35ae 9dbb eaf1 a63b 118c eb3d a10a 473e
00000260: b5a2 2d3e bc8c 0c3d fbc0 bf3d 3655 43be
00000270: f4ba 583d 31a1 66be 4dd6 76be ca53 8dbe
00000280: 99a5 dcbc 34e3 903c 537d 21bd fca9 e2bc
00000290: 3bf0 53bd 25ba 9fba 3a0c a13e 3fce 5abe
000002a0: 36a9 20be 7281 873e 51f3 7ebe 4f95 313d
000002b0: 627c ec3d 7667 66be 60f2 543e 51c2 3cbd
000002c0: 4251 c63d 0411 e63d 834f edbd 5222 9f3d
000002d0: 6ef5 ae3e bf3d 993d b1b9 76be cd3f 363e
000002e0: 3087 f9bd b6c8 20be 5adc d6be 0719 febc
000002f0: a2bf 073e 99ae 63be 23ab e93d 5561 063e
00000300: 5984 0bbe 081e c73d fe8a ca3d acb5 48bd
00000310: 1e9e 35be 823f 44bc 48fa 2e3e 8db5 92bc
00000320: f7ba 643e a1c4 23be 5e77 133e 037c c1bd
00000330: 3592 afbd 9c08 e13d 6cc0 9cbd f15b 52bd
00000340: c5ea 20be f40a 8f3d c6a2 913d 855d 363e
00000350: cd94 37be 92e8 20be 1a8e 80bd 112f 4ebd
00000360: a973 91bd 151c 77be d536 e43d 613d 4c3e
00000370: b7fb 69bd afd8 a23d f33d 173e 5e92 11be
00000380: 01fe 023d 8983 5dbe cef0 05be f140 103e
00000390: 1241 30be 65ca 1dbd c8a4 c43c 2a47 7c3d
000003a0: 7532 133e 62cb 96bd a179 1e3e 305d f5bd
000003b0: 9742 e83d c4ce 143e 4f23 453e 8734 513d
000003c0: fd66 293d 5c9c 2d3e 71f9 363e 1640 cabd
000003d0: 424e b3bd a27f 303d 8b67 8f3e cd65 d8bd
000003e0: 439d 2dbe f230 27be 2cd5 5abd 4986 42be
000003f0: 85a4 cbbd 6ae4 1b3d b112 56bb 4a00 0b3e
0.2705399 0.08875993 -0.14005372 0.028891703 -0.018836917 -0.0902191 -0.23959912 0.056910265
0.03692132 -0.28547662 0.15436582 0.054095156 0.13199757 -0.057604264 -0.087651946 -0.26667473
-0.20703454 0.06936849 0.19266558 0.042468276 0.101085566 -0.00030615146 -0.12241927 0.012832657
-0.01892934 -0.13431194 0.35648853 -0.123125456 0.26244596 0.23905846 0.047486886 0.042867422
-0.06830605 -0.08661285 0.13955475 0.20009388 0.115124784 -0.14635524 -0.06301212 -0.027563158
-0.14922225 -0.026854932 -0.036684882 0.0641715 0.044555247 -0.17594211 -0.030931177 0.06260432
-0.0882316 0.014428307 0.091209486 0.097449474 0.095531285 0.28984052 -0.13118687 -0.08612444
-0.060487706 -0.2537431 -0.15979657 -0.22182025 0.12948148 -0.1771589 0.19221963 0.09261685
-0.16918232 -0.15826468 -0.07091387 -0.12562056 0.14871658 0.103930205 -0.15170334 0.20508519
0.054375753 -0.113723315 -0.1776833 0.14684018 -0.19538805 0.08078785 -0.015878458 0.018967116
-0.11424074 0.19281986 0.14124444 -0.12153776 -0.10531689 0.1376266 0.018667739 -0.059510034
-0.03158213 -0.006526476 0.18646717 0.21328771 0.033019572 0.052319165 -0.18156905 0.09108304
0.21911578 -0.030221237 -0.15085313 0.08730624 -0.08601366 0.16548888 0.15758787 -0.14568563
0.070160024 0.20741253 0.26399344 0.09095327 0.034807015 0.15475588 -0.20824054 -0.26673183
-0.05056297 -0.18461971 -0.09989221 0.08918654 -0.09407319 -0.1374751 0.15320653 0.02840454
0.11807081 0.15453729 -0.10446277 0.09100228 0.11206286 0.16215181 -0.039032113 -0.16956122
0.18298942 0.0911077 -0.093241654 -0.23238459 -0.07265739 0.006984336 0.05341989 -0.18978931
0.052142523 0.15025231 -0.044345677 -0.10006609 0.027021764 0.11342227 0.0050821174 -0.123282015
-0.23880257 0.21105264 -0.12904307 -0.06839007 -0.004812027 0.0050947564 0.11501325 0.19437648
0.16956599 0.034313902 0.0936298 -0.19075474 0.052912667 -0.22522427 -0.24105187 -0.27602988
-0.026934432 0.017686464 -0.03942616 -0.027668945 -0.051742774 -0.0012186213 0.3145464 -0.21367739
-0.15689549 0.26465946 -0.24897505 0.043355282 0.11547162 -0.22500405 0.20795584 -0.046083752
0.096834674 0.11233714 -0.11587431 0.07770218 0.34171623 0.0748248 -0.24094273 0.17797776
-0.12183988 -0.15701565 -0.4196499 -0.031017793 0.13256696 -0.22234572 0.11409595 0.13123067
-0.13624705 0.09722525 0.09889792 -0.04900138 -0.17736098 -0.011978032 0.17087662 -0.017908836
0.22336946 -0.15992977 0.14401004 -0.094474815 -0.08572809 0.1098797 -0.07653889 -0.051357213
-0.15714557 0.06984511 0.07111125 0.17809112 -0.17927857 -0.15713719 -0.06277104 -0.050337855
-0.071021385 -0.24131806 0.11143271 0.19945289 -0.05712482 0.07951485 0.14769726 -0.14215991
0.03198052 -0.21632208 -0.13080141 0.14087273 -0.17212322 -0.038523097 0.024004355 0.061591305
0.14374717 -0.07363011 0.15476085 -0.11980665 0.11340826 0.14532 0.1925175 0.051075485
0.041357983 0.16954178 0.17868592 -0.09875505 -0.08755161 0.04309047 0.28008685 -0.10566292
-0.16954522 -0.16327265 -0.053425953 -0.18996538 -0.09943489 0.03805963 -0.003266495 0.13574329

layers.10.bias f4 [20]
00000000: 891e 973d 2233 20be f798 fb3b 0e6c de3c
00000010: 5060 01be dd41 8b3d 85e3 313e a109 433e
00000020: 026c 3bbe 9f6a f13d e220 b63d ca96 76be
00000030: b84d e8bd 37b7 7bbd 2339 3fbc 6d13 83ba
00000040: 8424 6aba f395 3a3e fb7d 703e 7687 133d
0.07378871 -0.15644506 0.007678147 0.027151134 -0.12634397 0.06799672 0.17371948 0.19046642
-0.1830292 0.117879145 0.08892991 -0.24080959 -0.11342949 -0.061454024 -0.011671337 -0.0010000296
-0.0008931833 0.18221264 0.23485558 0.036017857

layers.12.weight f4 [20, 20]
00000000: 416f 3bbe f235 05be 5e1d 87bd 9a33 363e
00000010: c90d 703c 1765 263e edd6 263d e097 8fbe
00000020: 549f dc3c 018d 123e f9e9 513e ae6a a33d
00000030: e48b 2d3e ab9b 243e e1d9 753c 286b 383e
00000040: e7f7 12be 188e 0bbe aa34 133e 2334 0f3e
00000050: 8b23 443e 9a71 4ebe ffd2 d73d 7e3d cc3d
00000060: 3897 713d ffc2 3cbe d878 abbd 4b6e 803e
00000070: d8b7 21be ebcf 633e 069e f73d 2d89 34bd
00000080: 587a 863d a467 a6be 7c0d a5be 4f0e 59bd
00000090: 88cc 23be 4879 553e 52c1 da3c bfa0 80bc
000000a0: e509 dfbd d8f1 82bb 00f7 56bd 01b6 373e
000000b0: f1fc 46bd 46ae 59bb 63b2 bc3b b0d8 453e
000000c0: d7c6 5c3e edf0 23be 97e4 97bd 5644 f63d
000000d0: 7e9b 323d 205a 64be 0385 34be cc63 443d
000000e0: 4fc3 ae3d 60e5 2ebd 496f f2bd 66ea 4d3e
000000f0: 172b 8e3d 1940 dabd 4ac7 dabc 8cf3 04be
00000100: 353d c6bd d8b7 ecbd 2473 dcbd 372d 64bb
00000110: b11d 20be 1939 f33d 8307 85bc 1620 cc3d
00000120: 6b39 313e 4cfc 8dbd 1860 08bd c222 c93d
00000130: 37ad 85bd 07c3 303e 408f 393e 304b 7b3c
00000140: 38f7 00bd 9aa1 8abc 88b5 523e 15fb 4fbe
00000150: d49b dcbd 9a66 4cbe 0d11 d3bd 9469 bd3d
00000160: 17e8 57bd e7ef 563e ab11 f43c 6eac ed3c
00000170: b094 febd d83f 89be 48fb 1dbd e01e 933e
00000180: 3390 da3c da14 2c3d 2ee6 b93d 2166 d33d
00000190: de47 6d3e 3855 8e3c ffef 9bbd 77fd f33d
000001a0: 03a8 8bbd dc69 04bd 7525 973c 6d0e 823e
000001b0: a18a 7fbb 707e 0bbd 4e9e 3ebd af80 cabd
000001c0: 9bd6 b83c be6e 55bb 61c2 1ebe 8ffe 1bbe
000001d0: fad6 da3d 8e87 8e3c a17a 5b3e 3b96 0b3e
000001e0: 31f9 a53d 9b02 1ebe a79b ebbd 694a d3bd
000001f0: 6b7c f83d fd31 4f3e 2b7e c5bd 4643 a9bd
00000200: 12b8 723e 9f0a afbd a0d1 c1bd 9f20 1e3d
00000210: 7eaa 293c 32d4 c1bd 5c3f 843e f2c7 3d3d
00000220: a2dd 013e 0a85 843d bd68 043d 31cf 803d
00000230: d0ce b83d 0ef4 2d3d a194 5d3e d2ba 2f3d
00000240: 823b 1f3e ca9f 81bd 3a69 83bd e68b eabd
00000250: 4b91 47be da62 533e 778b a5bd f73b 3d3d
00000260: cce3 50be c515 f4bd 9507 63be db77 0abd
00000270: f8c8 88be df32 0dbe efa7 003d f965 92bc
00000280: 9de0 913e 8bcf aabe 4def 9a3d 3145 e43c
00000290: 5ba5 42bd 7e43 8c3d 0720 4abd 8362 283e
000002a0: a7ca eebd 9156 f83d 1dc0 413e 8544 0dbe
000002b0: 8909 12be 1f9a 66b9 9c1f 55bd 68b8 fd3c
000002c0: 2b46 aebe 5e21 443e 1c93 7a3e deb0 25bd
000002d0: 17eb ae3d 0ca9 893c 5c00 4d3e 8c56 583e
000002e0: ba1b 1f3d c46d 0abd e6be 1e3e 4b4c d8bc
000002f0: 8e25 2f3e 22e3 443e 6c61 363e 2f26 a43d
00000300: 9038 8cbc b2c2 73be 156e 683d d677 f6bd
00000310: 1dd3 15be ee66 923d 275d 08be fb2b c43d
00000320: 0a14 0f3d 3884 14bd 40a3 97bd b42f 1e3e
00000330: b320 193e 9b72 1ebe c347 343e 5da1 49be
00000340: 6c21 583e 0567 173d 176c c33d 0d65 413e
00000350: 0fb3 a73d 67db 3ebd 99c4 f33c 81e9 33be
00000360: f324 f3bd 36b6 b53d d49f c3bd 9511 f1ba
00000370: 630c 813d 34b3 903c 8be7 5dbe 303d 5a3e
00000380: a664 8bbc 6721 2abd 6534 87bd 49e6 a0bd
00000390: 7fa2 9b3d fbf5 b3bd 40c6 ce3d b9db 113e
000003a0: c7f9 633e 3977 223e 96d8 283e db95 c8bd
000003b0: 7ee0 d23d 7314 3d3d c317 ae3d f617 463e
000003c0: c63d 883d 5f63 7bbe 5e3a 10be 08bb e2bc
000003d0: 4529 1abe ca35 54bd 13e7 0bbe 6add 553e
000003e0: 0026 1d3e fbbb ff3d 1ec5 c5bd 8087 583e
000003f0: 6774 41be 93aa 933d b76b cebc e431 623e
-0.18304159 -0.1300886 -0.06597398 0.17793122 0.014651724 0.162495 0.040732313 -0.2804556
0.026931442 0.14311601 0.2049941 0.07979332 0.16947895 0.16075008 0.01500556 0.18009627
-0.1435238 -0.13628423 0.14375558 0.13984732 0.19154184 -0.20160523 0.10538291 0.09972666
0.058982104 -0.1843376 -0.083726585 0.25084147 -0.15792787 0.22247283 0.120906875 -0.044076134
0.06566304 -0.32500947 -0.3223685 -0.05299216 -0.15995991 0.20847046 0.02670351 -0.01570165
-0.10890559 -0.003996115 -0.05248165 0.17940523 -0.048581067 -0.0033215447 0.00575857 0.19320941
0.21560226 -0.16009875 -0.07416647 0.12024753 0.04360532 -0.22300005 -0.17628865 0.047946736
0.08533346 -0.042699218 -0.11837632 0.20108947 0.069418125 -0.10656757 -0.026706357 -0.12983531
-0.09679643 -0.11558503 -0.10764149 -0.003481699 -0.15636326 0.11876125 -0.016238933 0.099670574
0.1730706 -0.069328874 -0.033294767 0.09821083 -0.06527179 0.17261897 0.18121052 0.01533775
-0.031485766 -0.01692276 0.20577061 -0.20310624 -0.10771909 -0.19961014 -0.103059866 0.09248653
-0.052711572 0.20989953 0.029793581 0.029012885 -0.12430704 -0.2680652 -0.03856972 0.28734493
0.026680088 0.042012073 0.090771064 0.10322214 0.23171946 0.01737462 -0.07614135 0.11913579
-0.06819155 -0.032327518 0.018450478 0.2540163 -0.0038992541 -0.034056127 -0.04653769 -0.09887826
0.02256327 -0.0032567228 -0.15503837 -0.15233825 0.10685535 0.017398622 0.21433498 0.13631527
0.0810417 -0.15430681 -0.11504298 -0.10316927 0.12133106 0.20233913 -0.09643205 -0.082647845
0.2370303 -0.08546948 -0.09463811 0.03860533 0.01035559 -0.09464301 0.2582959 0.04633326
0.12682202 0.06470688 0.03232645 0.062895186 0.09023821 0.042469077 0.21638729 0.042902775
0.15550044 -0.063293055 -0.06416555 -0.11452465 -0.19489019 0.20643178 -0.080832414 0.046199765
-0.20399398 -0.11918215 -0.22170861 -0.03380571 -0.26715827 -0.13788937 0.031410154 -0.01787089
0.2849168 -0.33361468 0.07565174 0.027865024 -0.047520977 0.068488106 -0.04934695 0.16443829
-0.116597466 0.12125886 0.18920942 -0.1379567 -0.1426145 -0.00021991924 -0.0520321 0.03097172
-0.3403791 0.19153354 0.2447018 -0.040451877 0.085409336 0.01680424 0.20019668 0.21126765
0.0388448 -0.033796087 0.1550251 -0.026403567 0.1710417 0.1922727 0.17810601 0.080150954
-0.017116815 -0.23804739 0.056745607 -0.12034576 -0.14631315 0.071485385 -0.13316785 0.09578701
0.03493122 -0.036258906 -0.07404184 0.15447885 0.1495388 -0.15473406 0.176055 -0.19690461
0.211065 0.03696348 0.09542101 0.18886204 0.081884496 -0.046595957 0.029756831 -0.17569543
-0.11872282 0.088726446 -0.09551969 -0.0018392081 0.06301191 0.017663576 -0.21670358 0.21312404
-0.017015766 -0.04153576 -0.0660179 -0.078564234 0.07599353 -0.087871514 0.10096407 0.14243974
0.22263251 0.15865792 0.16488871 -0.09794208 0.10296725 0.04616208 0.08500626 0.19345078
0.06652407 -0.24549626 -0.14084765 -0.027677074 -0.15054806 -0.05180911 -0.13662367 0.20885244
0.15346527 0.12487026 -0.09656738 0.21145439 -0.1889206 0.07210269 -0.025197847 0.22089344

layers.12.bias f4 [20]
00000000: 02cc bdbc c060 3fbe 25ae 80bc 7527 94bc
00000010: 7c4a e1bc 42d6 bebd 80e9 cdbd 9b11 163d
00000020: 2ec5 593d f9e8 03be 0c08 b3bd 2d04 d9bd
00000030: c14c 503e 1d46 aabd 7dda 4fbe 4233 a4bd
00000040: 68d4 a4bd af75 fa3d 8a87 78be 8bb9 1dbe
-0.023168568 -0.18689251 -0.015708039 -0.01808522 -0.027501337 -0.0931821 -0.10054302 0.036637884
0.05316656 -0.12881841 -0.08741769 -0.105964996 0.2034178 -0.08314154 -0.2029819 -0.08017589
-0.08048326 0.122294776 -0.24270454 -0.1540281

layers.14.weight f4 [20, 20]
00000000: 7f69 fcbb 4add aabe a907 40be 6ccf 263e
00000010: 36e7 28bd 7c1f 19be 60b0 313e 7f9e 45bd
00000020: d79b 9bbd 23c4 383e fe28 96bd bc61 f83d
00000030: 8559 7a3d d5e5 a0bd 6e38 1d3e 83d0 183e
00000040: 5eb4 29b9 b066 7ebe 9af1 d63d 5e02 4cbe
00000050: 87ed 83bc 0b0e 6dbc 74dd f0bd 03c7 6b3e
00000060: 3610 65bc e280 71bc 44b7 0d3e b999 733e
00000070: 9ff3 873d 45ef 753c cab9 22be 7cb3 7dbd
00000080: a2aa d23c 84d1 3e3e 3479 a9bd 811d c43c
00000090: 3765 69be 0f38 0fbe 6120 46be 92a2 3d3e
000000a0: ddb4 fc3c 6ad9 96bd bdaa 303e a8b1 14be
000000b0: 4c19 7ebc bc4f d43d 66a1 7a3c bec0 bb3d
000000c0: f245 f63d f8aa 413e f30b 043e 820d 743e
000000d0: 0aba 2cbe c08d 6bbe b713 1ebe c49f 563e
000000e0: 47ea 20be 23bb a9bd 7e87 4a3b ed6b 7b3d
000000f0: 432f 88be 8f9c b53e eb1c 463e 98da 403e
00000100: 1636 463e 600b b43c 8431 373e cdae 5e3e
00000110: 9f2b 9e3e e078 0d3d 967b d13d 44d3 2d3d
00000120: 4ea7 d43c e8c0 243e 28fd 29be 4433 91bc
00000130: 68aa 08bc 08da 863e 99e4 9d3d 10a1 483e
00000140: c0d4 a9bd 3ffe 723e 47b3 22be a036 c9bd
00000150: e6d9 cb3d 5ba1 8e3d 44fa d6bc 837c 683e
00000160: 8e70 983e ed68 083e f0d2 8abd d003 e53d
00000170: 4101 59bd ef56 3bbe 6ea3 05be 4be2 b03c
00000180: e391 0c3e ceab b23e 3731 24be d8ee 453d
00000190: 5fb1 f5bd 0e8f 19bd 8db4 31be ccc3 343e
000001a0: a9bf 93bd 3d87 1fbe e2a1 393e e1a7 63be
000001b0: 83e4 833b 5c50 e43d 8cc9 3cbc c6a0 c5bd
000001c0: 17aa 27be 2b89 273e fe22 703b 72b1 843d
000001d0: 9d3f 5a3e f1df 35be 1eea 6dbd 3aef 5bbe
000001e0: d28a ea3d 4807 43bd 9e7b 323d 6cae f0bd
000001f0: feb4 493d 99d8 0f3d eb9d 0b3d ee04 833e
00000200: b3e2 f53c c4a3 473e 996b 13bd aff8 29be
00000210: aeeb d53d 7e57 1fbe 4365 703e c705 1c3d
00000220: 1a71 42be fffb a43c f864 b53d c1b6 eb3d
00000230: 91da 4cbe 1199 aabd 0c10 84bd 508c 15be
00000240: 78f3 b03d 203b d73d 22b0 35bd 4440 87bc
00000250: a29f 903e 4dd0 543e 8538 debc c64a 8dbe
00000260: 1df5 e73d 32f3 503e e3db 84be f0ec 033e
00000270: 9ecb 3bbe b20e 443e 429a 733c 7b47 19bc
00000280: a853 9f3d 91f2 4f3b 5906 663c 31e6 033e
00000290: f599 bfbd 034c 283e 8412 3fbe d5af aebd
000002a0: b6ce 563c bf3c 503e 0e8e eb3c 5961 4abe
000002b0: 21f5 9d3c 7e8b 4ebe b45b b6bd 12fc 94bd
000002c0: ccad 153e 3fa7 0e3e 67da 593e 1add 963d
000002d0: 3ce5 353e edb7 85bd 650e 3e3d 375b 84be
000002e0: ba95 733b 4649 113e 7630 edbc 2dd5 d83d
000002f0: 1011 46be d088 f13d 8524 ae3d 8b72 9c3d
00000300: 376c 2cbe 8ec4 463e 8b40 4b3e 0584 bdbd
00000310: dd58 f8bd 69fb 45bd 9e6d 393e 42d9 e2bc
00000320: 7f17 083d 4065 a7be 49b4 513c 0d93 c33d
00000330: fc73 c4bd b73b 6a3e cfab a73c 44f0 6cbe
00000340: c72c b9be b8fa c4bd 4001 08be 1580 0f3e
00000350: ce26 adbd dad0 07be ae5b 89bd 0c0f 27be
00000360: 2797 c0bd d6f4 cebd e245 15be 555d 0b3e
00000370: b289 ca3d 18bb 88be a268 343e 09a2 29be
00000380: ca60 9cbd 0243 f4bd e162 84bd 6b7e c83c
00000390: a7fb 7ebe 6a58 65bc df5d 373d 3943 6cbd
000003a0: 95ee c1bd c890 35bd 73b2 403d b438 0a3e
000003b0: 2c31 6c3e eba9 a2be b93a 0f3e 9625 453c
000003c0: b65e de3d 8fe7 933e c5cd 76bd 5788 083e
000003d0: 3c16 c43b 2d28 853c 9cc8 bb3d 2a03 0e3d
000003e0: 8f0e 403e 0cf9 1e3d f7a3 a3bd d725 a6be
000003f0: 7495 5c3c f8ad f63d 4f2e 58be 02d0 4abd
-0.007703006 -0.33371955 -0.18752922 0.16290063 -0.041236125 -0.14953417 0.17352438 -0.048246857
-0.075980835 0.1804357 -0.073320374 0.12128016 0.06112053 -0.07856337 0.15353557 0.14923291
-0.00016184288 -0.2484386 0.104953006 -0.19922778 -0.016104473 -0.01446868 -0.11760989 0.23025136
-0.013980916 -0.014740201 0.13839442 0.2378911 0.06638264 0.01501066 -0.15891185 -0.061938748
0.02571613 0.18634611 -0.08275071 0.02393985 -0.22792517 -0.13986228 -0.19348289 0.18519047
0.030847961 -0.07365687 0.17252631 -0.14520895 -0.015508961 0.103667706 0.015297269 0.09167622
0.1202506 0.18912876 0.12895183 0.23833278 -0.16867843 -0.23003292 -0.15437208 0.20959383
-0.1571437 -0.082876466 0.0030903514 0.061382223 -0.26598558 0.35471007 0.19346969 0.18833387
0.1935657 0.02197808 0.17889982 0.21746369 0.30892655 0.034539104 0.1022865 0.042437807
0.025958683 0.16089213 -0.16600478 -0.01772464 -0.008341409 0.2633822 0.07709617 0.1959269
-0.08292532 0.237298 -0.15888701 -0.09824872 0.0995367 0.0696437 -0.026242383 0.22703747
0.29773372 0.13321276 -0.067785144 0.11182368 -0.05297971 -0.18294881 -0.13050625 0.02159228
0.13727526 0.34896702 -0.16034399 0.048323482 -0.119967215 -0.037489943 -0.17354031 0.17652816
-0.07214291 -0.15578933 0.1812816 -0.2223201 0.0040250435 0.1114814 -0.011522662 -0.09649806
-0.16373478 0.16360919 0.003664195 0.064791575 0.21313329 -0.17761208 -0.0580846 -0.21477976
0.11452259 -0.047614366 0.04357492 -0.11752018 0.049244873 0.035118673 0.03408615 0.255897
0.030015325 0.19496065 -0.035991285 -0.16598772 0.10445343 -0.1556072 0.23476128 0.038091447
-0.18988457 0.020139692 0.08857149 0.11509467 -0.20005251 -0.08329976 -0.06448373 -0.14604306
0.08640188 0.10509324 -0.044357426 -0.016510136 0.2824679 0.20782585 -0.02712656 -0.2759611
0.113260485 0.20405272 -0.2594901 0.12883353 -0.18339393 0.19146231 0.014868321 -0.009355421
0.07779628 0.0031730274 0.014039599 0.1288078 -0.09355537 0.16435246 -0.18659407 -0.08529631
0.013110807 0.20335673 0.02875426 -0.19763698 0.019281926 -0.201704 -0.0890421 -0.07274641
0.1461708 0.13930987 0.2127472 0.073663905 0.17763227 -0.06529222 0.046400446 -0.2585084
0.0037168101 0.14188108 -0.028953772 0.10587535 -0.19342446 0.11793673 0.08503059 0.07639035
-0.16838156 0.19410917 0.1984884 -0.09253696 -0.12126324 -0.048335467 0.18108222 -0.027691487
0.033225533 -0.32694435 0.012799331 0.09549532 -0.09592435 0.22874342 0.020467667 -0.23138529
-0.36166975 -0.09618133 -0.13281727 0.14013703 -0.08454667 -0.13263264 -0.0670694 -0.16314334
-0.0940383 -0.101052925 -0.1457744 0.13609822 0.098895445 -0.2670524 0.17618039 -0.16565718
-0.076356485 -0.11926843 -0.06464172 0.024474343 -0.24900685 -0.01399813 0.044767257 -0.057681296
-0.09469334 -0.044327527 0.047045182 0.13498193 0.23065633 -0.31770262 0.13987245 0.012032887
0.108579084 0.28887603 -0.06025483 0.1333326 0.005984096 0.016254509 0.091691226 0.034670986
0.18755554 0.03881173 -0.07990258 -0.32450745 0.013463367 0.12044901 -0.21111415 -0.049514778

layers.14.bias f4 [20]
00000000: d5e6 0d3e 4254 ab3d ef96 28be 4d43 2dbe
00000010: eccc f63c f33a 31be f8f9 89be 9141 cdbd
00000020: ed3c 1ebe a084 fb3d 6604 17bc 50ec 503c
00000030: 4559 b4bc 4823 3a3d 596b 0abc 8601 11be
00000040: 13e4 983d 2804 bc3d d88b bfbc 1421 a2ba
0.13857587 0.0836568 -0.16463827 -0.16920204 0.030127011 -0.17307644 -0.26948524 -0.100222714
-0.15452929 0.122811556 -0.009217357 0.012751654 -0.022015223 0.045443803 -0.008448445 -0.14160737
0.07465377 0.0918048 -0.023382112 -0.0012369477

layers.16.weight f4 [1, 20]
00000000: 34e3 8ebe d91f 2f3e bbb4 b2bd c472 2b3f
00000010: df0d f03e e3af a2bd 318f 6fbe 30d8 c23e
00000020: 36bf f5bc a435 77be 8131 d9be 3b9e d6be
00000030: 7e0a d93e 121c 20bd 8a5e fdbd 1cf1 1fbc
00000040: c113 393f 6dd7 b6be d43d 55be e8d8 663e
-0.27907717 0.17101993 -0.08725878 0.66971993 0.46885583 -0.07943704 -0.23394467 0.38055563
-0.029998403 -0.24141556 -0.4242058 -0.41917595 0.42390817 -0.03908927 -0.123715475 -0.009762075
0.7229577 -0.35711232 -0.20824367 0.2254368
