BURGERS/POINT_20NEURONS_9LAYERS/60_5.pth (torch, 17502 bytes, 17 tensors)

layers.0.weight f4 [20, 2]
0	0x3efc02b5	0.49220815
1	0x3f01393e	0.5047797
2	0x3c8ccb1b	0.017186692
3	0xbeda928d	-0.42689934
4	0x3f7e6f15	0.9938825
5	0xbe8e8182	-0.27833182
6	0x3e46d7ab	0.19418208
7	0xbf025fd8	-0.50927496
8	0x3ecc389a	0.39886934
9	0x3e755b7f	0.23960684
10	0xbf3062f7	-0.6890101
11	0xbe76fe78	-0.2412051
12	0x3e0cc6c1	0.13747694
13	0x3ea66a54	0.32502997
14	0x3f33fa19	0.70303494
15	0xbe2e13dc	-0.16999763
16	0x3e944487	0.28958532
17	0x3e0f0c39	0.13969506
18	0xbe43739c	-0.1908707
19	0x3d5166de	0.051123492
20	0x3ec8b687	0.39201757
21	0x3d331966	0.043725394
22	0x3e76ba56	0.24094519
23	0x3e6b5bb4	0.229842
24	0x3e8909d3	0.26765308
25	0x3ee7adcb	0.4524978
26	0xbedeb896	-0.43500203
27	0xbea18bf1	-0.3155208
28	0xbea59cf7	-0.32346317
29	0x3e960268	0.2929871
30	0xbeb5e307	-0.3552477
31	0x3e4399c5	0.19101627
32	0x3f21e147	0.6323437
33	0x3ef8c1de	0.4858541
34	0x3f312522	0.69197285
35	0xbee6b298	-0.4505813
36	0xbe857032	-0.2606216
37	0xbda57bc9	-0.08080251
38	0xbe8d99fd	-0.27656546
39	0x3f06bc43	0.52631015

layers.0.bias f4 [20]
0	0xbe1d5d9d	-0.15367742
1	0x3ecd451c	0.4009179
2	0xbe233074	-0.15936452
3	0x3e6c7ab0	0.23093677
4	0x3f456d5f	0.7712001
5	0xbeeba422	-0.4602366
6	0xbcbe600c	-0.023239158
7	0x3f06297d	0.52407056
8	0xbdff12ea	-0.124547794
9	0x3e703214	0.23456603
10	0xbef38174	-0.47559702
11	0x3eaaa311	0.33327535
12	0xbeddbf64	-0.43310082
13	0x3f49d3d8	0.7883887
14	0x3f1ff445	0.624821
15	0x3f84912e	1.0356805
16	0x3f0906e4	0.5352614
17	0xbf710c9c	-0.94159865
18	0x3f3218d4	0.69569135
19	0x3f35cc4d	0.71014863

layers.2.weight f4 [20, 20]
0	0xbe81cc3a	-0.25351125
1	0x3e3e09c1	0.18558408
2	0xbe60bca7	-0.21946965
3	0xbed3f9af	-0.4140143
4	0x3e8dbf16	0.2768485
5	0x3e99f6cf	0.30071113
6	0x3e68ed42	0.22746757
7	0xbd45180c	-0.048118636
8	0xbdcbad4b	-0.099451624
9	0xbe053108	-0.13006985
10	0xbe892e12	-0.2679296
11	0xbe623dfd	-0.22093959
12	0x3d36dba8	0.044643074
13	0x3e9ec2e3	0.31008062
14	0xbe8db0fd	-0.27674094
15	0x3efc7c6c	0.49313676
16	0x3ea416a2	0.32048517
17	0xbef4518a	-0.4771846
18	0x3e694dc4	0.22783571
19	0xbe485325	-0.19562967
20	0x3d4745cc	0.048650548
21	0x3e545429	0.2073523
22	0x3e8b78e4	0.2724067
23	0x3d8395cc	0.06425056
24	0xbe4bacbd	-0.19890113
25	0x3e87be7b	0.26512513
26	0xbe603b83	-0.21897702
27	0x3d4b9e1f	0.049711343
28	0xbe56e2c9	-0.20984949
29	0x3eb88d9d	0.36045542
30	0xbc8dcfa6	-0.017310929
31	0x3e9e3e30	0.3090682
32	0xbd5ad6ad	-0.053427387
33	0xbdbdb7e6	-0.092635915
34	0x3ddfeb9c	0.10933611
35	0x3c2b0de1	0.010440321
36	0xbe402c37	-0.18766867
37	0x3dae5f07	0.08514219
38	0xbe8ea24f	-0.27858207
39	0x3c5bf4bc	0.013425048
40	0x3e0e186a	0.138765
41	0x3ee78f03	0.45226297
42	0x3caf5c55	0.021406332
43	0x3ea3099b	0.31843266
44	0xbc1e45c2	-0.009660186
45	0xbf3de994	-0.74184537
46	0xbe7ba644	-0.24575144
47	0x3e8cb986	0.27485293
48	0xbe50ef79	-0.20403852
49	0x3d86a8f6	0.065751955
50	0x3f18c7ad	0.5967968
51	0x3e5185f5	0.20461257
52	0x3e2c2f93	0.16815023
53	0xbdfbe8bc	-0.1230025
54	0xbd433469	-0.047657404
55	0xbda9d29f	-0.08292126
56	0xbebab58b	-0.3646663
57	0xbb30ad07	-0.00269586
58	0xbe61c22c	-0.22046727
59	0x3e0336af	0.12813829
60	0xbe66be3e	-0.22533509
61	0x3d9d1d84	0.07671645
62	0x3e345d45	0.17613705
63	0x3e229c75	0.15879996
64	0x3ef87b10	0.4853139
65	0x3e15423a	0.14576045
66	0x3e78c2ee	0.2429311
67	0x3d06a6dd	0.032873977
68	0x3e2f5952	0.17123917
69	0xbe912898	-0.28351283
70	0xbe9f017a	-0.31055814
71	0xbe472b7e	-0.19450185
72	0xbe235d0d	-0.15953465
73	0x3e33fbc0	0.17576504
74	0xbe873c88	-0.2641337
75	0xbd7ba732	-0.061438747
76	0xbd9453ad	-0.072425224
77	0xbeae1c49	-0.34005955
78	0x3d5724d6	0.052525364
79	0x3d46a6df	0.048498984
80	0x3d04f2c0	0.032458067
81	0xbd86a75a	-0.065748885
82	0x3e6cc778	0.23122966
83	0xbeaad993	-0.3336912
84	0xbe503e32	-0.20336226
85	0x3bff55e3	0.007792221
86	0xbe0e1370	-0.13874602
87	0x3ea7131c	0.32631767
88	0xbd856760	-0.06513858
89	0x3e8e9447	0.27847502
90	0x3f01d715	0.50718814
91	0x3e974a77	0.29549
92	0xbda44aa7	-0.08022051
93	0x3ca9e45c	0.020738773
94	0x3efcc066	0.49365538
95	0x3e972530	0.2952056
96	0xbe8b31f6	-0.27186555
97	0x3ed3f592	0.41398293
98	0xbdd648f6	-0.10463135
99	0x3e91881c	0.28424156
100	0xbe8ad10a	-0.2711261
101	0x3e55404f	0.20825313
102	0x3df14f19	0.11782665
103	0xbe07f953	-0.13278703
104	0x3e477026	0.19476375
105	0x3e42ac96	0.19011149
106	0x3ec6cbfb	0.388275
107	0xbd2f8c35	-0.04285832
108	0x3e908e2f	0.28233477
109	0xbe4ddb6d	-0.20103236
110	0xbdd83bef	-0.105583064
111	0xbd890714	-0.06690803
112	0xbda40583	-0.08008864
113	0x3e9e1194	0.30872786
114	0xbea6090a	-0.3242877
115	0xbde4641e	-0.11151908
116	0x3e1e719f	0.1547303
117	0xbe588d3a	-0.21147624
118	0xbdb08b66	-0.08620338
119	0x3cfcee50	0.030875355
120	0x3d7367dc	0.05942522
121	0x3d617ba3	0.05504955
122	0x3d8cfdc1	0.06884337
123	0x3cf554a6	0.02994759
124	0x3db0e828	0.0863803
125	0x3e47c983	0.19510464
126	0x3e0be341	0.13660909
127	0xbe6d9579	-0.2320155
128	0x3e44db72	0.19224337
129	0x3e0e28cd	0.13882752
130	0xbd8aaf7c	-0.06771752
131	0xbe39c112	-0.18140057
132	0x3e269dec	0.1627118
133	0x3e472432	0.19447401
134	0xbd3bb3df	-0.045825835
135	0x3cb45b4b	0.022016188
136	0x3de07006	0.10958867
137	0xbe05f728	-0.13082564
138	0x3e5ef372	0.21772555
139	0xbd4f9897	-0.05068263
140	0xbe1fdcf6	-0.15611634
141	0x3e3c8f1a	0.18413964
142	0x3ed0fcca	0.40817863
143	0xbc9131bf	-0.017723916
144	0xbeda62a2	-0.42653376
145	0xbe4d2809	-0.20034803
146	0x3e04898d	0.12943096
147	0x3d991a32	0.074756995
148	0x3e0d43bc	0.1379537
149	0xbd8f5829	-0.06999237
150	0x3e9cf206	0.306534
151	0x3dff1f59	0.12457151
152	0x3d46359a	0.048390962
153	0x3ca10500	0.019655704
154	0xbb0ed76e	-0.0021795887
155	0xbe17c532	-0.14821318
156	0xbe3c9f30	-0.184201
157	0x3eabac5c	0.33529937
158	0xbe0d5d0e	-0.13805029
159	0xbda4bcc6	-0.08043818
160	0xbdce1756	-0.10063045
161	0xbcb8014b	-0.022461554
162	0xbe315b54	-0.17319995
163	0x3e03d202	0.1287308
164	0x3e455e25	0.19274195
165	0x3d0af9d5	0.033929665
166	0xbe802337	-0.25026867
167	0xbf23d818	-0.6400161
168	0xbdb50062	-0.08837964
169	0x3d855ea4	0.06512192
170	0xbecd74d4	-0.40128195
171	0x3d61ebd1	0.055156533
172	0x3dca8d91	0.09890283
173	0xbe7b2e0e	-0.24529287
174	0xbd70bf37	-0.058776107
175	0x3c066af0	0.008204207
176	0x3e5ac1f6	0.21363053
177	0x3d3cca37	0.046091285
178	0x3df785b6	0.1208605
179	0xbed290d1	-0.4112611
180	0xbea21289	-0.31654766
181	0xbda3193f	-0.079638
182	0xbe318c05	-0.1733857
183	0x3e0507b0	0.12991214
184	0xbe7b6fc7	-0.24554358
185	0xbe2fe7cf	-0.17178272
186	0xbe37f4f6	-0.17964539
187	0xbe1135d6	-0.14180693
188	0xbe4e6550	-0.20155835
189	0xbb7a84eb	-0.0038226198
190	0x3d3552dc	0.044268474
191	0x3bab5f4b	0.0052298657
192	0x3960002c	0.00021362369
193	0xbe424947	-0.18973266
194	0x3dc2a7f0	0.09504688
195	0xbe834cca	-0.25644523
196	0x3d96e627	0.07368117
197	0xbc8ddc73	-0.017317032
198	0xbdd797b3	-0.10526981
199	0xbe219f00	-0.1578331
200	0x3e7154fd	0.23567577
201	0xbea4680e	-0.32110637
202	0x3e819622	0.25309855
203	0x3d4cfb97	0.050044622
204	0xbe1b8529	-0.15187515
205	0x3d17dac7	0.037073877
206	0x3de90746	0.113783404
207	0xbe4467ec	-0.19180268
208	0x3dd4ed5a	0.10396834
209	0xbe2aa9ce	-0.16666338
210	0xbd9a945d	-0.07547829
211	0x3c852b75	0.016256073
212	0x3e3e810d	0.18603916
213	0xbd261fb9	-0.040557597
214	0xbc2ba393	-0.010476011
215	0xbd054064	-0.03253211
216	0x3d42db94	0.047572687
217	0xbd69c2a7	-0.0570704
218	0x3e837062	0.2567168
219	0x3e66f073	0.22552662
220	0xbe2cf62a	-0.16890779
221	0x3e482719	0.19546165
222	0xbefe22ae	-0.49635834
223	0x3d703327	0.058642533
224	0x3b636600	0.0034698248
225	0x3cab57d1	0.020915898
226	0xbdefbd99	-0.11706085
227	0xbeee5a0f	-0.46553084
228	0x3b32314b	0.0027190025
229	0xbead1f0a	-0.33812743
230	0xbef8a7c9	-0.4856551
231	0xbed95f86	-0.4245569
232	0x3e65ecab	0.22453563
233	0xbdcf103f	-0.101105206
234	0xbeb1a6b3	-0.34697494
235	0xbce44338	-0.027864084
236	0x3db178a4	0.086655885
237	0xbdc1ff5f	-0.09472536
238	0x3e80c045	0.2514669
239	0xbdbcfe25	-0.09228162
240	0x3babc29b	0.0052417046
241	0x3e1c5b90	0.15269303
242	0xbdb30166	-0.08740501
243	0x3e930824	0.28717148
244	0xbe456cce	-0.19279787
245	0x3ad42547	0.0016185426
246	0xbe014ead	-0.12627669
247	0xbe6a90cf	-0.22906803
248	0xbe33d225	-0.17560633
249	0x3e0ccb7b	0.13749497
250	0xbe4cce40	-0.20000553
251	0x3d0d613b	0.034516554
252	0xbd63668e	-0.055517726
253	0x3d15420b	0.036439937
254	0xbe5b7f7c	-0.2143535
255	0xbd396cac	-0.045269653

layers.2.bias f4 [20]
0	0xbd3cda6c	-0.04610674
1	0x3eb2dc7e	0.34933847
2	0xbdee506f	-0.11636435
3	0xbe088e61	-0.13335563
4	0xbe389f34	-0.18029481
5	0x3e09762c	0.13423985
6	0x3e08e99e	0.13370368
7	0x3eae0bc5	0.33993354
8	0xbdf2dde9	-0.11858732
9	0x3e35f7cc	0.17770308
10	0xbdf409e5	-0.1191595
11	0xbd8396f2	-0.06425275
12	0x3dacedc0	0.08443785
13	0x3e8aa323	0.27077588
14	0x3f1d0c2a	0.61346686
15	0xbd9c7792	-0.07639994
16	0x3e52ac03	0.2057343
17	0xbda2e4c9	-0.079537936
18	0x3e7c5163	0.24640422
19	0xbd940a8b	-0.072285734

layers.4.weight f4 [20, 20]
0	0x3dea33c2	0.11435653
1	0xbe8a0f67	-0.26964876
2	0xbe8fa34f	-0.28054282
3	0x3e664e1b	0.22490732
4	0xbe8c7b69	-0.27437904
5	0x3e84fba4	0.25973237
6	0x3e1eb03c	0.15496916
7	0xbde40dac	-0.1113542
8	0x3df5f80e	0.12010203
9	0x3e85ee1d	0.2615823
10	0xbeaedb06	-0.34151477
11	0x3e4d8c86	0.20073137
12	0x3d99ec2f	0.075157516
13	0x3e03bb4e	0.1286442
14	0x3b773740	0.003772214
15	0x3cdf4017	0.02725224
16	0x3e34667c	0.1761722
17	0xbe9fd4ff	-0.3121719
18	0x3c638969	0.013887742
19	0xbd199cc9	-0.037503038
20	0xbe8a47fc	-0.27008045
21	0x3e1787d1	0.14797904
22	0x3d78583c	0.06063102
23	0xbe6fce9c	-0.23418659
24	0xbe968cf9	-0.2940443
25	0xbe25c4be	-0.16188332
26	0xbe9ea47d	-0.3098487
27	0xbe091d19	-0.13390006
28	0x3e140db0	0.14458346
29	0x3e39ed34	0.18156892
30	0x3dd6b1a5	0.10483102
31	0x3e763137	0.24042211
32	0x3dd6317f	0.104586594
33	0x3cbbcb0a	0.022923965
34	0x3d9b1246	0.07571845
35	0xbe994c1b	-0.29940876
36	0xbec4da34	-0.38447726
37	0x3d8c1365	0.06839637
38	0xbe155df7	-0.14586626
39	0xbe9f5959	-0.31122854
40	0xbddf8463	-0.10913923
41	0x3e1dd77c	0.15414232
42	0x3e214008	0.15747082
43	0x3e00620b	0.125374
44	0x3eb1f64d	0.34758225
45	0x3e20c0ae	0.15698501
46	0x3d3abca4	0.045590058
47	0x3d3c7a1a	0.046014883
48	0xbebdfacb	-0.37105402
49	0xbe27c572	-0.16383913
50	0x3d266485	0.040623207
51	0xbea52fb9	-0.32262972
52	0xbdc70536	-0.09717791
53	0xbcb88404	-0.022523887
54	0x3e9d0021	0.3066416
55	0x3e164ce2	0.14677766
56	0x3e2fb42a	0.17158571
57	0xbda583b8	-0.08081764
58	0x3c990244	0.018677838
59	0x3c9afcc1	0.01891935
60	0xbe4b2e62	-0.19841912
61	0x3ea2b43e	0.3177814
62	0x3e31c1de	0.1735911
63	0xbda41336	-0.08011477
64	0x3eaccec2	0.33751494
65	0xbe17bebb	-0.14818852
66	0x3d810c83	0.063012145
67	0x3e0b4c6f	0.13603376
68	0xbe882be2	-0.2659598
69	0xbdf56dd5	-0.119838394
70	0x3b2528f3	0.002520141
71	0xbeeacd38	-0.45859694
72	0x3d4c2c39	0.04984686
73	0xbec6c080	-0.3881874
74	0x3ee1868c	0.44047964
75	0x3e24508a	0.16046348
76	0xbdcbed3d	-0.09957359
77	0x3dbab1d5	0.0911595
78	0xbe4e2628	-0.20131743
79	0xbec478fd	-0.38373557
80	0x3d021b80	0.031764507
81	0x3e514821	0.20437671
82	0x3e5ac698	0.2136482
83	0xbe5d2493	-0.21595983
84	0x3b308ecc	0.0026940582
85	0xbdb6261d	-0.08893988
86	0xbe42e093	-0.19030981
87	0x3d255deb	0.04037277
88	0xbe99aaf2	-0.30013233
89	0xbe4316b9	-0.19051637
90	0xbdfbcf10	-0.122953534
91	0xbdc34a77	-0.095356874
92	0x3d05106e	0.03248637
93	0xbe1c1241	-0.15241338
94	0xbca57878	-0.020199046
95	0xbd0849a5	-0.033273358
96	0xbe4f9d3c	-0.20274824
97	0x3e17f94a	0.1484119
98	0x3cedf9bf	0.029049752
99	0xbe6ff0a7	-0.23431645
100	0xbd5ac738	-0.053412646
101	0x3e89c085	0.26904693
102	0x3e20c815	0.15701325
103	0x3cbd4420	0.023103774
104	0x3e9722ea	0.29518825
105	0xbe040454	-0.12892276
106	0x3dbcff71	0.09228409
107	0xbd9d95e2	-0.076946035
108	0x3d73e100	0.05954075
109	0xbddbba2f	-0.10728871
110	0x3daeef7e	0.08541773
111	0xbd982e0d	-0.074306585
112	0xbd815f0b	-0.06316956
113	0xbe07ffd3	-0.13281183
114	0x3decf540	0.11570215
115	0x3d2d1067	0.04225197
116	0xbe90e665	-0.28300777
117	0x3e81918b	0.25306353
118	0xbdc83ec4	-0.097775966
119	0xbd0031f6	-0.031297646
120	0xbe25cf91	-0.16192462
121	0x3d2b0b49	0.04175881
122	0xbde799bb	-0.11308619
123	0xbdce0545	-0.10059599
124	0x3d5ebc4d	0.054378796
125	0x3dcfeaeb	0.10152229
126	0xbd4d82c0	-0.05017352
127	0xbe5a4c06	-0.21318063
128	0x3e179f1e	0.14806792
129	0x3d6ef7d1	0.058341805
130	0x3c75e94e	0.015009237
131	0xbd9deb95	-0.07710949
132	0x3d4f800f	0.050659236
133	0xbe1e6141	-0.15466787
134	0x3e3d39a9	0.18479027
135	0x3dd3a135	0.10333482
136	0xbde40594	-0.111338764
137	0x3e06e985	0.13175018
138	0xbcfdaafb	-0.030965319
139	0xbd376975	-0.044778306
140	0x3c48e82b	0.012262384
141	0xbd99d207	-0.07510763
142	0x3e3683a3	0.17823653
143	0xbd9c0a07	-0.076191
144	0x3c8ca58d	0.017168785
145	0x3e2651b2	0.16242102
146	0x3df967c3	0.12177994
147	0x3dab3d81	0.0836134
148	0x3db2cd5e	0.08730577
149	0x3e0eb756	0.13937125
150	0xbd738a29	-0.05945793
151	0xbe0a0987	-0.13480197
152	0xbdd8ed71	-0.10592163
153	0x3df214ce	0.118203744
154	0xbdc9da84	-0.09856132
155	0xbdbae3d9	-0.0912549
156	0xbd050d00	-0.0324831
157	0xbc8d7c62	-0.017271224
158	0xbe26048c	-0.16212672
159	0x3e545f9b	0.20739596
160	0xbd00f0ae	-0.03147953
161	0x3c03f97b	0.008055086
162	0x3e7eb9be	0.24875543
163	0x3c366405	0.011132245
164	0x3db52cc8	0.08846432
165	0xbe4431e5	-0.19159658
166	0x3dca832d	0.09888301
167	0xbca0cab3	-0.019627905
168	0xbde8158c	-0.11332235
169	0x3e0653dc	0.13117927
170	0x3d71bef8	0.059020013
171	0xbe29ef2c	-0.16595143
172	0xbddfd8ed	-0.10930047
173	0xbde26e12	-0.110561505
174	0xbe35d35c	-0.17756408
175	0xbe103ac3	-0.14084916
176	0x3e930ac9	0.28719166
177	0xbd9f3a95	-0.077748455
178	0xbb38ea31	-0.002821576
179	0xbe756576	-0.23964486
180	0xbe572554	-0.21010333
181	0xbdd21549	-0.10257966
182	0xbd4e3a67	-0.050348666
183	0xbe3cc9e9	-0.18436398
184	0xbe03fdb7	-0.12889753
185	0xbbb5dd11	-0.005550035
186	0xbe38c8d9	-0.18045367
187	0x3e3adb22	0.18247655
188	0x3e13409b	0.14380114
189	0xbcf40b16	-0.029790442
190	0x3da23641	0.07920504
191	0x3e11878a	0.1421186
192	0x3dcdd05a	0.100495055
193	0xbd8da6bf	-0.0691657
194	0xbe80d111	-0.25159505
195	0x3d434f7a	0.047683217
196	0xbc54b0ac	-0.012981575
197	0x3e0bd1e2	0.13654283
198	0xbdeec457	-0.116585426
199	0xbe45c7ec	-0.19314545
200	0xbddd6dea	-0.1081198
201	0xbe5c1017	-0.21490513
202	0x3e8b363d	0.27189818
203	0x3e4155bd	0.18880363
204	0x3ec7568d	0.3893322
205	0x3d0dbc97	0.03460368
206	0xbdc2a4f0	-0.095041156
207	0x3b359667	0.0027708055
208	0xbe8d0453	-0.27542362
209	0xbda1d391	-0.07901681
210	0xbd8f5a4e	-0.06999646
211	0xbecd775e	-0.40130132
212	0xbd5df985	-0.05419304
213	0xbea3401e	-0.31884855
214	0x3e0c20ad	0.1368434
215	0xbd11c7b3	-0.03559084
216	0xbc31f878	-0.010862462
217	0xbccec8f2	-0.025242303
218	0x3cce0f51	0.025153788
219	0xbeb48932	-0.35260922
220	0xbe4b57b4	-0.19857675
221	0xbe04fce1	-0.1298709
222	0x3e9336e9	0.2875283
223	0x3e854412	0.26028496
224	0x3e0a83e9	0.13526882
225	0xbe28cd92	-0.16484669
226	0xbcb137d9	-0.021633076
227	0x3ce633ab	0.02810081
228	0x3da530f0	0.08065975
229	0xbe077abb	-0.13230412
230	0x3d23dd4a	0.04000596
231	0x3cf366d7	0.029712124
232	0xbb937c6e	-0.004500917
233	0xbcd98550	-0.026552826
234	0x3d934d85	0.0719252
235	0x3e97bed6	0.29637784
236	0x3dfa6f1b	0.12228223
237	0xbe3ac77b	-0.18240158
238	0x3e85baf7	0.26119205
239	0x3d3966fd	0.045264233
240	0xbf4a5b6c	-0.7904575
241	0x3f187804	0.5955813
242	0x3f78c66d	0.97177774
243	0xbed3367f	-0.41252515
244	0x3f25303b	0.6452672
245	0xbecbb617	-0.3978736
246	0xbec97d5f	-0.39353463
247	0x3ee1e38d	0.4411892
248	0xbe7fe79f	-0.249907
249	0xbe3868fb	-0.18008797
250	0xbe4b7f27	-0.19872724
251	0xbf25a467	-0.64703983
252	0xbe44c7be	-0.1921682
253	0xbfb6a6fc	-1.426971
254	0x3f8219ec	1.0164161
255	0x3c722c62	0.0147810895

layers.4.bias f4 [20]
0	0x3e8261c3	0.2546521
1	0xbd7c0e99	-0.06153736
2	0x3e49339f	0.19648598
3	0x3e8c2446	0.27371424
4	0x3d8e9c0f	0.069633596
5	0x3d257670	0.040396154
6	0xbd54e440	-0.05197549
7	0x3c9bd175	0.019020775
8	0xbe1c0e23	-0.15239768
9	0x3d365425	0.04451384
10	0x3d10f29a	0.035387613
11	0xbe7bba88	-0.24582875
12	0x3e852a33	0.26008758
13	0x3e0a2b74	0.13493139
14	0x3e72edf5	0.23723586
15	0xbe4cbda2	-0.19994214
16	0x3dacd02e	0.084381446
17	0xbd063b0c	-0.032771155
18	0xbe835883	-0.25653467
19	0xbe112527	-0.14174329

layers.6.weight f4 [20, 20]
0	0x3d3a3741	0.04546285
1	0xbe383ffc	-0.17993158
2	0x3df1da09	0.11809165
3	0x3deb9f3f	0.11504983
4	0xbe1a0c1a	-0.15043679
5	0x3e036871	0.1283281
6	0x3d87be74	0.06628123
7	0x3d4f5f4d	0.050627995
8	0xbe6505d1	-0.223655
9	0xbda5e75a	-0.081007674
10	0x3e6cd4cd	0.23128052
11	0x3d524fad	0.051345516
12	0x3e816cb2	0.2527824
13	0x3c0eac21	0.008708031
14	0xbc2765a2	-0.010217102
15	0x3df03116	0.117281124
16	0xbe39c447	-0.1814128
17	0x3e783225	0.24237879
18	0xbe498390	-0.19679093
19	0xbd8cea33	-0.068806075
20	0xbda0d644	-0.07853368
21	0x3e48fca2	0.19627622
22	0x3e3697b3	0.17831306
23	0xbe06f383	-0.1317883
24	0xbc668f51	-0.014072255
25	0xbe294e32	-0.16533735
26	0xbd048a8d	-0.032358695
27	0xbe653d5a	-0.22386685
28	0xbe3805a1	-0.17970897
29	0xbd34db52	-0.044154473
30	0xbe569b3c	-0.20957655
31	0x3ccd7497	0.025080008
32	0xbe0e9b9d	-0.1392655
33	0x3e2ad78e	0.1668379
34	0x3d6b1feb	0.057403486
35	0xbe4fe86f	-0.2030351
36	0x3d40fb4e	0.047114663
37	0xbd581e19	-0.05276308
38	0xbdd2d33c	-0.10294196
39	0xbe84648b	-0.25857958
40	0xbd5dca27	-0.054147866
41	0xbe864cee	-0.26230568
42	0x3e8cc7f0	0.2749629
43	0x3d178df6	0.03700062
44	0x3d98d226	0.07461958
45	0xbde04249	-0.10950143
46	0x3d25e31e	0.0404998
47	0x3c55e098	0.013054036
48	0x3cc9ecc7	0.024649037
49	0xbe671ba7	-0.22569142
50	0x3de27824	0.11058071
51	0xbdaa9652	-0.083294526
52	0x3ec30111	0.3808675
53	0x3d9249b5	0.07142965
54	0xbd80dfa6	-0.062926576
55	0xbd131b1e	-0.035914533
56	0x3e33bce2	0.17552522
57	0x3de76b41	0.11299754
58	0xbccdb0fa	-0.025108803
59	0x3d945aa6	0.07243852
60	0xbe38fd46	-0.18065366
61	0x3dea03b7	0.1142649
62	0xbd786a43	-0.060648214
63	0x3da27419	0.079323
64	0xbdd6cdb4	-0.104884535
65	0x3e7e9f07	0.24865352
66	0x3e5de16d	0.21668024
67	0x3cd4bd7d	0.025969261
68	0x3da05510	0.078287244
69	0x3d568966	0.052377127
70	0xbe3bf97e	-0.18356892
71	0xbdba49aa	-0.090960816
72	0xbe2f67b0	-0.17129397
73	0x3cd04a7c	0.025426142
74	0xbdaa7a0f	-0.08324062
75	0x3cbeb23b	0.023278346
76	0xbc5ff8d2	-0.013670163
77	0xbdf41644	-0.11918309
78	0xbe6e92f7	-0.2329825
79	0x3e05acd5	0.13054211
80	0x3d82eb99	0.06392593
81	0x3d45b721	0.04827035
82	0x3c8ea08a	0.017410535
83	0xbdc8b980	-0.09801006
84	0xbc78651b	-0.015160824
85	0xbd1add8d	-0.037808944
86	0xbd80f5d9	-0.06296892
87	0xbd429637	-0.047506537
88	0x3d8aa55d	0.06769822
89	0xbd3a7117	-0.045518007
90	0x3da54eef	0.08071696
91	0xbe23e0ed	-0.16003771
92	0xbd9e2217	-0.07721346
93	0xbc850583	-0.01623798
94	0x3dc81788	0.09770113
95	0xbe643819	-0.22287025
96	0x3d9ae2eb	0.075628124
97	0xbc67da7f	-0.014151215
98	0x3e0c2199	0.13684691
99	0xbe594eaa	-0.21221414
100	0x3e6887b4	0.22708017
101	0xbdfde587	-0.123972945
102	0x3e56dbb4	0.20982248
103	0x3de6e439	0.11273999
104	0x3c94c6a7	0.018161131
105	0xbdd15fe6	-0.10223369
106	0xbe1f8223	-0.15576987
107	0x3d07f0ee	0.033188753
108	0x3e146509	0.14491667
109	0xbe5c5a81	-0.215189
110	0x3e8132ac	0.25233972
111	0x3cf4db02	0.029889587
112	0x3e9cc987	0.30622503
113	0x3db1c850	0.08680785
114	0x3e1b8309	0.15186705
115	0x3d73ef78	0.059554547
116	0xbe1a4b00	-0.15067673
117	0x3d2ad4b5	0.04170676
118	0x3d5b599e	0.053552262
119	0xbe2eaee7	-0.17058907
120	0xbe386801	-0.18008424
121	0x3e49f4e7	0.19722329
122	0xbe74276b	-0.23843162
123	0x3dc34859	0.095352836
124	0x3e882f15	0.2659842
125	0xbd4068f2	-0.046975084
126	0x3d5e90bc	0.05433725
127	0x3cf63ea7	0.030059172
128	0x3cd22788	0.025653616
129	0x3e92b307	0.28652212
130	0xbe784e95	-0.24248727
131	0xbe6da8b5	-0.23208888
132	0xbe5eeacf	-0.2176926
133	0xbbe7a46c	-0.007069161
134	0x3d6c0002	0.057617195
135	0x3d05f771	0.03270668
136	0xbdde3fdb	-0.10852023
137	0xbe2d0129	-0.16894974
138	0xbe8eb18e	-0.27869838
139	0xbe060a1b	-0.13089792
140	0xbd4e58bb	-0.05037759
141	0xbe03c8b0	-0.12869525
142	0x3cda3305	0.026635656
143	0xbd837259	-0.064182945
144	0x3e0f483c	0.13992399
145	0x3d46b64e	0.048513703
146	0x3e6de9e0	0.23233747
147	0x3e2b6661	0.16738273
148	0xbba20203	-0.0049440875
149	0x3e70b427	0.23506223
150	0xbe18b976	-0.14914498
151	0xbdb86e97	-0.09005468
152	0x3d8e6409	0.06952674
153	0x3dbafffe	0.09130858
154	0x3e43eda0	0.19133615
155	0xbe613cb7	-0.21995817
156	0x3da8816f	0.082278125
157	0xbd8c86f6	-0.06861679
158	0xbdbd5980	-0.092455864
159	0x3d940119	0.07226772
160	0xbe469757	-0.19393669
161	0x3d1118bd	0.035423983
162	0xbd95893b	-0.07301565
163	0xbc12dfd1	-0.008964495
164	0x3e17b83d	0.14816375
165	0x3e6b0e8f	0.22954772
166	0xbe1a3cd1	-0.15062262
167	0xbe4ee4e8	-0.20204508
168	0xbd47c27e	-0.048769467
169	0xbdebaf1b	-0.11508008
170	0xbdc549f5	-0.09633247
171	0x3daa6880	0.08320713
172	0x3dcdaadd	0.10042355
173	0xbde8a4d1	-0.11359561
174	0xbe0a3df8	-0.13500202
175	0xbd922c16	-0.07137315
176	0xbc9368f6	-0.017994385
177	0x3d47d67c	0.048788533
178	0xbe77c8b3	-0.24197654
179	0xbe54725f	-0.20746754
180	0xbd363548	-0.044484407
181	0xbdb67c14	-0.08910385
182	0xbd978e65	-0.074002065
183	0x3c0ddc29	0.008658447
184	0xbe02a482	-0.12758067
185	0xbe3d6c00	-0.1849823
186	0x3d8b3f64	0.067992
187	0x3e3a3d6d	0.18187495
188	0x3c8c3231	0.017113777
189	0xbda37dc5	-0.07982973
190	0xbdba4757	-0.09095638
191	0x3e5a8314	0.21339065
192	0x3d8ae7b8	0.06782478
193	0x3e27bab5	0.16379817
194	0xbde28eef	-0.11062419
195	0x3e231131	0.15924527
196	0x3e40afa4	0.18817002
197	0x3e415adb	0.18882315
198	0x3e5410f1	0.20709588
199	0xbc6db7ec	-0.014509182
200	0x3d5a4d73	0.053296518
201	0xbac16bee	-0.0014756897
202	0x3e4604ef	0.1933782
203	0x3d089e1f	0.03335392
204	0x3db7c14e	0.08972417
205	0x3e4f2e83	0.20232587
206	0x3d9fa35d	0.07794831
207	0x3e30e8a3	0.17276244
208	0xbe478797	-0.19485317
209	0xbe3f8710	-0.18703866
210	0xbd958ccd	-0.07302246
211	0x3e3591ad	0.17731352
212	0x3d9ed018	0.077545345
213	0x3e7a9627	0.24471341
214	0xbd683dab	-0.056699436
215	0x3db30b5c	0.08742401
216	0xbd30333d	-0.043017615
217	0x3d9e3c32	0.07726325
218	0xbe28b55d	-0.16475435
219	0x3e250910	0.16116738
220	0xbcd6376c	-0.026149474
221	0xbe3674bf	-0.17817973
222	0x3e6c0c46	0.23051557
223	0xbd892f3c	-0.06698462
224	0x3e0e64af	0.13905595
225	0x3d0c793d	0.03429531
226	0x3c8036ed	0.01565119
227	0xbd26a282	-0.040682323
228	0x3e41a0d5	0.18909009
229	0x3c1f5559	0.009724938
230	0xbc9563cf	-0.018236069
231	0xbd8cb345	-0.068701304
232	0x3db4d5fd	0.088298775
233	0xbdfb06aa	-0.122571304
234	0xb9ba05bb	-0.00035480954
235	0x3e1c4e99	0.15264358
236	0x3d0139f3	0.031549405
237	0x3dbc3029	0.09188873
238	0xbdadb101	-0.084810264
239	0xbdea3e0d	-0.114376165
240	0x3e016cef	0.12639211
241	0xbe192a70	-0.14957595
242	0x3c4fda8d	0.012686384
243	0xbe200705	-0.15627678
244	0xbd28480b	-0.04108433
245	0xbd2db438	-0.042408198
246	0xbe393526	-0.18086681
247	0xbc31b2c0	-0.01084584
248	0xbddb08a2	-0.10695006
249	0x3e6a5538	0.22884071
250	0xbe491786	-0.1963788
251	0x3de2aa79	0.11067671
252	0xbda89422	-0.08231379
253	0x3c92c6c6	0.017917048
254	0xbc00d810	-0.007864013
255	0x3e03f15f	0.12885045

layers.6.bias f4 [20]
0	0xbda8a6fb	-0.08234974
1	0x3e3a05ae	0.18166229
2	0xbd48023e	-0.048830263
3	0x3dabb173	0.08383455
4	0x3e305ab4	0.172221
5	0xbe32998c	-0.17441386
6	0x3dcf1e5f	0.10113215
7	0x3e0e9026	0.13922176
8	0x3a087edb	0.0005206891
9	0xbe73fb24	-0.23826271
10	0xbd12d467	-0.035847094
11	0x3d9c0683	0.076184295
12	0xbe75d1c3	-0.24005799
13	0xbdbd52b1	-0.09244288
14	0xbde3c597	-0.11121672
15	0x3d8b47d1	0.06800807
16	0xbdb9beb4	-0.09069577
17	0xbdb129be	-0.0865054
18	0xbe334b06	-0.17509088
19	0xbe60fe42	-0.21971992

layers.8.weight f4 [20, 20]
0	0xbdf47586	-0.11936478
1	0xbe116cef	-0.14201711
2	0x3d8703f2	0.065925494
3	0x3e24a968	0.16080248
4	0x3db46036	0.08807413
5	0xbe00ddcb	-0.12584607
6	0x3e54b4b9	0.20772065
7	0xbd90e92e	-0.070757255
8	0x3d8adb1d	0.06780074
9	0xbdea42e1	-0.114385374
10	0x3e1829de	0.14859721
11	0xbe548ba3	-0.20756392
12	0x3db3b062	0.08773877
13	0x3d8b2218	0.06793612
14	0x3e2f48f3	0.17117672
15	0xbe133c72	-0.14378527
16	0xbe080863	-0.1328445
17	0x3dc7872f	0.09742581
18	0x3dc19489	0.09452159
19	0xbe856b0b	-0.2605823
20	0x3e207f4d	0.15673561
21	0x3d8ec872	0.06971826
22	0x3d49e992	0.049295016
23	0x3d2d37b1	0.04228944
24	0xbc9d1b5e	-0.019178089
25	0x3d794f42	0.0608666
26	0x3dec0a53	0.11525407
27	0x3e411ba5	0.18858202
28	0x3e069f09	0.13146605
29	0xbe675312	-0.22590283
30	0xbd7282c9	-0.059206758
31	0x3e63d14e	0.22247812
32	0xbb57c7bc	-0.0032925447
33	0x3e257d57	0.16161095
34	0x3b8df3ee	0.004332057
35	0x3e8c6cdc	0.27426803
36	0xbe4df6ca	-0.20113674
37	0x3e1d93c1	0.15388395
38	0xbd69fdcd	-0.05712681
39	0x3e2b766c	0.16744393
40	0xbde0ec4d	-0.10982571
41	0xbdafc543	-0.085825466
42	0xbe8f9f9d	-0.28051463
43	0x3e0f2ef5	0.13982756
44	0xbd354be9	-0.044261847
45	0xbe280c04	-0.16410834
46	0x3dfc6909	0.12324721
47	0x3dfd26dc	0.123609275
48	0x3dc0d407	0.09415441
49	0xbe469ae3	-0.19395022
50	0xbda430c3	-0.08017113
51	0xbd31c3dc	-0.043399677
52	0xbdc445b3	-0.095836066
53	0xbe5b0a6d	-0.21390696
54	0xbb1adbe9	-0.0023629612
55	0x3eca337c	0.39492404
56	0x3be255f0	0.006907217
57	0xbdd67adc	-0.10472652
58	0x3d8f8060	0.070069075
59	0x3d5ecfb1	0.05439729
60	0x3dafb3fb	0.085792504
61	0xbd64b621	-0.055837754
62	0xbd6eb4ba	-0.058277823
63	0xbc817f76	-0.015807848
64	0x3e1b0d2a	0.1514174
65	0xbcc2ce4c	-0.02378001
66	0xbd46559b	-0.048421483
67	0x3df3b0b5	0.118989386
68	0x3d29e053	0.041473698
69	0xbe052a0d	-0.13004322
70	0xbda1b7dd	-0.07896397
71	0xbe376f45	-0.1791354
72	0x3d75525b	0.059892993
73	0xbe0c2338	-0.1368531
74	0x3e7784dc	0.24171776
75	0x3e27b0bd	0.16376014
76	0xbe19aed5	-0.150081
77	0x3e768765	0.24075086
78	0x3e8a62a0	0.2702837
79	0xbe503259	-0.20331706
80	0xbe01d251	-0.12677886
81	0x3ce9c974	0.028538443
82	0xbaed964c	-0.0018126457
83	0xbda9a4bf	-0.08283376
84	0x3e244275	0.16040976
85	0xbe13ad70	-0.1442163
86	0xbd39e835	-0.045387466
87	0xbe04db77	-0.12974344
88	0x3d8acc1f	0.06777214
89	0x3e0d539a	0.13801423
90	0xbde9a3ea	-0.11408217
91	0xbdc9aaf9	-0.098470636
92	0xbe63e12d	-0.22253866
93	0xbe3f5dd9	-0.18688144
94	0xbc93cc15	-0.01804165
95	0x3eaa4cae	0.33261627
96	0xbd8578ec	-0.06517205
97	0x3dee6942	0.1164117
98	0x3d84c3c8	0.06482655
99	0xbe01c95b	-0.12674467
100	0xbe414cee	-0.18877003
101	0xbdf3f6ee	-0.119123325
102	0x3daaa859	0.08332891
103	0xbd98c8b3	-0.07460155
104	0x3c021e72	0.007941829
105	0x3e47f234	0.19525987
106	0xbe11c54b	-0.14235418
107	0xbd88d872	-0.06681909
108	0xbd0a99e8	-0.033838183
109	0x3b85b4b5	0.00408038
110	0x3c4abd72	0.012374269
111	0x3e2fb286	0.17157945
112	0x3ddab557	0.10679119
113	0xbdcd0095	-0.10009877
114	0x3e38dbc0	0.18052578
115	0xbe840102	-0.2578202
116	0xbca0b24b	-0.019616267
117	0x3e327d5d	0.17430635
118	0x3df08ea7	0.11745959
119	0x3e26c86f	0.16287397
120	0x3ecf06f2	0.40434986
121	0xbe74bb0e	-0.2389948
122	0x3ece2b15	0.40267244
123	0xbb9d3aab	-0.0047982535
124	0xbda8a940	-0.08235407
125	0x3ea9cc4f	0.33163688
126	0xbeac2745	-0.3362371
127	0xbd528251	-0.05139381
128	0x3d714465	0.058903117
129	0xbc59f82a	-0.013303796
130	0x3dcf2740	0.10114908
131	0x3cd7e8a8	0.026356056
132	0xbe02045a	-0.12696972
133	0x3edf3194	0.43592513
134	0x3d63adf0	0.0555858
135	0xbf72c250	-0.9482775
136	0x3ee0e7a7	0.43926737
137	0xbdde6e48	-0.10860878
138	0x3e64b001	0.22332765
139	0x3e5e0f4e	0.21685526
140	0x3da1e21e	0.079044566
141	0x3cbf2fa2	0.023338143
142	0x3dcd471a	0.10023327
143	0xbe111f29	-0.14172043
144	0xbdcc41e1	-0.09973503
145	0x3d078c5f	0.033092853
146	0x3e590d1c	0.21196407
147	0xbe1f71de	-0.1557078
148	0xbe18f9c6	-0.14939031
149	0xbd9c9cb5	-0.07647077
150	0xbe550e0b	-0.20806138
151	0xbd8a8202	-0.06763078
152	0xbe2a87c3	-0.16653351
153	0x3df76b1e	0.12080978
154	0x3d3577cf	0.04430371
155	0xbe25f79c	-0.16207737
156	0xbe06b64e	-0.13155481
157	0x3c94ad92	0.018149171
158	0xbdc85b99	-0.09783096
159	0x3dbdcff8	0.092681825
160	0x3df3544a	0.11881311
161	0x3da41d47	0.08013397
162	0x3e430b38	0.19047248
163	0x3e1eeb38	0.15519416
164	0x3d277c71	0.04089016
165	0x3e192e8b	0.14959161
166	0x3e2a3988	0.16623509
167	0x3e342496	0.17592081
168	0x3e6575af	0.22408174
169	0x3dd31e5b	0.10308524
170	0x3e4ed9b3	0.20200233
171	0xbe3d616f	-0.18494199
172	0x3e2ce340	0.16883564
173	0x3cacc266	0.02108879
174	0xbddb3567	-0.10703545
175	0xbe6018aa	-0.21884409
176	0xbe080706	-0.13283929
177	0x3cd0ed5b	0.025503805
178	0x3e31779e	0.17330787
179	0x3d6a425d	0.057192195
180	0x3e7289dc	0.23685402
181	0xbe3a3730	-0.18185115
182	0xbd4bdf34	-0.04977341
183	0x3dc4db73	0.09612169
184	0xbe1cf30f	-0.15327094
185	0xbc01a2a7	-0.0079123145
186	0xbe1629df	-0.1466441
187	0xbdf6f284	-0.12057975
188	0xbdd04b18	-0.10170573
189	0x3dbf6d26	0.0934699
190	0x3e13aa48	0.14420426
191	0xbe305ca0	-0.17222834
192	0x3e86ef3b	0.26354393
193	0x3e04ca81	0.12967874
194	0xbd3053d3	-0.04304869
195	0xbea64514	-0.32474577
196	0xbc371a74	-0.0111757405
197	0xbd2c913e	-0.0421307
198	0xbde0e249	-0.109806605
199	0x3e081660	0.13289785
200	0x3cebb912	0.028774772
201	0xbe386b00	-0.18009567
202	0xbde66ee2	-0.11251618
203	0xbe1e8d8b	-0.15483682
204	0xbcbce3d6	-0.02305786
205	0xbcbb91aa	-0.022896606
206	0xbe5fd841	-0.21859838
207	0xbe49b3ef	-0.19697545
208	0xbe5ad5e2	-0.21370652
209	0x3e4cac7b	0.19987671
210	0x3dc2773c	0.094953984
211	0xbdf22e40	-0.11825228
212	0xbd2d95be	-0.042379133
213	0xbcc28c84	-0.023748644
214	0x3b244623	0.0025066219
215	0xbe70a09b	-0.23498766
216	0xbdb83463	-0.08994367
217	0xbe179eaf	-0.14806627
218	0xbe8bc2a7	-0.27296945
219	0xbbc42f4e	-0.0059870845
220	0xbd93b1f7	-0.072116785
221	0xbdf3b578	-0.11899847
222	0xbd08b796	-0.033378206
223	0xbdc4bb64	-0.096060544
224	0xbdaa47bc	-0.083144635
225	0xbc6d455b	-0.014481868
226	0xbe3679ca	-0.17819896
227	0xbdfc77a2	-0.12327506
228	0x3dd910fe	0.10598944
229	0xbe4eb933	-0.20187835
230	0x3dcbeac7	0.099568896
231	0x3e42d0b5	0.19024928
232	0xbc03dce8	-0.008048274
233	0xbe10802d	-0.14111395
234	0xbd619bd5	-0.055080254
235	0xbe05ae0f	-0.1305468
236	0xbde67e66	-0.11254577
237	0x3d153395	0.036426146
238	0xbda3887e	-0.07985018
239	0xbda896a1	-0.08231855
240	0xbe02728e	-0.12739012
241	0x3ce50b75	0.027959565
242	0x3e6d2c25	0.23161371
243	0x3dae9f33	0.085264586
244	0xbd745572	-0.0596518
245	0x3e6d0f87	0.23150454
246	0xbe51bd67	-0.20482408
247	0xbd7e62df	-0.06210601
248	0xbca0c584	-0.019625433
249	0xbc170748	-0.009218045
250	0x3e48fd69	0.19627918
251	0xbe3f56f0	-0.18685508
252	0xbdcc28de	-0.09968732
253	0x3c7b78a2	0.015348585
254	0x3e4dabd0	0.20085073
255	0xbd928791	-0.071547635

layers.8.bias f4 [20]
0	0x3dac1cb3	0.084039114
1	0x3d1a2d81	0.037641052
2	0x3c291ba2	0.01032153
3	0x3e525aeb	0.20542495
4	0x3df399b7	0.11894553
5	0x3cb63730	0.022243112
6	0x3d6d11a1	0.05787814
7	0xbe022b3b	-0.12711804
8	0xbdcc23fe	-0.099678025
9	0x3e3ea19c	0.18616337
10	0xbe63f51d	-0.22261472
11	0x3d564b60	0.052317977
12	0xbccfa72d	-0.02534827
13	0x3da34013	0.079712056
14	0xbd4df16b	-0.050279062
15	0xbda01dba	-0.0781817
16	0x3cc75048	0.024330273
17	0xbd90174b	-0.07035693
18	0x3d292360	0.0412935
19	0xbe353d03	-0.17699055

layers.10.weight f4 [20, 20]
0	0x3d5b5a73	0.053553056
1	0x3e054000	0.13012695
2	0x3e8c8007	0.27441427
3	0x3dfa283b	0.122147046
4	0x3df0186c	0.11723408
5	0xba9f7649	-0.0012165989
6	0xbe722d98	-0.23650205
7	0xbe09db9c	-0.1346268
8	0xbe65af64	-0.22430187
9	0xbcbb88f3	-0.02289245
10	0x3df026f5	0.117261805
11	0x3dac1b48	0.08403641
12	0x3d256c66	0.04038658
13	0xbe306bcd	-0.17228623
14	0x3de8d9b5	0.11369649
15	0xbd8e7181	-0.06955243
16	0x3e81bd49	0.25339726
17	0xbdff7d2b	-0.12475046
18	0x3d9686e2	0.073499456
19	0x3dc3b2e5	0.09555606
20	0x3e131ea1	0.14367153
21	0x3cfe823f	0.031067966
22	0x3bf9261d	0.0076034204
23	0xbd645c03	-0.05575181
24	0xbc105bcc	-0.008810949
25	0x3dd013fd	0.101600625
26	0xbea8c8d5	-0.32965723
27	0x3e0f0264	0.13965756
28	0xbe0534e1	-0.13008453
29	0xbe83dc12	-0.25753838
30	0xbdb634ba	-0.088967755
31	0xbdd75b28	-0.105154335
32	0x3dbf9b9d	0.09355853
33	0xbe0dd065	-0.13849027
34	0xbcbe3973	-0.023220753
35	0x3c55e7a7	0.0130557185
36	0xbb107080	-0.0022039711
37	0xbe3c09b4	-0.18363076
38	0xbbc80ac5	-0.0061047995
39	0xbce22581	-0.027605774
40	0x3d018617	0.03162202
41	0x3d48e397	0.04904517
42	0x3e651968	0.22372973
43	0x3df5154d	0.119669534
44	0x3e520193	0.20508413
45	0x3dc31d6b	0.095270954
46	0x3c1fd8c2	0.009756269
47	0x3e3b5fb6	0.1829823
48	0x3e17a7ed	0.14810152
49	0xbe82cc9d	-0.25546733
50	0xbcfe54fd	-0.031046385
51	0x3e1a733e	0.15083024
52	0xbd0a1b9d	-0.03371774
53	0x3bb3f32e	0.0054916358
54	0x3df4577c	0.11930749
55	0xbdce973c	-0.100874394
56	0x3d4d8b5c	0.05018173
57	0x3dea59d3	0.11442914
58	0x3d8bc725	0.06825093
59	0xbe50a333	-0.20374756
60	0xbe371cfc	-0.1788215
61	0xbe17a3df	-0.14808606
62	0xbe2da0df	-0.16955899
63	0xbd220167	-0.03955212
64	0xbdbbcb85	-0.09169678
65	0x3e4b240e	0.19837973
66	0x3e782a86	0.24234971
67	0x3d9e3013	0.07724013
68	0x3e1a11f1	0.15045907
69	0xbd5dc4a5	-0.054142613
70	0x3e18e921	0.14932682
71	0xbca1e3ac	-0.019761883
72	0x3e653f22	0.22387365
73	0xbdc362a4	-0.095402986
74	0xbe0cb94e	-0.13742563
75	0x3d544943	0.05182768
76	0x3da4717a	0.080294564
77	0xbc03e0fa	-0.008049244
78	0x3c250cbb	0.010073836
79	0x3e0c2ad6	0.13688216
80	0x3de03a88	0.10948664
81	0xbc4d923e	-0.012547074
82	0x3dcd6d3c	0.100306004
83	0x3e2baa20	0.16764116
84	0x3e4af25e	0.19819018
85	0xbe01b687	-0.12667285
86	0xbe7a29ed	-0.24430056
87	0x3e69da98	0.22837293
88	0xbe14adc4	-0.14519411
89	0x3dd49765	0.10380439
90	0x3d52baa3	0.051447522
91	0xbdfc9010	-0.12332165
92	0xbd80c809	-0.06288154
93	0xbe178502	-0.14796832
94	0xbdcc06f7	-0.09962266
95	0xbd01ee54	-0.031721428
96	0x3e80e777	0.25176594
97	0xbd6dadfb	-0.05802725
98	0xbd98bf1b	-0.074583255
99	0x3d0f2a7f	0.034952637
100	0x3d8e0ff1	0.06936634
101	0xbe196d4a	-0.14983097
102	0xbdc86226	-0.09784345
103	0x3d3f7108	0.046738654
104	0x3dbf7ae5	0.09349612
105	0x3cca074c	0.024661683
106	0xbe43d53b	-0.1912431
107	0xbe4dd828	-0.20101988
108	0x3df81516	0.12113397
109	0x3d8cebb3	0.068808936
110	0xbdd24192	-0.10266413
111	0xbd9e5fad	-0.077330925
112	0xbd78b439	-0.06071875
113	0x3e4cfcc6	0.200183
114	0x3e658b2b	0.2241637
115	0x3d84563a	0.06461759
116	0x3e7c8852	0.24661377
117	0xbdd6da6a	-0.10490878
118	0xbdb3fa29	-0.08787949
119	0x3e4b7a9f	0.19870995
120	0xbc3a31d5	-0.01136442
121	0x3dfed72f	0.12443387
122	0xbe138949	-0.14407839
123	0xbe1f09d5	-0.15531094
124	0xbd8d9409	-0.06913001
125	0xbce0d860	-0.027446926
126	0x3b7158d2	0.0036826623
127	0x3d535cfe	0.051602356
128	0xbb92a9e5	-0.0044758194
129	0xbc1675aa	-0.009183327
130	0x3e4e97d9	0.20175113
131	0x3b4dd1e0	0.0031405613
132	0x3e1593d3	0.14607172
133	0x3d9f4038	0.07775921
134	0x3e39b673	0.18136005
135	0x3e7fc403	0.24977116
136	0xbe6244fb	-0.22096626
137	0x3e21a11c	0.15784115
138	0x3e3dd243	0.1853724
139	0xbb4f7d1c	-0.0031660264
140	0xbcb4ddf5	-0.022078494
141	0x3e1196c1	0.14217664
142	0xbddf5edf	-0.10906767
143	0xbd57f431	-0.052723113
144	0xbcb36a7f	-0.021901367
145	0x3e6e4bbb	0.23271076
146	0x3e42faf7	0.19041048
147	0xbd55e13d	-0.052216757
148	0x3ddf4040	0.109009266
149	0xbda06b58	-0.07832974
150	0x3e30e404	0.17274481
151	0x3caf849d	0.02142554
152	0x3da1ed10	0.07906544
153	0xbe4ddd4c	-0.2010395
154	0xbe62ac12	-0.22135952
155	0xbe3ce4b4	-0.18446618
156	0x3d5298b6	0.051415168
157	0x3e46b45f	0.19404744
158	0xbe35b470	-0.17744613
159	0xbdfc65c0	-0.12324095
160	0x3ccbe8a6	0.024891209
161	0xbe255de7	-0.16149102
162	0xbe20df68	-0.15710223
163	0xbe49b08b	-0.19696252
164	0xbe4ae513	-0.19813947
165	0x3dab42df	0.08362364
166	0x3d40360d	0.046926547
167	0x3dc5d9dd	0.09660695
168	0xbdf0b647	-0.11753517
169	0x3e4ad04c	0.19806021
170	0x3e8d96fb	0.2765425
171	0x3aa10d21	0.0012287238
172	0xbdb460b7	-0.088075094
173	0xbe3fca3d	-0.18729492
174	0x3e4d7834	0.20065385
175	0x3e18e575	0.14931281
176	0xbe915245	-0.2838308
177	0x3e0b6bd8	0.13615358
178	0xbd97506c	-0.07388386
179	0x3bfb98cc	0.007678127
180	0xbe0ecd46	-0.13945493
181	0x3d706b7a	0.058696248
182	0xbe212587	-0.15736972
183	0xbe48bce6	-0.19603309
184	0xbe0455dc	-0.12923378
185	0x3db74a4f	0.0894972
186	0xbce5315c	-0.027977638
187	0x3ca769de	0.020436224
188	0xbda5794a	-0.08079775
189	0xbe375571	-0.17903687
190	0x3e09ff99	0.13476409
191	0x3dc55d92	0.09636988
192	0x3e0e5305	0.13898857
193	0xbdba4623	-0.09095409
194	0x3c446b84	0.011988524
195	0x3d72c1d6	0.059266888
196	0xbd2d1e22	-0.042265065
197	0xbe0b9c1b	-0.13633768
198	0xbdc34658	-0.095349014
199	0xbd03e3f5	-0.03219982
200	0x3e1418a3	0.14462523
201	0x3c7057a8	0.014669336
202	0x3c617173	0.013759959
203	0xbe2c93fb	-0.16853325
204	0xbdd5d2fb	-0.10440632
205	0x3cd02fdd	0.025413448
206	0x3e702922	0.23453191
207	0x3ce02ad6	0.027364176
208	0xbe17f6ab	-0.1484019
209	0xbdc0ea44	-0.094196826
210	0x3e2ae5d3	0.16689233
211	0xbcec8033	-0.028869724
212	0xbe5832e4	-0.21113163
213	0xbcaf1a1b	-0.021374753
214	0x3e58f640	0.21187687
215	0xbe0fdf67	-0.14050065
216	0xbe2606ca	-0.16213527
217	0x3deaccd5	0.1146485
218	0x3dd5f8ac	0.10447821
219	0x3c632ab9	0.013865166
220	0x3e626a2c	0.22110814
221	0x3e29d7c6	0.16586217
222	0x3e2f451f	0.17116211
223	0xbd1fe010	-0.039032042
224	0x3ccdb41f	0.025110302
225	0x3d116368	0.03549519
226	0xbeb61122	-0.35559946
227	0x3e37eaae	0.17960617
228	0x3e285265	0.16437681
229	0xbe655d20	-0.22398806
230	0xbe45fd25	-0.19334848
231	0x3e08836a	0.1333138
232	0x3d9c7a9b	0.07640573
233	0x3abb3982	0.0014284106
234	0xbe54dff8	-0.20788562
235	0xbe7009fb	-0.23441307
236	0x3d55f250	0.05223304
237	0xbd304955	-0.043038685
238	0x3d063984	0.032769695
239	0xbe448c10	-0.19194055
240	0xbe290adf	-0.16508053
241	0x3cac324f	0.021020083
242	0xbd3be42a	-0.04587189
243	0xbdb8170f	-0.08988773
244	0x3e2fb9d3	0.1716073
245	0xbe0dfb14	-0.1386531
246	0x3e3bd9ed	0.18344851
247	0xbe4bf748	-0.19918549
248	0x3e159d7f	0.14610861
249	0x3e437731	0.19088437
250	0xbe36da34	-0.17856675
251	0x3dea3fe3	0.11437967
252	0x3e2454ee	0.16048023
253	0x3e2758bd	0.16342445
254	0xbe0e89ba	-0.13919726
255	0x3e60708d	0.21917935

layers.10.bias f4 [20]
0	0xbd6578ce	-0.05602341
1	0x3d62a64b	0.05533437
2	0xbc398cf0	-0.011325106
3	0xbc3bb182	-0.011455895
4	0x3dfd5af6	0.12370865
5	0x3e18f621	0.1493764
6	0x3db9e8f5	0.09077636
7	0xbe0cac3a	-0.13737574
8	0xbd8d2712	-0.06892218
9	0x3e0434ba	0.12910739
10	0xbc5b5bd7	-0.013388596
11	0x3dcc9043	0.09988453
12	0x3e41abf4	0.18913251
13	0xbcbdb403	-0.023157125
14	0x3e52933a	0.20563975
15	0x3d8fb6ea	0.0701731
16	0xbe04d698	-0.12972486
17	0xbe39c293	-0.1814063
18	0x3df9220e	0.121646985
19	0x3e57c019	0.21069373

layers.12.weight f4 [20, 20]
0	0xbe21cbee	-0.15800449
1	0x3e1db102	0.15399554
2	0xbe58400a	-0.21118179
3	0x3d8057c4	0.0626674
4	0xbe38627a	-0.18006316
5	0x3c73335e	0.01484379
6	0x3de77e5c	0.11303398
7	0xbdaf140d	-0.08548746
8	0xbd508d6f	-0.05091613
9	0xbe360297	-0.17774425
10	0x3e66d947	0.22543822
11	0x3dd2f067	0.10299759
12	0x3a642778	0.0008703391
13	0xbe0154c8	-0.12629998
14	0xbe61d0cd	-0.22052307
15	0x3e0b11a3	0.13580947
16	0x3dce50a5	0.100739755
17	0xbdd8b08b	-0.10580548
18	0x3d57a7c5	0.052650232
19	0x3e1c346a	0.1525437
20	0x3dc4d890	0.096116185
21	0x3e70be77	0.23510157
22	0xbe1f75b2	-0.15572241
23	0xbdece930	-0.115679145
24	0xbcfa4f55	-0.030555407
25	0xbcaf6f09	-0.02141525
26	0xbe3b9ee1	-0.18322326
27	0xbe037873	-0.12838916
28	0x3c2888be	0.010286508
29	0xbe1de8ac	-0.15420789
30	0x3e2f3687	0.17110644
31	0xbe16db30	-0.14732051
32	0xbd2442fd	-0.040102948
33	0xbe22e693	-0.1590827
34	0x3e2e2135	0.17004855
35	0x3e3e779c	0.18600315
36	0xbe2666d3	-0.16250162
37	0xbd4c4f01	-0.04988003
38	0xbe259cc9	-0.1617309
39	0xbe2ac07b	-0.16674988
40	0x3e611a70	0.21982741
41	0x3ea89299	0.32924345
42	0x3dfe6c71	0.12423027
43	0xbdab3624	-0.08359936
44	0xbd77cbcf	-0.0604971
45	0x3dadfafc	0.08495137
46	0xbded62ca	-0.11591108
47	0xbe2d71b4	-0.16937906
48	0xbe63f6d3	-0.22262125
49	0xbdbb3f9b	-0.09142991
50	0xbdf82b3c	-0.12117621
51	0x3e99560b	0.29948458
52	0xbd38c4ed	-0.045109678
53	0xbe27debb	-0.16393559
54	0xbda76630	-0.081737876
55	0x3eb74b81	0.35799792
56	0x3e072bf5	0.13200362
57	0x3d3dc536	0.046330653
58	0xbe5148a9	-0.20437874
59	0x3dbce790	0.092238545
60	0x3e0aaf17	0.13543354
61	0xbe3fd66f	-0.18734144
62	0x3cb678a9	0.022274332
63	0x3d9fda40	0.078053
64	0xbd4de75f	-0.05026948
65	0x3e2f524e	0.1712124
66	0x3e5fa771	0.21841218
67	0xbe3e06cc	-0.1855728
68	0x3d283493	0.041065764
69	0xbd95a152	-0.0730616
70	0x3e2cd364	0.16877514
71	0xbe090d90	-0.1338408
72	0x3dd93887	0.10606485
73	0xbda3d7eb	-0.080001675
74	0x3d518973	0.051156472
75	0xbe815a0d	-0.25264016
76	0x3e23a603	0.15981297
77	0x3e629814	0.22128326
78	0xbdcf9414	-0.101356655
79	0xbdf7b939	-0.12095875
80	0xbe452aee	-0.19254658
81	0xbceb3556	-0.028711956
82	0xbe1b310c	-0.15155429
83	0x3c808821	0.015689911
84	0xbe5e1285	-0.21686752
85	0x3cb76e3b	0.02239143
86	0xbca28785	-0.019840011
87	0xbe75054e	-0.23927805
88	0x3d8bd621	0.06827951
89	0x3e130bab	0.1435992
90	0xbdb0d4f9	-0.08634371
91	0x3e198974	0.1499384
92	0x398fcab0	0.000274261
93	0x3e2834ce	0.16426393
94	0x3e27252b	0.16322772
95	0xbe8840c6	-0.26611918
96	0xbe17e746	-0.14834318
97	0x3db49e6e	0.088192806
98	0xbdfb82e6	-0.12280826
99	0xbe61c9d7	-0.22049652
100	0x3e5fca6a	0.21854559
101	0xbd92ac88	-0.07161814
102	0x3e46e70f	0.1942408
103	0x3e6655f7	0.2249373
104	0xbdf5b7d5	-0.11997954
105	0xbe263643	-0.16231637
106	0xbd096011	-0.03353888
107	0xbd1cefa2	-0.03831447
108	0x3e0a39c2	0.13498595
109	0x3d684cef	0.056713995
110	0x3d2adaaa	0.04171244
111	0xbe022dd6	-0.12712798
112	0x3c3bd2fe	0.011463879
113	0xbdab7c11	-0.08373273
114	0xbe53f78d	-0.20699902
115	0x3c0146ce	0.007890416
116	0x3e402cef	0.18767141
117	0xbac6c84b	-0.0015165893
118	0xbe14b294	-0.14521247
119	0xbe437976	-0.19089302
120	0xbe4f4bf8	-0.20243824
121	0xbe6aa372	-0.22913912
122	0x3e2f3387	0.171095
123	0x3d16e7a6	0.03684201
124	0xbd43cb7d	-0.047801483
125	0x3c2acacf	0.01042433
126	0x3d41d528	0.047322422
127	0xbe35fcf0	-0.17772269
128	0xbcb17d46	-0.02166618
129	0x3e0ebada	0.13938466
130	0x3e11c036	0.14233479
131	0xbe7923d4	-0.24330074
132	0x3dc1bf18	0.09460276
133	0xbe241a5b	-0.16025679
134	0x3daf4539	0.08558125
135	0x3daddbe4	0.084892064
136	0xbcfac685	-0.03061224
137	0xbe105204	-0.14093786
138	0x3e0c0f46	0.13677701
139	0x3df08a72	0.11745156
140	0xbd8a0403	-0.067390464
141	0xbdd5de40	-0.104427814
142	0xbe0fb276	-0.14032921
143	0xbe082440	-0.13295078
144	0xbe335eee	-0.17516682
145	0x3c940dbc	0.018072955
146	0xbde3a917	-0.11116236
147	0xbd9f6513	-0.0778295
148	0x3c9aaa9a	0.018880177
149	0xbdac53cd	-0.08414421
150	0xbc8928cb	-0.016743084
151	0x3e369179	0.17828931
152	0x3e60b188	0.21942723
153	0xbe328cca	-0.1743652
154	0xbe12550a	-0.14290252
155	0xbe371b18	-0.17881429
156	0xbe37720e	-0.17914602
157	0x3e18e0ed	0.14929552
158	0x3dee26ec	0.116285175
159	0xbd4c61c8	-0.04989794
160	0x3e40cb80	0.18827629
161	0x3dbfef79	0.09371848
162	0x3db95e29	0.09051163
163	0xbe8e8256	-0.27833813
164	0x3e8167b8	0.25274444
165	0x3e528b1a	0.20560876
166	0x3d2125cf	0.039342698
167	0xbe5eac03	-0.21745305
168	0xbe8512bd	-0.2599086
169	0x3def9d82	0.11699964
170	0x3dbcbda6	0.0921586
171	0x3e5db45c	0.21650833
172	0xbe85734a	-0.2606452
173	0x3df90559	0.12159223
174	0x3d02e6b4	0.031958297
175	0x3ead9ce6	0.33908767
176	0xbe12bf4f	-0.14330791
177	0x3e07823b	0.13233273
178	0xbe17c7c1	-0.14822294
179	0x3e797871	0.24362351
180	0xbe327ff2	-0.1743162
181	0x3d8dcbb2	0.069236174
182	0x3e0811eb	0.13288085
183	0x3d7fe83d	0.06247734
184	0xbe195518	-0.14973867
185	0xbd197b87	-0.03747132
186	0x3e340d05	0.17583092
187	0x3e2aa61c	0.16664928
188	0x3e099dd7	0.13439117
189	0xbe6c4520	-0.23073244
190	0xbcfca0ed	-0.030838454
191	0x3dda0675	0.10645763
192	0xbd710939	-0.058846686
193	0x3e0f3143	0.13983636
194	0x3d33850a	0.043828048
195	0xbe1954ba	-0.14973727
196	0x3b81ae35	0.0039575347
197	0x3d467ae3	0.048457038
198	0xbe30d101	-0.17267229
199	0xbcdfa1c6	-0.02729882
200	0xbc50fc5e	-0.0127554815
201	0xbb2e1fe5	-0.0026569304
202	0xbe581d98	-0.21105039
203	0xbcd07e2a	-0.025450785
204	0xbe5a36c7	-0.21309958
205	0xbe3b7ed3	-0.18310098
206	0x3e75a7d6	0.23989806
207	0xbdb6d698	-0.08927649
208	0xbd3b428d	-0.045717765
209	0xbdfc4122	-0.123171106
210	0x3d941e69	0.07232363
211	0xbe326590	-0.17421556
212	0x3b940b7c	0.0045179706
213	0xb9bf4e8e	-0.00036488887
214	0x3ca2e0e5	0.019882629
215	0xbe19f81d	-0.15036054
216	0xbe04834c	-0.12940711
217	0xbc1ab925	-0.009443556
218	0xbda19ca5	-0.07891206
219	0xbd3fde4d	-0.046842862
220	0xbe0895f9	-0.1333846
221	0xbe65af0c	-0.22430056
222	0xbcb275d9	-0.02178471
223	0x3d8229d3	0.063556336
224	0x3da39d87	0.0798903
225	0xbb32d6e7	-0.0027288736
226	0x3bf474a6	0.0074601946
227	0x3d89eb5e	0.06734346
228	0xba281df5	-0.00064131554
229	0xbd0bd1ee	-0.03413575
230	0x3dce967b	0.100872956
231	0xbe9366ef	-0.2878947
232	0xbd3120c8	-0.043244153
233	0x3e4959b3	0.19663124
234	0xbc7c847e	-0.015412448
235	0x3cb21a58	0.021741077
236	0x3cb575e7	0.022150947
237	0xbe2c9721	-0.16854526
238	0x3df878cb	0.121324144
239	0x3e279d47	0.1636859
240	0x3dba29b2	0.09089984
241	0x3d6b3180	0.057420254
242	0xbd55e751	-0.052222554
243	0x3cf23ff1	0.029571505
244	0xbe1227be	-0.14272973
245	0xbd0a5895	-0.033775885
246	0x3e0de203	0.13855748
247	0x3c6ba9a8	0.014383711
248	0xbd9f260b	-0.07770928
249	0xbd9a2a7f	-0.07527637
250	0x3e5b8db4	0.21440774
251	0x3e0ac767	0.13552628
252	0xbcdd2941	-0.02699721
253	0xba30d555	-0.0006745656
254	0xbd1d2aca	-0.038370885
255	0x3c1d6211	0.0096059

layers.12.bias f4 [20]
0	0xbcc1a997	-0.023640437
1	0x3dceae94	0.10091892
2	0xbcdc7ecc	-0.02691593
3	0xbe54ac12	-0.20768765
4	0xbe0d75b6	-0.13814434
5	0xbdca1cc2	-0.09868766
6	0x3d24a7d9	0.040199134
7	0xbe56f34d	-0.2099125
8	0xbe5e7b89	-0.21726812
9	0xbcfadfbc	-0.030624263
10	0xbd8808b9	-0.06642289
11	0xbd87c6c9	-0.06629712
12	0x3d0855a5	0.033284802
13	0xbdc78c8d	-0.09743605
14	0x3d153d8d	0.036435653
15	0xbd3f5c53	-0.046718907
16	0x3dc7bfd0	0.09753382
17	0x3e42bb5c	0.19016784
18	0x3e253a6e	0.1613557
19	0x3de329ce	0.11091958
