Models_Data_Figures/BURGERS/Burgers_Collocation/Models/100_5.pth (torch, 17524 bytes, 17 tensors)

layers.0.weight f4 [20, 2]
0	0xbec5c6d7	-0.38628265
1	0x3e168821	0.14700367
2	0x3f17850f	0.59187406
3	0x3efc9036	0.49328774
4	0x3ed1b95c	0.4096173
5	0x3e168e24	0.1470266
6	0xbdeb0395	-0.114752926
7	0x3ebd4aa8	0.3697102
8	0x3edf4899	0.43610075
9	0xbeb571d8	-0.35438418
10	0x3ec62f9f	0.38708207
11	0x3efea5a6	0.49735755
12	0x3ee52320	0.4475336
13	0xbc868883	-0.016422516
14	0xbf0fc81b	-0.5616471
15	0x3f0aec8c	0.5426719
16	0xbf4c5827	-0.7982201
17	0x3ecfa6e8	0.40557027
18	0x3f8ba056	1.0908306
19	0xbeb20698	-0.34770656
20	0xbee94b58	-0.45565295
21	0x3e4c17fd	0.19931026
22	0x3ecd3dad	0.40086117
23	0x3c807038	0.01567851
24	0xbec42c0d	-0.38314858
25	0x3e02be4a	0.12767902
26	0xbec36224	-0.38160813
27	0xbee29fdb	-0.44262585
28	0xbe02a3c8	-0.1275779
29	0x3f19ac9f	0.60029024
30	0xbe25f327	-0.16206037
31	0x3d87a282	0.06622793
32	0x3e87f317	0.2655265
33	0xbea29cc5	-0.3176023
34	0xbf4c36d0	-0.7977114
35	0xbd7e6ae0	-0.062113643
36	0xbe981177	-0.29700825
37	0xbe57910c	-0.21051425
38	0x3f5d9554	0.8655598
39	0x3f223a70	0.6337042

layers.0.bias f4 [20]
0	0x3f2b6512	0.66951096
1	0xbf18a756	-0.59630334
2	0xbf01cc5e	-0.50702465
3	0x3dd741a7	0.10510569
4	0xbf5a1f04	-0.85203576
5	0x3f82e1fc	1.0225215
6	0xbf10d2c7	-0.5657162
7	0x3ef8639e	0.48513502
8	0x3f4ed7cb	0.80798024
9	0x3f26b747	0.6512341
10	0xbbf07df0	-0.0073392317
11	0x3f078cdd	0.52949315
12	0xbe1e1568	-0.15437853
13	0xbe9e9696	-0.30974263
14	0xbdcd9061	-0.10037304
15	0x3ed9e860	0.425601
16	0xbe720f45	-0.23638637
17	0x3f06f2f2	0.52714455
18	0xbf49d6e0	-0.788435
19	0x3bf7c986	0.0075618653

layers.2.weight f4 [20, 20]
0	0x3e49db1e	0.19712493
1	0x3cf2fc1d	0.029661233
2	0xbee13560	-0.43986034
3	0x3d36d6e4	0.04463853
4	0x3edf0d5f	0.4356489
5	0x3dae9751	0.08524955
6	0xbe15ea88	-0.14640248
7	0x3e093e2a	0.1340262
8	0xbeb3c5fc	-0.35111988
9	0xbde259cc	-0.11052284
10	0xbe8c5194	-0.2740599
11	0xbedd362a	-0.43205386
12	0xbe2cae2c	-0.16863316
13	0x3dc49ff7	0.096008234
14	0xbdb94dea	-0.09048064
15	0xbe6594ef	-0.22420095
16	0x3da57dde	0.08080648
17	0x3f26fbf8	0.65228224
18	0xbd624743	-0.05524374
19	0x3d65fdfc	0.05615042
20	0xbe1784cb	-0.1479675
21	0x3e7a9ea5	0.2447458
22	0x3d25d885	0.040489692
23	0x3e12df08	0.14342892
24	0xbd8e4f81	-0.06948758
25	0xbdf9ed91	-0.12203515
26	0xbe0e679b	-0.1390671
27	0xbd873f55	-0.066038765
28	0x3e1a96a3	0.15096526
29	0x3df94089	0.12170512
30	0x3dcb3f35	0.09924165
31	0xbd9b010e	-0.075685605
32	0xbe8d015f	-0.2754011
33	0x3e1a4e71	0.15068986
34	0xbe053958	-0.13010156
35	0xbbac84c0	-0.0052648485
36	0xbeff2ef8	-0.49840522
37	0xbe50db1e	-0.20396087
38	0xbf0ae368	-0.54253244
39	0x3e49a77a	0.19692793
40	0x3cc21293	0.023690498
41	0x3e00f6ba	0.12594119
42	0xbe2b6ca3	-0.1674066
43	0x3e42210f	0.18957923
44	0x3e9d41f9	0.30714396
45	0xbdf5b7c3	-0.119979404
46	0x3e497a89	0.1967565
47	0xbe749442	-0.23884681
48	0xbb8d428d	-0.004310912
49	0xbe43cbbe	-0.1912069
50	0xbe29884f	-0.16555904
51	0x3dc7f6ed	0.09763894
52	0x3dea6a54	0.11446062
53	0x3e412bf2	0.1886442
54	0xbe71f15d	-0.23627229
55	0xbd4d9ec9	-0.050200257
56	0xbe8da793	-0.2766691
57	0xbd8ca970	-0.06868255
58	0xbda39abf	-0.079885
59	0x3d7a26a7	0.061072018
60	0x3e321e97	0.17394482
61	0x3da6c8a9	0.08143742
62	0x3ddeebca	0.10884817
63	0xbe308f6a	-0.17242208
64	0x3ebf6968	0.37385106
65	0xbe0af5fd	-0.135704
66	0xbe482343	-0.19544701
67	0x3e77f6b5	0.24215205
68	0xbf149ef9	-0.58055073
69	0xbe90a300	-0.2824936
70	0xbe87d276	-0.26527756
71	0xbcbd3150	-0.023094803
72	0xbde9fe1c	-0.11425421
73	0xbf150524	-0.5821097
74	0xbf3c56f7	-0.735702
75	0x3dda120f	0.10647976
76	0xbdde099f	-0.10841679
77	0x3b8a32e0	0.0042174906
78	0x3f02741a	0.50958407
79	0x3e435c36	0.19078144
80	0xbd3243e7	-0.043521788
81	0x3ef7cba9	0.48397568
82	0x3e823466	0.25430602
83	0xbea80fef	-0.32824656
84	0x3e9b68c7	0.30353376
85	0x3dc28106	0.094972655
86	0x3cd8e343	0.026475554
87	0xbd1cc061	-0.038269404
88	0x3d7ccdce	0.06171971
89	0x3d9545b2	0.07288684
90	0x3e30c946	0.1726428
91	0x3ef7d438	0.48404098
92	0x3d6d0bd8	0.057872623
93	0x3b5badff	0.0033520458
94	0xbecc7b4f	-0.39937827
95	0x3e49faf5	0.19724639
96	0xbf0206d4	-0.5079167
97	0xbeb64cd6	-0.35605496
98	0x3de9f161	0.114229925
99	0x3e8392ad	0.25697842
100	0x3bfce756	0.007718007
101	0xbe961c5c	-0.2931851
102	0x3e68d2d6	0.22736678
103	0xbe65ad16	-0.22429308
104	0xbda9bb1c	-0.082876414
105	0xbd27864a	-0.040899552
106	0x3e656c02	0.22404483
107	0xbdc8f936	-0.09813158
108	0x3dc68c67	0.09694748
109	0x3e60a65a	0.21938458
110	0xbd71902f	-0.058975395
111	0xbbb2226b	-0.005436232
112	0x3eabf3d3	0.3358446
113	0xbe45736b	-0.1928231
114	0xbe7b8dcb	-0.24565808
115	0x3e300743	0.1719027
116	0x3e97ac9d	0.2962388
117	0x3dc540a9	0.096314736
118	0x3ef42df7	0.47691318
119	0x3cfe071b	0.031009248
120	0xbe9fc3e1	-0.3120413
121	0xbda5c338	-0.08093876
122	0xbe7b2b47	-0.24528228
123	0xbe0a5846	-0.13510236
124	0xbe1d2fae	-0.1535022
125	0xbeb5ea7a	-0.35530454
126	0xbdb1d7a2	-0.08683707
127	0xbbde66bc	-0.0067871492
128	0x3e789f29	0.24279465
129	0xbddf4caa	-0.109032944
130	0xbe90cf1f	-0.2828302
131	0xbd643980	-0.0557189
132	0x3dab1fd4	0.0835568
133	0xbd8fe5ad	-0.07026229
134	0x3df74001	0.12072755
135	0x3da2ecf6	0.07955353
136	0xbe60df31	-0.21960141
137	0x3e11847a	0.14210692
138	0xbc64902e	-0.013950391
139	0xbdde44d0	-0.10852969
140	0xbe27565a	-0.16341534
141	0x3ed8f4fb	0.42374405
142	0xbf051a15	-0.51992923
143	0x3e83b047	0.25720426
144	0x3ef63260	0.48085308
145	0xbf101bec	-0.56292605
146	0xbed02d70	-0.40659666
147	0xbeb16fa9	-0.34655502
148	0xbecb76ba	-0.3973902
149	0xbe143221	-0.14472248
150	0xbf176c8f	-0.5915002
151	0xbef54790	-0.4790616
152	0xbe85d64f	-0.26140067
153	0x3ed29ae8	0.4113381
154	0xbd93cd62	-0.07216908
155	0xbde57140	-0.11203241
156	0xbef231c0	-0.4730358
157	0x3eae8d8c	0.34092367
158	0xbe7fe524	-0.24989754
159	0x3d01a2cb	0.031649392
160	0x3e22466f	0.15847181
161	0xbe0538dc	-0.13009971
162	0xbdb25271	-0.08707131
163	0x3e528565	0.20558698
164	0x3e0e1225	0.13874109
165	0xbd7818a4	-0.060570374
166	0xbea09f8e	-0.3137173
167	0x3d5ff03e	0.054672472
168	0x3d34d917	0.044152346
169	0xbe7d7cf0	-0.24754691
170	0xbde4d97b	-0.111742936
171	0xbe44a804	-0.19204718
172	0xbe05e3a0	-0.13075113
173	0xbc7ea291	-0.015541689
174	0xbdd98477	-0.10620969
175	0xbc43d07e	-0.011951564
176	0xbe59cc75	-0.212694
177	0x3eb9b02b	0.36267218
178	0x3d1eecb2	0.03879995
179	0xbe2c5466	-0.1682907
180	0x3d0fbdbe	0.03509306
181	0xbdc9376b	-0.09825023
182	0x3e249dc2	0.16075805
183	0xbe22e7eb	-0.15908782
184	0x3dbafb59	0.09129972
185	0xbe437d3e	-0.19090745
186	0x3c9532d6	0.018212717
187	0x3f0016c6	0.5003475
188	0x3cab6ef2	0.020926926
189	0xbe845488	-0.25845742
190	0xbe109adb	-0.14121573
191	0x3e2f3c26	0.17112789
192	0x3d5f87f6	0.05457302
193	0xbec0994f	-0.37616965
194	0xbe170f14	-0.14751846
195	0xbd047854	-0.032341316
196	0xbd4c0338	-0.049807757
197	0x3d650d24	0.055920735
198	0x3e94fe7b	0.29100403
199	0x3deae795	0.11469952
200	0x3e3741ea	0.17896238
201	0xbd7b2772	-0.061316915
202	0x3da0a083	0.07843115
203	0xbeaecacd	-0.341391
204	0x3e0d6dfa	0.13811484
205	0x3e3c699f	0.18399666
206	0x3d8fe5ba	0.07026239
207	0x3dd14b6f	0.10219466
208	0xbe045591	-0.12923266
209	0x3d2249e3	0.039621245
210	0x3db94e75	0.090481676
211	0x3e78a474	0.24281484
212	0xbdd4a7ad	-0.10383544
213	0xbb0908cf	-0.0020909791
214	0xbe437615	-0.19088013
215	0x3e124a79	0.14286222
216	0x3e604402	0.21900943
217	0xbe417613	-0.18892698
218	0xbd87116f	-0.06595122
219	0x3cf2b1ff	0.02962589
220	0xbe27e9a2	-0.16397718
221	0xbd93d4f4	-0.07218352
222	0xbed6d289	-0.419575
223	0xbea26c12	-0.31723076
224	0x3ea796eb	0.3273233
225	0xbf0a2851	-0.5396777
226	0xbeafc70e	-0.34331554
227	0xbe0ac096	-0.13550028
228	0xbe759fb1	-0.23986699
229	0xbd8fc90a	-0.07020767
230	0xbeabb158	-0.3353374
231	0xbef19a62	-0.47188097
232	0xbea35a78	-0.3190496
233	0x3eb09f79	0.34496668
234	0x3d7d9ff5	0.061920125
235	0xbd4f7c69	-0.050655756
236	0xbed69740	-0.4191227
237	0x3f25b011	0.6472178
238	0x3d958350	0.073004365
239	0xbe3355d2	-0.17513207
240	0xbe7d795b	-0.24753325
241	0x3e78d46d	0.24299784
242	0x3f1b92e9	0.6077104
243	0x3e34071e	0.1758084
244	0xbe9f85a7	-0.31156656
245	0xbe01bb66	-0.12669143
246	0x3f2ab9a0	0.6668949
247	0xbe82ea0d	-0.25569192
248	0xbeb7b7ef	-0.35882518
249	0x3eeb5151	0.45960477
250	0x3ee74117	0.45166847
251	0x3f3678e4	0.71278214
252	0x3f0615f3	0.5237724
253	0xbe6abda6	-0.22923908
254	0xbd881d23	-0.066461824
255	0xbea8c030	-0.32959127

layers.2.bias f4 [20]
0	0x3cc77bd3	0.024351036
1	0xbd52e851	-0.051491085
2	0xbe87b8eb	-0.2650827
3	0x3e16e00d	0.14733906
4	0x3ea74d9d	0.32676402
5	0x3dedbe30	0.11608541
6	0xbe623863	-0.22091822
7	0xbd434eba	-0.0476825
8	0x3ec3c2a0	0.38234425
9	0x3e80e196	0.25172108
10	0xbe0f7c85	-0.14012344
11	0x3eb4decb	0.35326228
12	0xbdf30928	-0.11866981
13	0xbd1a556d	-0.037679125
14	0xbea6a0be	-0.32544512
15	0xbe47c73f	-0.195096
16	0x3ed41286	0.41420382
17	0x3e7d50eb	0.24737899
18	0xbe8226e8	-0.25420308
19	0xbd30ee2e	-0.043195896

layers.4.weight f4 [20, 20]
0	0x3e089017	0.13336216
1	0x3e74dd77	0.23912607
2	0xbc1efc8b	-0.009703766
3	0xbef35020	-0.47522068
4	0x3a67b298	0.0008838563
5	0xbe73de09	-0.23815168
6	0x3d24fa12	0.040277548
7	0x3dc3506c	0.09536824
8	0xbe493009	-0.1964723
9	0xbe005ed0	-0.12536168
10	0xbe53db8b	-0.20689218
11	0xbd127730	-0.035758197
12	0xbe224594	-0.15846854
13	0xbd326fd0	-0.043563664
14	0xbd9ee889	-0.07759196
15	0xbd951bba	-0.07280679
16	0x3e3075d6	0.17232451
17	0xbe70b0e5	-0.2350498
18	0x3e72c4dd	0.2370791
19	0xbd417a3d	-0.047235716
20	0xbf040013	-0.51562613
21	0xbe11d7d3	-0.14242487
22	0xbda99d27	-0.082819276
23	0x3e993d9b	0.29929814
24	0x3ed86dca	0.42271262
25	0x3e7aa005	0.24475105
26	0x3de91638	0.11381191
27	0xbec472fe	-0.38368982
28	0x3e3c5619	0.18392219
29	0x3ecc9393	0.3995634
30	0xbdcbadd9	-0.09945268
31	0xbe9d4581	-0.3071709
32	0xbe92d9d7	-0.28681824
33	0xbed905ad	-0.42387143
34	0xbe0982c1	-0.13428785
35	0xbe13f520	-0.14448977
36	0x3d3811f1	0.044938985
37	0x3de8897f	0.1135435
38	0xbe8acde5	-0.2711021
39	0x3d5589ed	0.05213349
40	0x3d975e0d	0.07390986
41	0x3dee93f8	0.116493165
42	0x3db8c919	0.09022731
43	0xbe26a2a0	-0.16272974
44	0x3d166385	0.036716003
45	0x3e5386f5	0.20656951
46	0xbda5b71f	-0.08091568
47	0xbe008540	-0.12550831
48	0xbe6f52ed	-0.23371477
49	0xbdfb4fed	-0.12271104
50	0x3e2c4bb7	0.16825758
51	0xbc3c31b8	-0.011486463
52	0x3e763f91	0.24047686
53	0xbe113396	-0.14179835
54	0xbe8e786e	-0.27826256
55	0x3e0d82a3	0.13819365
56	0x3d31c098	0.043396562
57	0x3e2caf57	0.16863762
58	0x3df81a44	0.12114385
59	0x3e484afd	0.19559856
60	0x3daf0b71	0.08547104
61	0xbe9c424c	-0.3051933
62	0xbdc5d5e2	-0.096599355
63	0x3e0d3d11	0.13792826
64	0xbdcffb00	-0.10155296
65	0x3dd2efb6	0.102996275
66	0xbd0a5b2b	-0.03377835
67	0x3d2c3a36	0.0420477
68	0xbe39e52a	-0.18153825
69	0x3e8011b7	0.25013515
70	0x3e1e8976	0.15482125
71	0x3e608724	0.21926552
72	0x3d3c0fd4	0.045913532
73	0xbdcc9335	-0.09989015
74	0xbd44f412	-0.048084326
75	0xbdfa96cf	-0.12235796
76	0x3d9186a3	0.07105758
77	0x3e8b37b2	0.2719093
78	0xbc906ae5	-0.017629096
79	0xbdff789d	-0.12474177
80	0x3e7a0540	0.24416065
81	0xbe26e071	-0.16296555
82	0x3b37fcee	0.0028074342
83	0x3e14f8eb	0.1454808
84	0xbeb9758c	-0.36222494
85	0xbd83127b	-0.06400009
86	0xbe63d187	-0.22247897
87	0xbe0a6b62	-0.13517526
88	0x3e611855	0.21981938
89	0x3c74f5f9	0.014951223
90	0x3e41b4b4	0.18916589
91	0x3e0aec20	0.13566637
92	0xbd29d2f6	-0.041460954
93	0x3e28cd4f	0.16484569
94	0xbe253c3f	-0.16136263
95	0x3e4c71ab	0.19965236
96	0x3c1dceec	0.009631854
97	0xbe263b9f	-0.16233681
98	0xbed1bee3	-0.40965948
99	0x3d0fe4ee	0.035130434
100	0xbe7305c0	-0.23732662
101	0x3d21ee62	0.03953398
102	0x3d6f9365	0.058490176
103	0x3d5e152c	0.05421941
104	0xbdfb6079	-0.1227426
105	0xbd2674b2	-0.040638633
106	0x3de90668	0.11378175
107	0x3cfa011b	0.030518105
108	0x3d93c618	0.07215518
109	0x3dec7ed5	0.11547629
110	0xbaece7f2	-0.0018074496
111	0xbd3bfd10	-0.045895636
112	0xbef69a44	-0.4816457
113	0x3eba8228	0.36427426
114	0x3d1fabcf	0.03898221
115	0xbd0b2013	-0.033966135
116	0x3e05a8d4	0.13052684
117	0xbdeb5c49	-0.11492211
118	0x3ec24f1f	0.3795099
119	0x3df71b1a	0.12065716
120	0xbcc89a17	-0.024487538
121	0x3e944e31	0.28965905
122	0x3d633e55	0.055479366
123	0xbe30fa64	-0.17283016
124	0x3d479f34	0.048735812
125	0xbe682cfb	-0.22673409
126	0x3ae94b34	0.0017798902
127	0xbcd9c990	-0.02658537
128	0x3df288d1	0.11842502
129	0xbe47fd86	-0.19530305
130	0xbe5dc276	-0.21656212
131	0x39c8f2ff	0.0003832802
132	0xbd97348a	-0.07383068
133	0xbe07eb12	-0.13273266
134	0x3db34fbe	0.08755444
135	0x3d8480fc	0.06469914
136	0x3e1058e6	0.14096412
137	0xbe888a34	-0.2666794
138	0xbd600135	-0.05468865
139	0xbe1a87c8	-0.15090859
140	0xbe01a8a0	-0.12661982
141	0x3e452f61	0.19256355
142	0x3e699c03	0.2281342
143	0x3df3a8aa	0.118974045
144	0xbe27beae	-0.16381332
145	0xbe2369d3	-0.15958337
146	0xbe46381e	-0.19357345
147	0xbb1358bf	-0.0022483317
148	0xbd31495b	-0.043282848
149	0xbe62c295	-0.2214454
150	0x3e634bee	0.22196934
151	0xbe016651	-0.12636687
152	0x3cef56a5	0.02921612
153	0xbdd48af0	-0.10378063
154	0x3e2f2d1b	0.1710705
155	0xbc6b06be	-0.014344869
156	0x3d458efc	0.048232064
157	0xbe0c335d	-0.13691469
158	0x3db9718b	0.0905486
159	0x3d1367c1	0.03598762
160	0xbc73209e	-0.0148393195
161	0x3e24df31	0.16100766
162	0x3e1591a6	0.14606342
163	0xbdeed89f	-0.11662411
164	0xbe3e908d	-0.18609829
165	0xbd4ffe7d	-0.05077981
166	0x3e4d681a	0.20059243
167	0x3f174278	0.590858
168	0x3e950214	0.29103148
169	0xbe518408	-0.20460522
170	0xbea564f9	-0.323036
171	0x3ea71810	0.32635546
172	0xbe817cf2	-0.25290638
173	0x3f4457e9	0.7669664
174	0x3e9b5238	0.30336165
175	0x3e82d5b4	0.25553668
176	0xbd460e26	-0.048353337
177	0xbec4336a	-0.38320476
178	0xbca4de74	-0.020125605
179	0xbe8ed340	-0.27895546
180	0x3e48555d	0.19563814
181	0xbe29c106	-0.16577539
182	0xbde8f4be	-0.11374806
183	0xbe7e28b9	-0.24820222
184	0xbc3564d7	-0.011071405
185	0x3d4e7a21	0.05040944
186	0x3db6d388	0.08927065
187	0xbeb229ef	-0.34797618
188	0x3cbc5464	0.02298946
189	0xbd108ba0	-0.035289407
190	0x3cbd2c0f	0.023092298
191	0xbd8d1307	-0.06888395
192	0x3c477e42	0.012176098
193	0xbeaab049	-0.3333762
194	0x3e019ba5	0.1265703
195	0x3d505030	0.050857723
196	0x3e49b7d0	0.19699025
197	0x3b6ed5cc	0.003644335
198	0x3e66ee51	0.22551848
199	0xbde1fdec	-0.1103476
200	0xbe298c08	-0.16557324
201	0x3eba8296	0.36427754
202	0x3d682efa	0.056685425
203	0xbdc25745	-0.094893016
204	0x3e9b2973	0.3030506
205	0xbe87db4b	-0.26534495
206	0x3e17e10e	0.14831945
207	0x3c1b88e0	0.009493083
208	0x3e977e57	0.29588577
209	0xbdff8983	-0.124774
210	0xbe4ce557	-0.20009361
211	0x3d1f09be	0.03882765
212	0xbed8228d	-0.4221386
213	0x3e3daff8	0.18524158
214	0x3ebec17b	0.3725699
215	0x3e1d44f6	0.15358338
216	0x3e53b054	0.20672733
217	0xbe729502	-0.23689654
218	0x3e99c2b9	0.30031374
219	0x3dfaf51c	0.12253782
220	0x3e7f4f19	0.24932517
221	0xbdcced95	-0.10006253
222	0x3e7b12b7	0.24518858
223	0x3f21ae43	0.6315653
224	0x3ee4cb70	0.4468646
225	0x3c44a69e	0.012002615
226	0xbdd3c2a9	-0.10339863
227	0x3f1a96c4	0.603863
228	0x3e45c9d8	0.19315279
229	0x3e26b79e	0.16280982
230	0xbe29d00c	-0.1658327
231	0x3ea23e07	0.31687948
232	0x3d6b7268	0.057482153
233	0x3f263401	0.649231
234	0x3e3b16b9	0.18270387
235	0x3cda70dc	0.026665144
236	0xbe72ed90	-0.23723435
237	0xbd200934	-0.039071277
238	0xbc2a0311	-0.010376708
239	0xbd625795	-0.055259306
240	0x3e459287	0.19294177
241	0x3d5f9351	0.05458385
242	0xbe6ab373	-0.22920017
243	0x3e3d964e	0.18514368
244	0x3da10e40	0.07864046
245	0x3e32e9b5	0.17471965
246	0x3d7fe63d	0.06247543
247	0xbd3ec637	-0.04657575
248	0xbdf30fa8	-0.118682206
249	0x3ea10e7f	0.31456372
250	0xbd0df012	-0.034652777
251	0x3d8f59c7	0.069995455
252	0xbe5f6811	-0.21817042
253	0xbe6c5631	-0.23079754
254	0x3cd8268a	0.026385564
255	0x3e42585a	0.18979016

layers.4.bias f4 [20]
0	0xbeafc6ec	-0.34331453
1	0x3e6f49c2	0.2336798
2	0x3d371a1f	0.044702645
3	0xbdafa4f2	-0.08576383
4	0x3bd121c2	0.006382198
5	0x3dfbf53e	0.123026356
6	0xbe54e4ce	-0.20790407
7	0xbe40c440	-0.18824863
8	0xbc5ab9d1	-0.013349966
9	0xbe41d7fd	-0.18930049
10	0xbe009b42	-0.12559226
11	0x3ee3ff51	0.44530728
12	0xbd25ebc4	-0.040508047
13	0xbe9d941d	-0.30777064
14	0xbe1ef820	-0.1552434
15	0xbd2c57ac	-0.042075798
16	0x3dab3cbe	0.08361195
17	0x3db5b787	0.08872896
18	0x3d973524	0.07383183
19	0xbe61354b	-0.21992986

layers.6.weight f4 [20, 20]
0	0x3e2fac74	0.1715563
1	0xbdf102b8	-0.11768097
2	0x3e531761	0.20614387
3	0x3de6223e	0.11237
4	0x3c22be4a	0.009933064
5	0x3e2c52a3	0.16828398
6	0x3e1ce17e	0.15320393
7	0x3e49c79d	0.19705053
8	0xbe59b3cf	-0.21259998
9	0x3de12d34	0.1099495
10	0x3d9a82d1	0.075444825
11	0xbe2713db	-0.16316168
12	0x3d1ad1c1	0.037797693
13	0xbd7c859a	-0.06165085
14	0xbe259de8	-0.16173518
15	0x3df0fc8b	0.11766919
16	0x3dc8287c	0.09773347
17	0xbc8414ad	-0.01612314
18	0xbe1c8c93	-0.15288
19	0xbdcf6c2e	-0.101280555
20	0xba791e1a	-0.00095030817
21	0x3e872eb2	0.26402813
22	0xbdccaa4e	-0.099934205
23	0xbde7113c	-0.11282584
24	0xbeb93d0a	-0.36179382
25	0x3e863ebe	0.26219743
26	0x3e06acfa	0.13151923
27	0x3d107a8e	0.035273127
28	0x3d948293	0.072514676
29	0xbe4eb796	-0.2018722
30	0x3eb3eb6b	0.35140547
31	0xbe32ea73	-0.17472248
32	0xbd93156e	-0.07181822
33	0xbdb558b7	-0.08854812
34	0x3d7b7cbc	0.061398253
35	0xbe7bf7b5	-0.24606211
36	0x3eaccc81	0.33749774
37	0x3d5bba4a	0.053644456
38	0x3e65b549	0.22432436
39	0xbe210414	-0.15724212
40	0x3d1247c3	0.03571297
41	0x3e900f58	0.28136706
42	0x3c8372f1	0.01604602
43	0xbbadb871	-0.005301528
44	0xbba31c7c	-0.004977761
45	0x3d899b11	0.0671903
46	0xbe3a626c	-0.18201607
47	0xbd9a3ac9	-0.07530744
48	0xbeb4dc19	-0.3532417
49	0xbe3854a0	-0.18001032
50	0x3cb546b7	0.022128446
51	0xbe40dbf4	-0.18833905
52	0xbc605938	-0.013693146
53	0x3d004200	0.031312943
54	0x3e947207	0.28993246
55	0x3cb904a5	0.022585222
56	0xbe5de15f	-0.21668003
57	0x3ca24877	0.019809945
58	0xbe9f2faf	-0.31091067
59	0xbe9ed67f	-0.31023023
60	0xbe7d3119	-0.2472576
61	0x3ec64566	0.38724822
62	0xbcd9d101	-0.026588919
63	0x3e73a4bf	0.23793314
64	0xbe2465c1	-0.16054441
65	0xbb8bead0	-0.004269935
66	0xbd9fec7c	-0.07808778
67	0x3d066a8f	0.032816466
68	0xbf02ac0c	-0.5104377
69	0x3e28623d	0.16443725
70	0x3d7d40c2	0.061829336
71	0xbf355827	-0.70837635
72	0x3e88a60b	0.2668918
73	0xbdc072af	-0.09396874
74	0x3ee52578	0.4475515
75	0xbebffbe6	-0.3749687
76	0xbe6161b8	-0.22009933
77	0xbdeb3fbe	-0.11486767
78	0xbe57add5	-0.21062405
79	0xbf00eac7	-0.5035824
80	0x3d9f9ed5	0.07793967
81	0xbeb12cc9	-0.3460448
82	0xbd4c78a9	-0.049919758
83	0x3d83ae76	0.0642976
84	0x3de00caa	0.109399155
85	0xbe9eeb99	-0.31039122
86	0xbda2bfe3	-0.07946756
87	0xbe1f0f9b	-0.15533297
88	0xbd98b950	-0.074572206
89	0x3e737bfb	0.23777764
90	0xbe883d25	-0.2660915
91	0x3e2eb15d	0.17059846
92	0xbcb432e9	-0.021996932
93	0x3bc20735	0.0059212693
94	0x3e24334d	0.16035195
95	0x3e68ce52	0.22734955
96	0xbdc3c467	-0.09558945
97	0xbd8f069c	-0.069836825
98	0xbe234f23	-0.15948157
99	0x3e2a0167	0.16602097
100	0x3e8f038a	0.27932388
101	0xbe83bcc7	-0.25729963
102	0xbd47e548	-0.048802644
103	0x3e2b3618	0.16719854
104	0x3d1863f7	0.03720471
105	0xbdeef1aa	-0.116671875
106	0xbe205fe9	-0.15661587
107	0xbe17d4ce	-0.14827272
108	0x3eb6f4b6	0.35733575
109	0xbdb9f980	-0.090807915
110	0x3e6b4e44	0.22979075
111	0x3ebfe2ae	0.3747763
112	0xbc535d3f	-0.01290065
113	0x3d132466	0.035923384
114	0x3e2a6c40	0.16642857
115	0x3e5d9980	0.21640587
116	0x3d5d492b	0.054024857
117	0xbda6bd0f	-0.08141529
118	0xbd9cdcab	-0.076592766
119	0x3e8c18b8	0.2736261
120	0x3cfc7f8e	0.030822542
121	0x3e2e7cf0	0.17039847
122	0xbdf8bcbf	-0.121453755
123	0x3d405fcf	0.04696637
124	0xbe6f115a	-0.23346463
125	0xbe70491a	-0.23465386
126	0xbe288b40	-0.1645937
127	0x3de8685d	0.11348031
128	0x3d6fc00c	0.05853276
129	0x3db6f4ce	0.089334115
130	0x3e47e48f	0.19520782
131	0x3e8843f4	0.26614344
132	0xbe0886a8	-0.13332617
133	0x3e01d16d	0.12677546
134	0x3a86f184	0.0010295366
135	0x3eb58f8f	0.3546109
136	0x3dd1eb81	0.10249997
137	0xbc8f4e5a	-0.017493416
138	0x3d9db715	0.07700936
139	0xbd8c65a3	-0.06855323
140	0x3ec3d0cd	0.3824524
141	0xbea66f88	-0.32506967
142	0x3e04dff2	0.12976053
143	0xbdc6d483	-0.09708502
144	0x3e95465c	0.29155242
145	0xbe0b5881	-0.1360798
146	0x3e87e1c6	0.2653944
147	0x3e34983d	0.176362
148	0x3eb92c90	0.3616681
149	0xbd419875	-0.047264535
150	0x3df31792	0.1186973
151	0x3e6822c5	0.22669514
152	0x3cdcf31b	0.02697139
153	0x3e1fa375	0.15589698
154	0xbda20e85	-0.07912926
155	0x3ea8f952	0.33002716
156	0x3e055cc4	0.13023669
157	0xbdf108d2	-0.117692605
158	0x3d661e3b	0.056181174
159	0x3d09b4c7	0.03361967
160	0xbe584729	-0.21120895
161	0x3e18e541	0.14931203
162	0xbd2f7adb	-0.042841773
163	0x3d80c195	0.06286923
164	0x3c0a1bb6	0.008429458
165	0x3e0916b9	0.13387574
166	0xbe613e85	-0.21996506
167	0xbe3b8e0c	-0.18315905
168	0xbd683977	-0.056695428
169	0xbd035881	-0.032066826
170	0x3de4349e	0.111428484
171	0xbe996d87	-0.29966375
172	0xbdd2805d	-0.102783896
173	0xbe9a9317	-0.30190346
174	0xbd1f3755	-0.038871128
175	0xbd208cd2	-0.039196797
176	0x3e4b4c91	0.19853427
177	0x3e4c2cb9	0.19938935
178	0x3e0c7168	0.13715136
179	0x3d510ddb	0.051038604
180	0x3e48782a	0.19577089
181	0x3e459913	0.19296674
182	0xbc320f32	-0.010867881
183	0x3e28e664	0.16494137
184	0x3ca501a1	0.020142378
185	0xbdfaa5ed	-0.12238679
186	0xbe31f210	-0.17377496
187	0x3e4470ec	0.19183701
188	0xbe239a62	-0.15976861
189	0x3d835e00	0.064144135
190	0x3e28d41d	0.16487165
191	0xbbd5bf06	-0.006523016
192	0xbe7548a3	-0.2395349
193	0x3c8f10d2	0.017464075
194	0x3e2eb734	0.17062074
195	0xbe379bc9	-0.17930521
196	0x3e581489	0.21101584
197	0x3cfbc487	0.03073336
198	0x3dede5ec	0.1161612
199	0x3d6a9246	0.057268403
200	0xbdf5b9ec	-0.119983524
201	0x3e630598	0.22170103
202	0xbcb49125	-0.022041867
203	0xbd8ba439	-0.06818432
204	0x3d829800	0.06376648
205	0x3dc1810f	0.09448444
206	0x3b09f9d6	0.0021053455
207	0x3e48e8f3	0.19620113
208	0x3d6ec85c	0.058296546
209	0xbdec903d	-0.11550949
210	0x3a0984d8	0.00052459305
211	0x3e7870d1	0.24261786
212	0x3e15a001	0.14611818
213	0xbe046143	-0.12927727
214	0xbe39d31b	-0.18146937
215	0xbd9b1ab5	-0.07573453
216	0x3d8c9947	0.06865173
217	0x3c9d389c	0.019192033
218	0xbdb8994b	-0.09013613
219	0x3e4018e0	0.18759489
220	0xbe57de5a	-0.21080914
221	0xbd6bb594	-0.057546213
222	0xbd4c00a5	-0.049805302
223	0xbd9a1a0e	-0.07524501
224	0x3e2861be	0.16443536
225	0xbe769b90	-0.2408278
226	0x3df7237f	0.12067317
227	0x3d11f044	0.035629526
228	0xbe247ef8	-0.1606406
229	0x3da1d2ae	0.07901512
230	0xbca7c853	-0.020481264
231	0xbd2d8fa3	-0.04237331
232	0xbdba8bfc	-0.09108731
233	0x3d472871	0.048622552
234	0xbdd59f89	-0.104308195
235	0xbe04c4dc	-0.12965721
236	0xbe3f3c23	-0.18675284
237	0x3da1b6d5	0.078962006
238	0xbe75d874	-0.24008352
239	0x3d4f92e6	0.050677203
240	0xbe1280d7	-0.14306961
241	0x3e4464e6	0.19179115
242	0xbc88d31e	-0.016702231
243	0x3e81ff8e	0.25390285
244	0x3e6e488e	0.23269865
245	0x3bcb656a	0.006207158
246	0xbe856d12	-0.26059777
247	0xbdcc5114	-0.09976402
248	0xbe582826	-0.21109065
249	0xbdf2383f	-0.11827134
250	0xbea0ac65	-0.31381527
251	0x3d6545f3	0.055974912
252	0xbd84a941	-0.06477595
253	0xbc78b72a	-0.015180388
254	0x3ddc1cc7	0.10747676
255	0xbe1bba70	-0.15207839

layers.6.bias f4 [20]
0	0xbe37a815	-0.17935212
1	0x3e1d6120	0.15369081
2	0xbd10993f	-0.035302397
3	0xbcb8aacb	-0.022542378
4	0xbe42546e	-0.1897752
5	0xbe25c7be	-0.16189477
6	0xbde9a030	-0.114075065
7	0xbe17253a	-0.14760295
8	0x3e2fba9e	0.17161033
9	0x3e2548eb	0.16141097
10	0x3e7f16a3	0.24910979
11	0xbe47a743	-0.19497399
12	0x3d7474c1	0.059681658
13	0xbd891520	-0.066934824
14	0xbd9b47af	-0.07582032
15	0x3d137c11	0.03600699
16	0xbef30df7	-0.47471592
17	0x3db3e352	0.08783592
18	0xbd5dc20d	-0.05414014
19	0xbe379ea3	-0.17931609

layers.8.weight f4 [20, 20]
0	0x3caaffe5	0.020873973
1	0x3e3cbae4	0.18430668
2	0x3dbd4b8a	0.092429236
3	0x3e9f0de2	0.3106528
4	0xbe106673	-0.14101581
5	0xbe754c43	-0.23954873
6	0xbe61be6a	-0.22045293
7	0x3d29b054	0.041427925
8	0x3daf3a2f	0.085560195
9	0x3bf1c776	0.007378514
10	0xbe1b8324	-0.15186745
11	0xbdae2d8a	-0.0850478
12	0x3e140aab	0.14457195
13	0x3c952065	0.018203923
14	0xbde8ebc6	-0.11373095
15	0xbdf7dbb8	-0.12102455
16	0x3c5e7738	0.013578229
17	0xbc76e40f	-0.015069022
18	0x3e31688b	0.17325036
19	0xbd1844d0	-0.037175
20	0x3e6335c3	0.22188477
21	0x3de7646b	0.1129845
22	0xbe55fb17	-0.20896564
23	0x3d7db9d5	0.0619448
24	0x3e7f5c16	0.24937472
25	0xbdc99927	-0.098436646
26	0xbd8438c6	-0.06456141
27	0x3e33560c	0.17513293
28	0x3df37f77	0.11889546
29	0xbe1acd1c	-0.15117306
30	0xbde15fa3	-0.110045694
31	0xbe0cea58	-0.1376127
32	0x3e13380b	0.14376847
33	0xbd97d82d	-0.07414279
34	0xbe1b6b28	-0.15177596
35	0xbd321f18	-0.043486685
36	0xbdc768f6	-0.097368166
37	0xbe2dd8e7	-0.16977273
38	0x3deff409	0.11716468
39	0x3ddc655e	0.10761522
40	0xbdbc78ef	-0.09202754
41	0x3e9c22da	0.3049534
42	0x3e351773	0.17684726
43	0x3ee4d6cc	0.44695127
44	0xbe5c283c	-0.21499723
45	0xbddc7bcb	-0.10765799
46	0x3ca1596c	0.01969596
47	0xbea72430	-0.32644796
48	0xbd7f13d6	-0.062274776
49	0xbd87c51e	-0.06629394
50	0x3e36e2d1	0.17859961
51	0xbe002aa0	-0.1251626
52	0xbe9e9a7a	-0.3097723
53	0xbd8f67c8	-0.070022166
54	0x3d90e71f	0.07075333
55	0xbdad086d	-0.08448873
56	0xbd557214	-0.052110747
57	0x3b41ecf3	0.0029590696
58	0x3d8191cb	0.06326636
59	0x3e7fd1fc	0.24982446
60	0xbe05b2a8	-0.13056433
61	0x3b16e11c	0.002302236
62	0xbde711b8	-0.112826765
63	0x3e671485	0.22566421
64	0xbd87995c	-0.06621048
65	0x3dc2987e	0.09501742
66	0xbd5bdffd	-0.05368041
67	0x3db17f7d	0.086668946
68	0x3ded8e69	0.11599428
69	0x3be45121	0.006967679
70	0xbe4370d0	-0.19086003
71	0x3beed36f	0.0072883884
72	0xbc5a525b	-0.013325299
73	0xbc8b7af7	-0.017026408
74	0x3dad67ab	0.08467039
75	0xbe4e05c3	-0.20119385
76	0x3e024e8a	0.12725273
77	0xbdad7305	-0.08469204
78	0x3d5d0e2a	0.053968586
79	0x3e2981af	0.16553377
80	0xbcff04b9	-0.031130182
81	0x3cff9417	0.031198544
82	0x3e6999e9	0.22812618
83	0x3dc4bf0d	0.096067525
84	0xbe867c8b	-0.26266894
85	0xbe38c127	-0.18042432
86	0xbdf26676	-0.11835949
87	0x3d5d4ef6	0.05403038
88	0x3e537c13	0.206528
89	0xbd5d1538	-0.053975314
90	0xbcad7439	-0.021173583
91	0xbd6cdf53	-0.057830166
92	0xbe8ab96a	-0.27094585
93	0x3ddc6ea1	0.10763288
94	0x3e27e276	0.16394982
95	0xbdf1f684	-0.11814597
96	0x3d84d2ec	0.06485543
97	0xbde85bfd	-0.1134567
98	0xbd884f84	-0.066557914
99	0xbd18e0fd	-0.03732394
100	0xbd2f710c	-0.04283242
101	0x3dbe0bc5	0.092795886
102	0x3e2055ab	0.1565768
103	0x3eda051a	0.42582017
104	0x3d04924f	0.032366093
105	0xbe86c329	-0.2632077
106	0xbdaee6a9	-0.08540089
107	0xbe1f12c6	-0.15534505
108	0x3c13d069	0.009021857
109	0x3e06371b	0.13106959
110	0xbe04b6d2	-0.12960365
111	0x3cc85c91	0.024458202
112	0xbd01991d	-0.03164016
113	0xbe2634ac	-0.1623103
114	0xbe307443	-0.1723185
115	0x3c7fd2cb	0.015614222
116	0x3ec208c7	0.37897322
117	0xbe2e5e37	-0.17028128
118	0xbe03a626	-0.1285635
119	0x3dbd0122	0.09228732
120	0xbde26b4c	-0.110556215
121	0xbe9e563a	-0.3092516
122	0x3eb71219	0.35755995
123	0xbe0bb001	-0.13641359
124	0x3e1b0cff	0.15141676
125	0xbe72a1d7	-0.2369455
126	0xbe6b071f	-0.22951935
127	0xbd956011	-0.07293714
128	0xbd1eedd5	-0.038801033
129	0x3d53ae82	0.051680095
130	0xbdda89fb	-0.10670849
131	0x3e2cd60c	0.16878527
132	0x3ed15558	0.40885425
133	0x3da25a1a	0.07927342
134	0x3deee4b8	0.116647184
135	0xbe4e5e76	-0.20153221
136	0xbeadb15c	-0.33924377
137	0xbec8c05e	-0.39209265
138	0xbeb4184e	-0.35174793
139	0xbe0d0957	-0.13773094
140	0xbe0a0a3a	-0.13480464
141	0x3e685064	0.22686917
142	0xbe2c7630	-0.1684196
143	0x3e135f7a	0.1439189
144	0xbe0527c4	-0.1300345
145	0x3df734bd	0.12070606
146	0xbd7225b6	-0.059117995
147	0xbce035d7	-0.027369423
148	0x3d8bc491	0.068246014
149	0x3d55d4e7	0.052204993
150	0x3d87791f	0.06614899
151	0xbd894f78	-0.067046106
152	0x3df95e20	0.12176156
153	0xbd6f0a56	-0.058359466
154	0xbe2490b0	-0.16070819
155	0x3d3cb58a	0.046071567
156	0x3d0df814	0.034660414
157	0xbe132d2b	-0.14372699
158	0xbcb810d6	-0.022468966
159	0xbdc03768	-0.09385568
160	0xbdf181f8	-0.11792368
161	0xbca2cdb6	-0.019873481
162	0xbd8b4969	-0.06801111
163	0x3e5b827e	0.21436498
164	0x3dcbdc08	0.09954077
165	0xbe83b16a	-0.25721294
166	0xbe1a28c5	-0.15054615
167	0xbe6ca4b2	-0.23109701
168	0x3e222370	0.15833831
169	0xbe22661d	-0.15859266
170	0x3d267e81	0.040647987
171	0x3d802973	0.06257906
172	0x3db87cce	0.090081796
173	0xbe0ccb04	-0.1374932
174	0xbe452960	-0.19254065
175	0xbe20e989	-0.15714087
176	0x3e2eed80	0.17082787
177	0x3daee0e3	0.085389875
178	0xbe479f13	-0.19494276
179	0xbdd4025c	-0.103520125
180	0xbdad42e8	-0.08460027
181	0x3cd4275f	0.02589768
182	0xbde5b281	-0.112156875
183	0xbd5ad135	-0.05342217
184	0x3d2f4ade	0.04279601
185	0x3e3b2437	0.18275534
186	0x3deb7065	0.11496047
187	0x3e30816c	0.1723687
188	0xbe891c16	-0.2677924
189	0xbde16784	-0.11006072
190	0xbe6719ae	-0.2256839
191	0x3e707eba	0.23485842
192	0x3c9cff69	0.019164758
193	0x3e206996	0.15665278
194	0x3e36ee69	0.17864384
195	0xbae747f2	-0.0017645343
196	0x3da7414a	0.0816675
197	0xbd8c215e	-0.06842302
198	0x3cc8ca62	0.024510566
199	0x3e22bd90	0.15892625
200	0xbeb63cad	-0.35593167
201	0xbd952400	-0.07282257
202	0xbdfa89bb	-0.12233301
203	0xbd18940b	-0.03725056
204	0xbd963b06	-0.073354766
205	0x3d39ddf7	0.045377698
206	0xbe54537c	-0.20734972
207	0xbe32e2e1	-0.1746936
208	0x3e016a10	0.12638116
209	0xbe33f9cf	-0.17575763
210	0x3db7f52f	0.08982312
211	0xbe56257a	-0.20912734
212	0xbdc52300	-0.09625816
213	0x3d566a68	0.05234757
214	0x3d0ce06e	0.03439372
215	0x3e0aceec	0.13555497
216	0xbe3457ae	-0.17611572
217	0xbdea3c8d	-0.114373304
218	0xbd7c4821	-0.061592225
219	0x3e4070a5	0.1879297
220	0xbcddd8a2	-0.027080838
221	0x3e1e64db	0.15468161
222	0xbe522518	-0.20521963
223	0xbe1bce20	-0.15215349
224	0xbd433385	-0.047656555
225	0x3da2e157	0.079531364
226	0x3e35c755	0.1775182
227	0x3d0aa1f4	0.033845857
228	0xbd3cb933	-0.046075057
229	0x3e713160	0.23553991
230	0xbe0c491d	-0.13699766
231	0xbe0cb790	-0.13741899
232	0xbe415483	-0.18879895
233	0x3d1339e7	0.03594389
234	0x3dda1fd7	0.10650604
235	0x3e65e5a7	0.22450887
236	0x3e2678a8	0.16256964
237	0x3dfce505	0.123483695
238	0xbddcd671	-0.10783089
239	0x3e00e35b	0.12586729
240	0x3e0f8072	0.14013842
241	0xbdf4f309	-0.11960418
242	0x3cfd4d30	0.030920595
243	0x3e0c61de	0.13709208
244	0xbda5b4a0	-0.08091092
245	0x3d9aacac	0.07552466
246	0x3cb90291	0.022584232
247	0xbe25ab18	-0.16178548
248	0xbd894f73	-0.06704607
249	0xbdd52931	-0.10408247
250	0xbe13a766	-0.14419326
251	0xbe147641	-0.14498235
252	0x3dc1da0b	0.094654165
253	0x3c4fedcc	0.012690973
254	0xbe5f15fa	-0.21785727
255	0xbd778453	-0.06042893

layers.8.bias f4 [20]
0	0x3e2c27d1	0.16812064
1	0x3e4bcfce	0.1990349
2	0xbd083f63	-0.033263575
3	0xbde94708	-0.11390501
4	0xbdbec724	-0.09315327
5	0xbe050681	-0.12990762
6	0x3e49db1a	0.19712487
7	0x3c15ef18	0.009151243
8	0xbdcccd62	-0.10000111
9	0xbe20f230	-0.15717387
10	0x3d43a9e8	0.047769457
11	0xbc0e5512	-0.0086872745
12	0xbe4f280a	-0.20230117
13	0xbd90329a	-0.070409015
14	0x3def15d1	0.11674083
15	0x3e136d00	0.14397049
16	0x3d8dbbe0	0.069206
17	0x3e46007a	0.1933612
18	0x3d7b1acf	0.061304864
19	0xbc6a6a2a	-0.014307538

layers.10.weight f4 [20, 20]
0	0xbe1568cd	-0.1459076
1	0xbe35f4b2	-0.17769125
2	0xbd274e7e	-0.04084634
3	0x3d4d7a78	0.050165623
4	0xbd9a5ba3	-0.075370096
5	0x3e002eea	0.12517896
6	0xbebe98db	-0.37225994
7	0x3e2bfddd	0.1679606
8	0x3d857df7	0.065181665
9	0xbe0ed1f6	-0.13947281
10	0x3d4a78c2	0.04943157
11	0x3e8d9ad7	0.27657196
12	0x3ccaddd8	0.024763986
13	0xbe4bf758	-0.19918573
14	0x3d83c000	0.064331055
15	0xbca8696e	-0.020558085
16	0x3d8ad5fe	0.06779097
17	0xbcadbf6f	-0.021209447
18	0x3cfc47f2	0.030796025
19	0xbe763634	-0.24044114
20	0xbe41808b	-0.18896692
21	0xbdbf9cb7	-0.09356063
22	0xbda34545	-0.079721965
23	0xbdc4b679	-0.096051164
24	0xbb712311	-0.0036794583
25	0xbe73b64b	-0.23800008
26	0xbe84a561	-0.25907424
27	0xbe11d68f	-0.14242004
28	0x3cab77f6	0.020931225
29	0xbde9fc3b	-0.11425062
30	0xbe42dd57	-0.19029747
31	0xbe25bb44	-0.16184717
32	0x3cf18216	0.029480975
33	0xbe32c43c	-0.1745767
34	0xbe22b12e	-0.15887901
35	0xbe0d86db	-0.13820975
36	0x3da296ff	0.079389565
37	0x3e2f60cd	0.1712677
38	0xbe650114	-0.22363693
39	0x3d83d8ec	0.06437859
40	0x3de7d840	0.11320543
41	0xbc9d488f	-0.019199638
42	0x3ddd5932	0.10808028
43	0x3bef271e	0.0072983643
44	0xbe1dd632	-0.1541374
45	0xbe287791	-0.16451861
46	0x3dfa4986	0.12221055
47	0x3e22e8c2	0.15909103
48	0xbe24e505	-0.16102989
49	0x3de37907	0.111070685
50	0xbde20a69	-0.11037142
51	0x3ce3227f	0.02772641
52	0xbd65a3f0	-0.056064546
53	0x3c7b376b	0.015333037
54	0x3e377fe2	0.17919877
55	0x3daa88f7	0.08326905
56	0xbcf6bfb4	-0.030120708
57	0x3dd56b0f	0.104208104
58	0xbd1ac2c2	-0.03778339
59	0x3d9cfebc	0.07665774
60	0xbdc260b1	-0.09491099
61	0x3d7a7cdd	0.061154235
62	0xbdffffa3	-0.12499931
63	0xbdaaea81	-0.08345509
64	0xbe50faea	-0.20408216
65	0xbe26317a	-0.16229811
66	0xbde6764f	-0.11253034
67	0x3d0aed1c	0.03391753
68	0x3e1f7f5f	0.15575932
69	0x3de6d0b8	0.11270279
70	0xbe40879e	-0.18801734
71	0xbd335ad8	-0.043787807
72	0xbdf2572d	-0.11833034
73	0x3b158ddc	0.002282015
74	0xbdf86576	-0.12128727
75	0x3b3ab29b	0.0028487805
76	0xbe8480e6	-0.25879592
77	0xbdefc1d0	-0.11706889
78	0xbe827ebc	-0.25487316
79	0xbe67f30d	-0.2265131
80	0x3d116fa8	0.035506874
81	0x3d5b0daa	0.053479828
82	0xbe5ce469	-0.21571507
83	0x3beefcd9	0.0072933254
84	0x3e214dbe	0.15752313
85	0xbe3d9f69	-0.18517841
86	0xbe3213c3	-0.17390351
87	0x3d4ad75b	0.049521785
88	0xbde6e357	-0.112738304
89	0x3e29528d	0.16535397
90	0x3da1b3d2	0.07895626
91	0x3c7f497d	0.015581486
92	0xbe63598c	-0.22202128
93	0xbe0f559e	-0.13997504
94	0xbd9eccac	-0.07753882
95	0x3d9f2822	0.077713266
96	0xbe020888	-0.12698567
97	0x3e51f796	0.20504603
98	0x3dedf6e4	0.11619356
99	0x3e529935	0.20566256
100	0xbe62d5ca	-0.22151867
101	0xbe051270	-0.12995315
102	0x3d771bb1	0.060329143
103	0xbdb099b4	-0.086230665
104	0xbe01cbaf	-0.12675355
105	0xbd3422cd	-0.0439785
106	0x3e907c07	0.28219625
107	0x3b21ef3a	0.002470924
108	0x3e5132b5	0.204295
109	0xbe8b709c	-0.27234352
110	0x3e02d829	0.12777771
111	0xbe4f19f7	-0.20224749
112	0xbde76f88	-0.1130057
113	0x3d780696	0.060553156
114	0xbe315fd1	-0.17321707
115	0xbe5020f4	-0.2032507
116	0xbc563e26	-0.013076341
117	0x3d85f237	0.065403394
118	0xbe879377	-0.26479694
119	0x3e5015cb	0.20320813
120	0xbd268da1	-0.04066241
121	0x3c3df9c6	0.011595195
122	0xbe3795cc	-0.17928237
123	0x3e22bd91	0.15892626
124	0x3e6308bc	0.221713
125	0xbe643829	-0.22287048
126	0x3d4fe5d3	0.050756287
127	0xbe56d4d4	-0.20979625
128	0x3d75e58e	0.060033374
129	0x3e67fe9c	0.2265572
130	0xbd8f4b6e	-0.06996809
131	0x3d34b82f	0.044120964
132	0xbe1e499e	-0.1545777
133	0x3ca79ecd	0.020461464
134	0x3e33cb8f	0.1755812
135	0x3d013530	0.031544864
136	0xbe1f1fbd	-0.15539451
137	0x3db9a866	0.090653226
138	0xbe55d828	-0.20883238
139	0x3c7c11f9	0.015385144
140	0xbe1ef40b	-0.15522783
141	0xbd866ed8	-0.065641105
142	0xbe60528b	-0.21906488
143	0x3b2185d2	0.0024646414
144	0xbdfc6b4f	-0.12325155
145	0xbe156174	-0.14587957
146	0x3e5ee33f	0.21766375
147	0x3df05343	0.11734631
148	0xbe52c1b6	-0.20581707
149	0x3d1c18d0	0.0381096
150	0x3e45951f	0.19295166
151	0xbe107b99	-0.14109649
152	0x3dd33ec2	0.103147045
153	0x3e361ed5	0.17785199
154	0xbd981975	-0.074267305
155	0xbe0f9e12	-0.14025143
156	0x3d6dedf0	0.058088243
157	0x3ba76cbf	0.005109399
158	0xbe8a0335	-0.26955572
159	0xbdc389d8	-0.09547776
160	0xbda829f3	-0.08211126
161	0xbe0dbb1e	-0.13840911
162	0x3e9d559d	0.3072938
163	0x3d153742	0.03642965
164	0x3dc313a2	0.09525229
165	0x3e6ad50a	0.2293283
166	0xbde3a07f	-0.111145966
167	0x3dc83107	0.09774976
168	0x3ea0cdf7	0.3140714
169	0xbde8cede	-0.11367582
170	0xbe8534a9	-0.2601674
171	0x3d5936f8	0.053030938
172	0xbdc339c1	-0.095325
173	0xbe7fe8f2	-0.24991205
174	0x3e3f3ecd	0.186763
175	0xbe31b163	-0.17352824
176	0x3e064dd0	0.1311562
177	0x3e90db39	0.28292254
178	0x3e8c906a	0.2745393
179	0x3d8e8630	0.06959188
180	0x3df8cd26	0.12148504
181	0xbe2a5dd9	-0.16637363
182	0xbe1ba965	-0.15201338
183	0xbe28ad81	-0.16472436
184	0x3e29f731	0.16598202
185	0x3e15eef1	0.1464193
186	0x3d98962f	0.0745052
187	0x3df61ae6	0.12016849
188	0x3e196d12	0.14983013
189	0x3d97cff0	0.07412708
190	0x3e36fb00	0.17869186
191	0x3c3072b1	0.010769532
192	0x3e42d9de	0.19028422
193	0x3de986ef	0.1140269
194	0x3e307edf	0.17235897
195	0xbda2d658	-0.07951039
196	0xbd994cf9	-0.074853845
197	0xbcb2b2ed	-0.021813834
198	0x3e172a40	0.14762211
199	0xbd12acdc	-0.035809383
200	0xbdf950a7	-0.12173586
201	0xbbd85c9e	-0.0066028377
202	0xbc8a4fc3	-0.016883736
203	0xbbb7f68b	-0.005614107
204	0xbd82108e	-0.06350814
205	0x3e275826	0.1634222
206	0xbe94511a	-0.28968126
207	0xbd3906fd	-0.04517268
208	0xbdbea7eb	-0.093093716
209	0x3d3da02b	0.046295326
210	0x3d9565c2	0.072947994
211	0x3e532832	0.20620802
212	0x3dd247dc	0.10267612
213	0xbda67c91	-0.08129228
214	0xbdb9c509	-0.090707846
215	0x3dfe0514	0.12403312
216	0x3e7369e1	0.23770858
217	0x3d2d535f	0.042315837
218	0xbcf3a219	-0.02974038
219	0xbe5f038f	-0.21778701
220	0x3db660c9	0.08905179
221	0x3be16621	0.00687863
222	0x3dad80c2	0.08471824
223	0x3e31021e	0.17285964
224	0x3e071131	0.13190152
225	0xbd8cfa3d	-0.06883667
226	0xbe3dee64	-0.1854797
227	0x3cabd682	0.020976309
228	0xbdf14f47	-0.11782699
229	0xbb9c8fdf	-0.004777893
230	0xbdce6553	-0.1007792
231	0x3de59776	0.112105295
232	0x3d57997e	0.052636616
233	0x3da7c090	0.08191025
234	0x3da9f24b	0.08298167
235	0xbda3c438	-0.0799641
236	0x3c1d6f67	0.00960908
237	0x3de4d084	0.11172584
238	0xbd3b19e4	-0.045678988
239	0xbe4e387b	-0.20138733
240	0x3e0b9dfc	0.13634485
241	0xbc8804ee	-0.016603913
242	0x3e354097	0.1770042
243	0xbcdc7dae	-0.026915397
244	0x3e21ea6e	0.15812084
245	0x3e8a9388	0.27065682
246	0xbeb7b900	-0.3588333
247	0xbdde5d28	-0.10857612
248	0x3dd943e9	0.10608656
249	0xbc63929d	-0.013889936
250	0xbd606319	-0.054782007
251	0xbd7c6daa	-0.06162802
252	0x3db92248	0.09039742
253	0x3e5d6177	0.21619211
254	0x3e9a6f7f	0.3016319
255	0xbde190e0	-0.11013961

layers.10.bias f4 [20]
0	0x3b9f81f0	0.0048677847
1	0xbdf33e5d	-0.11877129
2	0x3c2f9f73	0.010719168
3	0xbe0739b5	-0.13205607
4	0xbddaa647	-0.10676246
5	0x3e0de06e	0.13855144
6	0xbca5c19b	-0.02023392
7	0x3e0a1d52	0.13487747
8	0xbe027875	-0.12741263
9	0xbe067bc3	-0.13133149
10	0x3b980479	0.004639205
11	0x3d813f78	0.06310934
12	0xbdffd3bd	-0.12491558
13	0x3e416ad0	0.18888402
14	0xbd6cad8d	-0.0577827
15	0x3dc80fe9	0.097686596
16	0x3e06f4a0	0.13179255
17	0xbd9f50ce	-0.07779084
18	0xbd02f3a0	-0.03197062
19	0x3d77f408	0.06053546

layers.12.weight f4 [20, 20]
0	0xbe48735c	-0.19575256
1	0xbdcfc27c	-0.10144517
2	0x3e1daf8c	0.15398997
3	0xbe35eb40	-0.17765522
4	0xbdfa4d15	-0.122217335
5	0xbc57e3b5	-0.013176848
6	0x3e1474a6	0.14497623
7	0x3c81a4a1	0.015825571
8	0xbe35872d	-0.17727347
9	0x3c326f45	0.010890787
10	0xbe08b1b5	-0.1334904
11	0xbe02c5e3	-0.127708
12	0x3e0b8db7	0.13628279
13	0xbd2cd5d8	-0.042196125
14	0xbda4c0dc	-0.080445975
15	0x3e41209a	0.18860093
16	0x3de06cd4	0.10958257
17	0x3dfe725d	0.12424157
18	0xbe030430	-0.12794566
19	0xbde6252e	-0.1123756
20	0x3dfb2723	0.12263324
21	0x3e2725e6	0.16323051
22	0x3dad4226	0.084598824
23	0x3dd85f75	0.10565082
24	0x3daccd32	0.084375754
25	0xbdc937cd	-0.09825096
26	0x3cd3926b	0.025826653
27	0xbe379c69	-0.1793076
28	0x3e385488	0.18000996
29	0xbe529a27	-0.20566617
30	0x3e2622c0	0.16224194
31	0x3e3460c7	0.17615043
32	0x3e24692f	0.1605575
33	0x3d2a04b2	0.041508384
34	0x3dd53270	0.10410011
35	0x3e58b2f4	0.21162015
36	0x3e3b7f31	0.18310238
37	0xbdf2d44a	-0.11856897
38	0x3e86c4c7	0.26322004
39	0x3b4a6a20	0.003088601
40	0xbe114baa	-0.1418902
41	0x3c7dde00	0.015494823
42	0x3c761a1d	0.015020874
43	0x3e32117c	0.17389482
44	0x3cab36db	0.02090018
45	0xbdfa0a72	-0.122090235
46	0x3af40745	0.0018617889
47	0x3d9c8cc7	0.07644039
48	0xbe2710be	-0.1631498
49	0x3e9429d9	0.28938177
50	0x3e308d77	0.17241465
51	0xbcf77979	-0.03020929
52	0xbce13d39	-0.027495014
53	0xbd0afa4c	-0.033930108
54	0xbc12f94b	-0.008970569
55	0xbcdb6495	-0.02678136
56	0xbdbd5e29	-0.09246475
57	0x3e29d75f	0.16586064
58	0x3e14dff2	0.14538553
59	0x3e15858d	0.14601727
60	0x3d91030f	0.070806615
61	0xbd1d5e16	-0.038419805
62	0x3d2c9660	0.042135596
63	0xbe3f4f42	-0.18682578
64	0xbe5fd49d	-0.2185845
65	0x3e73d020	0.23809862
66	0xbddff2af	-0.1093496
67	0x3e84b516	0.25919408
68	0xbc8417a8	-0.016124561
69	0xbdc1234f	-0.09430563
70	0xbd9f1bde	-0.07768987
71	0xbdf75f69	-0.12078745
72	0xbe81b84c	-0.2533592
73	0xbdc62b91	-0.096762784
74	0x3ca4a697	0.020098967
75	0x3bd8dc69	0.006618072
76	0x3dd14c94	0.10219684
77	0x3e4bd599	0.199057
78	0xbbebabb9	-0.007192102
79	0xbe312dd1	-0.17302634
80	0xbcc540cc	-0.02407875
81	0x3dd84d2f	0.105615966
82	0xbe0970d5	-0.13421948
83	0x3e2c53b5	0.16828807
84	0x3d261d35	0.040555198
85	0x3e4821b6	0.1954411
86	0xbd4027df	-0.046913024
87	0x3dba9d06	0.09111981
88	0xbe04838f	-0.1294081
89	0xbd4ddf01	-0.0502615
90	0xbba22d68	-0.0049492605
91	0xbd159468	-0.036518484
92	0xbdbd5028	-0.09243804
93	0x3ccebb0c	0.025235675
94	0xbe2adc4a	-0.16685596
95	0x3dc0688e	0.09394942
96	0x3e36c8f1	0.1785009
97	0xbd670f08	-0.05641082
98	0x3e1d1913	0.15341596
99	0xbe301436	-0.1719521
100	0xbb7d36ba	-0.0038637356
101	0xbd5107d9	-0.051032875
102	0x3ddff48f	0.10935318
103	0xbd81899d	-0.06325076
104	0x3dccba56	0.09996478
105	0x3e5c23d3	0.21498041
106	0x3cee6a31	0.02910337
107	0x3e9d7f9b	0.30761418
108	0xbd6f7140	-0.058457613
109	0xbd946e5e	-0.07247613
110	0xbe018b46	-0.12650785
111	0xbe36489d	-0.17801137
112	0xbe74ccbc	-0.23906225
113	0xbe079520	-0.1324048
114	0x3d4a45d8	0.049383014
115	0x3e4cc47b	0.19996826
116	0xbdcc1a19	-0.09965915
117	0x3e0058c5	0.12533863
118	0xbca5815a	-0.020203281
119	0x3cb9aa1d	0.022664124
120	0xbdc01bd9	-0.093803115
121	0xbdda3c80	-0.10656071
122	0x3db82f17	0.08993357
123	0x3dc58ab4	0.09645596
124	0xbe048ba6	-0.12943897
125	0x3c428019	0.011871361
126	0xbd771c54	-0.06032975
127	0x3d0f2663	0.034948718
128	0xbe4afcaf	-0.19822954
129	0xbcc5af55	-0.024131456
130	0xbe21e9fd	-0.15811916
131	0xbdb7b061	-0.089691885
132	0xbe58a878	-0.21158016
133	0xbe73f992	-0.23825672
134	0x3dacbb65	0.0843418
135	0x3e1fb578	0.15596569
136	0x3e22878d	0.15872021
137	0x3e6f4d79	0.23369397
138	0xbd627266	-0.05528488
139	0xbd967b09	-0.07347686
140	0xbb0de5f8	-0.0021651965
141	0xbd2bdb08	-0.04195693
142	0x3d522286	0.051302455
143	0xbe189a6f	-0.14902662
144	0xbd753441	-0.059864286
145	0xbe8b0a5f	-0.2715635
146	0xbd94c4cc	-0.072640985
147	0xbd80bd5b	-0.06286117
148	0x3ce082f8	0.0274062
149	0x3dd9c4dd	0.10633252
150	0xbd2a67bb	-0.04160283
151	0xbdde1cef	-0.108453624
152	0x3df2eb66	0.11861305
153	0xbcafa27d	-0.021439785
154	0xbd2864a5	-0.041111607
155	0x3e07cba1	0.13261272
156	0x3ddd12f3	0.1079463
157	0xbe243213	-0.16034727
158	0xbd86d34b	-0.0658327
159	0xbe02b0b2	-0.12762716
160	0x3e5e0eae	0.21685287
161	0xbdcc5f32	-0.099790946
162	0xbbaf18cf	-0.0053435336
163	0xbdc2f053	-0.095184945
164	0xbda79631	-0.081829436
165	0xbd2768c4	-0.040871397
166	0xbe0a7c15	-0.13523896
167	0xbe70c872	-0.23513964
168	0x3d99f7b9	0.075179525
169	0xbcf0fc62	-0.02941722
170	0xbdeee0dd	-0.11663983
171	0x3e206e08	0.15666974
172	0xbd65b467	-0.05608025
173	0xbcfbe897	-0.030750556
174	0xbd4035e0	-0.04692638
175	0xbdd39e7d	-0.103329636
176	0xbcdcd7c0	-0.026958346
177	0xbe0bb60d	-0.13643666
178	0xbe5d9c1f	-0.21641587
179	0x3e6f9c8d	0.23399563
180	0xbd9d4c13	-0.07680526
181	0x3d0113d5	0.031513054
182	0x3dd0d9fb	0.101978265
183	0x3df385f2	0.118907824
184	0x3daed48f	0.08536636
185	0xbdd73047	-0.10507255
186	0x3e312bfc	0.17301935
187	0x3e75dfd2	0.24011162
188	0x3bbdb74d	0.0057896734
189	0xbd189c6f	-0.03725856
190	0x3dff996d	0.124804355
191	0x3c628482	0.013825538
192	0xbe423422	-0.189652
193	0xbb957053	-0.004560509
194	0xbd9d2ac2	-0.07674171
195	0x3c981210	0.0185633
196	0xbe06fc90	-0.13182282
197	0x3d4e073b	0.050299864
198	0xbe14daa7	-0.14536534
199	0xbdf4ecf8	-0.11959261
200	0x3e5ce746	0.21572599
201	0x3e718e8c	0.23589534
202	0xbe450fd4	-0.19244319
203	0x3e56d6aa	0.20980325
204	0xbe76217d	-0.24036212
205	0x3d08c130	0.033387363
206	0x3d690b27	0.0568954
207	0xbe6233ac	-0.22090024
208	0xbc91ba6b	-0.017789086
209	0xbe36e7a5	-0.17861803
210	0xbdf0d56c	-0.11759457
211	0xbe0905ad	-0.13381071
212	0xbc425acb	-0.011862467
213	0xbd8d9981	-0.06914044
214	0x3d5590d1	0.05214006
215	0x3d0c7408	0.034290344
216	0xbe1fbf2c	-0.1560027
217	0x3cf2938a	0.029611368
218	0x3cc1595e	0.023602184
219	0x3ca66f1a	0.02031665
220	0x3eb96454	0.36209357
221	0xbd89f058	-0.06735295
222	0x3e05504d	0.13018914
223	0xbd8c4ad3	-0.06850209
224	0x3ab645bc	0.001390628
225	0x3d1b7939	0.037957404
226	0xbe46cb44	-0.19413477
227	0xbe4dffc3	-0.20117097
228	0x3de4c1d3	0.111697815
229	0xbbc4089d	-0.005982472
230	0x3d5c2382	0.0537448
231	0xbcb469c2	-0.022023086
232	0xbdccbde1	-0.09997154
233	0x3d876241	0.06610537
234	0x3c9a673f	0.01884806
235	0x3daa4dd5	0.083156265
236	0x3c9355cd	0.017985249
237	0x3c6c6831	0.014429138
238	0x3e598142	0.21240714
239	0xbdf77d35	-0.12084428
240	0xbc878187	-0.016541256
241	0xbd0a70cc	-0.033798978
242	0xbdb4666a	-0.088085964
243	0xbdd4b3c4	-0.1038585
244	0x3abeeea6	0.0014566972
245	0xbe2b02f1	-0.16700341
246	0x3e566067	0.20935212
247	0x3e8a49a7	0.27009317
248	0xbe8f1008	-0.27941918
249	0x3e205fc7	0.15661536
250	0xbe0ce5f9	-0.13759603
251	0xbd14cb9f	-0.036327
252	0x3e01d654	0.12679416
253	0xbd9eacde	-0.077478155
254	0x3e51f902	0.20505145
255	0xbd452607	-0.04813197

layers.12.bias f4 [20]
0	0xbe260cba	-0.16215792
1	0x3c1834ad	0.009289903
2	0xbe3599ab	-0.17734401
3	0x3dd20615	0.10255066
4	0xbd4fe467	-0.05075493
5	0x3bbef35b	0.00582735
6	0x3e2d23f5	0.16908248
7	0xbdc462fa	-0.09589191
8	0xbbe57341	-0.0070022647
9	0xbe049685	-0.12948044
10	0xbcd5b39c	-0.026086621
11	0x3d7320f9	0.059357617
12	0x3df44fa3	0.11929252
13	0xbe4312b1	-0.19050099
14	0x3d529859	0.05141482
15	0x3e35b72e	0.17745659
16	0xbe0f5c85	-0.14000137
17	0xbe18838d	-0.14893933
18	0x3d5a2ad0	0.053263485
19	0xbdae855c	-0.0852153
