Models_Data_Figures/BURGERS/Burgers_Collocation/Models/20_25.pth (torch, 17524 bytes, 17 tensors)

layers.0.weight f4 [20, 2]
000000 00 d0 ba bd fb 75 13 be c2 9c 0b 3e 61 ba 29 3f
       -0.09121704 -0.14400475 0.13634017 0.66300017
000010 14 ff 9d 3e ce fe 06 ba e8 07 ff 3e ba 43 6b 3e
       0.30858672 -0.0005149663 0.4981072 0.22975054
000020 a9 74 99 3e ae fc 43 be e4 d0 0b 3f ed 95 02 3f
       0.29971817 -0.19139358 0.54615617 0.5101002
000030 33 99 dc be 3e c1 64 3e f0 69 7f 3f f1 29 b6 be
       -0.43085632 0.22339341 0.9977102 -0.35578874
000040 d5 81 a2 3e e3 e6 03 be 95 c0 fe 3e b4 89 03 be
       0.3173968 -0.12881045 0.49756303 -0.12845498
000050 85 9d 4f bf f6 1a a5 be 6d f3 0c bf 9c ed 5a 3e
       -0.8109973 -0.32247132 -0.5505894 0.21379703
000060 1d 60 bf be a9 43 b9 bc 96 65 25 bf d1 63 ce be
       -0.37378016 -0.02261527 -0.6460813 -0.4031053
000070 00 14 bc 3e 8b 7e 9e 3e e2 d2 c6 be 57 91 57 be
       0.3673401 0.3095592 -0.38832766 -0.21051537
000080 56 f2 1a bf a5 17 9d 3d 11 09 fe 3e 5d 52 fa be
       -0.60526025 0.076705255 0.49616292 -0.48890963
000090 01 48 1e 3e c7 7d c2 be bc 98 8a bf da 92 04 bf
       0.15457155 -0.37986585 -1.0827861 -0.5178658

layers.0.bias f4 [20]
000000 fe 03 86 be a5 ce 1b 3f 17 9c 8a 3d c6 5f cf 3e
       -0.2617492 0.6086219 0.06768053 0.40502757
000010 5f aa 60 bf f1 8a 67 bd 22 12 99 3d 8d de 79 3e
       -0.87759966 -0.05652899 0.07474162 0.24401303
000020 9f 64 4d bf 4f 73 2a 3e 4d 59 8a be 60 74 f6 be
       -0.8023166 0.16645549 -0.27021256 -0.48135662
000030 18 b8 8e 3d a5 77 45 be 4a ea ed be 34 fb eb be
       0.06968707 -0.19283922 -0.4646781 -0.4609009
000040 88 d1 ef 3e fc b2 fc 3e 93 ac e1 be fc ba 95 3d
       0.46839547 0.49355304 -0.44076976 0.07311055

layers.2.weight f4 [20, 20]
000000 ff 43 c9 bc 30 6c b6 bd 91 fe 48 be 9d 97 d5 bc
       -0.024568556 -0.08907354 -0.1962836 -0.026073271
000010 9b 5e 4d 3d 82 d0 82 be ab 85 38 be b5 36 2b be
       0.05013905 -0.25549704 -0.1801974 -0.16720088
000020 a8 e6 77 3e 91 c0 da 3c 42 b9 6e bd bb 9c 1b be
       0.24209082 0.026703151 -0.058282144 -0.15196507
000030 fc 9f 13 bd 17 ba 19 be fb 24 73 3c e9 6d 98 bd
       -0.036041245 -0.15012394 0.01484036 -0.07442839
000040 bd 81 27 be ae 72 fc bd 09 6f 59 be 1d 9a 81 be
       -0.16358085 -0.12326561 -0.21233763 -0.25312892
000050 41 28 af 3d a0 c9 97 be 40 51 77 be 48 4f 95 be
       0.085526 -0.29646015 -0.24152088 -0.2916205
000060 17 2b 2b bf 1b 44 a4 3e 94 ec dc 3c 0b ce 5d 3e
       -0.66862625 0.3208321 0.026968278 0.2166063
000070 1f a9 0b bf 4d c6 24 3e 67 6c 6d 3e e3 83 4c 3e
       -0.54554933 0.1609127 0.23185883 0.19972186
000080 9f cf f8 bd 05 c6 3b 3c 6c 1f 6f be 1d 17 7e be
       -0.121489756 0.011460786 -0.2335183 -0.24813505
000090 d7 43 7f 3d 6c 85 05 3d b3 13 18 3f d3 1a 85 3d
       0.062320556 0.032597944 0.5940506 0.06499257
0000a0 80 9a 65 be 8f 86 c2 bc d1 25 04 3d 02 3d b1 be
       -0.22422218 -0.023745803 0.032262627 -0.34616858
0000b0 d2 4c 85 3d c7 cf c6 bd 1e 17 eb bd 7e 8a d7 3d
       0.06508793 -0.09707599 -0.11479019 0.10524462
0000c0 6d 63 63 be 04 83 4c 3e bc 8e 1f 3e a1 b3 4e 3e
       -0.22205897 0.19971853 0.15581793 0.2018571
0000d0 7e 24 88 bd 4f be f2 bd 2e 6b f8 3d d8 ed bd 3e
       -0.06647585 -0.11852705 0.12129818 0.37095523
0000e0 45 da 4f 3e e4 1b 89 be 8d 5e 46 3b ac 75 dd bc
       0.20298107 -0.2677909 0.003026876 -0.02703365
0000f0 00 0f a6 3d 94 52 7a be 66 84 53 be 08 98 0d be
       0.0810833 -0.24445564 -0.20655975 -0.13827527
000100 a7 1e e1 3c 02 24 83 3d d4 10 1d bd c4 4f 8e 3e
       0.027480436 0.06403352 -0.038346127 0.2779523
000110 59 4f 8a 3e 97 b4 a3 3e 9d bb 42 be 9a a3 6e bc
       0.27013662 0.31973717 -0.19016881 -0.014565373
000120 c3 45 3f be b9 bc ce bb c4 bb b0 3b 4a 2f 32 bd
       -0.18678956 -0.0063091186 0.005393477 -0.04350213
000130 b3 01 c5 3d a0 b4 33 3e bb c8 cb be 9c ed 35 3d
       0.09619465 0.17549372 -0.39801583 0.044416055
000140 1d 4b 5e be f5 72 28 3e 24 93 9c 3d 71 4b f2 3c
       -0.21708341 0.16450103 0.07645252 0.029576989
000150 66 4c 0e bd 0c 01 49 bd 67 c8 6c 3e c6 cf e6 bc
       -0.034740828 -0.049073264 0.23123322 -0.028175246
000160 3b fd f3 3d 2d 7a 4f 3e 2a e7 9a 3e d8 fc 0c ba
       0.11913534 0.2026145 0.3025449 -0.0005378253
000170 00 c8 7a 3d 0c 7c f5 3b 95 0b 1c be 35 f3 0c 3e
       0.06122589 0.007491594 -0.15238793 0.13764651
000180 90 93 4f 3e d6 85 35 bd 86 4a 3a 3e b1 c0 30 3e
       0.20271134 -0.04431709 0.18192491 0.17261006
000190 b7 7d 03 3f 82 d2 80 3e e5 58 cb 3d ec 12 03 be
       0.513637 0.25160605 0.09929065 -0.12800187
0001a0 8c c7 6e 3e 0d 50 94 be f8 2a 21 bd e5 eb 1d 3e
       0.23318309 -0.28967324 -0.03934762 0.15422018
0001b0 41 7b d6 3e 7e e2 0c 3e e1 07 8e be f7 e2 08 be
       0.4189091 0.13758275 -0.27740386 -0.1336783
0001c0 a9 42 07 3c 78 3a 97 bb d7 a1 bc 3e 9f 72 5b 3d
       0.008255639 -0.0046151243 0.36842224 0.053576108
0001d0 b1 02 e4 bc e7 d7 84 3e d7 f1 f6 be 42 a0 b4 3d
       -0.027833315 0.2594597 -0.48231384 0.08819629
0001e0 b0 81 02 3f 34 68 b4 be b5 7c 78 be 93 02 f7 bd
       0.5097914 -0.3523575 -0.24266322 -0.12061038
0001f0 9a 2f 88 3e 0d 27 d9 3e 6c ad ef 3d b5 41 7c bd
       0.26598817 0.42412606 0.117029995 -0.0615861
000200 a6 cd 7a 3e f1 1c 1c 3e ba 2c 56 bd e1 a0 9e be
       0.24492511 0.15245415 -0.05228875 -0.30982116
000210 e2 2e 37 3d 4d e5 a8 3e 27 77 69 3d f7 74 5c 3e
       0.044722445 0.32987443 0.0569984 0.21528994
000220 a2 6c 2d 3e 70 e1 dc 3d 76 1b 34 3d 99 5b ca bd
       0.16935971 0.10785186 0.0439715 -0.09880752
000230 8a db 4c bc a9 ae 0e be b4 17 9b 3d 12 2a 75 3d
       -0.012503514 -0.13933815 0.075728804 0.059854575
000240 ff 28 79 be 8a cf 4e 3e e8 b8 a5 be a2 91 17 be
       -0.24332045 0.20196357 -0.32367635 -0.14801648
000250 99 d0 67 3d 4c 6d 80 3e e9 92 6b 3d 07 fd 6c 3e
       0.05659542 0.25083387 0.05751315 0.23143397
000260 b0 5d e1 bd 7e 48 4b 3e 01 62 47 bc 90 09 ea 3e
       -0.110041976 0.19851872 -0.012169362 0.4571042
000270 f3 7f d0 bc ab ed 8f bc f1 54 28 bc db b9 9d bd
       -0.025451636 -0.017569384 -0.010274158 -0.07701465
000280 bf f3 a2 be 17 24 5f bd bf bb b2 3d 36 0b 8e bc
       -0.3182659 -0.054477777 0.08727216 -0.01733933
000290 25 7d 89 be 74 ca cb 3e 54 30 68 3e 7b d1 38 bd
       -0.2685329 0.39802897 0.22674686 -0.04512165
0002a0 df cc 85 be 26 7c c9 be 04 bf 04 3e 6d 71 29 3e
       -0.26132867 -0.3935253 0.12963492 0.16547175
0002b0 dd a1 36 3e 6a 42 84 bd 2f 07 a3 be e5 d5 37 be
       0.17835183 -0.0645798 -0.31841418 -0.17952688
0002c0 91 a2 1e 3e 4d 75 f1 3c 63 75 32 3e 17 28 5e bd
       0.15491702 0.029474879 0.17427592 -0.05423745
0002d0 7c 05 9e 3e 90 e1 f5 be df 08 c7 3d fc e6 f8 be
       0.3086356 -0.48023653 0.09718489 -0.48613727
0002e0 0d 2f ba bc d1 2f dc 3e 5b 7e 05 bd db df f0 3c
       -0.022727514 0.4300523 -0.032591205 0.029403618
0002f0 aa 5a b0 bd ab 06 a1 bd e3 1c 4f 3e f3 5b 04 3e
       -0.08611043 -0.078626 0.20225863 0.12925701
000300 28 2f be be f6 69 fd 3d af 71 dc bd f9 be 24 3e
       -0.37145352 0.12373726 -0.10763871 0.16088475
000310 ab 2b 48 be 76 a0 7c bd 6e 80 63 3d de 26 0f bf
       -0.19547908 -0.061676465 0.055542402 -0.5591868
000320 f3 49 a3 3d c2 43 76 3e f0 b1 ad 3e 15 38 5d be
       0.07973089 0.24049285 0.33924818 -0.21603425
000330 69 6a 40 3e a7 1b 26 be 53 6f 99 bd 50 2a 76 3e
       0.18790592 -0.16221486 -0.074919365 0.24039578
000340 37 2b 68 be 0a 97 af 3e 1b 1e 36 3e f6 53 8c 3e
       -0.22672735 0.3429492 0.17784922 0.27407807
000350 05 a8 c9 be 9e be a0 b9 ea e6 14 3c 67 fe f3 3e
       -0.39386 -0.000306596 0.009088257 0.4765503
000360 6f e5 cc 3e 3a 56 88 3e ef c5 49 bd 9f 9b 0f 3e
       0.40018794 0.26628286 -0.04926103 0.14024208
000370 01 7a 0b be 5c 12 92 3b a7 b3 40 3d b4 1d 64 bd
       -0.1362076 0.004457755 0.04704633 -0.05569239
000380 99 da b9 3e d2 4c 72 be 95 1a 92 bc ee 13 27 bd
       0.3629959 -0.23662117 -0.01783494 -0.04079049
000390 ab be ac 3e c6 d2 aa bb 88 6d a1 bd 0b 7d 10 be
       0.33739218 -0.0052131144 -0.078822196 -0.141102
0003a0 46 92 77 be bc cf 11 3d ee a3 de bb f0 07 f8 3d
       -0.24176893 0.0355985 -0.0067944443 0.12110889
0003b0 76 74 34 3e 88 7c 84 3e fd b2 bb 3d 11 66 07 3e
       0.17622551 0.2587626 0.09164999 0.13222529
0003c0 18 0f 39 be 29 71 69 bf 0f b4 22 bf ad 09 85 bd
       -0.18072164 -0.91188294 -0.63556 -0.06495986
0003d0 45 49 f9 be cc f8 25 3f 38 7d 2a bf a3 0d 8b bf
       -0.48688713 0.6483276 -0.6659732 -1.0863537
0003e0 4b 13 77 bf fa 01 a5 bf af be 52 bf ec 5e e7 3e
       -0.96513814 -1.2891228 -0.8232221 0.45189607
0003f0 36 7c 8d 3f 9b b6 dd be ca a9 07 bf 86 fa 4c bf
       1.1053531 -0.4330338 -0.5299345 -0.8006977

layers.2.bias f4 [20]
000000 63 b0 19 3e 20 76 3c be 41 31 51 3e 0c 59 ad be
       0.15008692 -0.18404436 0.20428945 -0.33857
000010 6e ee 41 3e 8c da 27 3d ca 34 d5 be 98 2c 0e 3c
       0.1893861 0.040979907 -0.41641837 0.008677624
000020 59 58 07 3d 34 c3 6e be c8 11 a3 bd 3b ea bd 3d
       0.03304324 -0.23316652 -0.07962376 0.092731915
000030 e1 f7 1e bf 6b d2 08 be 77 bc d2 3e 05 02 35 3e
       -0.62096983 -0.13361518 0.41159412 0.17676552
000040 ca a8 db be 86 a2 60 3d 3f 7e 8e bd c3 58 12 3e
       -0.42902213 0.054842494 -0.06957673 0.14291672

layers.4.weight f4 [20, 20]
000000 ce 15 0e bc 31 6d b7 bd 8a 33 0f bb 4b 4a 33 be
       -0.008672191 -0.089563735 -0.0021850788 -0.1750881
000010 32 02 18 3d ee 1e 50 be dc d0 3d be 0d d7 b1 be
       0.03711147 -0.20324299 -0.18536705 -0.34734383
000020 cb ca 30 3e e0 a5 b6 be 7f 08 96 be f6 ac 5b 3c
       0.1726486 -0.35673428 -0.29303357 0.013407936
000030 a4 8e f6 3b 7a 7d 71 3d 58 92 8d be 15 15 65 bd
       0.0075243283 0.058957554 -0.27650714 -0.05592831
000040 2c 4d 75 be 15 b9 b0 3d c9 50 b0 bd 2b 0e 22 be
       -0.2395522 0.086290516 -0.086091585 -0.15825717
000050 c0 55 45 be e3 d4 9a 3e b8 da aa 3b 24 ca a1 bd
       -0.19270992 0.30240545 0.0052140616 -0.078998834
000060 b5 69 90 bd 19 d6 32 3c ac 59 87 3d a0 23 9f bd
       -0.07051412 0.010915303 0.066089004 -0.07770467
000070 2d bf 8e 3c 93 98 60 3e d5 8c 97 3d c7 f5 a2 3d
       0.017425144 0.21933202 0.073999085 0.079570346
000080 df 9c 21 bf fc 80 11 be 48 de d8 3d 14 ad b4 3d
       -0.6312999 -0.1420936 0.10589272 0.088220745
000090 03 3d c4 3e 50 b7 16 be 09 dd 87 bc f3 ab 26 3d
       0.38327798 -0.14718366 -0.01658489 0.040691327
0000a0 4f ba b1 bc 63 2c 19 3e 2e e7 1e bc 7d c2 10 be
       -0.021695284 0.14958338 -0.009698672 -0.14136691
0000b0 e8 b8 90 3c 32 99 bd be 45 3d a9 3d 83 78 b9 3d
       0.017666295 -0.3703094 0.08263639 0.09056189
0000c0 cc 73 0a 3e 10 76 a2 bd 7b 9b 1b 3e ff 3d 0c 3c
       0.13520736 -0.07932675 0.1519603 0.008559703
0000d0 e7 a1 29 3d f0 74 d4 bd 07 85 20 3e 3c df ae 3a
       0.041414168 -0.103738666 0.15675746 0.0013341676
0000e0 e2 e4 85 bd 34 03 42 be f8 9b 12 bb a1 b6 be 3d
       -0.065377966 -0.18946534 -0.0022370797 0.093121774
0000f0 bd 80 5e 3d 11 96 4a be 2c 1d 0e be 8c b9 cf 3d
       0.054321993 -0.19783808 -0.13878316 0.10142812
000100 6b 00 2c 3e dd 3b 3e 3e f7 49 c4 3d 4c db 05 3e
       0.16797034 0.18577524 0.0958442 0.13071936
000110 9d 61 63 bd 31 11 9a 3d 0a 31 41 be 82 83 f6 3c
       -0.055513013 0.0752281 -0.18866363 0.030092005
000120 25 53 cb 3e 14 7d 9c 3d 67 d5 42 be 03 5a 67 bc
       0.39711872 0.07641044 -0.19026719 -0.014120582
000130 b5 df f3 bd 55 bf f6 bc 2b f8 c6 ba 74 20 91 be
       -0.11907903 -0.030120531 -0.0015180161 -0.28345072
000140 e2 ef 78 bd 81 a4 f5 3e 2b 55 cf bd 5f 97 ca 3e
       -0.060775645 0.4797707 -0.101236664 0.39568612
000150 93 af 0b 3e 40 63 ab be 35 9f a6 bc 73 ec a8 3e
       0.13641195 -0.3347416 -0.020339588 0.32992896
000160 62 c0 33 3e 4b b6 0f 3f df 15 84 be 47 b2 09 bd
       0.17553857 0.5613753 -0.25797936 -0.033617284
000170 ca e4 ab 3e 20 b0 ad bd 40 22 9d be 80 e5 b6 ba
       0.3357299 -0.08480859 -0.30690193 -0.0013953894
000180 ad fe d7 3e 9f c2 28 bd 41 2e a9 3e eb 47 83 be
       0.4218649 -0.04120123 0.330431 -0.25640807
000190 8b 28 25 be 56 bc a4 3e cf 9f 5a 3e ab 3e 50 3e
       -0.16128747 0.3217494 0.21350025 0.20336406
0001a0 a2 43 a5 3d c4 38 8f be eb 01 95 be 44 b7 5c 3e
       0.080695406 -0.27972996 -0.29103026 0.21554285
0001b0 73 df a2 3b c6 45 b2 bd 51 2d a9 3e 64 0a 51 3d
       0.004970485 -0.087047145 0.33042386 0.0510353
0001c0 45 09 51 be 97 57 13 be 41 3e 6c 3e 19 93 5c 3e
       -0.20413692 -0.14388882 0.23070623 0.21540488
0001d0 b5 d4 8e bc 84 19 83 3e 86 25 2b be 38 f8 5c bd
       -0.017435411 0.25605404 -0.16713533 -0.053947657
0001e0 f3 50 7c bd fc 1f e7 3d 8a 2a 7d 3e 5a fb 0f be
       -0.061600637 0.112853974 0.24723259 -0.14060727
0001f0 ad d9 55 3e bf e8 1d be fb fc fd bd aa f9 ab 3e
       0.20883818 -0.15420817 -0.12401768 0.33588916
000200 8e 22 ba 3e 32 f0 1d 3d 2e 25 00 bd 94 3c c4 bd
       0.36354488 0.038559146 -0.031285457 -0.09581867
000210 1c 3a 59 3c a4 6b 05 3e 71 86 a0 3d 12 47 89 bd
       0.013258483 0.13029343 0.07838143 -0.06703009
000220 1d a8 5d bd 61 54 81 bd cb 99 0f 3e d7 97 2b 3e
       -0.054115403 -0.06314922 0.14023511 0.16757141
000230 7a 73 9d 3c 53 40 ee 3d f4 e8 30 be a0 98 6a be
       0.019220103 0.116333626 -0.17276365 -0.22909784
000240 e1 3a 56 3d 43 4d 48 be 37 19 ab bd 44 d6 a8 be
       0.052302245 -0.19560723 -0.08354419 -0.32975972
000250 3f 6f e6 3d 14 25 37 be 33 39 a8 be f7 a1 c5 bc
       0.11251687 -0.17885238 -0.3285614 -0.024125082
000260 5f fc c9 3c ed 17 e8 3d 89 f1 c5 bd 8f 0c b7 bd
       0.024656473 0.113326885 -0.0966521 -0.08937942
000270 75 93 9a be a9 ec 64 bd f4 e3 33 be cf 2c e8 3d
       -0.30190626 -0.05588976 -0.17567426 0.113366716
000280 26 ba 20 3e 6a dc 98 be 24 60 a0 bd 79 ab d4 3c
       0.1569601 -0.29855663 -0.07830837 0.02596067
000290 c9 ff cf bd 0b 40 a0 bd 15 d7 86 bc c7 16 0d bd
       -0.10156209 -0.07824715 -0.016459981 -0.03444555
0002a0 f5 81 00 3e 23 68 b9 bd aa a4 8a bd f0 47 35 bd
       0.12549575 -0.09053066 -0.067696884 -0.044258058
0002b0 9c 83 01 3f 42 7c f7 3d 7b 50 1c be 42 18 4d be
       0.50591445 0.12084247 -0.15265076 -0.20028785
0002c0 1f b6 28 be f4 68 03 3c 0f ec 9f 3d b3 22 83 ba
       -0.16475724 0.008020628 0.078086965 -0.0010004848
0002d0 d9 fa 2c 3e cd 85 72 be e6 75 73 be ed 1b 9b 3c
       0.16892566 -0.23683853 -0.23775443 0.018934214
0002e0 97 fd 6d be 75 95 05 3c 33 18 08 be bd 65 88 3d
       -0.23241268 0.008153309 -0.13290481 0.0666003
0002f0 b9 46 7e bd ec 5e 5f be 0d 82 d6 bd 95 44 59 3d
       -0.062079165 -0.21813554 -0.10474024 0.05304392
000300 10 d1 39 3e dc 45 c9 3d 40 d3 03 3e 84 20 cd 3d
       0.18146157 0.09827778 0.12873554 0.100159675
000310 39 f4 c0 be 6e 57 60 bd 7a fa 8c be ea 65 fa bd
       -0.37686327 -0.05477088 -0.27534848 -0.1222647
000320 a4 1a e1 bc 6c ef b7 bd 5f d1 9b bd 31 6a 06 be
       -0.027478524 -0.08981213 -0.07608294 -0.13126446
000330 b7 e5 75 3e 79 14 56 3d 90 b2 9f bd 24 06 03 3e
       0.2401341 0.052265618 -0.0779773 0.12795311
000340 8e b8 c1 bd 76 f2 ac 3c f4 54 78 3d 25 b3 58 3e
       -0.09459029 0.021111708 0.060627893 0.21162088
000350 2b 22 06 bf 1e b2 0f be f4 75 5c 3e bb 9c 85 3d
       -0.52395886 -0.1403279 0.2152937 0.065240346
000360 10 ba 78 3e d3 c7 05 be 0a 3b 35 3e eb a0 d5 bc
       0.24289727 -0.13064508 0.17698303 -0.026077708
000370 7c 05 2b bd 48 96 e0 3d 33 4f 70 3e 0a f1 0a be
       -0.041753277 0.10966164 0.23467712 -0.13568512
000380 98 38 02 3e 8a 2c 80 3e fe 70 d5 be b0 b3 fc 3e
       0.12716901 0.2503398 -0.4168777 0.4935584
000390 57 6a 8d be 51 0a 91 be 8b 20 0a 3f 6e 82 92 3d
       -0.27620193 -0.28328183 0.53955907 0.07153784
0003a0 46 37 9d bf 46 73 7e be 90 10 5a 3f 6d f9 f0 3c
       -1.2282493 -0.24848661 0.8518152 0.02941581
0003b0 b7 70 5a bd 8a 12 75 be 98 b8 c0 bc e9 26 53 3e
       -0.05333015 -0.23932853 -0.023525521 0.20620312
0003c0 9d e1 1a bd 7c 31 33 bc 59 d6 6c bc 4c dd 87 be
       -0.037812818 -0.010937091 -0.014455401 -0.26536024
0003d0 c2 5a 0b be 0c 08 85 be 86 4e 07 be 84 13 1b be
       -0.1360884 -0.25982702 -0.13213548 -0.15144163
0003e0 5a 30 3a be 11 a2 07 3e 27 69 ad bd de 7e ab 3d
       -0.18182507 0.13245417 -0.08467322 0.08373807
0003f0 55 5d d4 be b4 fc 64 bc 80 03 af bc 03 bc 96 bd
       -0.41477457 -0.013976265 -0.021363974 -0.07360079

layers.4.bias f4 [20]
000000 0a 11 34 be 4d 6b f8 be e9 72 53 3d 72 1a ae bd
       -0.17584625 -0.48519364 0.05162326 -0.08501138
000010 f4 71 f9 bd f3 38 7f be ee df 52 be 0a 24 2e 3e
       -0.12179938 -0.24924068 -0.20593235 0.17005935
000020 86 5d 16 be a2 1f 11 be c5 9b fb 3d c1 0d 2f 3e
       -0.14684114 -0.14172223 0.1228557 0.1709509
000030 cc af 85 be c3 5c b7 bd d0 b3 af be 6a 3c 63 3e
       -0.26110685 -0.0895324 -0.34316874 0.22191015
000040 9d 09 78 3e 2a f9 6d 3e da 59 c6 3d b3 ec b1 be
       0.24222417 0.2323958 0.096851066 -0.347509

layers.6.weight f4 [20, 20]
000000 74 a2 d5 bd 71 11 89 3d 89 fe 5e 3e 36 c0 fe bd
       -0.10431376 0.0669278 0.21776785 -0.12439005
000010 b0 78 1c bc ad cb d4 bd 29 97 f5 bb b3 84 4a bd
       -0.0095502585 -0.103904106 -0.0074948263 -0.049442958
000020 1c cd a9 3d 2c 68 c6 bd dc 41 5c bd 0b c1 9e be
       0.08291075 -0.09687838 -0.053773746 -0.31006655
000030 e6 3e 8f 3d e1 dc 7a bc 20 57 a4 3d a4 32 04 3e
       0.06994419 -0.015311451 0.0802443 0.12909943
000040 ab d4 ad bd c3 0f f8 3c 87 4c 8f bd af da fa 3d
       -0.08487829 0.030280953 -0.06997018 0.12248742
000050 f1 23 1a 3e ce 95 59 3e b8 74 ad bd 6f aa 87 3c
       0.15052773 0.21248552 -0.08469528 0.016560761
000060 31 55 e5 3d a4 df ba 3d 8d 5c 94 be e7 32 6e 3e
       0.111978896 0.09124687 -0.2897686 0.23261605
000070 1d a9 b4 3d b6 fb 22 be fd d5 a4 3e 74 20 d1 3e
       0.08821318 -0.15916333 0.3219451 0.40845072
000080 d1 ce 45 bc 9e b6 06 3e 54 6b 11 bf 39 6b b0 3d
       -0.012073235 0.131556 -0.56804395 0.08614201
000090 bf 00 b0 3d f7 93 ad bd b5 c8 40 be fd c7 7f be
       0.08593892 -0.08475488 -0.18826564 -0.24978633
0000a0 fd 22 81 3e 05 a5 35 3e e1 7b 9a 3d df ca 0a be
       0.25222006 0.17738731 0.07543159 -0.13553952
0000b0 89 97 25 3d a3 f7 af 3d 90 36 17 3e 5f 3f c6 3d
       0.04042772 0.08592155 0.14766908 0.09680056
0000c0 84 41 90 3e 61 a8 06 be 86 e8 a1 3c 4f d4 06 3d
       0.28174984 -0.13150169 0.019764196 0.032917317
0000d0 d6 fc 1b bd 7f b8 03 3d 51 f6 61 be ae 14 1e 3d
       -0.03808292 0.03215837 -0.22066619 0.03859394
0000e0 90 37 9c 3e 4c 54 ba bd 07 dc b3 3d 51 e1 78 be
       0.3051114 -0.090981096 0.08782201 -0.24304701
0000f0 46 16 77 3d 15 4a 87 bd 7f 8d cc 3c e8 fb 3e be
       0.060323976 -0.06605927 0.024969814 -0.18650782
000100 b5 ca 28 3d b0 66 94 3e 5f 55 4a 3c 4e ac 20 bd
       0.04120894 0.28984594 0.012349456 -0.039226823
000110 11 b6 08 be 2d 5a ad bc 89 ec 9f 3d 25 bd 15 3d
       -0.13350703 -0.021161163 0.078087874 0.036557335
000120 89 67 92 3d 56 cd 2e 3e 6f 06 9a be 80 b5 fc 3d
       0.07148654 0.17070517 -0.30083033 0.12339306
000130 c4 20 90 3e 85 ac 99 bd 3d 2d a6 bd ae be 77 be
       0.28149998 -0.075036086 -0.08114097 -0.24193832
000140 3a bd 66 be 84 b2 0c be 5f 7f aa bd 2c ba 5e 3e
       -0.22533122 -0.13739973 -0.08325075 0.21750706
000150 78 29 98 be 6f 86 24 3e ee 53 18 3e fa 69 d2 bd
       -0.29719138 0.16066907 0.14875767 -0.1027412
000160 d1 05 16 be 85 8f 73 3e 71 b5 12 be 68 63 3a b8
       -0.14650656 0.23785217 -0.14327027 -4.4438435e-05
000170 5e b1 5d be a1 22 1b 3d cb 7f 70 be dc 74 77 3d
       -0.21649691 0.03787482 -0.23486249 0.06041418
000180 91 68 43 3e 88 75 5a be 64 c1 74 3d 9a 11 26 be
       0.19082858 -0.21333897 0.059754744 -0.16217652
000190 5a 1e 5b 3e a2 03 0b be d0 72 ad 3d 70 20 de 3d
       0.21398297 -0.13575605 0.08469164 0.10846031
0001a0 c8 c1 4c be f1 cc 40 bd 60 2a b6 bd d4 ad bc 3e
       -0.19995797 -0.047070447 -0.08894801 0.3685137
0001b0 40 64 55 3e 74 b9 2c 3c c2 0c 91 bd 41 5a e5 be
       0.20839024 0.010542262 -0.070825115 -0.4479542
0001c0 0a 5a ed bd 4a 0b 9c bd ea 8e 87 3e e7 44 9b be
       -0.11589439 -0.07619341 0.26476222 -0.30326006
0001d0 6c 43 ad be 3d ce e1 3d e8 bb 61 3d b0 e5 93 3c
       -0.338405 0.11025665 0.055110842 0.01805386
0001e0 31 3c be bc 2c ab 71 3d 4f dc 0d 3d 3e f9 a6 3d
       -0.02322206 0.059001133 0.03463393 0.08153008
0001f0 56 43 f0 3d db 56 0a 3e 30 ba 9d bd ef ae 3e 3d
       0.11731593 0.13509695 -0.07701528 0.04655355
000200 87 41 dc 3d dd cc 00 3c 85 d1 1f 3d 56 85 1a be
       0.10754686 0.007861343 0.039018173 -0.15089926
000210 b9 06 0f 3e b4 c7 a2 bd a4 31 1e be a3 ec 90 3d
       0.13967408 -0.079482466 -0.15448624 0.07076385
000220 8c 16 dd 3c 9d dd b8 bd cd ac 2e be 38 cb 42 3e
       0.02698829 -0.090266444 -0.17058106 0.19022834
000230 aa 5b 86 3d 08 91 67 be 3f e3 15 3e b9 e0 3a bd
       0.06560452 -0.22613919 0.14637469 -0.04562447
000240 17 87 c8 be eb 32 fd be fd 44 8e be a1 bd a2 3e
       -0.39165565 -0.4945291 -0.2778701 0.317853
000250 99 36 61 3d fe de 40 3e 05 ef 69 bd b9 5d 29 be
       0.05498371 0.18835065 -0.057112712 -0.16539659
000260 29 ba a4 3c 2e b4 4f be 48 c9 f1 3d 8d 1a 91 bd
       0.0201083 -0.20283577 0.118059695 -0.07085142
000270 17 51 80 be ca c5 4f 3e 92 79 aa bd d7 bb 50 bd
       -0.25061867 0.20290294 -0.08323969 -0.050960388
000280 83 04 27 3e 89 af 39 3e ce ac fb bc 0f aa 86 3d
       0.16310315 0.18133368 -0.030722048 0.06575405
000290 a9 97 f3 3d c6 82 fa bb 5c ce 64 3d 19 8b 5f be
       0.11894161 -0.007644984 0.055860862 -0.21830405
0002a0 70 a8 93 bd 61 e6 a7 3d 7d f5 0a 3e 70 3e 3a 3e
       -0.07209861 0.08198238 0.13570209 0.1818788
0002b0 1e 2b 0e 3e d9 1d 03 3e 93 9a ca bc 46 b7 85 3e
       0.13883635 0.12804355 -0.02473191 0.2611639
0002c0 71 f1 5f bd df b7 2f be d2 2a 73 be 67 78 d9 bd
       -0.054673616 -0.17159985 -0.23746803 -0.10618668
0002d0 fb 98 4c be 10 c4 5e 3d bf ec 1a 3d fd fd 40 bd
       -0.19980232 0.0543862 0.037823435 -0.047117222
0002e0 d9 b5 d4 bd 7f 8c 13 3e e5 55 9a 3c e8 81 e8 3b
       -0.10386247 0.14409064 0.018839786 0.007095564
0002f0 10 cf 82 bd 46 9a 07 be e5 43 2c 3e bb 3e 13 3e
       -0.0638715 -0.13242444 0.16822775 0.14379399
000300 8d 22 34 be 3e 82 03 bd df 6c bd be 48 d4 3f bd
       -0.17591305 -0.03210663 -0.36997125 -0.046833307
000310 55 b8 fc b9 60 5f a7 be de 69 14 3e bd d9 49 be
       -0.00048202524 -0.32689953 0.1449351 -0.19711967
000320 6b f3 ac be 1b 49 38 bd 8b 13 26 bd df 52 35 3d
       -0.33779463 -0.044991594 -0.04054598 0.044268485
000330 dd e7 15 3f b2 0e 52 be 1d 79 8a bd 47 88 73 be
       0.5855692 -0.20513418 -0.06761382 -0.23782454
000340 af bd bf bc 5c 16 e1 be 9d 87 0a 3e 01 98 e2 be
       -0.023405878 -0.4396237 0.13528295 -0.44256595
000350 13 05 e2 3d a5 15 a8 bc b3 79 95 3e cd c7 6d 3e
       0.11036124 -0.020518133 0.29194412 0.23220749
000360 29 21 9e bd 40 24 73 be 07 ad 88 3e 50 e8 3f 3d
       -0.077211685 -0.23744297 0.2669451 0.04685241
000370 20 7d 50 be e9 82 0d 3e 91 51 8f 3d a4 e0 56 bd
       -0.20360231 0.1381947 0.069979794 -0.052460328
000380 45 dc 05 3e f5 1b 57 be d1 98 29 bd 27 0e f3 bd
       0.13072307 -0.21006759 -0.041405503 -0.11867934
000390 50 cb 23 be 76 4c 0a 3e 5c 44 45 3d d2 52 13 be
       -0.15995526 0.1350573 0.048160896 -0.14387062
0003a0 42 3e 18 be e7 d4 b9 3d 07 87 d2 bd c9 03 65 3e
       -0.148675 0.09073811 -0.10279661 0.22364725
0003b0 67 10 6a be d7 5e 8f 3d ae 4c 4d be 54 fb 88 3e
       -0.2285782 0.07000511 -0.20048782 0.26754248
0003c0 05 43 fb 3c 58 14 4b be 1a ef ec bd 91 38 2a be
       0.030671606 -0.1983198 -0.115690425 -0.16623141
0003d0 95 0f 9e be 89 f5 3d bd b2 6c f2 3d 70 06 15 3e
       -0.30871263 -0.04637674 0.11837138 0.14553237
0003e0 79 5e ac bd c0 d1 7a 3e a5 bc 3e 3e bf a5 91 3e
       -0.08416457 0.24494076 0.1862665 0.28446767
0003f0 9d 5c 9d bc 13 c1 c2 bd d3 ab a1 bc 03 ef a1 bd
       -0.0192092 -0.09509482 -0.019735252 -0.07906916

layers.6.bias f4 [20]
000000 6d 40 ed bd 0e 1e a6 bd 21 fc 7d 3e fc e3 55 3d
       -0.11584554 -0.08111201 0.24803211 0.052219376
000010 7d c5 14 bd 49 6e 74 3e 16 d9 48 be bb 3c b2 3e
       -0.036321152 0.23870195 -0.19614062 0.3481196
000020 d9 92 6c bd fa 7a ab bd 0d 63 15 3e 5d da 91 ba
       -0.057757232 -0.08373065 0.14588566 -0.0011127699
000030 70 9f ec bd c1 30 a1 be ff 57 11 be 96 e7 8a 3e
       -0.11553848 -0.3148251 -0.14193724 0.2712981
000040 6f 71 1a 3e 73 59 86 be 85 01 4f be ab 2e 7b 3d
       0.15082334 -0.2624012 -0.20215423 0.061323803

layers.8.weight f4 [20, 20]
000000 26 00 b4 3d 93 54 4c bd ca 53 91 3e 16 ee 12 3c
       0.08789091 -0.049885344 0.28384238 0.008967897
000010 d8 65 54 3e 51 6b 12 3e 03 85 63 be cc 47 43 be
       0.20741975 0.1429875 -0.22218709 -0.19070357
000020 f1 35 9b 3d 73 ac 8b 3e b5 51 80 3d d6 92 20 3d
       0.07578648 0.27280006 0.062655844 0.039202534
000030 82 61 17 3c fc 64 6f 3d 19 ce ed bd df 83 3c 3e
       0.009239556 0.058445916 -0.11611576 0.1840968
000040 27 f7 01 be 67 a1 2b be bb d5 8e be 7f b4 42 be
       -0.12691937 -0.16760789 -0.27897438 -0.19014166
000050 6e 8e e7 bc 53 91 05 3e 4a 61 3c 3e 8d 84 24 3d
       -0.028266158 0.13043718 0.18396488 0.040165473
000060 dc 95 3d 3e f1 25 cd bb 03 f1 7a 3d 1d c1 ae bd
       0.18514198 -0.0062606265 0.061265003 -0.08532927
000070 0d fd e4 3e 9d 2a 00 be 54 7f 48 3e 94 45 a5 3d
       0.44724312 -0.12516256 0.19579822 0.080699116
000080 c8 65 dd bd d4 df d9 3e f3 cf 0d 3e e0 03 b6 3e
       -0.10810429 0.4255358 0.13848858 0.3554983
000090 b4 f6 57 3e 58 14 01 3e d1 41 a7 bd 2e 06 8e 3e
       0.21090204 0.12605417 -0.0816685 0.2773909
0000a0 11 59 bf bd 5f 49 9a 3e c5 01 4e 3e 96 ba 14 be
       -0.0934316 0.30134103 0.20117863 -0.14524302
0000b0 af 82 ca 3e 88 d9 0a be 45 0b f3 bc c6 29 0f be
       0.3955283 -0.13559544 -0.02966846 -0.13980779
0000c0 2e b7 0e 3e fd 2f 99 bc 70 e5 6e 3d eb c4 d9 bd
       0.13937065 -0.01869964 0.058324277 -0.10633262
0000d0 06 ee 79 bd 5b b0 b4 3e 88 8d 8b 3e 5a 84 65 3e
       -0.061018012 0.352908 0.27256417 0.2241377
0000e0 44 4d 4d bd 54 74 e5 bd 33 11 a1 bd 9d 82 a9 3c
       -0.050122514 -0.112038285 -0.078646086 0.020692164
0000f0 4f 20 5c b8 30 a1 41 be 1c c5 d8 bd 18 f2 15 be
       -5.2482177e-05 -0.18909144 -0.10584471 -0.14643133
000100 77 48 01 be c2 62 3c 3e e3 95 4b be bc cd b1 3d
       -0.126253 0.18397048 -0.19881396 0.08681819
000110 84 d2 44 be bc 6f 81 3c dd 86 c2 bd d6 c3 10 3e
       -0.1922093 0.01580035 -0.094983794 0.14137205
000120 41 9b ad 3d 78 bd 84 bb 75 8f 33 be 9d a6 06 3d
       0.08476878 -0.0040509067 -0.17535193 0.03287374
000130 df 84 62 bd c4 35 21 3e cd 81 b2 3c 74 fb 06 3e
       -0.055302497 0.15743166 0.02179041 0.13181859
000140 5a b1 86 bd 97 2b e6 3d 0d 52 19 3e b7 61 93 be
       -0.06576796 0.11238783 0.14972706 -0.28785488
000150 09 62 5a 3e 7f 5d 5e 3c 60 88 89 3d e1 81 75 bc
       0.2132646 0.013572096 0.067154646 -0.014984579
000160 03 b6 ba bd b8 b9 fe bd 15 2c 4a bd 97 60 23 be
       -0.09116747 -0.12437767 -0.049358446 -0.15954815
000170 60 d3 97 bd 87 87 0c be 2b 72 41 be 71 7b f1 bd
       -0.074133635 -0.13723575 -0.18891208 -0.11791123
000180 3f 20 9a bc 6a 50 ae 3d 2c e4 30 3e 7b 27 0a 3e
       -0.018814204 0.085114315 0.1727454 0.13491623
000190 0d 0d 86 3d c1 07 2b be 65 64 17 3e 4f 36 49 3e
       0.06545458 -0.16702177 0.14784391 0.19649623
0001a0 c9 24 94 3e c1 df 2b be ae 07 d2 3d 1e 4f 6b be
       0.28934315 -0.16784574 0.10255371 -0.229794
0001b0 09 d3 8e 3d 38 6e 5a be fd a8 ff ba 41 4e 2f 3e
       0.069738455 -0.21331108 -0.0019505318 0.17119695
0001c0 ab ba b2 3d 79 a3 83 3e 00 65 2d be 09 87 74 3e
       0.0872701 0.25710657 -0.1693306 0.23879637
0001d0 ad b7 a4 3d e0 c8 f2 bd 85 e4 d4 ba 01 b3 99 bd
       0.08042846 -0.1185472 -0.001624242 -0.075048454
0001e0 9c 28 4d be 1c 92 98 3e fa 4a df 3d ff 83 61 3e
       -0.20035022 0.29798973 0.109029725 0.22023009
0001f0 a9 4f da 3e fd b4 67 be 53 d7 d7 3d e2 48 87 be
       0.426389 -0.22627635 0.10539117 -0.26422793
000200 ae ea 1d 3e 21 e2 a7 bb c2 78 1f bf 01 a1 53 be
       0.15421554 -0.005123392 -0.62293637 -0.20666887
000210 dc 61 f3 3d 36 d2 5d 3e b3 91 1b be 35 21 41 3e
       0.118838996 0.2166222 -0.15192299 0.18860324
000220 9a d3 22 3e ca 4b cd 3c 5c 30 c2 be 57 42 29 be
       0.15901032 0.025060553 -0.3792752 -0.16529213
000230 60 52 29 3e 8a f9 a2 be b0 c1 b7 3d b3 a5 09 be
       0.1653533 -0.31831008 0.0897249 -0.13442115
000240 42 7c c5 bd 4e a0 be 3d 8a 10 42 be a6 21 7c 3e
       -0.09642841 0.093079194 -0.18951622 0.24622211
000250 db fa 85 be 58 c0 51 3e 12 01 29 be 6f 9c 3e 3d
       -0.2616795 0.2048353 -0.16504315 0.046535905
000260 f3 a8 0a bd e4 43 8e be 28 15 74 be 27 da 7c be
       -0.03385253 -0.2778617 -0.23836195 -0.24692594
000270 5b 6e 42 be 91 1c 9c bd b1 82 6f 3e d2 0f 09 be
       -0.1898741 -0.07622636 0.23389699 -0.13384941
000280 98 3b b6 bd 51 a2 84 3d 4c d0 92 bd ba b7 27 be
       -0.08898085 0.06476272 -0.07168636 -0.1637868
000290 70 ac fb 3d 18 cc b7 bd da 91 ad 3e 29 da 75 be
       0.12288749 -0.08974475 0.33900338 -0.24009003
0002a0 3b f1 c4 bc 87 5a 1b 3d ea e2 3f bd d0 df 5e be
       -0.024040809 0.03792813 -0.04684726 -0.21765065
0002b0 6c c6 2b be 8b de 2f bd a1 27 a0 3e 5d fc b1 3d
       -0.1677491 -0.042936843 0.31280234 0.086907126
0002c0 c3 e4 8c 3d 0b 6f 49 3e 02 d9 e0 3d 03 2c b9 bd
       0.0687957 0.19671266 0.10978891 -0.09041598
0002d0 40 99 2e bd 0d e9 18 3e 6e ed 32 3d 1a d2 b3 bd
       -0.04262662 0.14932652 0.04368346 -0.08780308
0002e0 46 ea 1a bd 8a 36 73 be 15 c3 31 3e e2 99 a2 be
       -0.037821077 -0.23751274 0.17359574 -0.31758028
0002f0 27 a2 45 3e e7 db 1f 3e fc ce 88 3e f5 b2 06 3e
       0.19300137 0.1561123 0.26720417 0.13154204
000300 f5 2c 81 be c4 2c 4e 3e 99 31 5d bc 0b 20 45 be
       -0.25229612 0.20134264 -0.0135005945 -0.19250505
000310 a6 0c 2b bd c8 88 42 be 9d f5 8f 3c 70 3c e3 bc
       -0.04176011 -0.1899749 0.017573172 -0.02773878
000320 df 77 88 bc 69 b9 d0 bc 04 0b 59 bc ca 2b 4e be
       -0.016658721 -0.025479035 -0.013247255 -0.20133892
000330 82 39 25 3e bd 08 1a 3d 40 5f b2 3c 05 6a 58 3d
       0.16135219 0.03760599 0.021773934 0.052835483
000340 3b 8d c8 3e 9b 88 2f be 0f b5 65 3e 82 b8 7b 3e
       0.3917025 -0.17141955 0.2243235 0.24582103
000350 b5 f3 22 be 7f 78 96 3e bb bb 59 3e f6 38 b7 3d
       -0.1591328 0.29388806 0.2126302 0.08946411
000360 f9 94 6b 3e 16 0e ed bd d3 8c 74 be a5 ac 0b 3e
       0.23006047 -0.11574952 -0.23881845 0.13640077
000370 75 8d ae bd c3 93 cd be b5 dc 22 3e 02 9e 7d 3e
       -0.085230745 -0.40151796 0.15904506 0.24767306
000380 d1 e3 14 be 2b f7 c9 39 b2 fe aa be 81 cf 62 bd
       -0.1454003 0.00038521862 -0.33397442 -0.055373672
000390 87 7b c1 bd b8 05 e9 bb cc ea 8c be 26 44 c7 3d
       -0.09447389 -0.0071112774 -0.27522886 0.09729795
0003a0 e8 16 20 3e aa 35 cb bd b6 6e 1a 3d c7 0c 90 be
       0.15633738 -0.09922345 0.03770324 -0.28134748
0003b0 89 38 76 3c fc 24 1f bd b7 d4 69 3e 23 6a 13 bc
       0.0150281275 -0.03885363 0.2283505 -0.008997473
0003c0 61 cf 1b 3e 33 6a 30 be 0e f0 ba bd b2 c8 f4 bd
       0.15215828 -0.17228012 -0.09127818 -0.11952342
0003d0 af 67 3f be 99 ed 77 3e 08 53 ff bd c5 62 83 3d
       -0.18691896 0.2421173 -0.12467009 0.06415323
0003e0 40 9d 70 bd e6 9f 85 be b7 5c df bd 19 09 87 3c
       -0.058743715 -0.26098555 -0.10906356 0.01648383
0003f0 55 c8 47 bd f0 08 d7 bc 0f 8d ab bc a4 b1 54 be
       -0.048775036 -0.026249379 -0.020941285 -0.2077089

layers.8.bias f4 [20]
000000 b4 ae 24 be ca 4d 09 bd 37 cd f1 bc 5c ae 88 3e
       -0.16082269 -0.03352145 -0.0295168 0.26695526
000010 a6 df 6f 3e 78 ec 5a bd 37 3d 36 3d cc 81 5f 3e
       0.23425159 -0.05344817 0.044491973 0.21826857
000020 90 d5 16 be f9 4c a0 be f8 a8 4e 3b c7 f3 72 3e
       -0.14729905 -0.31308725 0.0031533819 0.23725806
000030 cf 3b de bd 79 05 df bd b3 6d a1 be 01 85 13 be
       -0.10851251 -0.10889716 -0.31529006 -0.14406206
000040 1a cb 18 3e 47 0e a1 bc 25 c8 5d bd 97 74 ef bd
       0.14921227 -0.019660128 -0.05414595 -0.116921596

layers.10.weight f4 [20, 20]
000000 38 32 78 3e a9 0e 4a 3c 53 99 89 3e 2d 90 6d be
       0.24237907 0.012332597 0.2687479 -0.2319953
000010 91 37 b3 be 75 c5 9c 3d 00 08 7d 3e 34 a8 2e be
       -0.3500333 0.076548494 0.24710083 -0.17056352
000020 33 c3 8f 3d 73 b4 33 3e ab 7b c9 3d 35 5d 68 3d
       0.07019653 0.17549305 0.09838041 0.056729514
000030 b0 32 04 bf f2 42 af 3e 9f 7e 0b 3f d0 78 f8 bc
       -0.51639843 0.34230763 0.54490083 -0.030331045
000040 de 07 c9 be e8 9e d3 bc b7 5e b3 3e a8 b0 ad be
       -0.39263815 -0.025832608 0.350332 -0.3392384
000050 a8 8a 27 be 44 d1 1d 3e 1e 04 70 3d 10 99 27 3e
       -0.16361487 0.1541186 0.058597676 0.16366982
000060 cd 2e 46 be 72 e2 f6 3d eb d3 8e bd 8a a1 72 3d
       -0.1935379 0.1205491 -0.06974014 0.059236087
000070 c6 91 1b be 58 56 26 be 1e 47 96 bd 8a 5d 97 38
       -0.15192327 -0.16243875 -0.07337783 7.217664e-05
000080 7d c6 02 bd c9 e7 65 be d3 61 07 3d f3 45 87 bd
       -0.031927574 -0.224517 0.033052277 -0.06605139
000090 0a 49 3d be 69 53 09 3d 1f 9a f7 bd 4e b4 2a bd
       -0.18484893 0.03352681 -0.12089943 -0.04167586
0000a0 57 09 09 bf c1 57 7c be d8 24 cc be ec 59 fc bd
       -0.53529876 -0.2464285 -0.3987186 -0.12321839
0000b0 08 1f 24 3e 52 ac 61 be 60 8c 80 bd 37 d5 9f be
       0.16027462 -0.22038391 -0.062767744 -0.31217358
0000c0 32 5b 2d 3d c5 75 e6 be b4 91 05 be 8d d3 e8 bc
       0.0423233 -0.45011726 -0.13043863 -0.028421188
0000d0 a4 0a f8 3e 4a b4 8e be ce 22 9f be a8 62 c3 bd
       0.48445618 -0.27871925 -0.3108124 -0.095403016
0000e0 52 30 d2 3e 27 73 22 be 29 49 31 3c 67 db 0b bd
       0.4105249 -0.1586424 0.010820665 -0.034144785
0000f0 dc 24 6b bd 0f 38 65 3e f8 5d 98 3d 5b 7d b4 bd
       -0.0574082 0.22384666 0.07439798 -0.08812972
000100 e0 d5 01 bd c6 56 db 3d 98 7c fc bd de d5 08 be
       -0.031698108 0.1070991 -0.12328452 -0.13362834
000110 42 fd 0d 3e d3 22 c8 3b 42 8d 21 3e 40 db 80 be
       0.13866141 0.006107667 0.15776542 -0.25167274
000120 3c a1 bf bd e7 70 e3 bd 54 77 5e bd e4 44 2b be
       -0.09356925 -0.11105519 -0.05431302 -0.16725498
000130 1f ac b1 bd 11 2b 78 be fd 40 c0 bd 80 4a b2 3b
       -0.086754076 -0.24235179 -0.093873955 0.00544101
000140 ad 06 14 be ee 6d 3f 3d af 40 32 be 5b 95 28 3e
       -0.14455672 0.046735696 -0.17407487 0.16463225
000150 a6 c7 5e 3e b7 6c a7 be f7 22 23 be 16 d7 00 3c
       0.21755847 -0.3270013 -0.15931307 0.0078637805
000160 19 ad ce 3d 82 96 b1 be 49 0f b9 3d 7e c8 dd bd
       0.100916095 -0.3468514 0.090361185 -0.108292565
000170 50 a0 24 3f d6 28 19 be df c1 1d be aa e9 3f 3e
       0.6430712 -0.14956984 -0.15405987 0.1874148
000180 92 5c 9c 3e 3c 7e 62 3e 1f 1f 8b bd 30 2b 98 3e
       0.30539376 0.22118467 -0.06793045 0.2972045
000190 16 94 90 3e 75 5e 4c 3d a8 7a 98 3e cf 64 88 be
       0.2823798 0.04989477 0.2978108 -0.2663941
0001a0 40 81 e8 bc b5 94 3a 3e f1 bb af bc b0 a6 20 be
       -0.028381944 0.1822079 -0.021451922 -0.15688586
0001b0 2f e4 2c be 01 42 2b 3e 64 e7 e7 bd e8 0d 10 3c
       -0.1688392 0.16724397 -0.11323431 0.008792378
0001c0 5d 4a e9 be 68 cd ae 3e 54 76 c2 3d 14 15 1f be
       -0.45564547 0.34141088 0.094952255 -0.15535384
0001d0 c4 59 e7 bd 92 68 a2 bc 69 0c ff bc 0a 34 79 be
       -0.11296418 -0.019825254 -0.031133847 -0.24336258
0001e0 7a b6 07 3c c2 39 2a 3e c9 0b 26 3d a6 75 16 be
       0.008283252 0.16623595 0.040538583 -0.14693317
0001f0 c7 b4 ab 3c 2f ba 96 be 1d a7 8b be e4 14 e1 bd
       0.020960225 -0.29438922 -0.27275935 -0.10990313
000200 77 38 15 3d 4a 12 63 be 82 cc 4f 3d 21 8b 1c bd
       0.036430802 -0.22174945 0.050732143 -0.03821862
000210 57 fa e1 3e 19 92 00 3e a6 ea 8d bd 5c b6 bd bd
       0.44136307 0.12555732 -0.06929521 -0.09263298
000220 f2 8a 70 3e d4 43 5a 3c 8d bb c8 3d 06 15 5f 3c
       0.23490503 0.013321836 0.098013975 0.013615852
000230 7f 58 00 3d dd ab d2 bd 57 1d 02 3d 4a 77 38 be
       0.031334396 -0.102866866 0.031766262 -0.18014255
000240 9a f8 ce bd 23 97 52 3e b5 25 68 3e 78 54 18 bd
       -0.10106011 0.20565467 0.22670634 -0.03718993
000250 ae 2b 34 3e d3 6e 27 3e a2 5e 9a bb 8d 5b ac bb
       0.17594787 0.1635087 -0.004710988 -0.005259937
000260 c7 82 e8 bd 47 db d8 3c 1a c8 65 3e a6 95 8a 3e
       -0.11353069 0.026471747 0.22439614 0.27067298
000270 73 00 1a bd d0 7f d7 bc a2 a1 d8 bc 52 b5 8b 3e
       -0.037598085 -0.026306063 -0.02644426 0.27286774
000280 75 d9 b6 3e ba 04 06 3e 89 69 b1 3e 0b f7 66 be
       0.35712782 0.1308774 0.3465083 -0.22555177
000290 a5 26 c9 3d 1a 86 8a 3d 18 6f 39 3e 33 45 b5 bd
       0.09821824 0.06763859 0.18108785 -0.08851089
0002a0 c3 5a 92 3d 77 45 2c 3e 47 dd 6a be 31 01 84 bc
       0.07146218 0.16823374 -0.22935973 -0.01611385
0002b0 7e f7 a0 be d6 ae 7d 3e d7 63 94 3e 0a 35 33 be
       -0.31438822 0.24773726 0.28982422 -0.17500702
0002c0 5a 30 60 be d6 6e 0b 3e 31 12 af bb 94 ef 14 be
       -0.21893445 0.136165 -0.0053427448 -0.14544517
0002d0 f9 ba 42 bd 2f 24 e1 bd 2f 0b 33 be ae 0e 0d 3b
       -0.047541592 -0.109932296 -0.17484735 0.0021523642
0002e0 a6 d5 79 3e 43 50 d7 bc a3 f1 7a be 6e 97 04 3e
       0.24397907 -0.026283389 -0.2450624 0.12948391
0002f0 82 37 46 bd 63 07 aa be 63 5b 08 bd 05 d5 a6 be
       -0.04839278 -0.3320876 -0.03329028 -0.32584396
000300 3b bc a5 3e 58 9e 18 be 26 07 df be c7 27 b0 3d
       0.3237017 -0.14904153 -0.4356014 0.08601337
000310 9f 51 e4 3e 46 70 63 be 5e af bd be bb 3f 73 3c
       0.44593522 -0.22210798 -0.37047857 0.0148467375
000320 07 23 54 be 33 40 ed bd 70 eb 48 be 5b 6d 2c be
       -0.20716487 -0.11584511 -0.19621062 -0.16838591
000330 e5 63 6f 3d 40 99 54 3d ec 8b 32 be 44 dc 57 3c
       0.058444876 0.051903963 -0.17436188 0.013175074
000340 99 ec 55 3d 15 3d 1b 3e 9d e6 1c be 83 2d 73 3d
       0.05222759 0.1516002 -0.15322347 0.059369575
000350 ef d2 20 bd e5 b5 59 be d9 7b 24 be e5 63 65 3e
       -0.039263662 -0.21260794 -0.16062869 0.22401388
000360 49 f0 19 be 95 6b 67 3e df 13 31 3e bf 7b af bd
       -0.15033068 0.22599633 0.17292736 -0.085685246
000370 ed d6 10 3e b1 51 3d 3e c9 fd 63 3e 52 af cc bd
       0.14144488 0.18488194 0.2226478 -0.09994377
000380 e2 5f a8 bd 75 13 a8 3d 64 6f 6e 3e b7 43 63 3e
       -0.08221413 0.08206836 0.2328468 0.221938
000390 a5 49 d7 3d 30 bc 8e 3e 44 b8 02 3e 4b 84 20 3e
       0.105120935 0.2787795 0.12765604 0.15675466
0003a0 3b b6 0a bf e4 12 17 3e fc 49 8f 3e 71 9c b0 3d
       -0.5418431 0.147533 0.27986133 0.08623589
0003b0 a6 79 c5 3b cc 51 01 bc 78 48 6c 3d d9 d6 01 3e
       0.0060264645 -0.007893037 0.0576863 0.12679614
0003c0 80 9e a1 3e 72 19 1a be 70 3f 45 3e 1e a7 d3 3d
       0.31566238 -0.15048769 0.1926248 0.103346094
0003d0 79 b4 de bc 33 9f 2a 3e a9 49 56 3e 55 3f 21 be
       -0.027185665 0.16662292 0.20926537 -0.15746816
0003e0 62 71 d9 3d 52 81 50 3e e9 78 ec 3c c2 e3 06 be
       0.10617329 0.20361832 0.028866248 -0.1317282
0003f0 20 e9 a1 bd d0 14 91 3e aa 39 b6 bc ce fe 77 be
       -0.07905793 0.2833619 -0.022244293 -0.24218294

layers.10.bias f4 [20]
000000 fc ed 03 3d 53 7f 1b 3e 2a 7c a3 3d 18 91 4d bd
       0.03220938 0.15185289 0.07982667 -0.0501872
000010 1e 65 11 3e fc ad 88 bd 56 71 84 bd a3 87 8b bd
       0.1419873 -0.0667381 -0.064669296 -0.0681298
000020 ad 55 41 3e 25 92 6b 3e 41 7d 32 3e 16 4f 59 be
       0.18880339 0.23004968 0.17430593 -0.21221575
000030 d8 94 06 3e 12 10 d5 3d a3 84 df 3c 4a a8 47 3e
       0.13142717 0.10403456 0.027284926 0.19497791
000040 0d df 15 3d 57 e5 0d be a7 37 4f 3d 29 f5 20 be
       0.03658967 -0.13857017 0.050590184 -0.15718521

layers.12.weight f4 [20, 20]
000000 75 53 66 3e 47 76 e1 3d df d3 3b be 8a f5 13 be
       0.22492774 0.11008888 -0.18342541 -0.14449134
000010 a8 8d 70 be c4 6a 19 3e 93 bb b3 3c 9a 16 d6 3c
       -0.23491538 0.14982134 0.021940028 0.026133824
000020 fa 6e d7 3d f2 ab 04 be ac c9 e2 bd 70 c0 cb bd
       0.10519214 -0.12956217 -0.11073622 -0.09948814
000030 a7 3f 4b 3e de 8c 50 be b7 67 b5 bd c1 cd 4a be
       0.198485 -0.20366237 -0.08857673 -0.19805051
000040 43 7a 08 3e a1 f1 52 3d b3 15 ac bd bf ad 39 be
       0.13327889 0.051499967 -0.08402576 -0.18132685
000050 0f 0c 8b 3e 9c 67 03 be af bc f9 bd 2b 8d 9c be
       0.27157637 -0.12832493 -0.12194192 -0.30576453
000060 db c9 f9 3b 6a 63 6b 3d 55 65 26 3d 74 e6 df 3e
       0.00762294 0.057467856 0.04062398 0.4373051
000070 01 e1 c2 3d de 7b 42 bd 59 66 21 3e 75 58 8f bc
       0.09515572 -0.04748141 0.15761699 -0.017498234
000080 d3 d3 14 3d 19 60 75 3d 09 39 d4 3d 91 e6 66 3d
       0.036334824 0.0599061 0.10362441 0.05637223
000090 23 9a e8 3d 2a 0d 88 be ac f0 20 3e a9 8a 32 3d
       0.11357524 -0.26572543 0.15716809 0.043589268
0000a0 c3 1c 01 3e ac 79 33 bc 86 b7 23 be 52 71 dd 3d
       0.12608628 -0.010954302 -0.15987977 0.1081263
0000b0 f3 ef 08 3d 00 47 ed 3d b6 e7 db 3d f6 6e b5 bd
       0.03343196 0.11585808 0.10737555 -0.08859055
0000c0 05 66 9f bd 4c 3c 57 be cd fd 3d bc e0 9b 84 bd
       -0.077831306 -0.21019095 -0.011596155 -0.06475043
0000d0 18 15 80 3e 24 7e 5e 3e 58 21 72 3d ad 31 1e be
       0.25016093 0.21727806 0.05911383 -0.15448637
0000e0 3a 87 eb 3d 03 80 0b be 28 2a b6 bd 0f 35 92 3c
       0.11500402 -0.13623051 -0.088947594 0.017847566
0000f0 25 e4 2e 3e f5 c0 8e 3d 9b 30 b5 bd e7 ea 9e bd
       0.17079218 0.069703974 -0.088471614 -0.07759648
000100 ad aa 01 3c 8b 43 04 3e 7c 65 4a 3d 7e 3c 39 bd
       0.007914227 0.1291639 0.04941319 -0.045223705
000110 bb 7a 3a be 35 70 7b bd 21 ce 06 be 53 c6 3b 3d
       -0.1821088 -0.061386306 -0.1316457 0.045843434
000120 29 77 f7 bd 26 00 4c be 84 53 97 3c 5c 35 17 bd
       -0.12083275 -0.19921932 0.01847244 -0.03691612
000130 3b c3 5c bc 88 88 9f 3d 87 fe 8c 3b 6e 16 2c 3d
       -0.013474281 0.07789713 0.004302803 0.042013578
000140 ab 64 62 3e 43 6b 0a 3d 1b 38 6b be 59 85 7d 3d
       0.22108714 0.0337937 -0.22970621 0.06189475
000150 bd 23 6d be 07 fb 18 3e e9 66 0b bd 51 a2 93 bd
       -0.23158164 0.1493951 -0.03403369 -0.07208694
000160 fe af dd 3d 3f 83 3a 3e 1c 78 a5 3c c7 60 5a be
       0.108245835 0.18214129 0.020198874 -0.2132598
000170 dd 02 3e be 3d 46 47 3e a0 05 45 be 02 90 4b 3e
       -0.1855578 0.19460388 -0.19240427 0.19879153
000180 62 fb 72 3e 18 d1 aa 3d f8 66 0c 3d 1b 77 fc 3c
       0.23728707 0.08340663 0.034277886 0.030818513
000190 ce 78 30 3e 2c b2 3a 3c 77 3b 89 3c 64 5d df be
       0.17233583 0.011395019 0.016751988 -0.4362594
0001a0 7c 35 18 bc 50 74 56 be 12 34 6d 3e c2 09 93 3e
       -0.009290095 -0.20942807 0.23164394 0.28718382
0001b0 bf f3 46 3e d9 4c 83 3d 7f 7e 5b 3e 41 14 76 3d
       0.1942892 0.06411142 0.21434973 0.06007791
0001c0 89 b7 85 bd 5a 89 43 3e 82 6f 53 3e 66 27 5d be
       -0.06529147 0.19095364 0.20648006 -0.2159706
0001d0 de c0 f9 3d 9d 5e 80 3e 55 5c 33 be 9f 1c a5 be
       0.121949896 0.25072184 -0.1751569 -0.322484
0001e0 54 1d 9d 3e ea 71 35 be f0 a9 43 be 3e 2f 00 bf
       0.30686438 -0.17719236 -0.19107795 -0.50072086
0001f0 24 72 94 be 75 44 51 be 34 1a 4e bd 79 60 07 3f
       -0.28993332 -0.2043627 -0.050317958 0.5288158
000200 5b c4 a8 3e dd 52 79 be cc a9 7d 3e 4f 93 51 3e
       0.32962307 -0.24348016 0.24771804 0.2046635
000210 70 3e 46 bd 04 99 18 be 95 cf 24 3e 90 69 cb 3c
       -0.04839939 -0.14902121 0.16094811 0.02483061
000220 5c 19 a2 bc 4a 84 df bd 22 4c 21 3e 35 54 2b be
       -0.019787483 -0.10913904 0.15751699 -0.16731341
000230 37 cf 18 be bc 65 a3 3c 5f 63 9d bd b4 3b 20 be
       -0.14922796 0.019945972 -0.07684969 -0.15647775
000240 3e 8a 81 be d9 14 42 be 0e 9c 1b bd 5f a2 bf bb
       -0.25300783 -0.18953265 -0.037990622 -0.0058482136
000250 da 03 49 3b b7 92 a2 3d f7 e1 98 bd 23 ab 4b 3e
       0.0030672462 0.0793814 -0.074649744 0.19889502
000260 60 aa 2c 3e 8d b5 9d 3c 31 10 50 3d 21 a6 c6 3d
       0.16861868 0.01925161 0.05079669 0.09699655
000270 29 86 4a 3e 6b 4d 14 be cc e0 2d 3c 31 6a 56 bd
       0.1977774 -0.14482658 0.010612678 -0.052347366
000280 80 22 06 3e c8 90 2a be 22 c9 05 3e 48 bc 9b 3e
       0.13099098 -0.16656792 0.13065007 0.30417085
000290 2b 1c e1 3d ea 42 fd bd ac 9a c7 bd 6a 6b d1 3c
       0.10991701 -0.123662785 -0.09746298 0.025563914
0002a0 0b 51 80 be 41 ae 3e 3d c3 39 02 be 35 c0 8e bc
       -0.2506183 0.0465529 -0.12717347 -0.017425636
0002b0 1f 6a 0b be 3b fc 51 3e 88 00 a0 3d 16 fd d6 3d
       -0.136147 0.20506375 0.07812601 0.10497491
0002c0 52 8f 21 be 64 aa 6a 3d 62 f6 72 3d 58 19 ab 3e
       -0.15777329 0.057291403 0.059317 0.33417773
0002d0 73 35 6e be db 9e bd bd a5 40 3a 3e 2d 67 13 3e
       -0.23262577 -0.09258815 0.18188722 0.14394827
0002e0 3c 78 06 bd d3 fe 31 bc 47 11 af bd ac c1 c1 bd
       -0.03282951 -0.0108639775 -0.08548217 -0.09460768
0002f0 41 6b 79 bd d4 4b 56 be 35 f7 0e be cf 6f 0b 3e
       -0.0608933 -0.20927364 -0.1396149 0.1361687
000300 9c ba 93 bd 00 12 e6 3d 6f f0 16 bd 4f 36 6a bd
       -0.07213327 0.11233902 -0.03685039 -0.0571807
000310 28 b3 f9 bd f9 d2 61 bd 3b 7d 46 bd 8e 98 84 bd
       -0.121923745 -0.05513284 -0.048459273 -0.0647441
000320 a1 41 c7 3d 93 f8 44 be 50 56 b5 bd 1c 0b e3 bd
       0.097293146 -0.19235449 -0.088543534 -0.11086103
000330 b2 ae 07 3e f7 cd d4 3d 44 86 07 be 22 aa 66 be
       0.13250235 0.10390847 -0.13234812 -0.22525838
000340 4c d9 21 be 9c 3a 0f 3e cc af cb bd aa 6d 50 3d
       -0.15805548 0.13987201 -0.0994564 0.050885834
000350 8c 29 4d bd 13 19 eb 3d 77 96 31 be ed dc 1c be
       -0.05008845 0.11479392 -0.17342554 -0.15318651
000360 40 07 92 bd ae cc 5b 3e b6 68 d1 3d 0f 5c 1d 3e
       -0.07130289 0.21464798 0.1022505 0.15367149
000370 83 15 9c bd 23 c2 44 be aa d3 3f be 2c f3 11 3e
       -0.076212905 -0.19214682 -0.18733087 0.14252919
000380 b7 03 5e 3e 64 37 d5 bd 6e 7a 34 bd 71 58 93 be
       0.21681105 -0.104109555 -0.04406207 -0.28778413
000390 37 32 58 3d b4 1a 11 be 61 7b 31 bb f7 34 8b 3b
       0.052782264 -0.14170343 -0.0027081596 0.0042482573
0003a0 f8 63 3e be 1a b0 24 be 06 53 21 be ac 32 ff bd
       -0.18592823 -0.16082802 -0.15754327 -0.12460837
0003b0 7e 9f 3a 3d cf 90 6f 3d 25 31 06 be 86 66 d1 3d
       0.04556226 0.05848771 -0.13104685 0.10224633
0003c0 8b cd 1b 3e b2 42 92 bd 14 bf 4d be 45 bc 8e 3d
       0.15215127 -0.07141627 -0.20092422 0.06969503
0003d0 d7 d4 e2 3d 63 3f cc 3d 1c 47 83 3a c3 8d 6b bd
       0.11075752 0.099730276 0.0010015699 -0.05750824
0003e0 03 9d 83 be 78 f5 29 bd 6d 94 eb bd 4f d1 43 be
       -0.25705728 -0.041493863 -0.11502919 -0.19122814
0003f0 7d b6 09 3d a7 25 5c 3c 1c 78 20 3e 3b 08 4d 3e
       0.0336213 0.013436711 0.15670818 0.20022671

layers.12.bias f4 [20]
000000 9b fa bf bd 2d d5 d7 bd f1 a6 cb 3d ae 30 1b 3e
       -0.09373971 -0.10538707 0.09943951 0.15155289
000010 51 84 b3 3d af 57 1b be 97 ac 98 be c2 6c 0b 3e
       0.08765472 -0.15170167 -0.29819176 0.13615707
000020 e7 75 3f be 43 6e e7 bd 74 a0 3e bd 55 ce 24 3d
       -0.1869732 -0.11300328 -0.04653974 0.040235836
000030 84 38 01 3e 16 ac 2b be d0 e6 db 3d b2 5a 23 3e
       0.12619215 -0.16764864 0.10737383 0.15952566
000040 d4 0b 8a bc 85 94 23 be 3a 9c 6e be 4c 04 ce bd
       -0.016851343 -0.15974624 -0.23301783 -0.10059413
