Models_Data_Figures/BURGERS/Burgers_Collocation/Models/20_5.pth (torch, 17502 bytes, 17 tensors)

layers.0.weight f4 [20, 2]
00000000: 8225 65bf b99d 1cbf 0386 943e b8a6 cebe
00000010: 24a8 f03e 2c73 1d3e 0e2b 453e ae0e b33d
00000020: 4c23 7c3f e1f5 203e d31e f53d 3a58 57bd
00000030: 22a4 dabd 1c43 fdbe a641 5fbe 662c 593e
00000040: 35a1 1ebf e418 01bf 5b74 4abd 4cd5 ca3e
00000050: f9be 553e 9640 0bbe 83db d83e 95e5 6dbe
00000060: 461e 953e f0d2 613e 6f49 12bf 51b1 82be
00000070: 37ee 20bf 2573 9fbe da15 16bf 8344 993e
00000080: 452b f83d 8b1e 833e b01c fc3e ac09 9abc
00000090: 006e ea3e fa97 dc3e bb66 b1bc 6997 8fbe
-0.8951036 -0.61178166 0.29008493 -0.4036157 0.4700328 0.15375966 0.19254705 0.08743034
0.9849136 0.15718795 0.1196877 -0.052574374 -0.10675837 -0.49465263 -0.21802387 0.21208343
-0.6196473 -0.50428605 -0.04942737 0.39615858 0.20873632 -0.13598856 0.42354974 -0.2323211
0.2912466 0.22053123 -0.571433 -0.25525907 -0.62863487 -0.31142536 -0.5862709 0.29935083
0.12117628 0.2560924 0.49240637 -0.01880344 0.45787048 0.430847 -0.021655431 -0.28045204

layers.0.bias f4 [20]
00000000: 81c9 cebe 8e37 4a3f caf9 66bf eaef 19bf
00000010: 7629 33be a844 dbbe a00f 9a3e ee9b 4ebe
00000020: d1fb 58bf c529 18bf b5cb 43be 71ca 293f
00000030: 7930 5cbe bbfa 283e 7a60 2e3f 1505 013f
00000040: 5f46 663f ee09 f1be 5bdd e23e c594 853f
-0.4038811 0.7899102 -0.902249 -0.60131705 -0.17496285 -0.42825818 0.30090046 -0.2017667
-0.8475924 -0.59438735 -0.19120677 0.66324526 -0.21502866 0.16501896 0.6811596 0.5039838
0.8995113 -0.47077888 0.44309506 1.0436026

layers.2.weight f4 [20, 20]
00000000: de57 95bc 873d 963d 5666 583e ebd2 9ebb
00000010: 7b8e ae3e 94be 593d 5704 893e aed4 053e
00000020: 6755 16bf 9e16 c5be 5e2b 5bbe 8f31 9c3e
00000030: f89c e4be 04ee ccbe 6120 1bbe ee30 613c
00000040: a1e0 f73e f5bc b03b bc9d aa3c 0f59 dbbd
00000050: 12e3 64be d425 4f3e 7dc6 50be 5e61 5f3e
00000060: 8597 2dbe 8fb2 2a3e 91f6 ef3d ccec bc3e
00000070: 80ea 583a 9de7 15be 4f8d a2be d3ba af3e
00000080: 8c6e a9be 438f cabd c0d0 16be 0190 b73d
00000090: f968 1e3d 13bf 433e 3a3b b33e 5493 1bba
000000a0: e9fc 1ebe 858a b0be 848c 39bd 958e 0ebe
000000b0: faa7 46be 63fe d6be 1c19 47be c016 b7be
000000c0: fbae 573d e392 32bc 4e84 223e 1d46 053f
000000d0: 5886 9f3d aa77 533c 3f12 2d3c 818f 25bf
000000e0: 2dd3 cc3e d9a2 193e 963b ab3e 2c8f 0a3d
000000f0: 672d c93c fb76 8ebd 9b75 11be e6b0 9dbd
00000100: e7ff bebd 5eab bcbc 5d6e cabd 75b5 92be
00000110: 9bd6 713e 8928 debd e997 e0bc a9e1 4fbe
00000120: 6c93 a63e 7cc6 193d c6eb cb3d 67c3 5f3d
00000130: 8735 46be f949 99be 43dc bcbd 439c db3d
00000140: 0505 dcbc 5cb7 36be 9954 32be acb9 52be
00000150: 9791 683e a75a 35bc 9d41 abbd 232b e6bd
00000160: 729e 1bbe 10a8 de3d 0b3a be3c 01fb 433e
00000170: b048 623e a747 00be 8421 d83d cd00 a9bd
00000180: 99f9 42be 3eba f8bd 9e12 063e 337c a5bd
00000190: 2125 4abc 7520 42bf ff31 21be 5db1 7abf
000001a0: 0985 073f 92c8 4cbd 3e20 053d e805 1fbf
000001b0: c2ec 0c3f a92e 793e be51 253e f087 5ebe
000001c0: d2d3 7f3f b407 1bbf 8d88 ca3e c203 8cbe
000001d0: a326 30bd 58cb 68bf da0a 813d 05d4 4b3e
000001e0: 6a25 80bf 4942 1cbd 46c8 643b 79ce d33e
000001f0: b998 0fbf b1e0 f03d 8084 0dbd dbb6 0fbf
00000200: 4031 4e3f bea9 1e3f e098 ec3d 8223 ec3e
00000210: 1d1d 0abf 4ac2 833e 1596 64bf b680 2a3e
00000220: 6482 04be ef77 2e3e c6a4 543f ce16 1d3e
00000230: e5c2 aabe e633 873e 5e36 203e 9a81 4e3e
00000240: a56b 073e c052 01bd 0ed9 363e cc10 a33e
00000250: 266f 22be 00c0 6abd a5bd 29bd e078 e03c
00000260: df84 e7bd 2376 39be 5fd3 c63b 54fb 8c3e
00000270: bb7f 263e 716f aebd 2c0b fbbd 078c a63d
00000280: cdb1 1abe 1be6 9e3e bbcd 633d 9e90 bb3e
00000290: 7ab8 3abd 2165 40be 39ae b8bd b4ed 54be
000002a0: 5f8d 0abe 02cf 4bbe 33f9 263e 264a 7f3e
000002b0: 07e4 15be 3dab c33e e433 78be 22aa 06be
000002c0: 0b46 313e 418c 333d b3ac fa3d 6b6d b73d
000002d0: 8b02 b23c 6594 943d 80f5 843d e7c6 76be
000002e0: e12d 033e 2370 563e a22e fa3d 1669 883d
000002f0: 0595 643c 2fb5 473e 34e9 70bb 5cac 89be
00000300: 56c9 0b3e 0985 23bd 4427 743e e79a 8d3e
00000310: d531 87be c382 e8be f80a 00bf d81f 3fbe
00000320: 8d61 bd3d 0dab 413d 4d5d 3abe 27b2 e93e
00000330: d091 07bf 9481 953d 0583 b53e e3d5 993d
00000340: 8327 87be c9af 6d3d 802c 29be 4aef 583e
00000350: 2708 9cbe 28d4 7e3f 228c 67be cc74 d33e
00000360: 5d94 05be ea07 1a3f 7333 64be 3972 ebbd
00000370: 89ad d23e cf0a 963e 0262 703e bc3f 9dbe
00000380: 7f73 e73e 0402 bcbd bc93 2cbe a498 133f
00000390: 3eaa e4be 5e20 07be d92b 973e 8b43 fabd
000003a0: 21cd c13c 22e9 26be 8e1b ca3e dad7 f0bc
000003b0: 2e64 b2be c7bf 0f3e 5150 28bf 32cb ea3e
000003c0: 3259 b2be 0520 20be fbee 6b3e 35df ce3d
000003d0: f1e3 16be e59d 88be f31f 64be 6001 e9be
000003e0: 1809 4abf 48a4 3ebf 95b4 aebd c8bb e13e
000003f0: 7d69 07bf fc50 c6be 7b66 63bd 77e7 07bf
-0.018230375 0.07335954 0.21132788 -0.0048469207 0.3409308 0.053160265 0.26761124 0.13069412
-0.58724064 -0.38493818 -0.21403262 0.3050656 -0.44651008 -0.40025342 -0.1514907 0.013744576
0.48413566 0.005393619 0.020827167 -0.10710346 -0.22352245 0.20229274 -0.20388217 0.21814486
-0.16952331 0.16669677 0.11716951 0.36899412 0.00082746893 -0.14639135 -0.31748435 0.34322223
-0.33092153 -0.09890606 -0.1472807 0.089630134 0.03867433 0.19115858 0.35006124 -0.00059347344
-0.15526165 -0.34480682 -0.04530002 -0.13921578 -0.19400015 -0.41990957 -0.19443172 -0.35759544
0.05265711 -0.010899278 0.15870783 0.5206011 0.07789296 0.012906948 0.010563432 -0.64672095
0.40004864 0.15003528 0.33443898 0.033827946 0.024557782 -0.069562875 -0.14205019 -0.07699756
-0.09326153 -0.023030933 -0.098843314 -0.28654066 0.23617022 -0.10847575 -0.027416186 -0.20300926
0.3253435 0.037542805 0.099570796 0.05462971 -0.19356357 -0.2993925 -0.09221699 0.10723164
-0.026857862 -0.17843384 -0.17415084 -0.2057864 0.22711788 -0.0110689765 -0.08362124 -0.112386964
-0.15197161 0.10871899 0.023221036 0.19138719 0.2209804 -0.12527333 0.105532676 -0.08252106
-0.19040526 -0.12144898 0.1309304 -0.0808033 -0.012337954 -0.75830775 -0.15741728 -0.97926885
0.5293737 -0.049995966 0.03250145 -0.6211839 0.55048764 0.24334206 0.16144463 -0.21731544
0.9993259 -0.6055863 0.39557305 -0.27346617 -0.043005597 -0.9093528 0.06300898 0.19905098
-1.0011418 -0.038149152 0.0034909411 0.41368464 -0.5609241 0.117616065 -0.03455019 -0.5613839
0.805439 0.61977756 0.11552596 0.4612084 -0.53950673 0.25734168 -0.89291507 0.16650662
-0.12940365 0.17037939 0.83063924 0.1534073 -0.33351818 0.26406783 0.1564574 0.20166627
0.13224657 -0.031573057 0.17856237 0.31848752 -0.15862712 -0.05731201 -0.041440625 0.027401388
-0.1130464 -0.18111472 0.006067678 0.27535498 0.16259663 -0.085173495 -0.1225799 0.08132177
-0.15106888 0.31034932 0.05561612 0.36633772 -0.045586087 -0.18788578 -0.09017605 -0.20793802
-0.13530491 -0.19903186 0.16306 0.24930629 -0.14637767 0.38216582 -0.24238545 -0.13150838
0.17311876 0.04383493 0.12239971 0.08956417 0.021729728 0.072548665 0.06492138 -0.24099313
0.1281047 0.20941214 0.12215926 0.066606686 0.013951545 0.1950271 -0.0036760094 -0.26889312
0.13651022 -0.039921794 0.23843104 0.27657244 -0.26405206 -0.45412263 -0.50016737 -0.18664491
0.09247122 0.047282267 -0.18199654 0.45643732 -0.5295687 0.07300106 0.35451522 0.07511499
-0.26397333 0.05802897 -0.16520882 0.21185032 -0.3047497 0.99542475 -0.2261205 0.41300046
-0.13044877 0.60168326 -0.22285251 -0.114963956 0.41148022 0.2930512 0.23474887 -0.30712688
0.45205304 -0.09180072 -0.16853231 0.57654786 -0.44661134 -0.13195941 0.2952564 -0.12219914
0.023657383 -0.1629987 0.39474148 -0.029399801 -0.34842056 0.14038001 -0.65747553 0.4585815
-0.34833676 -0.15637214 0.23040383 0.10101167 -0.1473539 -0.26682964 -0.22277813 -0.45508862
-0.78920126 -0.74469423 -0.08530537 0.44088578 -0.5289534 -0.3873366 -0.055517655 -0.5308756

layers.2.bias f4 [20]
00000000: c1b7 1cbe 19aa 163e bb75 40be e961 e63c
00000010: ad7a 85be 61fa 70be 187e 1a3f b349 5abd
00000020: 72ba 723c f9f0 863d 3fd0 263e 124d b4be
00000030: a7b8 3bbf 61f5 0ebe 75bc 2f3f 2fb0 6bbe
00000040: 1ccc abbd 8a3d 08bd a825 05be 0884 9cbe
-0.15304472 0.14713325 -0.1879491 0.02812286 -0.26070157 -0.23533012 0.60348654 -0.05329294
0.01481496 0.06588931 0.16290377 -0.3521505 -0.7332863 -0.13960792 0.6864694 -0.23016427
-0.0838854 -0.033261813 -0.13002646 -0.30569482

layers.4.weight f4 [20, 20]
00000000: 0f4d 57be cf99 97be ebd2 e8bd d345 b13d
00000010: 0158 e43d 30c0 5e3f b2d2 55bd 4cb0 b6bd
00000020: 976b afbd f2a7 b53e 0abb 15bf 5471 d1be
00000030: e8fa 32bf 131a 42be 6237 223f 2dde b3bc
00000040: ff4c 4abf 6e62 753e 16f5 b5be 8ff2 2bbe
00000050: 6f4b 8ebe d36e 993c 836c ec3d f0d2 0cbd
00000060: f78b dd3d 9abb d5bd 5c8d 7e3d db50 cdbc
00000070: 7931 0bbe c344 2e3d 54e3 dcbd d5bb f9bd
00000080: 096d ea3d 54e3 4bbe 3a57 933e 302b 313e
00000090: 6a3c 1ebe 329d 09be 4d3c 15be e1b9 853d
000000a0: 84a5 b7be b687 933d 9e17 84bd 2242 c73d
000000b0: 1a61 763e 66ce a43e b25a 8abe 8a22 d8bd
000000c0: ea33 653d e21d abbd ea30 e1be 4848 23bd
000000d0: 1457 d7be 1124 5ebe 9131 793e 152e 833e
000000e0: 42ba e2be b1df 04bd 621f 66be 29c2 9a3d
000000f0: 6377 5b3e f50e bfbd 1a83 2bbc 3d24 36be
00000100: ea21 0e3e b2c5 9ebc ebbb 94bc fa54 35be
00000110: c60e b23d 4d24 abbe 05c4 bebd b328 a1bd
00000120: a78e 743e 2434 de3c 5892 1e3b 3d0b 5cbb
00000130: 545b 673e ff34 e13c b2e8 e1bc 7a28 0b3d
00000140: 4805 24bd e8be e73a 8a7a c13d 41ed 9bbd
00000150: 3d00 81bd f65e 0b3e af80 56be 4215 dcbd
00000160: fa6a c3bd 0320 7f3c 7ad2 773c e293 323e
00000170: b3b0 8fbd 4622 083e e88a 353d 438f 8bbe
00000180: 616a 5d3c 5c37 b23d e7e4 353e 1aa2 03bd
00000190: d98a b2be 62fc 89be 14cd 9b3e 463a 573e
000001a0: 260c f03c 40d0 ec3d 4de3 0c3e 9c1d 89be
000001b0: 8089 a53c d4ee 4fbd 058a bcbc 287f 6cbd
000001c0: f913 693e 6446 11be fcc6 203e f3fd a23c
000001d0: 2a54 a8be 8e48 f13d 7e7b a4be 1fc9 0cbe
000001e0: 251f 5fbe b165 a8bd 07dc b43d 1fe5 96bc
000001f0: 494a 11bd ed58 2e3e 541e 1c3e 448a 803e
00000200: 9570 ea3b baae 653c 0214 abbe 2579 57bd
00000210: 37a2 81be 39f6 dabd ae67 693d 9372 6a3e
00000220: 3980 8c3d 7c00 fbbd 9861 3bbd 5b94 ccbd
00000230: 8cb7 1cbd e21f 53be ad5d 06bf c072 8b3e
00000240: b520 5fbd 248a 063f aa28 4cbf 9250 2f3e
00000250: d433 093d e827 d93e dae0 c9be 737a 163f
00000260: 3862 98be ea1d 713d ba6c 863e 8ef2 c13d
00000270: db32 b1be 9598 c03e 7877 abbe 9721 3d3c
00000280: c004 f23e dfa7 2d3e 2503 523e 79f9 ddbd
00000290: daaf 26bc c2da 9cbe 04d3 b7bd 0f20 c13e
000002a0: 451f 463e 6a8e 21be 8324 ec3e 4d88 9f3c
000002b0: d8ed 363f 3938 273e c11a 8ebe f84f ae3e
000002c0: 560f d93e 886b 01be b5ad eb3d ae8d 3039
000002d0: fc3e 7ebd bbc4 73be 8f5e a33d dfb4 9abd
000002e0: 14b9 913d 4909 bb3d 5740 38be 8eca 90be
000002f0: 13f6 0ebe 9ff6 bfbd 88e9 c23d 1dd7 efbc
00000300: de1f 4abe 7477 24be ba80 8b3e 4303 67bb
00000310: 7201 eebd 66b4 8dbd 7604 47bd 0b5f 88be
00000320: 9d77 b4bd 5662 a33d ac8f c3bd aca6 413d
00000330: 9651 b53d 21f1 313e 6f55 0a3e cacf 203e
00000340: 9a2b cbbd e04e c43d 0b75 cb3d ac40 083e
00000350: fd8c a1be 4e4a 9cbd 5c8c 56bc 978c 7d3e
00000360: d63d d33c c81d 853d c42b 283e 91eb abbd
00000370: 00cc 24be f6eb 53bc c6ea f8bd 4e9b 7a3e
00000380: e08f c5bd fd73 923d 214c 343e f478 83be
00000390: 425e 1ebe d9f7 c73d aa94 373c b8c8 34be
000003a0: c94a a5bd 898e 83bd 003c f93b 6411 d43c
000003b0: dc96 7ebe ca26 90bd 4d10 74be fdb7 da3c
000003c0: cf61 c83e 28be 313e f3a9 51be 5550 1cbe
000003d0: 286b e1bc 35fa 813d d6d3 27bd a6f9 9ebd
000003e0: b85c 45be e9da 8d3e 6ca8 8d3e bab9 713e
000003f0: 1b31 c03c cf22 973e 8ce4 4d3e 354f 3fbe
-0.2102549 -0.29609534 -0.113683544 0.08655896 0.11149598 0.87012005 -0.052202888 -0.08920345
-0.08565443 0.35479695 -0.58488524 -0.40906775 -0.699141 -0.18955259 0.6336576 -0.021956528
-0.79023737 0.23963329 -0.35538548 -0.16791748 -0.27791926 0.018729603 0.115441345 -0.034380853
0.10817712 -0.10436173 0.06214653 -0.025062969 -0.13593091 0.042546045 -0.10785547 -0.12194029
0.11446578 -0.19910938 0.28777486 0.17301631 -0.15452734 -0.13438872 -0.14573784 0.06529594
-0.35868466 0.07203619 -0.06449817 0.09729411 0.24060479 0.3218872 -0.2702232 -0.10553463
0.055957712 -0.08355309 -0.4398263 -0.039863855 -0.42058623 -0.21693446 0.24335314 0.25621095
-0.44282728 -0.03243989 -0.22472909 0.07556564 0.21432261 -0.09329025 -0.010468269 -0.17787261
0.13880125 -0.019381378 -0.018156013 -0.17708197 0.08694224 -0.33426133 -0.093147315 -0.07869091
0.23882543 0.027124472 0.0024196114 -0.0033576034 0.22593433 0.02749109 -0.027576778 0.03397415
-0.0400441 0.0017680796 0.094472006 -0.07613612 -0.062988736 0.13610443 -0.20947526 -0.10746242
-0.095418885 0.015571597 0.015125865 0.17439225 -0.070161246 0.13294324 0.044321924 -0.27257738
0.013514132 0.08701965 0.177631 -0.032137014 -0.34871557 -0.26950365 0.304299 0.21018323
0.029302668 0.11563158 0.13758583 -0.26780403 0.020207167 -0.050764874 -0.023015032 -0.057738453
0.22761525 -0.14187008 0.15700907 0.019896483 -0.32876712 0.11781417 -0.32125467 -0.13748597
-0.21789224 -0.08222521 0.088310294 -0.0184198 -0.035471234 0.1702611 0.15245944 0.25105488
0.007154534 0.014018709 -0.33413702 -0.052605767 -0.25319073 -0.106914945 0.056983642 0.22895269
0.06860394 -0.12255952 -0.04574737 -0.09989234 -0.03826098 -0.20617631 -0.5248669 0.27235985
-0.05447455 0.52554536 -0.7974955 0.17120579 0.033496693 0.4241326 -0.3942936 0.5878059
-0.29762435 0.05886642 0.26254827 0.09470092 -0.34609112 0.3761641 -0.33489585 0.011543653
0.4726925 0.16958569 0.20509012 -0.10838599 -0.010173762 -0.3063565 -0.08975795 0.3771977
0.19347866 -0.15776983 0.46121606 0.019474173 0.7145667 0.16330041 -0.27754787 0.34045386
0.42394513 -0.12638676 0.11507741 0.00016837448 -0.062071785 -0.23805515 0.0797702 -0.0755403
0.07115379 0.091326304 -0.17993294 -0.28279537 -0.13961057 -0.09373211 0.09517199 -0.029277379
-0.19738719 -0.16061193 0.27246648 -0.0035249747 -0.116213694 -0.06919174 -0.04858824 -0.26635012
-0.08811877 0.079777405 -0.095488876 0.04727809 0.08853452 0.1737714 0.13509153 0.15704265
-0.09920426 0.09585357 0.099344335 0.1330592 -0.31552878 -0.0763136 -0.013094988 0.24760662
0.025786322 0.06499821 0.16422945 -0.0839454 -0.16093445 -0.012934675 -0.121541545 0.24473307
-0.096465826 0.07151029 0.17607166 -0.25678217 -0.15465644 0.0976407 0.011204878 -0.17654693
-0.08070905 -0.06423671 0.0076060295 0.025887199 -0.24862236 -0.070386484 -0.23834343 0.02669906
0.39137122 0.17357695 -0.20474987 -0.15265019 -0.027516916 0.06346551 -0.040973507 -0.077624604
-0.1927365 0.27706078 0.27667558 0.23606005 0.023460915 0.29518744 0.20106715 -0.18682559

layers.4.bias f4 [20]
00000000: b6fb 103f e943 023d 5e99 de3d 87e2 05bd
00000010: cb5b 97be 38b6 b73d 1abb 4abe 6e1f 15be
00000020: 52b2 b3be 0f72 6abd 9187 f1bd 4133 83bc
00000030: dbe5 f03c f2e0 893d e169 c83e 3848 b5be
00000040: 34da aebe eb03 e83d ff14 663e 8ecc 5e3e
0.5663408 0.031803045 0.10869096 -0.032686736 -0.2956222 0.08970302 -0.19797936 -0.1456277
-0.35096985 -0.05723768 -0.11793435 -0.01601565 0.029406479 0.06732358 0.3914328 -0.3540666
-0.3415085 0.11328872 0.22468947 0.21757719

layers.6.weight f4 [20, 20]
00000000: aae8 a2be b27e 84bd 2b08 8bbe 4495 f33c
00000010: efcd 313e 0d1c 633e 5418 a2bd dc54 f4bd
00000020: fd70 be3c 6391 babd 6c66 1e3c ab56 ae3b
00000030: 5e09 463c 1563 13bd 81e4 56bd 2ac9 023e
00000040: 792e 893d e33a 0fbd dbd7 c03d eacf f7bd
00000050: 63d9 70bd 6add 103c fac5 aebd 8888 eb3c
00000060: 67c1 093e 199c 603e 4853 70bd eb21 92bd
00000070: 61b8 a33e dc1a 4cbe c02f 21be f253 4cbd
00000080: 17d6 f2bc b584 f53c e8c4 3c3b f295 803d
00000090: b766 3fbe ae24 a4be 99b0 51be 1111 453d
000000a0: 4049 0cbe 3a8a 8e3e 9289 a8bd 4978 12be
000000b0: d0de b53d 6d9f b93d 94be c43c 73d8 debd
000000c0: bd75 763e 2d4a d33d 4d28 b8bc 8de5 40bd
000000d0: 0249 60bd 98ef f5bc 06a4 223e 72aa a83e
000000e0: 42ad 77be bbae 7ebe 10dd 61be b789 4dbd
000000f0: 349e 223f aa32 1cbe 6a5b 383f 5c70 34bd
00000100: c65c 853e d037 f6bd d555 0b3e 118b 313f
00000110: 09d3 01bf 86cb d2bd 9b00 ce3d 4517 a6bd
00000120: 6df9 a4be df18 09be 36be 5cbf 3606 7e3e
00000130: 9f14 e03e f1bf 343e 70bc 0e3e f877 37bf
00000140: 1e06 923d f79f 09bd a8cf 233e f9ab 15bc
00000150: e84f 9cbc 8ab4 e13d e717 833e ba6c 66be
00000160: 1b3f 313e 385c 55be 8f09 2d3e 8d35 6b3d
00000170: 0eee 2dbe f3c1 c0bd d8eb d93d ada8 44bd
00000180: aaf6 3bbe aa70 0f3e b50a 16be 44ed a23e
00000190: 6cc5 403e f4ff a73d 204d 133e a6f4 7dbe
000001a0: 864a 413d 01a7 1e3e fd95 ef3d ede5 3cbd
000001b0: 4e57 863d 6a86 423e a1f8 b9bd 4247 9d3d
000001c0: 8ca3 28bd fb07 083e aa75 40be a855 18be
000001d0: bad1 6f3d 872c 27be 364f 37be 1701 1b3e
000001e0: 8d23 f73d c2aa 3cbe b7e6 8abd 5f5f 07bc
000001f0: ec79 cfbd f81c 80be 8a14 29bd 2d64 723d
00000200: ed71 5dbe d139 aabd 635e 373e 0b8a e03d
00000210: 3c6e 273e 3663 35be d70f 52be bc3f 303b
00000220: bec9 b03d aa73 183d 5a12 b6bb b4c4 98bc
00000230: d236 083f 88f7 053e 7757 863d 8f72 93be
00000240: 3e6a 8bbd 265e 34be a6f0 bbbc 9150 5ebe
00000250: ba8b e7be 3088 563e 6b47 0dbd 2632 3f3e
00000260: 8e67 41be 3898 fc3d 8b30 023e f18d 23be
00000270: baa1 373e e4de 813e 1d39 823e 79b3 2f3e
00000280: 25bf 00be a413 2c3d a3df 20be 0e8c 1c3d
00000290: 8eb3 22bd 3b23 323d 64cd 0ebe 6a8c 7cbe
000002a0: 7020 9dbb 22de 20be c4b9 4abe b0f4 943b
000002b0: a084 79bd 4e8b 30be 7442 123e 5477 e23d
000002c0: 23c6 64bd 2928 eebd 4395 913d dd2c b33d
000002d0: 9416 2e3f c6a1 e33d d0b7 153e 2c76 23be
000002e0: 8d26 acbd 3d3c 803e 98a4 5e3e d15c 083e
000002f0: 28fb 643c 74c9 1bbd 4f1e 02bc 6de3 a33d
00000300: d431 c2be fa4d ad3d b10c b5be 44ff 9e3e
00000310: 70b1 463e 68ea 84be 90fe 06be 68a2 48bf
00000320: d81b 4ebe b90b 2bbe aafc 4cbc 38fb 2e3e
00000330: 7e0c 753e 627b 403e ff70 923c d9c2 bdbd
00000340: cdc6 c7bd 78db 083e 52a7 933c 4eb7 2abe
00000350: c1f4 553e a305 48bd 0ff7 113d cb92 373e
00000360: da06 2f3e d1f7 42be 9a9f 80be eb95 a4bd
00000370: 302e c23c a87f c43d 5caf 9a3e bccd fcbd
00000380: 8eaa 2ebe 50ef a6be 4deb 1e3e 74b3 9d3d
00000390: a3bb 5c3d a101 25be d182 2b3e c33a d7bd
000003a0: 106c 183d 4539 983d 9b0a ff3d 79fb 9bbe
000003b0: 3bcb d73d c786 333e 2c68 033e c9b6 94be
000003c0: b741 3f3e 89b0 773e 2bac 11be 352e 7c3d
000003d0: c7c1 1e3d a353 af3d 6cfc e83d f3fd 46be
000003e0: 8907 0b3d 76d2 0b3e 1394 85bd db11 1a3e
000003f0: 519f bebe 49a0 04be a6ff e93d ca0c 553e
-0.31818134 -0.06469478 -0.2715467 0.029734261 0.17363714 0.2217867 -0.079147965 -0.11930248
0.023247236 -0.091097616 0.009667974 0.00532039 0.012087194 -0.035983164 -0.052464012 0.1277205
0.06698317 -0.034968268 0.09416171 -0.12100203 -0.058801066 0.008841852 -0.08533855 0.028751627
0.13452683 0.21934547 -0.058673173 -0.071353756 0.31976607 -0.19932121 -0.15740871 -0.049884744
-0.029643102 0.029970506 0.0028803889 0.062786 -0.18691526 -0.32059234 -0.20477523 0.04811198
-0.13699818 0.27839833 -0.082293645 -0.14303698 0.08880389 0.09063611 0.024016656 -0.10881128
0.24068351 0.10316882 -0.022480154 -0.047093917 -0.054757126 -0.030021474 0.15882882 0.3294254
-0.24187186 -0.24871342 -0.22056985 -0.050180163 0.6352265 -0.15253702 0.72014487 -0.044052467
0.26047343 -0.12022364 0.13606961 0.69352823 -0.5071264 -0.10292725 0.10058709 -0.08109907
-0.32221547 -0.13388394 -0.8622774 0.24807057 0.43765733 0.17651345 0.1393907 -0.7166743
0.07130073 -0.03359982 0.15997183 -0.00913524 -0.019081071 0.11020763 0.25604174 -0.22502413
0.17309229 -0.2083596 0.16898178 0.057424117 -0.16985342 -0.09411993 0.10640687 -0.048012424
-0.18355814 0.14007822 -0.14652522 0.31821644 0.1882531 0.08203116 0.1438489 -0.24800357
0.04719021 0.15493394 0.1169853 -0.04611771 0.06559621 0.18996587 -0.09080625 0.07679607
-0.041171595 0.13284294 -0.18794885 -0.14876425 0.05854962 -0.1632558 -0.1790131 0.15137134
0.12067328 -0.18424514 -0.067822866 -0.008262484 -0.101306766 -0.250221 -0.041279353 0.059177566
-0.2162549 -0.08311809 0.179071 0.109638296 0.16350645 -0.17713627 -0.20513855 0.0026893457
0.08632229 0.03721968 -0.005556387 -0.018648483 0.5320865 0.13082707 0.06559651 -0.2879834
-0.068073735 -0.1761404 -0.022941899 -0.21710421 -0.4522379 0.20950389 -0.034491938 0.18671474
-0.18887159 0.12333721 0.1271383 -0.15972115 0.17932788 0.25365365 0.254342 0.17158307
-0.12572916 0.04201092 -0.1571031 0.038219504 -0.039722018 0.04349063 -0.13945538 -0.24662939
-0.0047951266 -0.15709737 -0.19797426 0.0045457706 -0.060917497 -0.1724064 0.14283162 0.11057916
-0.05585302 -0.11628754 0.071085475 0.08748791 0.680032 0.1111484 0.146209 -0.15963048
-0.084057905 0.25045958 0.21742475 0.13316657 0.013975896 -0.038033918 -0.007941796 0.080023624
-0.3792864 0.084621385 -0.35361245 0.31054127 0.19403625 -0.25960088 -0.13183045 -0.7837281
-0.20127809 -0.1670369 -0.012511412 0.1708802 0.23930547 0.18797067 0.017876146 -0.0926568
-0.09754715 0.1336497 0.01802412 -0.16671488 0.20894147 -0.0488335 0.035636004 0.17927091
0.17092457 -0.19039847 -0.25121766 -0.08036407 0.023703665 0.09594661 0.30211914 -0.12343928
-0.17057249 -0.32604456 0.15519448 0.077002436 0.05388988 -0.16113903 0.16749121 -0.10509255
0.03721243 0.07432798 0.12453195 -0.30465296 0.1053681 0.17531882 0.12832707 -0.29045704
0.18677412 0.24188437 -0.14225833 0.061567504 0.03875902 0.08560874 0.11376271 -0.19432811
0.033942733 0.13654503 -0.065223835 0.15045874 -0.37230924 -0.12951769 0.11425714 0.2080566

layers.6.bias f4 [20]
00000000: 0720 35be 0f8f 85bd 9622 94bd 5a6e 76be
00000010: 91d9 113e d305 813e d209 4a3e 9973 223d
00000020: 12de ee3d a2f4 a6be 6296 37be 7a4e eabd
00000030: 8f0d 3d3d 7569 733b 4df3 233e 3440 f2bd
00000040: be2d af3e f051 913e 6a55 b5be 2326 aa3d
-0.17687999 -0.06521427 -0.07233159 -0.24065533 0.14243151 0.25199756 0.19730309 0.039661024
0.1166345 -0.32608515 -0.1792846 -0.114407495 0.04615551 0.0037141715 0.1601078 -0.11828652
0.34214586 0.28382826 -0.35416728 0.08308055

layers.8.weight f4 [20, 20]
00000000: a0f0 b73e 9cb3 9d3e 8482 803e 0d17 04bf
00000010: 08fb 85be 216f 1dbc cdb4 1abe 8102 21bf
00000020: 7bdd a03d 5993 db3d 67ae a63e 8a7d 72bd
00000030: 17bd 04be a5c0 b13d f68e bbbe 6083 093d
00000040: b536 f1be 6fe5 b1be 65da c93e df61 07be
00000050: 7639 05be eb10 0bbe 73b2 713d 2181 5ebd
00000060: 57d0 723d 63e7 12bd 7fc7 483d fede 9db8
00000070: 6a06 c23d bf60 52be dc9f 36be cb4b 21be
00000080: ab5d 363d 2a3b 5b3d 5da0 01be c1de ed3d
00000090: 58ff 7abe 054a be3d eb5e 753e eef8 cf3d
000000a0: 4862 6dbc 6056 a4bd c4ee e63b 98d5 9ebd
000000b0: 3e13 c63e e8f9 44be fc62 443d 1f5b 073c
000000c0: 76c3 103e c409 80be 010b 1d3d a137 193e
000000d0: 06f5 4e3e 187d 04be 1eea 033e d9b6 3bbd
000000e0: 4299 73bd c41c c2bd 565d 133e 3e3b 4e3d
000000f0: 9673 453d a511 d8bd 8d3f 6dbe 9c50 783e
00000100: 7467 6b3d 2bc5 65be 4ab4 363d 4516 383d
00000110: be4b 843c 7d16 a5be 7ad3 a9bd a700 463d
00000120: 1566 9ebe 210a 113c 8f02 153e 5704 b93d
00000130: b135 37be 3744 11be 8508 543e 32bd 79bd
00000140: fb80 ffbd 25b6 89bd ceb1 bcbd ef39 a5bd
00000150: f369 c1bb 68ab 40be ec0d d53d 5233 34bd
00000160: c9e9 d1bd bb39 283e 1718 4fbe 7316 0d3e
00000170: 28ef 3d3c 2e2d 21be c0e0 18bd 16cd 243e
00000180: 9b64 3b3e 6e7d 863b b67b 82be 3275 71bd
00000190: f074 2cbe 645e f93d 2432 803d 6691 dabd
000001a0: 925a d73d bd43 8c3d a407 00be 8719 7fbe
000001b0: b722 563c b385 4d3e 2822 2dbe 4175 d8bd
000001c0: e997 113e 816a 3fbe bcbf 8dbd 689c b3bd
000001d0: 82ca 43be 40d0 16be 3458 5d3e fefa 283e
000001e0: 1c01 2b3e acf8 f63d 26de 2c3e a4f3 83be
000001f0: 2b77 d23d 5a85 46bd 2ad6 97bd ffa6 a3bc
00000200: 76b7 e8bd 02aa 473e 2b3f f3bd d4bd ccbd
00000210: 3b22 95bd 3bf2 0dbe 5884 a83c e021 5fbd
00000220: cbb1 403d 85f0 543e c8b8 5e3e 4e02 0cbe
00000230: d7fb ddbd 877c 863d 0c22 b3bd 5ae5 513c
00000240: e0f7 b23c 9096 e1bd 46e6 0c3e 65f9 c8bc
00000250: fa19 193e 221d a0be 09eb c63d f23b 323e
00000260: 79e0 febd 543f ebbd 8b69 803e e813 de3d
00000270: 51b3 07be 1479 dbbb 216d 4e3e e9c6 90be
00000280: 92d9 2bbe f995 96bd 4366 233e f37c ae3d
00000290: 0381 673e 295a ce3d 17f3 46be 9d18 f53c
000002a0: d1c1 16be 6459 013d 7d6c 88bd 0e68 54be
000002b0: be29 353d b26d 2e3e a164 553e 2d77 46be
000002c0: ca02 84bd e31c f4bc 860b 293b 03fb c63c
000002d0: 87f7 22be 03ec c13d ffca 09be 70bf b3be
000002e0: d81d 063e 1d9e 11bd aaf4 3dbe 8c0d b3bd
000002f0: 9ee2 a1bd 216f aa3e 75ac 88bd 276b fbbc
00000300: 3a3f 5c3e 64b5 933d 4172 13be 2a56 65bd
00000310: 628e f6bd 0db1 7a3d c92e bfbc 8cbf 7dbc
00000320: 3ee9 94bc d83e 373e d66c 35be f48f 833d
00000330: 8f35 fcbd 7a75 0fbe 80aa c33d 91ff bfbd
00000340: cde6 603d 77f5 48bd 738c 12be 53e0 c23d
00000350: 9040 a6bc 3fc7 c8bc df61 38be 1780 0cbe
00000360: 8985 133e 5c4f 52be ffec 74be 6130 69be
00000370: 42eb 10be 8ed8 17be c898 873d 2e20 083b
00000380: 734c 24be ef0a 5f3e 9fd0 97bd 8338 3b3d
00000390: 9b55 52be e46e 9abd 1393 443c 00d5 a7bd
000003a0: 63fe 893c 2b04 ef3d 6295 36be 97aa 2f3e
000003b0: 117b 7abd 39b3 2dbe f2a7 3b3e db45 ef3d
000003c0: c73b 293e 6009 42be 1960 1cbe 0e1e 623e
000003d0: 5619 dcbd 749b b2bd ceda 823d 62f1 42bd
000003e0: 95a8 27be 1ab3 aabd 71b2 543e e0b6 12be
000003f0: 5ea2 1b3e 38ce ce3c 5067 d23d f21c d5bd
0.3592577 0.30801094 0.25099576 -0.5159767 -0.26168084 -0.009609015 -0.15108033 -0.62894446
0.07854744 0.10721464 0.32554933 -0.059201755 -0.12962757 0.08679322 -0.36632508 0.033572555
-0.4711205 -0.34745356 0.39424434 -0.13220929 -0.13010201 -0.13580672 0.059008073 -0.054322366
0.05928072 -0.0358652 0.04901838 -7.527879e-05 0.0947388 -0.20544718 -0.17834419 -0.15751569
0.044522922 0.05352322 -0.1265883 0.116147526 -0.24511468 0.09291462 0.2396199 0.101549014
-0.014488764 -0.08024287 0.007047506 -0.077555835 0.38686556 -0.19235957 0.04794596 0.008261471
0.14137062 -0.2500745 0.038340572 0.14962627 0.20210657 -0.12938344 0.12882277 -0.045828674
-0.05947233 -0.09478143 0.14391074 0.050349467 0.048205934 -0.105502404 -0.23168774 0.242495
0.057471707 -0.22438495 0.04460553 0.044943113 0.016149398 -0.3224372 -0.08292289 0.048340466
-0.30937257 0.008852513 0.14551757 0.09034031 -0.17891575 -0.14186178 0.20706375 -0.060971446
-0.12475773 -0.067241944 -0.09213601 -0.080676906 -0.0059025227 -0.18815386 0.10403046 -0.043994255
-0.10249669 0.16428272 -0.20224033 0.13778095 0.011592664 -0.15739891 -0.037323713 0.16093859
0.18300097 0.004104308 -0.2548501 -0.058949657 -0.16841483 0.12176207 0.062595636 -0.10672264
0.10515322 0.068488576 -0.12502915 -0.24912082 0.0130698 0.20070533 -0.16907561 -0.105692394
0.14218105 -0.18692972 -0.06921336 -0.087700665 -0.1912022 -0.14727879 0.21615678 0.16501996
0.16699642 0.12059149 0.16881618 -0.2577182 0.10276636 -0.048467018 -0.074138954 -0.01997709
-0.113631174 0.19498447 -0.11877283 -0.09997144 -0.072819196 -0.13861935 0.020570919 -0.054475665
0.047044557 0.20794876 0.21750176 -0.13672754 -0.1083905 0.065667205 -0.08746728 0.012811029
0.021846712 -0.11015046 0.13759717 -0.024532983 0.14951316 -0.31272227 0.09712798 0.1740568
-0.124451585 -0.11486688 0.25080523 0.108436406 -0.13251998 -0.0066977832 0.20158817 -0.28276756
-0.16782215 -0.07352824 0.15956978 0.08519926 0.22607808 0.100757904 -0.19428669 0.029918963
-0.14722373 0.03157939 -0.066613175 -0.20742819 0.04422926 0.17034033 0.20839168 -0.193814
-0.064458445 -0.02979893 0.0025794222 0.024289614 -0.15914737 0.09468844 -0.13456343 -0.35106993
0.13097322 -0.03555118 -0.18550363 -0.08742818 -0.07904552 0.3328791 -0.066735186 -0.030690743
0.21508494 0.07212332 -0.14399053 -0.055990376 -0.12038876 0.061204005 -0.023337739 -0.015487563
-0.018177625 0.17895067 -0.17717299 0.06423941 -0.12314903 -0.14009658 0.09554005 -0.09374917
0.05490761 -0.04906222 -0.1431139 0.09515443 -0.020294458 -0.02450907 -0.18006085 -0.13720737
0.14406408 -0.20538086 -0.23918532 -0.22772361 -0.14152244 -0.14828703 0.066209376 0.0020771134
-0.16044788 0.21781515 -0.07412838 0.04570819 -0.20540468 -0.07540682 0.011997956 -0.081949234
0.016844934 0.11670717 -0.17830423 0.17154919 -0.06115252 -0.169629 0.18325785 0.11683246
0.1652671 -0.18948889 -0.15271033 0.22081777 -0.1074702 -0.087210566 0.0638939 -0.04759348
-0.16372903 -0.08334942 0.20771195 -0.14327574 0.15198657 0.025244817 0.102736115 -0.104059115

layers.8.bias f4 [20]
00000000: 2c3c 09bf 3248 f8bd 19cb 023e 8e36 76be
00000010: 87e6 50bd 5a14 ddbc 4bcc 343e 6cdc b1be
00000020: 8e74 54be de34 f83d c5b6 2b3c 82e4 52be
00000030: 39c8 abbb 87cb 0a3e e2af 353e 5098 003e
00000040: c85d 373d f8b0 babc e8de 273e dbf1 433e
-0.5360744 -0.12123145 0.12772788 -0.24044248 -0.051001098 -0.026987243 0.17656057 -0.3473848
-0.20747587 0.121194586 0.010480587 -0.20594981 -0.0052423743 0.13554202 0.17742875 0.12558103
0.04476717 -0.022789463 0.16393626 0.1913523

layers.10.weight f4 [20, 20]
00000000: ed7f 83bb 6d3a 4dbe e37d 073e 320a 0e3d
00000010: 5b97 293e 20d7 b3bd e635 113e 90a0 b1bd
00000020: f3be a4bd 0984 4bbe 52a9 133d 208b 4cbb
00000030: e70b bfbd 191b 25be be1a 60be 6484 4fbe
00000040: a0df f23d 1538 3dbe bdee 56be f423 c0bd
00000050: 337a 1a3e d686 0b3d 8084 e43d e24f 3b3d
00000060: 27b3 1ebe fb00 253e 0042 233e 43d6 eb3d
00000070: b759 043d 3fb0 34be fccb 48be 4262 96bc
00000080: 6545 ef3d 3869 a8bd 2c64 02bd 60f7 eebd
00000090: a5a8 d2bd 5fe2 fdbc 3cdb 59bd 9f38 933d
000000a0: c9cf 473e 4f06 223e e2b0 323b 83ab 66bd
000000b0: e4d7 01be fa87 183e 7955 163e 9473 393d
000000c0: e7ec bd3d 828f 653c 8889 6e3d 3dc1 0c3e
000000d0: 3c2a 91bd 93a2 063d a9f3 063e ab55 603c
000000e0: a6fb 79be a8ef 073e 9014 263e 5155 713d
000000f0: 3335 02be dba4 1dbe 1ad2 29be 6cb9 753d
00000100: 1876 773e 5db8 5ebe 2390 bc3b 8243 d93d
00000110: 9bc2 723d 7674 ba3d 0a5f 37be 94ad 023e
00000120: 23e1 5f3e 5c26 473d 50d6 2c3e ba66 2dbe
00000130: 9525 13be 65e2 08bc 370e bb3d 3aa2 34be
00000140: 1550 d7be 56c9 683d 337c 353d 6464 273e
00000150: f0ae 123e a9c7 dabd 9c41 1a3d 7023 ffbd
00000160: ca6a 3839 5c62 113d 42c1 30be cf77 8cbe
00000170: 4ec1 123e 2194 683c 30ae 2d3e 9c45 133d
00000180: ccbe 6e3e ece8 37be 5de3 713e 3010 9d3e
00000190: df33 853e 8ee4 42be 7770 3abe dd37 443d
000001a0: 8251 b8bd 7f25 583d 032d b83c d66e 73be
000001b0: d8a9 6dbd c41f ba3d bfbc 413d 6572 cabd
000001c0: 3ded 8d3e feb2 ab3d 6717 563d 03b3 8abd
000001d0: 271f e03c 73de 7f3d 03b7 51bd 6f56 d63b
000001e0: 2318 d6be 5abc 463d 9ac7 18be 92b7 883e
000001f0: a462 d9bd 442f 9abd c134 09be a2d8 903e
00000200: 4b95 0e3e 5037 14be 777f 2e3e 11cb 1bbe
00000210: a07b ab3e f7a1 84bd 32d8 d4bd 8502 ad3d
00000220: f8c7 3bbe e636 0bbf 1820 903e 62a1 5f3e
00000230: 2a19 f33d ec3f 83bd 6131 3b3e 8ac5 6c3e
00000240: f018 433e 9c91 1cbd edab f6bd 3588 23be
00000250: 79ff e5bd 1fb9 3bbe 17d5 5f3e 6528 6cbd
00000260: e5e2 adbd 4fa1 e03d 9f3e 56be 27ec 3fbd
00000270: 2a9e 173e 3cf3 c73c d933 8f3c 8c1c 32be
00000280: 19c9 0dbe d2c2 653e acbb 2bbd 02ee 3fbe
00000290: 2e00 013e 3507 8b3c e904 ef3c bdcc 67bd
000002a0: e5e3 0abe d2f3 f53c 1f51 253e 1dc3 38be
000002b0: f73b e93d 2f05 413d 99bc 803d cbf9 023e
000002c0: b965 593e 0c9c 0c3d 58a4 153d d8ba 823d
000002d0: 52e1 553d 2d44 9c3d eee8 553e 5f4d fd3d
000002e0: 9f33 d2bd aba3 4bbd ac55 2a3e 655d a2bb
000002f0: 071e dd3d 8704 323d 8169 53be 5e2e 77bd
00000300: a27c 8abe 3bcc 5a3e 3a58 4f3d 4a48 a2bd
00000310: 919a c93b 4aa7 933d a680 243e 3d4d f63c
00000320: fdb2 81bd 178e b53d 1391 e7bd 5fe5 753e
00000330: 6d1c d3bc 6ee9 edbd 40aa 45be cc21 c93d
00000340: d358 4ebd 3a5a c0bd 8df3 473e eaab 2ebe
00000350: c3bf 2f3d 736d 6cbe 92d4 2fbd 98ff 583e
00000360: 9dd9 0cbe 4025 36be 4664 8cbd 1b94 8a3d
00000370: 4974 4d3e 4f41 a23d 250f 153e 66c3 90be
00000380: 82ee 4c3e 23c6 413e cd96 56bd a4a7 1cbe
00000390: ad5a e03d cda3 7e3e 218e bc3d b48b 0bbe
000003a0: d7f9 763a 3b53 dc3c a10f 923d 4f3c dc3d
000003b0: 9902 903d 31ee 053f cd38 a1be 94df 0cbe
000003c0: 65f2 5fbe 0c05 84be 93b8 33be 87d7 5bbe
000003d0: e97a 193e 2030 fd3c e9e4 09be d20f 77be
000003e0: a0e7 dabd b3d4 99bc 5165 cfbd a10c b0bd
000003f0: 6f97 9dbd d04d c63d f612 3cbe f20b c53d
-0.0040130527 -0.20041819 0.13231616 0.03467769 0.16561644 -0.08781266 0.14180717 -0.08673203
-0.08044233 -0.19874586 0.03605015 -0.0031210855 -0.09328442 -0.16123618 -0.21885201 -0.20265347
0.11859059 -0.18478425 -0.20989509 -0.093818575 0.15085678 0.034064136 0.11158085 0.04573048
-0.15498029 0.16113655 0.15943146 0.115154766 0.03231212 -0.17645358 -0.19609064 -0.0183574
0.11683158 -0.08223194 -0.031833813 -0.11668277 -0.10286073 -0.030991731 -0.053187594 0.07188534
0.19512857 0.15822719 0.0027266075 -0.05631591 -0.12680012 0.14895621 0.14681043 0.04527624
0.09273701 0.014011266 0.05823663 0.1374559 -0.07088134 0.032869887 0.13178886 0.0136923
-0.24412403 0.13275015 0.16218781 0.058919255 -0.12715606 -0.15394919 -0.16584054 0.059991285
0.24166143 -0.21750017 0.005754487 0.10608579 0.05926762 0.091042444 -0.17907348 0.12761527
0.21863227 0.048620567 0.16878629 -0.16933718 -0.14369805 -0.008354758 0.09133571 -0.1764001
-0.42053285 0.056832634 0.0443079 0.1634689 0.14324546 -0.106826134 0.037660226 -0.12457931
0.0001758739 0.035494193 -0.17261222 -0.27435157 0.14331552 0.014195473 0.16960979 0.035955057
0.2331497 -0.17959946 0.23621888 0.30676413 0.26016137 -0.19032499 -0.18206964 0.047904838
-0.089999214 0.052770134 0.0224824 -0.2377275 -0.058023304 0.0908809 0.047299143 -0.098851
0.2772006 0.083837494 0.052268412 -0.06772425 0.027358605 0.062468003 -0.051199924 0.0065410654
-0.4181529 0.04851947 -0.14919892 0.26702553 -0.10614517 -0.075285465 -0.1339903 0.28290278
0.13924138 -0.14474225 0.17040811 -0.15214182 0.33492756 -0.06476205 -0.103927985 0.08447746
-0.18338001 -0.54380643 0.28149486 0.21838906 0.11870034 -0.064086765 0.18280555 0.2312223
0.19052482 -0.0382248 -0.12044511 -0.15969928 -0.11230368 -0.18332337 0.21858631 -0.05765571
-0.08490542 0.10968267 -0.20922326 -0.04685607 0.14806429 0.024407975 0.017480778 -0.17393702
-0.13846244 0.224376 -0.041927025 -0.18743137 0.12597725 0.01697121 0.029177146 -0.056591738
-0.13563497 0.03002349 0.16144226 -0.1804318 0.113883905 0.047124084 0.06285972 0.12790601
0.2123021 0.034328505 0.036533684 0.06383294 0.052216835 0.07630191 0.20889637 0.12368273
-0.10263752 -0.049716633 0.16634244 -0.004954981 0.10796743 0.04346135 -0.20645715 -0.060346954
-0.27048212 0.2136697 0.05062125 -0.07923944 0.006152459 0.07209642 0.160647 0.030066127
-0.063329674 0.08864992 -0.113069676 0.2401328 -0.02577039 -0.11616789 -0.19303226 0.09820899
-0.050377678 -0.09392209 0.19526501 -0.17057768 0.042907488 -0.23088627 -0.042927332 0.21191251
-0.13754888 -0.17787647 -0.06855063 0.0676653 0.2006389 0.07922613 0.14556558 -0.28274077
0.20012859 0.1892324 -0.05238991 -0.15298325 0.10954795 0.24867173 0.092067964 -0.13627511
0.00094213843 0.026895156 0.07131887 0.107536905 0.070317455 0.52316576 -0.31488648 -0.13757163
-0.2186981 -0.257851 -0.17550878 -0.21468936 0.14988293 0.030906737 -0.13466229 -0.24127129
-0.1068871 -0.01877818 -0.101267464 -0.08596159 -0.07694899 0.0968281 -0.18366608 0.09621419

layers.10.bias f4 [20]
00000000: 65bb 6c3e 267a a03d 12e3 96be c377 5fbe
00000010: 5bea ff3d d8e2 21be 0f65 7bbe 40e1 003d
00000020: d377 2bbe a16e 15be 673f ca3d ddfb 6a3e
00000030: f785 283e 34bc d0bd ae36 783e 796d d0bd
00000040: a53e 53bd 160e 20be 4813 15bd 49da 82bd
0.2311836 0.07835798 -0.29470116 -0.21823029 0.12495872 -0.1580919 -0.2455027 0.031464815
-0.16744928 -0.14592983 0.09875374 0.2294764 0.16457354 -0.10192147 0.24239609 -0.1017713
-0.051573414 -0.15630373 -0.03639534 -0.06389291

layers.12.weight f4 [20, 20]
00000000: 7f0f 51bd 7a40 d2bc d55b 393c 9a25 1e3e
00000010: 3d85 5bbe 0200 89bd 4871 483e 9ab1 0f3e
00000020: 94c4 dbbc 3892 64be 3526 f63d 7dd2 6cbd
00000030: d661 333e bd04 40be 1143 11be 55ed 263e
00000040: 1071 dabd b8fa 83b8 203f e4bc 31b3 6abb
00000050: cb7a 623e 7a4d 6a3c 8cdc 5b3d 0064 1a3e
00000060: 9677 27bd 96e3 d3bc 2ee2 383c 76fd b0bc
00000070: 8753 f23c 8405 6cbe b7c8 48be 9511 7d3d
00000080: 27e8 8cbd 4f65 c7bd b58e 0f3d 7537 613d
00000090: de63 13be 7ecf c23d 2bc3 61be 8c33 0bbe
000000a0: c2a1 503e a7b2 cebd fbb2 04be 0d63 55be
000000b0: f1fc 4cbe a14c 60bd 0948 8abe c00e 77bc
000000c0: a4a0 dcbd 5d10 84bd 5d8a a93d ba8d 9e3e
000000d0: eca5 033e 2506 a9bc 698b 103e b319 f0bd
000000e0: 904f 80be 2152 543e 5f85 61be 0553 fabd
000000f0: 4663 72be dcc1 e2bd a67c 1abe 24c1 abbc
00000100: 4cd2 94bd 1f0a b6bd 2a01 9a3e 32b5 123e
00000110: 87a5 173e aa71 013e 1a8b 04be 3307 91be
00000120: 7f05 0ebe a750 f1bd 73fb 653e 9308 8bbd
00000130: 2fa7 d2bc 057e 4bbe 873d f73d 68ff 2fbe
00000140: 3bd2 3dbe b389 0abe 197d 5fbe 853d 02bd
00000150: 3afb 03be ff9b f13d c968 22be 9a42 f13d
00000160: f6b8 7bbc 4c7b 64be 01a7 163e 8e94 d43d
00000170: 2323 8c3d 6f01 3cbe e04b a2bb 8c53 89bb
00000180: f2bf 43be 49c8 5a3e 6f87 f43d 08d5 22bd
00000190: b862 583c 8e20 65bd 43d9 ed3c edaa aa3d
000001a0: dcd9 4bbe 2e75 9c3d b93c 333e c33d afbd
000001b0: d5b1 0dbe 89bb 3d3e 7599 32bd 283a d3bd
000001c0: 4e99 d93b 3929 7e3c dee1 38be b2e7 11be
000001d0: c821 31be 59b7 f33d 2fa7 1dbe b105 033e
000001e0: 1035 4f3e 9e3c 54be b250 37be 90ab 1dbe
000001f0: fa49 143e 559b 02be 31af 183e 9adb 993d
00000200: 4dda 0f3e 8450 20be e6a1 6b3e c7d4 9c3c
00000210: 9a53 da3d 7fb4 42be 25a4 973e 3cfd f6bd
00000220: 4e9a 333e 1f25 f4bd c603 ea3d 3227 4dbe
00000230: e8f6 9d3c cb4b c33d 2fef aebd d08f 4dbd
00000240: de54 6dbc 68b0 2f3e 0e35 183e 1d97 37be
00000250: 090c 35be 581c bcbd 4c3a 2f3d 9254 a4be
00000260: f717 f7bd 4cec 6abe 3560 5e3b cb72 73bd
00000270: 53ed 033e bb7d 4bbd 1757 61bd bb0f 2ebe
00000280: de4e 0e3e 1b09 1abe 4fc3 87be d580 d23c
00000290: 3002 963e afb3 8ebd 7d52 cc3d 6dab 0a3e
000002a0: 0bff a43d 8b13 2c3d af8c 923e 4da2 86bb
000002b0: e043 92bd 60d9 aa3d 9967 e03d e3e0 abbc
000002c0: c6c1 5fbb bd61 76be 45ae 6dbb 8ab6 ac3c
000002d0: 108c 113e 4e09 bbbd 4ec4 d0bd 3d44 0abe
000002e0: 330b 88be 2ae5 9bbd cc48 8dbe f849 e7bd
000002f0: 572c 14bd 8881 863d bfcc d23d bc59 b0bd
00000300: 203a ffbd 7d15 f03d 83c0 48be 745d 83bd
00000310: 2263 da3d 56bd a1bd 1aab fe3d 72b8 0a3e
00000320: 5c2e 65bd e9dd a63c 3206 f9bd 751f 26be
00000330: 812b 0c3e f2c9 353d b303 433d 40c6 fdbd
00000340: cf50 5fbe ed31 7c3d 4df3 e6bd bcd3 463c
00000350: a784 383e 6678 3f3e 8fc1 bebd 600f ca3d
00000360: 97de 4e3d 87dc a3bd 0ab1 94bd 30e8 dfbd
00000370: 41d7 db3d de5a 1bbe 15bd 2cbe 4c24 15be
00000380: cd76 5b3d 5412 48be 22e6 53bd 3147 653d
00000390: 9fd6 213e f946 ac3d 7c2f dcbd 21a0 fb3d
000003a0: 1cd4 99bd 82b4 233e d0e3 b63d 2a56 f43c
000003b0: bdca 3b3e ade2 debd fe2d 02be bc60 433a
000003c0: 2356 563e 99ee 46bd 7499 1abe 901d 483e
000003d0: 78c2 5e3e b822 c1bd 1b25 643e 207a 60be
000003e0: 9879 dd3c 86e4 dfbd dcb2 523e 2973 99be
000003f0: a804 913d 07ed f83c 541e 42bd cd89 2f3e
-0.05104017 -0.02566551 0.011313398 0.15444031 -0.21437545 -0.066894546 0.19574463 0.14032593
-0.026827134 -0.22321403 0.12019006 -0.057817925 0.1751779 -0.18751808 -0.1418574 0.16301472
-0.10666096 -6.293267e-05 -0.027862132 -0.0035812373 0.22117154 0.014300698 0.053677127 0.1507721
-0.04088553 -0.025865357 0.011284394 -0.021605235 0.029580845 -0.23048979 -0.19607817 0.061784346
-0.06880217 -0.0973612 0.035048205 0.05498453 -0.14393565 0.09512232 -0.22047107 -0.13593882
0.20374206 -0.10092669 -0.129589 -0.20838566 -0.20018364 -0.05476058 -0.27008083 -0.0150792
-0.10772827 -0.064484335 0.08278344 0.30967504 0.12856263 -0.020632813 0.14115681 -0.11723652
-0.250607 0.20734455 -0.22023533 -0.12222866 -0.23670682 -0.11072132 -0.15086612 -0.02096612
-0.072666734 -0.08888649 0.30079013 0.14326933 0.14809237 0.12641016 -0.12943688 -0.28325805
-0.13869284 -0.11782961 0.22459202 -0.06788745 -0.025714485 -0.19872291 0.12072282 -0.17187274
-0.18537228 -0.1352909 -0.21825065 -0.03179695 -0.12888804 0.11797332 -0.15860285 0.11780281
-0.015363922 -0.22312659 0.14712144 0.10379897 0.06842639 -0.18359922 -0.0049528927 -0.0041908678
-0.1911619 0.21365465 0.119398944 -0.039753944 0.01320713 -0.05593925 0.029034263 0.08333383
-0.19907326 0.07639538 0.17503633 -0.08556702 -0.13837369 0.1852857 -0.04360338 -0.10313827
0.00664059 0.015512758 -0.18054911 -0.14248541 -0.17298043 0.11900205 -0.15395807 0.1279514
0.20235085 -0.20726249 -0.17901877 -0.15397477 0.14481345 -0.12754567 0.1491058 0.07512589
0.14048119 -0.15655714 0.23010978 0.019144429 0.10660477 -0.19014166 0.2961742 -0.120600194
0.17539331 -0.11921143 0.11426501 -0.20034483 0.019282773 0.09535941 -0.085417144 -0.05018598
-0.014485566 0.17157137 0.14863989 -0.17928739 -0.17680372 -0.09185094 0.042780206 -0.32095772
-0.12065118 -0.22941703 0.0033931856 -0.059435647 0.12883501 -0.049680453 -0.055014696 -0.16998188
0.13897273 -0.15042536 -0.26516196 0.025696198 0.29298544 -0.06967866 0.09976671 0.13541956
0.08056458 0.042010825 0.28622958 -0.004108703 -0.071418524 0.08342242 0.1095726 -0.020981258
-0.0034142598 -0.24060722 -0.0036267203 0.021083135 0.14213586 -0.09132634 -0.10193692 -0.13502593
-0.26571044 -0.07612069 -0.27594602 -0.11293405 -0.0361751 0.06567675 0.102929585 -0.086108655
-0.12462258 0.117228486 -0.19604687 -0.06414309 0.10663439 -0.07897441 0.12434979 0.13546923
-0.055952415 0.020369487 -0.12159385 -0.16222937 0.1368847 0.044382043 0.04761095 -0.12391329
-0.2180817 0.06157105 -0.11276875 0.012135442 0.18019353 0.18698272 -0.09314262 0.09866214
0.050505247 -0.08001047 -0.0726033 -0.10932958 0.10734416 -0.15171382 -0.16869004 -0.14564627
0.053580094 -0.19538242 -0.051733144 0.055976097 0.15804528 0.084119745 -0.107512444 0.122864015
-0.0751116 0.15986827 0.089301705 0.029826242 0.18339057 -0.10883079 -0.12712857 0.0007453074
0.20931296 -0.04856739 -0.150976 0.19542527 0.21753871 -0.0943045 0.2227978 -0.21921587
0.02703552 -0.10932259 0.20576042 -0.29970673 0.07080966 0.030386461 -0.047392204 0.1714241

layers.12.bias f4 [20]
00000000: 56a3 c9bb b37f b6bd 7711 64bc 8d21 df3d
00000010: 09a9 0a3e 17e3 7c3e cbd9 393e 01a4 2fbe
00000020: 542b e8bd d280 483e e619 2f3e 7dff 6fbd
00000030: 1da5 153d 0d1b 1b3e 666c 16be ca44 133e
00000040: 0e7a e3bc b8ea 123e 26ce ee3d 7674 fa3c
-0.0061535044 -0.089110754 -0.01392018 0.10895071 0.13541044 0.24696003 0.18149488 -0.17152406
-0.11336389 0.19580391 0.17099723 -0.058593262 0.036534417 0.15147038 -0.14689788 0.1438171
-0.027768161 0.1434735 0.116604134 0.030573111

layers.14.weight f4 [20, 20]
00000000: be70 c7bd 4d71 dd3d 53e0 3dbe dc6e 8c3e
00000010: 59a3 e53c 0e63 413e 9acc 683d 2424 a93d
00000020: a13e 233d 90d6 d63d d058 b23d 50ba 683d
00000030: a1ca 4d3e de76 e53d a98a 42be d75b 07be
00000040: 0874 053e 0c39 aa3d 2d3c f23c ae5f 763d
00000050: a2e0 6c3e 7dac 21be adc4 f8bc 10c2 033e
00000060: bdf7 cbbd eeb8 02be bc2c 79be 9f41 9dbd
00000070: 77ed 073e 98b0 863d 7495 05bc ec9b e0bd
00000080: 9c75 95bd 0e82 513e 6439 ef3d 856b 24be
00000090: d35f 513e f9d2 9bbd 91ee 80bc 6004 8fbd
000000a0: 15c3 ee3d df15 cabd 4e59 3abd bfef 353d
000000b0: 4e94 443d d1c0 e33d b559 44be 7d1c b8bd
000000c0: 7786 5abe b874 c63c aae9 fcbd 1ce5 d0bd
000000d0: 6c94 eb3d cf59 fa3d 0a6d 193e 7a94 0bbd
000000e0: 2e20 7a3d d8f7 a2bd 98c6 ee3d fe3f 283e
000000f0: e128 193e f0de 1a3e 2f92 4cbe 421c 04bd
00000100: ce0f 3fbe 63f1 14be f4d4 1b3e 7b38 6b3d
00000110: c4ef ea3d b477 41be e266 2bbe 500b e5bc
00000120: a41d af3d dcdd 04be cc73 f6bd d310 d03d
00000130: cfb1 21be fcb8 d23d 530f 40be 5e99 b13d
00000140: c704 c03c 4944 e3bd 2804 663e afff babd
00000150: ebd5 dcbd ddf6 40be 8375 1fbe 4850 e9bd
00000160: b839 3fbe 98c1 543d 947d cdbd c129 1fbd
00000170: 48d7 8a3c ed38 343e 168c 433e be61 56bd
00000180: 7d2c 52be 9df1 9b3d d04c fc3d 5624 8c3d
00000190: 65e2 7f3e 857b 373e a3d4 26be e988 78be
000001a0: 36bd c83c 0966 d7bc d661 89be b9c9 65be
000001b0: adf5 d33d 2fbc c3bd 9789 47be aed8 423d
000001c0: 1023 42be 1b94 7d3d f395 30be 5dff 2c3e
000001d0: 5122 bd3d 5a91 c2bd 01cf b53d 4589 e3bd
000001e0: 5ea4 2abd d4f8 56be 7158 d43c bce2 e43c
000001f0: 1c7a 113e d555 563e 88d8 583e ad3a 6a3b
00000200: abbb 453e 0dd6 923d d21d 433e 3c21 5a3e
00000210: 621c d0bb 38b1 1abe 0e7c 463e 4e4e 3fbe
00000220: 0673 883d 15f9 3dbe a6a1 b03c 4622 23be
00000230: 854e abbd a389 49be 9145 29be 634e 3b3e
00000240: 0baa 3fbe f7dd c43d d645 5b3d 9313 1abe
00000250: db92 2abe 97d2 07bd 32f6 58be 1d17 4b3e
00000260: 0847 1bbe ed0c 243e 1009 1fbd e5a6 0fbe
00000270: 23ef 3abd 1f03 1fbd b52a b13d 8089 d6bd
00000280: b10b bf3d f6d3 04bd 2ecc 1fbe 07fc 7e3e
00000290: c719 d2bd 2bf5 20be 63a8 563e 9074 9abd
000002a0: 6149 d6bd b25f 46bd 91d1 213e ebaf f6bd
000002b0: 8df3 a63d 0474 b2bd 9909 f43c 8f76 5bbd
000002c0: 13b2 5ebd e8e7 c3bd 1d7a 0d3e 6f4f 37be
000002d0: 4ac7 ec3d cb35 e5bd e301 3bbe 2987 f4bd
000002e0: ee98 203c ba7c 8a3d cecc 0b3d aa07 d53d
000002f0: f16a 903d 13cf 2fbe a454 45be 2b88 7dbd
00000300: 9c4e 253e 00e0 f13b ad50 c73d d7da 17be
00000310: 818d ba3d af1e 7ebb ae3c 373e 5a59 07be
00000320: 3ea9 1b3e fd0f 3c3e dc4c e23d 32e4 ea3a
00000330: 3358 b53d bf4b aebd aeef cebd 805b a43d
00000340: 6b12 10be 2488 0ebe 6188 8c3d 9af5 14bd
00000350: f820 b2bd 7e2c 0b3e 7a79 50bc ac6a 5a3e
00000360: 7dcd babd 543f 1cbd 02c7 abbc 0e12 89bd
00000370: 4676 1cbd 4b5c 273c 916b fabd 80cc 5fbd
00000380: 7c28 5cbe 6fb7 f7bd 8ec7 553d 3526 053e
00000390: 9b01 123e fe2e 593e 9503 2ebe 4cb2 21be
000003a0: 238c 5abe ff68 3e3e ebdf 093e 0cbe 703d
000003b0: 23ef d6bd a01b 97bd 2b7c ee3d c4ed 3abe
000003c0: 7dc6 393e 6a8f 493e 7d18 dc3d a2de 55be
000003d0: 2d5f 28be 391d 1d3d 5e7e 083e fa9f 9a3b
000003e0: da43 20bd 4317 f6bd 59e9 603d eda9 463e
000003f0: 3f5d 24be 47e3 21be 8c9a 4bbe 6a85 adbc
-0.09738301 0.10812626 -0.18542604 0.2742833 0.028031992 0.18885443 0.05683575 0.082588464
0.03985465 0.10490143 0.08708346 0.056818306 0.20096828 0.11204313 -0.18998207 -0.13218628
0.13032544 0.08311662 0.02956971 0.06014984 0.23132566 -0.15788455 -0.03036722 0.12866998
-0.09959362 -0.12765858 -0.24333471 -0.07678532 0.1327418 0.06576651 -0.008153308 -0.1096724
-0.07297823 0.20459768 0.11680868 -0.1605664 0.2044671 -0.07608599 -0.015738757 -0.06983256
0.11658303 -0.09867453 -0.045495324 0.044418093 0.047992997 0.11120761 -0.19174846 -0.08989809
-0.21340357 0.024225578 -0.123492554 -0.10199949 0.115029186 0.12224161 0.14983001 -0.034077145
0.061065845 -0.07957429 0.116589725 0.16430661 0.14957 0.15124106 -0.1997764 -0.03225351
-0.18658373 -0.14545207 0.15217954 0.05742691 0.11471513 -0.1889332 -0.16738465 -0.027959496
0.085505754 -0.12975258 -0.12033805 0.10159459 -0.15790485 0.10289189 -0.18755846 0.086718306
0.023439778 -0.11097009 0.22462523 -0.09130799 -0.10782989 -0.18844171 -0.15572171 -0.113922656
-0.18674362 0.051942438 -0.10033718 -0.03885818 0.016948357 0.1759984 0.19096407 -0.052339308
-0.20524783 0.076144435 0.12319338 0.06842868 0.24988706 0.17918213 -0.16292052 -0.24270977
0.024504285 -0.026293771 -0.26832455 -0.22440232 0.10349593 -0.095573775 -0.1948608 0.047569923
-0.18958688 0.061908823 -0.17244701 0.16894288 0.09235061 -0.0950038 0.088773735 -0.111101665
-0.04166066 -0.20993358 0.025921078 0.027940147 0.14206737 0.2093118 0.2117635 0.003574054
0.19309871 0.07169733 0.19054344 0.2130174 -0.0063510397 -0.15106666 0.1938326 -0.18682215
0.06662564 -0.18552049 0.021561455 -0.15931043 -0.08364586 -0.1968141 -0.16530444 0.18291621
-0.1871721 0.09612649 0.053533398 -0.1504653 -0.16657583 -0.03315982 -0.21187666 0.19833036
-0.15163815 0.16020556 -0.038827002 -0.14028509 -0.045638215 -0.038821336 0.08650724 -0.10475445
0.09328402 -0.032428704 -0.15605232 0.24900828 -0.10258823 -0.15718524 0.20962672 -0.07541764
-0.10463215 -0.048431106 0.158026 -0.120452724 0.081519224 -0.087135345 0.029789733 -0.053579863
-0.054369044 -0.09565717 0.13816114 -0.17901395 0.11561449 -0.11191901 -0.18262438 -0.11939842
0.009802086 0.06762071 0.034130864 0.104018524 0.070516475 -0.17168836 -0.19270569 -0.061897438
0.16143268 0.007381439 0.097321846 -0.14829575 0.09109021 -0.0038775613 0.17894241 -0.13217679
0.1520128 0.18365474 0.11049816 0.0017920791 0.08854713 -0.08510541 -0.10104309 0.08025265
-0.14069526 -0.13919121 0.0686195 -0.036367036 -0.086976945 0.13591191 -0.012724275 0.21329755
-0.09121225 -0.038146332 -0.020968918 -0.06692897 -0.03819873 0.010214875 -0.12227548 -0.054638386
-0.21499819 -0.12095534 0.052192263 0.13002856 0.14258425 0.21209332 -0.16993554 -0.15790671
-0.2134252 0.1859474 0.13464324 0.058774993 -0.104948305 -0.07378316 0.11644777 -0.18254763
0.18142124 0.19683614 0.10746858 -0.20885709 -0.16442557 0.038357947 0.13329455 0.0047187777
-0.03912721 -0.120161556 0.054910038 0.19400759 -0.16051196 -0.15809356 -0.19883174 -0.02118178

layers.14.bias f4 [20]
00000000: 9e69 40bd 0f29 423e 65fb ca3b a049 cb38
00000010: 7e8c 713d 74ae 13be 4e20 1cbd b677 343e
00000020: 3a49 7a3d bcc4 d9bc 5a42 21bc 4f4f b8ba
00000030: aefc 383e db4c 253e 259a 47bd c5c8 0a3e
00000040: 3682 293e 01b0 1f3e 160a 403e a23f 15be
-0.046975724 0.18960975 0.0061945193 9.693508e-05 0.058971874 -0.14422017 -0.038116746 0.17623791
0.06110499 -0.026583068 -0.00984248 -0.0014061722 0.1806514 0.161426 -0.048730988 0.1355315
0.16553578 0.15594484 0.18753847 -0.14575055

layers.16.weight f4 [1, 20]
00000000: 6183 cfbd 796f 063e 15a5 133e b526 0cbe
00000010: 8f16 003e e521 f43e 8238 6dbe 525a e2bd
00000020: f871 81be 706e 2cbd 95dc 223e 7938 0abe
00000030: 2f62 f03d 1422 ef3e 5879 41be 3553 0cbf
00000040: e852 21be e40c 653e ccbf 22bd 5e16 7fbd
-0.101324804 0.13128461 0.14418443 -0.1368664 0.12508605 0.4768211 -0.23166087 -0.110523835
-0.25282264 -0.04209751 0.15904458 -0.13498105 0.11737477 0.46705687 -0.18893945 -0.54814464
-0.15754282 0.22368199 -0.039733693 -0.06227719
