Models_Data_Figures/BURGERS/Burgers_Collocation/Models/60_25.pth (torch, 17524 bytes, 17 tensors)

layers.0.weight f4 [20, 2]
0	0x3eec242f	0.46121356
1	0xbe8e0f0f	-0.27745864
2	0x3e5c3789	0.2150556
3	0x3e8fa05d	0.28052035
4	0xbf2c201a	-0.67236483
5	0x3e3d139a	0.18464509
6	0x3f296ea6	0.6618446
7	0x3eef1ab0	0.46700048
8	0x3e8c55b5	0.2740914
9	0x3e0c198a	0.13681617
10	0x3e6e947c	0.2329883
11	0x3ea53deb	0.32273802
12	0x3e808f97	0.2510955
13	0x3df474e2	0.11936356
14	0xbeb7487c	-0.3579749
15	0xbe8f738b	-0.2801784
16	0x3ed0080b	0.40631136
17	0xbc9fbf1a	-0.019500304
18	0x3f033599	0.5125366
19	0xbf09167f	-0.5354995
20	0xbef1cf38	-0.47228408
21	0xbde8c20a	-0.11365135
22	0x3dfc479f	0.12318348
23	0x3e987b81	0.29781726
24	0x3f19ad02	0.60029614
25	0x3e64bbfe	0.22337338
26	0xbf85b737	-1.0446538
27	0xbea60b9a	-0.32430726
28	0xbe75796a	-0.23972097
29	0x3e672448	0.22572434
30	0xbe7adc63	-0.24498133
31	0x3f0c90c9	0.54908425
32	0xbf18d8cd	-0.5970581
33	0x3ef4a590	0.47782564
34	0x3ea66ea0	0.32506275
35	0xbe8bbfa2	-0.27294642
36	0xbf6a4909	-0.9151769
37	0x3e84959f	0.25895402
38	0x3d792ac7	0.06083181
39	0xbef68a7d	-0.48152533

layers.0.bias f4 [20]
0	0x3eb06160	0.3444929
1	0xbf12cfdc	-0.5734842
2	0xbd9667e4	-0.07344034
3	0x3f0079c4	0.501858
4	0x3e82f107	0.25574514
5	0xbdeb55c9	-0.114909716
6	0xbf144737	-0.57921165
7	0x3ec18bda	0.3780201
8	0x3f0abad4	0.5419133
9	0xbf5591f1	-0.83425814
10	0xbecc73b4	-0.39932024
11	0x3ee9acb0	0.45639563
12	0xbdccd13b	-0.10000845
13	0xbe8f8077	-0.28027698
14	0xbf266167	-0.64992374
15	0xbeeba902	-0.4602738
16	0x3ebf43e1	0.37356475
17	0x3e229a5b	0.15879194
18	0xbf4c4cad	-0.798045
19	0xbe9ce017	-0.30639717

layers.2.weight f4 [20, 20]
0	0xbee19f85	-0.44067016
1	0x3e0bad62	0.13640359
2	0xbd0c1df3	-0.03420825
3	0xbe6d5ec9	-0.23180689
4	0x3d8fa050	0.07012999
5	0x3d2f3f5b	0.04278503
6	0x3f2794da	0.65461504
7	0x3edcaa0d	0.43098488
8	0x3e5c13f4	0.21491987
9	0xbe472f18	-0.19451559
10	0xbe52c0fc	-0.2058143
11	0x3e800f11	0.25011495
12	0x3eb8c46b	0.36087355
13	0x3e505808	0.20346081
14	0xbe303a74	-0.17209798
15	0x3e6f2441	0.23353674
16	0x3e28e2f2	0.16492823
17	0xbe134cd9	-0.14384784
18	0x3e9066de	0.2820348
19	0x3e85fe09	0.26170376
20	0xbe18c09d	-0.14917226
21	0xbc438922	-0.0119345505
22	0x3b0f1544	0.0021832744
23	0xbf14b435	-0.58087474
24	0xbea95b22	-0.3307734
25	0xbdc8ebb8	-0.09810585
26	0x3ddd193c	0.10795829
27	0x3e9ea504	0.30985272
28	0x3e8740a8	0.26416516
29	0x3ebba5e0	0.3664999
30	0xbe5eadf2	-0.21746042
31	0x3e6b5a3d	0.22983642
32	0xbed18bd4	-0.40926993
33	0xbf1f1c0e	-0.62152183
34	0xbebccc94	-0.3687483
35	0x3ec07803	0.37591562
36	0xbebc2541	-0.36747172
37	0x39ab4dca	0.0003267362
38	0xbe52c895	-0.20584328
39	0xbe5188f5	-0.20462401
40	0x3e033896	0.12814555
41	0x3c6353e9	0.013874986
42	0xbe168a0b	-0.14701097
43	0xbc8bb3da	-0.017053533
44	0x3c2b6d20	0.010463029
45	0x3d3df54f	0.046376523
46	0x3c962d27	0.018332077
47	0xbe1b3c37	-0.15159689
48	0x3cd88489	0.026430385
49	0x3e388b20	0.18021822
50	0xbcf7416b	-0.03018256
51	0xbe802332	-0.25026852
52	0x3d7cb8e7	0.061699774
53	0x3eb72b29	0.35775116
54	0xbe4376ab	-0.19088237
55	0xbdaa5a8f	-0.08318054
56	0x3dc82704	0.09773067
57	0x3c9e3c01	0.019315721
58	0x3eaf0b5d	0.34188357
59	0xba8d253b	-0.0010768542
60	0x3e2a4dc8	0.16631234
61	0xbe453c11	-0.19261195
62	0x3e24fd4a	0.16112247
63	0x3e8500e6	0.25977248
64	0xbe7ebb4e	-0.24876139
65	0x3e7cfa8f	0.24704956
66	0xbe944fae	-0.2896704
67	0xbe80277f	-0.25030133
68	0xbd6d13de	-0.057880275
69	0x3daf8979	0.08571143
70	0xbcd85316	-0.026406806
71	0xbcf3d9bc	-0.02976691
72	0x3e406c97	0.18791424
73	0x3db075b2	0.086161986
74	0x3e98519c	0.29749763
75	0xbd43a805	-0.047767658
76	0xbe8b12c2	-0.2716275
77	0x3e4e8a4f	0.20169948
78	0xbe3eacd4	-0.18620616
79	0xbdcad3b7	-0.09903663
80	0x3df4f107	0.11960035
81	0xbea8c3ec	-0.32961977
82	0x3e51234d	0.20423622
83	0x3d84e8ec	0.06489739
84	0x3bf9bae4	0.007621156
85	0x3cf271eb	0.029595336
86	0xbde9542f	-0.1139301
87	0x3e28b859	0.16476573
88	0x3dd9c04a	0.10632379
89	0xbeabd1f7	-0.33558628
90	0xbe22e2cf	-0.15906833
91	0xbe9875e8	-0.29777455
92	0x3e12aa80	0.14322853
93	0x3dcc9627	0.09989577
94	0xbd09d211	-0.0336476
95	0xbea668c4	-0.32501805
96	0xbd7aad78	-0.06120059
97	0xbe163c27	-0.14671384
98	0xbeb66dc9	-0.35630634
99	0x3e703d7a	0.23460951
100	0xbeacc99b	-0.33747563
101	0x3f16f3d7	0.5896582
102	0x3f8925db	1.0714678
103	0xbf0c0fd4	-0.5471165
104	0x3eb6ee01	0.35728458
105	0x3ee27560	0.44230175
106	0x3f108247	0.5644879
107	0x3efc8ba2	0.4932528
108	0x3f3aec02	0.7301637
109	0xbf35e988	-0.71059465
110	0xbf096e1b	-0.5368363
111	0x3dd37a04	0.10326007
112	0xbf1bb0f1	-0.60816866
113	0xbea50519	-0.32230452
114	0xbf80cbb3	-1.0062164
115	0x3d87012c	0.065920204
116	0x3f53e41c	0.8276994
117	0xbf181516	-0.59407175
118	0xbeb569de	-0.35432333
119	0x3e5ab115	0.21356614
120	0xbcdee734	-0.027209856
121	0xbe80bb31	-0.25142816
122	0xbea0949d	-0.31363383
123	0xbd6ac714	-0.057318762
124	0xbcdacf61	-0.026710214
125	0x3e1ed477	0.15510736
126	0xbe70e310	-0.23524117
127	0xbe5b29a0	-0.21402597
128	0xbecb7bd2	-0.39742905
129	0xbd169dc5	-0.036771554
130	0x3e6a06f2	0.22854212
131	0xbdd03d7b	-0.101679765
132	0x3ecaf577	0.396404
133	0x3e8ced39	0.27524737
134	0x3e8602e8	0.26174092
135	0x3d30d2b9	0.04316971
136	0xbdbf919a	-0.09353943
137	0x3d08f682	0.033438213
138	0xbd2be265	-0.041963954
139	0xbcd1914c	-0.025581978
140	0x3ee667b6	0.45001
141	0xbe09466c	-0.1340577
142	0x3de31b2a	0.110891655
143	0x3bf83676	0.0075748516
144	0xbd9bbcf6	-0.07604401
145	0x3e8d6501	0.27616122
146	0xbf190ac7	-0.5978207
147	0xbea114eb	-0.31461272
148	0xbe876337	-0.26442882
149	0xbd47527d	-0.04866265
150	0x3e968e2d	0.29405347
151	0xbe8d4a03	-0.2759553
152	0x3b49ec05	0.0030810845
153	0xbc31cbeb	-0.0108518405
154	0xbeab8c85	-0.33505645
155	0xbf1fdfba	-0.62450755
156	0xbf0c82b2	-0.54886925
157	0x3e8755bf	0.26432607
158	0xbe91a1d1	-0.2844377
159	0xbcfab9df	-0.030606208
160	0xbce86985	-0.028370628
161	0xbec076f4	-0.37590754
162	0xbed2ea3c	-0.41194332
163	0xbd9caef4	-0.07650557
164	0xbe1b125e	-0.15143725
165	0xbe00c5d7	-0.1257547
166	0x3e2a9088	0.16656697
167	0x3e0a5230	0.13507915
168	0xbdc170e6	-0.09445362
169	0xbe774c4b	-0.24150197
170	0x3ebd4b05	0.36971298
171	0x3e337384	0.17524534
172	0x3ed71e82	0.42015463
173	0x3e3961dc	0.18103737
174	0x3e0a42f2	0.135021
175	0x3e1a1f90	0.15051103
176	0x3e8c47da	0.27398568
177	0x3e87b9bc	0.26508892
178	0x3e291ede	0.16515681
179	0xbd4296c9	-0.04750708
180	0xbd95a80a	-0.073074415
181	0xbe8501b8	-0.25977874
182	0xbe752185	-0.23938568
183	0xbe465424	-0.19368035
184	0xbe1b3e2b	-0.15160434
185	0x3dbb3f05	0.091428794
186	0xbe9d11c9	-0.30677631
187	0x3eb85623	0.36003217
188	0xbea103d5	-0.31448236
189	0xbea2ab21	-0.31771186
190	0x3ef38d8d	0.47568932
191	0xbf0419ce	-0.51601875
192	0x3ead49bd	0.3384532
193	0x3eb73206	0.35780352
194	0x3c857160	0.016289413
195	0xbec18deb	-0.37803587
196	0xbdd0ba41	-0.10191775
197	0xbcd0fc46	-0.025510918
198	0xbd126da0	-0.035749078
199	0x3dc90ae8	0.09816533
200	0x3ed6c5a9	0.41947678
201	0xbe5530cf	-0.208194
202	0xbe86c6d5	-0.26323572
203	0x3f21c53d	0.63191587
204	0xbf333fb5	-0.70019084
205	0x3e62d0c1	0.22149946
206	0xbf28a08e	-0.65869987
207	0xbf10a3aa	-0.5649973
208	0xbf1f8c15	-0.62323123
209	0xbd26534d	-0.040606786
210	0x3ed6ae4a	0.41929847
211	0xbd356f62	-0.044295676
212	0x3eeaca22	0.4585734
213	0x3f02142e	0.5081204
214	0x3f1f4545	0.6221507
215	0xbf261eb3	-0.64890593
216	0xbedbc43e	-0.42923158
217	0x3e6d524b	0.23175924
218	0x3eea644d	0.45779648
219	0x3dd2a20b	0.102848135
220	0x3e86ed18	0.26352763
221	0xbcb8a1b7	-0.02253805
222	0xbe80e8d1	-0.25177625
223	0xbe27cf40	-0.16387653
224	0xbeecb314	-0.46230376
225	0xbea4011a	-0.3203209
226	0xbed04feb	-0.40685973
227	0xbd7ed1ff	-0.062211987
228	0xbd0daf16	-0.034590803
229	0x3f0851a1	0.53249556
230	0xbd348d21	-0.044079904
231	0x3e194f8a	0.14971748
232	0xbe8fa940	-0.28058815
233	0xbe86380f	-0.26214644
234	0x3e6b33ab	0.22968929
235	0xbd444b1a	-0.047923185
236	0xbe0de373	-0.13856296
237	0x3e894532	0.26810604
238	0xbe4b3b95	-0.19846947
239	0xbf41b359	-0.7566429
240	0xbe274167	-0.16333543
241	0xbdb188aa	-0.08668645
242	0x3ca69b76	0.020337801
243	0xbe0bee8e	-0.1366522
244	0x3e256b33	0.16154175
245	0x3d2310ec	0.03981106
246	0x3e9873e6	0.29775923
247	0x3e4ff644	0.20308787
248	0x3e3cf68f	0.1845343
249	0x3d89eec9	0.06734998
250	0xbe478e72	-0.19487932
251	0x3c536d79	0.012904518
252	0x3e1015ea	0.1407086
253	0x3e8f4395	0.27981248
254	0xbca8a7ef	-0.02058789
255	0x3e21c63f	0.15798281

layers.2.bias f4 [20]
0	0xbe539e4f	-0.20665859
1	0x3dd1f715	0.10252205
2	0xbdde2554	-0.108469635
3	0xbdcdcad6	-0.100484535
4	0xbe43e5b4	-0.19130594
5	0xbf12291f	-0.57093996
6	0xbe7a6d18	-0.24455678
7	0xbe7d5543	-0.24739556
8	0xbdd2f756	-0.10301082
9	0xbef53932	-0.478952
10	0xbe211ba3	-0.15733199
11	0x3e1df2ba	0.15424624
12	0x3dd8d30e	0.105871305
13	0xbec63584	-0.38712704
14	0xbda35e4c	-0.0797697
15	0xbd272822	-0.040809758
16	0xbdca0bc6	-0.09865527
17	0x3d5ed6e3	0.05440415
18	0x3e059a06	0.13047037
19	0xbcc6cb01	-0.024266722

layers.4.weight f4 [20, 20]
0	0xbc250c07	-0.010073668
1	0xbe2af959	-0.16696681
2	0x3d07f6a2	0.03319419
3	0xbdcbc8a0	-0.099503756
4	0x3d88f9a0	0.06688237
5	0xbd34cdb2	-0.04414148
6	0xbe22ff48	-0.15917695
7	0xbe5e11dc	-0.216865
8	0xbc908f61	-0.017646493
9	0x3d1d6d12	0.038434096
10	0x3def8a9f	0.11696362
11	0x3e50d96a	0.20395437
12	0x3de69477	0.11258786
13	0xbe5cb10f	-0.21551917
14	0xbe35064f	-0.17678188
15	0x3e26590d	0.16244908
16	0x3d8e5ce1	0.06951309
17	0xbdb5d781	-0.08878995
18	0x3e0448c0	0.12918377
19	0xbdd12704	-0.1021252
20	0x3e294dec	0.16533631
21	0xbd81bdd2	-0.063350335
22	0x3e2f5c32	0.17125013
23	0x3e42e2c8	0.19031823
24	0xbe932a0f	-0.28743026
25	0xbeb9ef5f	-0.36315438
26	0xbda77333	-0.081762694
27	0xbf04a1bf	-0.51809305
28	0x3e4a7ed5	0.19774945
29	0xbe577f56	-0.21044669
30	0x3ebfc764	0.3745681
31	0xbd72a1e5	-0.059236426
32	0x3e3228b6	0.17398342
33	0xbeec71b5	-0.46180502
34	0xbe9a2704	-0.30107892
35	0x3d71bd47	0.0590184
36	0xbe6e209a	-0.23254624
37	0xbe991cac	-0.29904687
38	0x3d7b6e37	0.061384406
39	0x3dcdae48	0.10043007
40	0x3a9136f0	0.0011078995
41	0xbdef804a	-0.11694391
42	0x3e926e51	0.2859979
43	0xbe1c6fbe	-0.15277001
44	0xbd5a6fb8	-0.0533292
45	0xbe816ee5	-0.25279918
46	0x3cf0e4c2	0.029405955
47	0xbef4cafc	-0.47811115
48	0x3de19f8b	0.110167585
49	0xbe1b41cf	-0.15161823
50	0xbe809029	-0.25109985
51	0xbe95dcb5	-0.2926995
52	0x3eaed639	0.34147814
53	0xbedfa2f7	-0.4367902
54	0x3b4f662b	0.003164659
55	0xbdc8847b	-0.09790894
56	0x3d68b1ca	0.056810178
57	0x3e9e0515	0.30863252
58	0xbc9a1836	-0.018810373
59	0x3e295e98	0.16539991
60	0xbd223d56	-0.039609276
61	0x3d6d17d9	0.05788407
62	0xbc55ad6f	-0.013041838
63	0x3d72be10	0.05926329
64	0x3df3cac0	0.11903906
65	0x3ce0d18c	0.02744367
66	0xbdb041d7	-0.08606308
67	0x3e01fcfe	0.12694165
68	0x3d31027f	0.04321527
69	0x3e82ccb8	0.25546813
70	0xbd9cd7b0	-0.076583266
71	0xbea0b0a1	-0.31384757
72	0x3e7465c0	0.2386694
73	0x3e6d3f5a	0.23168698
74	0x3e97e0c4	0.2966367
75	0x3dc69687	0.096966796
76	0x3e3f5fb3	0.1868885
77	0x3dbc4004	0.091918975
78	0xbe4140b4	-0.18872339
79	0xbe6e3965	-0.23264082
80	0x3e83b0e9	0.2572091
81	0xbe2a8e43	-0.16655831
82	0x3e90d526	0.2828762
83	0xbccaca55	-0.024754683
84	0x3e3bec14	0.18351775
85	0xbdffc357	-0.1248843
86	0xbe53b771	-0.20675446
87	0xbe9151b4	-0.28382647
88	0x3df7a7b4	0.12092534
89	0x3c30dd95	0.010795017
90	0xbe458b15	-0.19291337
91	0xbe9d8fa1	-0.30773643
92	0x3e88bf46	0.2670843
93	0x3e7136ae	0.23556015
94	0xbeea5f26	-0.45775717
95	0xbdbe27c0	-0.092849255
96	0x3e384ca7	0.1799799
97	0x3ea1b260	0.31581402
98	0xbd0bb9d1	-0.034112755
99	0x3eed6be7	0.46371385
100	0xbcfacb9b	-0.030614665
101	0xbe5a645f	-0.21327351
102	0x3de887f1	0.11354054
103	0x3d2b7cd8	0.041867107
104	0x3e2a016b	0.16602103
105	0x3cc0e461	0.0235464
106	0x3dba96f5	0.09110824
107	0xbdb55942	-0.08854915
108	0x3db2e7ce	0.087356195
109	0x3d6ac964	0.057320967
110	0x3e1c3f5e	0.15258548
111	0x3d88520a	0.06656273
112	0x3e1e05d1	0.15431906
113	0x3d48b043	0.04899622
114	0x3e023e20	0.12719011
115	0xbdef97d6	-0.11698882
116	0xbd38d1bd	-0.045121897
117	0xbcd2900c	-0.025703453
118	0x3d1b6869	0.03794137
119	0xbe0d7cb1	-0.13817097
120	0xbe283e86	-0.16430101
121	0xbdf23b16	-0.11827676
122	0x3db854a7	0.09000521
123	0x3c72b0a3	0.014812621
124	0x3cba513b	0.022743812
125	0xbd1c544e	-0.038166337
126	0x3e128657	0.14309059
127	0x3e85cdcc	0.26133573
128	0x3e4ab1d3	0.19794397
129	0x3dd2b84f	0.1028906
130	0x3d2b5ab4	0.041834548
131	0xbd911b04	-0.07085231
132	0xbe320e6a	-0.17388311
133	0x3d84194d	0.06450138
134	0xbe79833f	-0.24366473
135	0xbd67517e	-0.0564742
136	0x3e4d05bb	0.20021717
137	0x3e1840a8	0.14868414
138	0x3e72b01f	0.23699997
139	0xbe025675	-0.12728293
140	0xbe813fd5	-0.25244012
141	0xbd65f344	-0.0561402
142	0xbe0a02a3	-0.13477568
143	0x3d464d02	0.048413284
144	0xbd9d00e3	-0.07666185
145	0xbe60480d	-0.21902485
146	0xbe1bf49f	-0.15230034
147	0x3dfa1eb0	0.122128844
148	0x3d5325f7	0.051549878
149	0x3e788dac	0.24272794
150	0x3e3231a1	0.17401744
151	0xbdd99165	-0.10623435
152	0xbd99328c	-0.07480344
153	0x3cfc463c	0.03079521
154	0x3e1dd5c8	0.15413582
155	0x3d1fbbb2	0.03899736
156	0xbdaea4a0	-0.085274935
157	0xbe57cff9	-0.21075429
158	0x3d3d1e8b	0.046171706
159	0x3e4cce2a	0.2000052
160	0x3ccfc458	0.025362179
161	0xbf170305	-0.5898898
162	0x3dbecf9d	0.09316943
163	0x3e1bc51f	0.15211914
164	0x3dbf4e6a	0.09341128
165	0xbfa41d16	-1.2821376
166	0x3ed56f9d	0.41686717
167	0x3d85bdba	0.06530328
168	0x3e86464a	0.262255
169	0x3f0350e1	0.51295286
170	0x3f701996	0.9378904
171	0x3e4b2890	0.19839692
172	0xbe8c1c10	-0.2736516
173	0xbe03cf9d	-0.12872167
174	0x3ee95220	0.4557047
175	0x3e52e895	0.20596536
176	0x3eb96218	0.36207652
177	0xbe82e601	-0.25566104
178	0x3e95d967	0.29267427
179	0xbe96bdf9	-0.29441813
180	0x3d868cfc	0.065698594
181	0xbdf7bdf9	-0.12096781
182	0x3e3820d5	0.17981274
183	0x3cd8a4eb	0.026445827
184	0x3e5c7f41	0.21532919
185	0x3da180b1	0.07885874
186	0x37cd077b	2.4441388e-05
187	0x3e920d97	0.28525993
188	0xbec45a04	-0.38349926
189	0xbdf3adc9	-0.11898381
190	0x3dfad2f0	0.122472644
191	0xbd3a0b04	-0.04542066
192	0xbe300b92	-0.17191914
193	0x3dc282dc	0.09497616
194	0xbe25634a	-0.16151157
195	0x3e659cd5	0.22423108
196	0xbe40224f	-0.18763088
197	0xbe01344d	-0.12617607
198	0x3c6a4388	0.014298327
199	0xbe69da00	-0.22837067
200	0x3e07e1f5	0.1326979
201	0x3b9c5585	0.004770937
202	0x3e5c0f0f	0.2149012
203	0xbe9fd7cc	-0.31219327
204	0xbe120150	-0.14258313
205	0x3db59a35	0.08867303
206	0x3dc1d16d	0.09463773
207	0xbd8efdf1	-0.06982029
208	0x3def96dd	0.11698697
209	0xbdca267d	-0.09870622
210	0xbccd7215	-0.025078813
211	0xbd40c558	-0.0470632
212	0x3e8db46b	0.2767671
213	0xbe980786	-0.2969324
214	0xbd83d3aa	-0.06436856
215	0xbd9adb97	-0.07561415
216	0x3e439813	0.1910098
217	0x3e663fbc	0.2248525
218	0xbd04d98f	-0.032434043
219	0x3e595418	0.21223485
220	0xbe35cbe0	-0.17753553
221	0xbe745ac1	-0.23862745
222	0xbde46edf	-0.111539595
223	0x3e15dccd	0.1463501
224	0xbe5d25a5	-0.21596391
225	0xbd06d825	-0.032920975
226	0x3de5f13d	0.11227653
227	0xbe09764e	-0.13424036
228	0x3e1fe4cb	0.15614621
229	0x3dcaad3d	0.09896324
230	0x3e1e07f5	0.15432723
231	0xbe70b353	-0.23505907
232	0xbdc97cf7	-0.09838288
233	0xbc5fbbdd	-0.01365563
234	0xbdf4ca50	-0.119526505
235	0x3e0a8989	0.13529028
236	0xbdc6ded6	-0.09710471
237	0xbe565b6e	-0.20933315
238	0xbe483f3c	-0.19555372
239	0x3d547157	0.0518659
240	0x3e6a161f	0.22860001
241	0x3e12ed56	0.14348349
242	0x3d79f0de	0.061020724
243	0xbe28e511	-0.16493632
244	0xbe5af915	-0.2138408
245	0xbe34adfe	-0.17644498
246	0x3e14a5a9	0.1451632
247	0xbdbf981f	-0.09355187
248	0x3e838197	0.25684807
249	0x3e0e3cee	0.1389043
250	0xbd3e40a5	-0.04644837
251	0xbcffb6ab	-0.031215033
252	0x3d59682d	0.053077865
253	0x3d0663b5	0.03280993
254	0x3d7ebc61	0.06219137
255	0xbe1954b0	-0.14973712

layers.4.bias f4 [20]
0	0xbe2a5520	-0.16634035
1	0x3eb4909b	0.35266575
2	0x3e4569fa	0.19278708
3	0x3e1fc508	0.15602505
4	0xbd587a52	-0.05285103
5	0x3df30bd3	0.1186749
6	0x3e1e0e16	0.15435061
7	0xbd94a817	-0.07258623
8	0xbe7ac613	-0.24489622
9	0x3e6224f6	0.22084412
10	0x3e150531	0.14552762
11	0xbe1c6798	-0.15273893
12	0xbdd58ad5	-0.10426871
13	0xbe86772e	-0.26262802
14	0x3cb01c44	0.021497853
15	0xbc09bc69	-0.008406737
16	0xbc2c6919	-0.010523104
17	0xbe3f4496	-0.18678507
18	0xbd828522	-0.06373049
19	0x3ed097e4	0.40740883

layers.6.weight f4 [20, 20]
0	0xbd152448	-0.036411554
1	0xbef8f653	-0.4862543
2	0xbeaeade6	-0.3411705
3	0xbdaebb3a	-0.085318044
4	0xbe2055eb	-0.15657775
5	0xbe47ec9c	-0.19523853
6	0xbd5bfe5f	-0.053709384
7	0x3e2a5b24	0.1663633
8	0xbe19ad14	-0.1500743
9	0x3e61ca64	0.22049862
10	0xbec17870	-0.377872
11	0xbd52de75	-0.051481683
12	0xbe13fbbf	-0.14451502
13	0x3de09be1	0.109672315
14	0x3d825381	0.06363583
15	0xbd293400	-0.041309357
16	0xbe821c7f	-0.25412366
17	0xbc831b49	-0.016004222
18	0xba30bcbd	-0.00067419914
19	0x3e04db63	0.12974314
20	0x3d5df67e	0.05419015
21	0xbdb8b7ba	-0.09019418
22	0x3da5139f	0.08060383
23	0xbe07865f	-0.13234852
24	0x3d96ceaa	0.07363637
25	0xbe6c6f9a	-0.23089448
26	0x3ca653e4	0.020303674
27	0x3d4e5570	0.05037445
28	0xbd3c5f04	-0.04598905
29	0xbe52dbe2	-0.20591691
30	0x3dee49c3	0.11635163
31	0xbafb9da4	-0.0019196761
32	0x3e34eae2	0.17667726
33	0xbe66e83a	-0.22549525
34	0xbdd67dd1	-0.10473216
35	0x3ec62a4b	0.38704142
36	0xbe34dcf2	-0.17662409
37	0x3e091013	0.13385038
38	0x3d034ad1	0.032053772
39	0xbd48b25e	-0.04899823
40	0xbe181bc6	-0.14854345
41	0x3dd6f0c6	0.10495143
42	0xbe79fa20	-0.24411821
43	0x39c5b8c4	0.0003771243
44	0xbdfa3545	-0.122171916
45	0x3d8bd8ca	0.068284586
46	0x3e26f4f2	0.16304377
47	0x3c754dd1	0.014972166
48	0x3d76e635	0.060278136
49	0x3d04c9a2	0.032418855
50	0x3de30687	0.11085229
51	0xbe76a7ed	-0.24087496
52	0xbd60036a	-0.054690756
53	0x3e58e9f2	0.21182993
54	0x3dacefad	0.08444152
55	0x3e89d991	0.26923802
56	0x3dab08e2	0.08351304
57	0x3e80e8e5	0.25177684
58	0x3df20629	0.11817581
59	0x3e04fd54	0.12987262
60	0xbd478188	-0.048707515
61	0xbe86beb1	-0.2631736
62	0x3db21e3e	0.086971745
63	0x3eb0f7b6	0.34563988
64	0xbe458265	-0.19288023
65	0x3e1c955f	0.15291356
66	0x3de660b2	0.11248912
67	0xbe4b2ee9	-0.19842114
68	0xbf0b437e	-0.5439986
69	0xbb83d729	-0.004023452
70	0x3de15631	0.11002768
71	0xbe615fdb	-0.22009222
72	0xbc36e754	-0.011163551
73	0xbe46340f	-0.19355796
74	0xbdb62375	-0.08893482
75	0xbeb7578c	-0.3580898
76	0xbe2e9f73	-0.17053013
77	0xbea7a971	-0.3274646
78	0xbe2ba478	-0.16761959
79	0x3ebad2f9	0.36489084
80	0xbe27e471	-0.16395737
81	0xbe91915b	-0.2843121
82	0xbdee6b8f	-0.11641609
83	0x3e8ba119	0.27271345
84	0xbe1c62c1	-0.15272047
85	0x3df46466	0.11933212
86	0xbe6fee5c	-0.2343077
87	0x3e2322c4	0.15931231
88	0xbe1a9828	-0.15097106
89	0x3e2e7bbe	0.17039391
90	0xbe2fe28e	-0.17176268
91	0x3d16e09f	0.03683531
92	0xbd42da1c	-0.047571287
93	0x3d9f526e	0.07779394
94	0x3dd29994	0.10283199
95	0xbe7c4277	-0.2463473
96	0xbe6f0a60	-0.23343801
97	0x3dfb0a72	0.12257852
98	0x3df3d521	0.119058855
99	0x3ecd9bf9	0.4015806
100	0xbe1e8b91	-0.15482928
101	0xbea7421e	-0.3266763
102	0x3dacf498	0.0844509
103	0x3e3e3792	0.18575886
104	0x3dc21500	0.09476662
105	0xbd44da42	-0.04805971
106	0xbc356576	-0.011071553
107	0xbe5528b2	-0.20816305
108	0xbf247234	-0.6423676
109	0xbe0bb6fe	-0.13644025
110	0x3d7445c8	0.05963686
111	0x3da963b2	0.082709685
112	0xbe3eb344	-0.18623072
113	0xbe7d1a3f	-0.24717043
114	0x3df3a1b6	0.11896078
115	0xbac4519f	-0.0014977938
116	0xbe093772	-0.13400057
117	0xbe299a0f	-0.16562675
118	0xbeaab140	-0.33338356
119	0x3e30bc0c	0.17259234
120	0x3d167f3e	0.03674244
121	0x3e1464db	0.14491598
122	0x3e0d8512	0.13820294
123	0x3e20c0f3	0.15698604
124	0x3e8b2859	0.2717922
125	0x3e7ba085	0.24572952
126	0x3ee217f6	0.44158906
127	0xbd69d432	-0.05708713
128	0x3f01f43c	0.507633
129	0x3db5b823	0.08873012
130	0x3a1903d4	0.0005837057
131	0x3dd6ca2a	0.104877785
132	0x3abc49f7	0.0014365305
133	0x3ed034db	0.40665326
134	0x3d27021d	0.0407735
135	0x3e3850d0	0.17999578
136	0xbe89048c	-0.26761281
137	0x3ece6e1f	0.4031839
138	0x3da561e5	0.080753125
139	0xbe7f0de7	-0.24907647
140	0xbe337231	-0.1752403
141	0x3e2041a1	0.15650035
142	0x3e5646ab	0.20925395
143	0xbe2726da	-0.16323414
144	0x3d568a80	0.052378178
145	0xbe07af26	-0.13250408
146	0xbd50c6f1	-0.050970975
147	0x3ce1b542	0.02755225
148	0x3d8243ab	0.06360563
149	0xbd31f40c	-0.04344563
150	0xbe08bb81	-0.13352777
151	0xbcae94f9	-0.02131127
152	0x3c765979	0.01503598
153	0xbdf6f264	-0.12057951
154	0xbe4e906b	-0.20172279
155	0xbe3a443f	-0.18190096
156	0x3d46a636	0.048498355
157	0xbd8bc0c5	-0.06823877
158	0xbd73e2c2	-0.059542425
159	0x3e8f1726	0.27947348
160	0x3e52f31b	0.2060055
161	0x3d8dd145	0.069246806
162	0x3e5219ac	0.20517606
163	0xbd0022a4	-0.031283036
164	0x3da8b540	0.08237696
165	0x3e8cf3da	0.27529794
166	0xbd24a64c	-0.040197656
167	0x3e9c6f0f	0.3055348
168	0x3dcb2277	0.09918683
169	0xbe39041a	-0.18067971
170	0x3da56f8f	0.08077919
171	0x3e6805f6	0.22658524
172	0x3de8d051	0.11367858
173	0xbe4401bc	-0.19141287
174	0xbd0fc225	-0.03509726
175	0x3e016e44	0.12639719
176	0x3cd837dc	0.026393823
177	0x3dd1045d	0.1020591
178	0xbd868003	-0.06567385
179	0xbbb0f1bc	-0.0053999107
180	0x3dca19fa	0.09868236
181	0x3e1639c6	0.14670476
182	0x3d0e0d7c	0.03468083
183	0xbd7f8e8a	-0.062391795
184	0xbcd8cfd6	-0.026466291
185	0xbcaa898e	-0.020817544
186	0x3e01a52e	0.12660667
187	0x3d607aff	0.0548048
188	0x3c62aa67	0.013834572
189	0x3e7875d4	0.24263698
190	0x3d991a9b	0.07475778
191	0x3bbd02b5	0.005768145
192	0xbde49516	-0.111612484
193	0x3e873416	0.26406926
194	0xbe681327	-0.22663556
195	0xbdda3565	-0.106547154
196	0xbe6dfcdb	-0.23240988
197	0xbe5b08be	-0.21390054
198	0xbd52703a	-0.05137656
199	0x3e7048f9	0.23465337
200	0x3dbf7858	0.093491256
201	0xbdcd70e9	-0.100313015
202	0x3d388d56	0.045056663
203	0xbe0de665	-0.1385742
204	0xbe59496d	-0.21219416
205	0xbb8ff7d3	-0.0043935566
206	0x3e1b5e7e	0.15172765
207	0x3aa01d37	0.0012215738
208	0x3e000e85	0.12505539
209	0x3d65a553	0.05606587
210	0x3dfe5a75	0.12419597
211	0x3c2790db	0.010227407
212	0xbe1b504c	-0.1516735
213	0xbe284124	-0.16431099
214	0xbe66ce88	-0.22539723
215	0x3e907bb4	0.28219378
216	0xbe5966ec	-0.21230668
217	0xbc959ba4	-0.018262692
218	0x3e68332d	0.22675772
219	0xbe4cc80f	-0.19998191
220	0xbd4aa3c1	-0.049472574
221	0xbea6af15	-0.32555452
222	0xbd67e50b	-0.056614917
223	0x3e2beb5b	0.16789
224	0xbe0e4a9c	-0.13895649
225	0xbe3c5523	-0.18391852
226	0xbe4faee2	-0.20281556
227	0xbe15ef03	-0.14641957
228	0xbf02872d	-0.5098751
229	0x3df43213	0.119236134
230	0x3d8930ac	0.066987365
231	0x3e2a91f4	0.16657239
232	0x3e307e9d	0.17235799
233	0xbe1dcbbd	-0.15409751
234	0x3d14827e	0.03625726
235	0xbbedac4c	-0.0072532054
236	0x3dbc7fc5	0.092040576
237	0xbe6de984	-0.2323361
238	0xbe17e5e1	-0.14833786
239	0x3e3b3c87	0.18284808
240	0x3afb2c78	0.0019163033
241	0xbd942b02	-0.072347656
242	0xbe81e1c2	-0.25367552
243	0xbe4c6d87	-0.19963656
244	0xbdf9fc97	-0.12206381
245	0xbe8a3da7	-0.27000162
246	0x3e365e0f	0.17809318
247	0xbda909e0	-0.08253837
248	0x3d6bc09b	0.05755673
249	0xbd6730d1	-0.05644304
250	0xbe79bbff	-0.24388121
251	0xbe1731a1	-0.14765026
252	0xbe515fc2	-0.20446685
253	0xbca72396	-0.02040271
254	0x3db4a84e	0.08821164
255	0x3e483e5c	0.19555038

layers.6.bias f4 [20]
0	0xbe3af440	-0.18257236
1	0xbd456c3e	-0.04819893
2	0x3e686830	0.22695994
3	0xb9a1cd88	-0.00030861446
4	0xbc9867f6	-0.01860426
5	0x3dd90461	0.10596538
6	0xbdd961e6	-0.10614376
7	0x3df1ce25	0.11806897
8	0x3e106c42	0.14103797
9	0x3e379462	0.17927697
10	0x3e18d00f	0.14923118
11	0x3d35bcfa	0.044369675
12	0xbe6a9b12	-0.22910717
13	0xbe3b390d	-0.18283482
14	0xbdeb7437	-0.114967756
15	0xbe19a567	-0.15004502
16	0xbdf8b19d	-0.12143252
17	0xbe18893a	-0.14896098
18	0xbca63ea7	-0.020293547
19	0xbc3fff89	-0.011718639

layers.8.weight f4 [20, 20]
0	0xbd690f19	-0.056899164
1	0xbe609d1e	-0.21934935
2	0x3dd4c879	0.103897996
3	0x3d2b6381	0.04184294
4	0xbdf2b58e	-0.11851035
5	0x3d92a058	0.071594894
6	0x3dc51cc7	0.096246295
7	0xbd2a91eb	-0.041643064
8	0xbe288160	-0.16455603
9	0xbca5cfef	-0.020240752
10	0xbde47d0d	-0.11156664
11	0x3e521257	0.20514809
12	0xbe4f3d0a	-0.20238128
13	0xbe2f0035	-0.17089923
14	0xbddfaaa3	-0.10921218
15	0xbdbc8d63	-0.09206655
16	0x3d7243f0	0.05914682
17	0xbe0f3b3e	-0.13987443
18	0xbe3a85a4	-0.18215042
19	0x3d074e10	0.03303343
20	0x3dea5905	0.114427604
21	0x3c79b232	0.015240239
22	0xbe3b26aa	-0.18276468
23	0x3dd7cbe0	0.10536933
24	0x3d7b7d62	0.06139887
25	0xbdc2da03	-0.09514239
26	0xbdf90039	-0.121582456
27	0xbe40196c	-0.18759698
28	0xbe6202f5	-0.2207144
29	0xbe0a8b11	-0.13529612
30	0xbd4b47df	-0.04962909
31	0x3dc1f513	0.09470572
32	0x3b7cb26f	0.0038558503
33	0xbd40815c	-0.046998367
34	0x3d955fad	0.07293639
35	0xbe3a2064	-0.18176419
36	0x3d9ba675	0.076001085
37	0xbe28d222	-0.1648641
38	0x3e47bf96	0.19506678
39	0x3e22918d	0.15875836
40	0xbd47c1cf	-0.048768815
41	0xbd3d50d6	-0.04621967
42	0x3dede473	0.11615839
43	0xbdb72ba5	-0.089438714
44	0x3de91cbb	0.11382433
45	0x3e23db69	0.16001667
46	0x3e81101e	0.2520761
47	0xbe4d027f	-0.20020483
48	0xbd6c7499	-0.057728384
49	0xbc8882c3	-0.016663915
50	0xbce36aad	-0.027760828
51	0xbe873b04	-0.26412213
52	0x3ea2f60f	0.31828353
53	0xbc7ec81a	-0.015550638
54	0xbcabe069	-0.02098103
55	0x3e8fc895	0.2808272
56	0xbdb9acd0	-0.090661645
57	0x3ca414e5	0.020029495
58	0x3e225c46	0.15855512
59	0xbc22d47c	-0.009938356
60	0x3ec00ea7	0.3751118
61	0xbd92a9c6	-0.07161288
62	0x3e0f1ded	0.1397626
63	0x3d2842b6	0.041079246
64	0x3d859250	0.065220475
65	0x3eba7ede	0.36424917
66	0xbe1648cf	-0.14676212
67	0xbc4847e7	-0.012224174
68	0xbdcab05c	-0.09896919
69	0x3d9b8f13	0.075956486
70	0xbe0ca90e	-0.13736364
71	0x3e609067	0.21930085
72	0xbc900708	-0.017581478
73	0xbc86c9e1	-0.016453685
74	0xbdbb5e37	-0.091488294
75	0x3d9a3e1b	0.07531377
76	0x3e4f489e	0.20242545
77	0x3d6b64e3	0.05746926
78	0xbe5bb9a5	-0.21457537
79	0x3e284f7e	0.16436574
80	0x3dca1f53	0.09869256
81	0xbd8e93b6	-0.069617674
82	0xbd23ed02	-0.04002095
83	0xbda9c15c	-0.082888335
84	0xbc8e7df7	-0.01739405
85	0xbd261045	-0.04054286
86	0xbd956ad8	-0.072957695
87	0x3e213ca9	0.15745796
88	0xbca28ed1	-0.01984349
89	0x3e83d5fa	0.2574919
90	0xbcc9bfcf	-0.024627594
91	0xbdb29dc5	-0.087214984
92	0x3c58fdec	0.013244133
93	0xbe27b667	-0.16378175
94	0xbe0190fc	-0.12652963
95	0xbdca7f65	-0.0988758
96	0x3ded5094	0.11587635
97	0xbea5628f	-0.32301757
98	0x3da8653a	0.082224324
99	0x3e490ea6	0.19634494
100	0xbe29df29	-0.16589035
101	0xbe8ad884	-0.27118313
102	0x3e03c2fb	0.12867348
103	0x3ea03cf8	0.31296515
104	0xbdf0013a	-0.11718984
105	0x3d3c40bb	0.04596017
106	0x3eb2b103	0.34900674
107	0xbce47c59	-0.027891325
108	0xbc522051	-0.012825088
109	0x3dd1f238	0.10251278
110	0xbe7d4c2d	-0.2473609
111	0x3dca1848	0.098679125
112	0xbdf87330	-0.12131345
113	0x3b85820d	0.004074341
114	0xbe06d600	-0.13167572
115	0xbd8454b3	-0.064614676
116	0xbd595409	-0.053058658
117	0x3de6353e	0.11240624
118	0xbd0ee0ce	-0.03488236
119	0x3df59da5	0.11992959
120	0x3e7d1f8c	0.24719065
121	0x3e7b8ae3	0.245647
122	0xbdcec105	-0.10095409
123	0xbdf766fd	-0.1208019
124	0xbde397a9	-0.11112911
125	0x3e031d37	0.12804113
126	0x3e03f81f	0.1288762
127	0x3c843c1e	0.016141947
128	0x3dfa4922	0.1222098
129	0xbe436bbe	-0.19084069
130	0x3de2c2ca	0.11072309
131	0xbe3cb7e9	-0.18429531
132	0x3da3e453	0.08002534
133	0xbe6a8821	-0.22903492
134	0x3df9b2c6	0.121923015
135	0x3daf1913	0.085497044
136	0x3d5af2c4	0.053454176
137	0xbcee9bc7	-0.029127015
138	0xbe46332c	-0.19355458
139	0x3de2f788	0.11082369
140	0xbe17d039	-0.14825524
141	0xbe387c94	-0.18016273
142	0xbe166473	-0.14686756
143	0xbc2ea4d9	-0.01065942
144	0x3e8d72e1	0.27626708
145	0x3e91642a	0.28396732
146	0xbe913fa6	-0.28368872
147	0xbe072549	-0.13197817
148	0x3dee05b8	0.116221845
149	0xbcb68efa	-0.022284973
150	0xbe014130	-0.12622523
151	0x3d12d6fa	0.03584955
152	0x3e1f9653	0.15584688
153	0x3ddb9eda	0.10723658
154	0x3d1d1228	0.038347393
155	0x3e5376b9	0.20650758
156	0x3e3f8306	0.18702325
157	0xbe8d270f	-0.27568862
158	0xbe24ca18	-0.16092718
159	0xbcae3529	-0.021265583
160	0x3e5f40a1	0.21801998
161	0xbe41d963	-0.18930583
162	0x3c10777e	0.008817552
163	0x3db1d923	0.08683994
164	0x3e124d14	0.14287215
165	0xbe338ebd	-0.17534919
166	0xbe39c119	-0.18140067
167	0x3df3e32c	0.11908564
168	0x3b2a624d	0.0025998533
169	0x3e196b94	0.14982444
170	0x3e0ca199	0.1373352
171	0xbe69b291	-0.22822024
172	0xbc59b58a	-0.013287911
173	0xbdd2706d	-0.1027535
174	0x3e85639a	0.26052552
175	0xbdb7189b	-0.0894024
176	0x3ea79033	0.32727203
177	0xbcbf3bea	-0.023343999
178	0x3e432d8a	0.1906034
179	0x3db87a88	0.09007746
180	0x3da5e9e2	0.0810125
181	0xbc733ee7	-0.01484654
182	0x3e3d6b47	0.18497954
183	0xbe10c467	-0.14137422
184	0x3e8a6b1c	0.27034843
185	0xbd8ac28e	-0.067753896
186	0xbe3f4bfe	-0.18681332
187	0x3e2ce709	0.16885008
188	0xbe073161	-0.1320243
189	0x3c346d69	0.011012414
190	0x3da390c6	0.07986598
191	0x3c5fdf16	0.013664028
192	0x3d4d9a9e	0.050196283
193	0xbc59b664	-0.013288114
194	0x3e0a5142	0.1350756
195	0x3e8b185c	0.27167022
196	0x3e261e53	0.16222505
197	0xbd6c8cfa	-0.057751633
198	0xbd9b3fde	-0.07580541
199	0x3e3e002b	0.18554752
200	0x3e95c348	0.2925055
201	0x3e5e6f2b	0.21722095
202	0x3e947b54	0.29000342
203	0xbdbe92c2	-0.093053356
204	0xbdbbd8ef	-0.09172236
205	0x3d5b749e	0.05357801
206	0xbd83a09c	-0.06427118
207	0x3d77f8b3	0.060539912
208	0xbd63413e	-0.05548214
209	0x3dc6f331	0.09714354
210	0x3e77a71b	0.2418484
211	0x3d2cd179	0.042191956
212	0x3ccf1dde	0.025282796
213	0xbdca7b01	-0.098867424
214	0xbe4223c5	-0.18958957
215	0xbc74c7d8	-0.014940225
216	0x3e9118c1	0.28339198
217	0x3e812b77	0.25228474
218	0x3e2849ea	0.16434446
219	0x3d2e572d	0.042563606
220	0x3e8a56be	0.27019304
221	0x3c47531d	0.012165812
222	0x3e048195	0.12940057
223	0xbe0d9bb7	-0.13828932
224	0xbd073dbf	-0.03301787
225	0xbe343c99	-0.17601241
226	0xbdf47b03	-0.11937525
227	0xbba0298f	-0.0048877667
228	0x3db8f340	0.09030771
229	0x3e084696	0.13308176
230	0x3e976330	0.29567862
231	0xbe3c8954	-0.18411762
232	0x3e52c705	0.20583732
233	0xbd5a092e	-0.05323141
234	0x3d56da19	0.052454088
235	0x3c0acf25	0.008472239
236	0x3dbf04a1	0.09327055
237	0x3daad6fd	0.08341787
238	0x3d67a43b	0.056553107
239	0xbe1c2ba1	-0.15251018
240	0x3e710156	0.23535666
241	0xbd390b04	-0.04517652
242	0xbdd2883c	-0.10279891
243	0x3e766994	0.24063712
244	0x3e7777e4	0.24166828
245	0x3e98e998	0.29865718
246	0xbeaac91e	-0.33356565
247	0xbd08cf4f	-0.03340083
248	0xbdc979b4	-0.09837666
249	0xbdd34ad9	-0.103170104
250	0xbe3511a3	-0.17682509
251	0x3dcd05e4	0.10010889
252	0x3cf2db8e	0.029645707
253	0x3e717b0a	0.23582092
254	0xbded31ba	-0.1158175
255	0x3e5c6c0d	0.21525593

layers.8.bias f4 [20]
0	0x3e3a350b	0.18184297
1	0xbdbf6200	-0.09344864
2	0xbde7aeee	-0.11312662
3	0xbdbc94d8	-0.09208077
4	0xbd96b096	-0.073579
5	0xbe0dc6f1	-0.13845421
6	0x3e50cc95	0.20390542
7	0xbe20862f	-0.15676187
8	0xbd08134d	-0.03322153
9	0xbd99ae2b	-0.07503923
10	0x3cfa9cda	0.03059237
11	0x3d4d2939	0.05008814
12	0xbde83fcd	-0.11340294
13	0x3d68814c	0.056763932
14	0x3cb445de	0.022005972
15	0x3d7e675c	0.06211029
16	0xbcb43c8c	-0.022001527
17	0x3e845bbf	0.25851247
18	0xbd8035f8	-0.06260294
19	0x3d34ecfa	0.04417131

layers.10.weight f4 [20, 20]
0	0xbdd8d46d	-0.10587392
1	0xbcc68481	-0.024233105
2	0x3c645ce7	0.013938165
3	0x3e3879e7	0.18015252
4	0x3ca1b9aa	0.019741852
5	0x3c99d208	0.018776909
6	0xbd3730ab	-0.044724148
7	0xbd95ff0c	-0.07324037
8	0xbe142b87	-0.1446973
9	0x3de29cb4	0.11065045
10	0xbe9d89a6	-0.3076908
11	0xbe94a68c	-0.29033315
12	0xbbead8f8	-0.007166978
13	0x3e38019d	0.17969365
14	0x3dad8d02	0.08474161
15	0x3e5ae09e	0.21374747
16	0xbd0efb88	-0.034907848
17	0xbd511253	-0.051042866
18	0xbd01bd19	-0.03167448
19	0x3da8ca36	0.08241694
20	0x3cad3cac	0.021147095
21	0xbdeab8c2	-0.11461021
22	0xbe5b20e7	-0.2139927
23	0xbdc6b463	-0.09702375
24	0x3ea8ec8e	0.32992977
25	0xbdb1bb5f	-0.08678316
26	0x3c9e52b5	0.019326547
27	0x3eb1b9ac	0.3471197
28	0x3de7ef9d	0.113249995
29	0x3d7759a7	0.060388234
30	0xbe85985c	-0.26092803
31	0xbe6a28c9	-0.22867121
32	0x3eb47ec3	0.35252962
33	0x3e3efae8	0.186504
34	0xbc7ff779	-0.015622967
35	0xbc9927d2	-0.018695746
36	0xbe6056d8	-0.21908128
37	0xbea7e228	-0.3278973
38	0xbd590b29	-0.05298916
39	0xbe88f037	-0.2674577
40	0x3db3d975	0.08781711
41	0xbd9e1e49	-0.0772062
42	0x3cd44b4f	0.025914816
43	0x3e3e14a2	0.18562558
44	0xbd07cf9d	-0.03315698
45	0x3d8a621d	0.06756995
46	0x3dfc0e11	0.123073705
47	0x3e1ecbb6	0.15507397
48	0xbde8633b	-0.11347052
49	0x3e51d0e1	0.20489837
50	0xbd11dbb9	-0.035609934
51	0x3e2ba5f1	0.1676252
52	0x3e190f89	0.14947332
53	0xbbf2e83a	-0.0074129375
54	0x3e41c73a	0.18923655
55	0xbd8c781e	-0.06858848
56	0x3e35dc40	0.177598
57	0x3cc0bd38	0.023527727
58	0xbe533b6c	-0.20628136
59	0x3d80b089	0.062836714
60	0x3dca6683	0.09882834
61	0x3e605133	0.21905975
62	0xbe00182e	-0.12509224
63	0xbe785332	-0.24250486
64	0xbeaf4b92	-0.34237343
65	0xbe642548	-0.22279847
66	0x3e098fc8	0.13433754
67	0xbeb860e6	-0.36011428
68	0xbca19306	-0.019723427
69	0xbc035745	-0.008016412
70	0x3dcd3881	0.10020543
71	0x3e3822cb	0.17982022
72	0xbd8be5fb	-0.06830975
73	0x3e1deaef	0.15421651
74	0x3c6e3bb2	0.0145406
75	0xbeeab77f	-0.4584312
76	0x3d0c86c8	0.034308225
77	0xbdc7f362	-0.097632185
78	0x3eefab44	0.46810353
79	0x3d8dc100	0.069215775
80	0x3d5d6cc3	0.0540588
81	0x3db3350c	0.08750352
82	0xbc85d437	-0.016336543
83	0xbd8d502e	-0.06900059
84	0xbc7ae800	-0.015314102
85	0xbe0a247f	-0.13490485
86	0xbe484d80	-0.19560814
87	0x3e449cf1	0.19200493
88	0x3c4ebe0d	0.012618554
89	0x3e4740cf	0.19458316
90	0xbd4c5b6d	-0.049891878
91	0xbe3c69d3	-0.18399744
92	0x3d07107e	0.032974713
93	0xbcf86df4	-0.030325867
94	0xbe2dc749	-0.16970553
95	0x3dcfdbca	0.10149343
96	0xbe298636	-0.16555104
97	0x3e220089	0.15820517
98	0xbd7d1790	-0.06179005
99	0xbe1a65a3	-0.15077834
100	0x3d934e32	0.07192649
101	0x3e0d358f	0.13789962
102	0x3e378595	0.17922051
103	0x3e13c97e	0.14432332
104	0x3cfb2c4b	0.030660769
105	0xbe634166	-0.22192916
106	0xbdbca658	-0.09211415
107	0x3de902ca	0.11377485
108	0x3e6157b4	0.22006112
109	0x3e9f7701	0.3114548
110	0x3e462041	0.19348241
111	0x3e1b96d3	0.15194254
112	0x3dc0e977	0.0941953
113	0xbe11f65b	-0.14254133
114	0x3e284ef6	0.16436371
115	0x3db613c8	0.08890492
116	0xbe2f692d	-0.17129965
117	0xbe27a1ad	-0.16370268
118	0xbdb7dad8	-0.08977288
119	0xbc2c362a	-0.010510961
120	0x3d9f8b6c	0.077902645
121	0xbd5c1991	-0.05373532
122	0x3e716828	0.23574889
123	0xbe883f45	-0.2661077
124	0xbe8714a5	-0.26382938
125	0x3e113a89	0.14182486
126	0x3e4a9556	0.1978353
127	0xbe2669a0	-0.1625123
128	0xbe397a49	-0.18113054
129	0xbe51f658	-0.20504129
130	0x3d6b6d16	0.05747708
131	0x3e45935a	0.19294491
132	0xbdd18a0e	-0.1023141
133	0x3e130d54	0.14360553
134	0x3e1a6cf3	0.15080623
135	0xbe10557f	-0.14095114
136	0x3dd6fc77	0.104973726
137	0xbe191ae1	-0.1495166
138	0x3daf205a	0.085510924
139	0x3e6caf91	0.23113848
140	0x3dfb9309	0.12283904
141	0x3e4ad993	0.1980956
142	0x3ce29d08	0.027662769
143	0xbda34301	-0.07971764
144	0xbcdbabcd	-0.02681532
145	0x3e3a3fd4	0.18188411
146	0x3e1c35d3	0.15254907
147	0x3d8f9454	0.07010713
148	0xbe17c1c1	-0.14820005
149	0x3daf44aa	0.085580185
150	0x3decf7d4	0.11570707
151	0x3ddc68dd	0.107621886
152	0x3e2c5ff2	0.16833475
153	0x3d70a140	0.05874753
154	0x3e373a49	0.17893328
155	0xbdc97498	-0.098366916
156	0xbe292c19	-0.16520728
157	0xbe39fcfd	-0.18162914
158	0xbe48ed7e	-0.19621846
159	0xbe8570cc	-0.2606262
160	0xbc91059c	-0.01770287
161	0x3c50ffbd	0.012756285
162	0x3e1d8f37	0.15386663
163	0x3bd15bfc	0.006389139
164	0xbdbe69de	-0.09297536
165	0x3e26e0ce	0.16296694
166	0x3d7f709d	0.062363256
167	0xbd854531	-0.06507338
168	0xbd3b44a9	-0.045719776
169	0x3c838b93	0.016057765
170	0x3eb8254d	0.35965958
171	0x3e13bc37	0.14427267
172	0xbe3dc36e	-0.18531582
173	0x3dee9b02	0.11650659
174	0x3e63b580	0.22237206
175	0xbecb52c5	-0.39711586
176	0x3de278ef	0.110582225
177	0xbd1b01e9	-0.03784362
178	0x3f0cd025	0.55005103
179	0x3e8a7f3b	0.27050194
180	0x3d847ea5	0.06469468
181	0xbd91631d	-0.070989825
182	0xbe99c3f0	-0.300323
183	0x3d0e91b2	0.034806915
184	0x3e802ae8	0.25032735
185	0x3cee4df2	0.029089902
186	0xbdf5ee1a	-0.12008305
187	0x3e9ab786	0.30218142
188	0x3dcc3f0e	0.09972964
189	0xbd85fb7a	-0.06542106
190	0xbd80be07	-0.06286245
191	0xbe3b21c6	-0.18274602
192	0xbd03d40c	-0.032184646
193	0xbe182b35	-0.14860232
194	0xbe81ca14	-0.25349486
195	0x3e7aa076	0.24475273
196	0x3dd579d0	0.104236245
197	0x3d9757a5	0.07389764
198	0x3c3b6d03	0.011439565
199	0x3d1d8677	0.038458314
200	0xbdcb8891	-0.09938157
201	0xbca358c1	-0.019939782
202	0x3de12d07	0.109949164
203	0x3e6fd78d	0.2342207
204	0xbd3cb341	-0.046069387
205	0xbe3e4c1b	-0.1858372
206	0xbe31e9df	-0.17374371
207	0x3e1ccbd5	0.15312131
208	0xbd019483	-0.031635772
209	0x3e190634	0.14943773
210	0x3dee418e	0.11633597
211	0x3e6c7c12	0.23094204
212	0xbe190527	-0.14943372
213	0xbddb9ab4	-0.10722867
214	0x3e143b8f	0.14475845
215	0x3ca4a5ed	0.02009865
216	0xbe83ba7b	-0.2572821
217	0xbde1c5c8	-0.11024052
218	0xbbfde066	-0.0077476976
219	0x3dfe0a86	0.12404351
220	0x3dd5c5d0	0.1043812
221	0xbdca4bb8	-0.098777235
222	0x3dd41159	0.10354871
223	0xbe38911b	-0.18024103
224	0xbdfc74a1	-0.12326933
225	0xbe493529	-0.19649185
226	0xbbb6cf8b	-0.0055789403
227	0xbea28041	-0.31738475
228	0xbd0a512a	-0.03376881
229	0xbcd8f8fe	-0.026485916
230	0xbdc66a40	-0.09688234
231	0xbdb09340	-0.08621836
232	0x3d94e7e1	0.0727079
233	0xbe7f3b30	-0.24924922
234	0xbbd48970	-0.0064861104
235	0x3d668afc	0.05628489
236	0x3b0c3947	0.0021396445
237	0x3e1a36c1	0.1505995
238	0xbd19f5df	-0.037587997
239	0x3daccad7	0.08437126
240	0xbb73d8a5	-0.0037207988
241	0xbac84cf6	-0.0015281725
242	0xbe681b87	-0.22666751
243	0xbe2f1127	-0.17096387
244	0x3ea83ae1	0.3285742
245	0xbdccac14	-0.09993759
246	0xbdb52d24	-0.088465005
247	0xbce6237b	-0.02809309
248	0xbe09dcc8	-0.13463128
249	0xbdc258fd	-0.094896294
250	0xbd36a54c	-0.044591233
251	0xbdc8f3bf	-0.09812116
252	0x3e35ede3	0.17766528
253	0xbd40cfaf	-0.047073063
254	0xbe359471	-0.17732407
255	0x3e7a97eb	0.24472015

layers.10.bias f4 [20]
0	0xbe5da3fc	-0.21644586
1	0xbe5469fa	-0.20743552
2	0x3e20d30f	0.15705512
3	0xbc66ed28	-0.014094628
4	0xbe48166d	-0.19539805
5	0x3d2a8b9f	0.04163706
6	0x3dfd8d13	0.123804234
7	0xbe2558d6	-0.1614717
8	0xbe94901b	-0.29016194
9	0x3ea448c3	0.32086763
10	0xbe0beb92	-0.13664082
11	0xbdb7e41d	-0.08979056
12	0x3c969734	0.018382646
13	0x3e84acfc	0.25913227
14	0xbe2d9ff8	-0.16955554
15	0xbe5b30ff	-0.2140541
16	0xbe2b8c3b	-0.16752712
17	0x3e5f1b8d	0.21787854
18	0x3e4403ad	0.19142027
19	0x3dc1b9c9	0.09459264

layers.12.weight f4 [20, 20]
0	0x3e7daf45	0.24773891
1	0x3e2071ce	0.15668413
2	0x3d0e00d6	0.034668766
3	0xbe35957d	-0.17732807
4	0x3e83b6f2	0.25725514
5	0xbe0ea00e	-0.13928244
6	0x3d9585c0	0.073009014
7	0x3a0659ce	0.0005125076
8	0xbe2e701c	-0.17034954
9	0xbc92db07	-0.017926706
10	0x3e010a00	0.12601471
11	0x3d78ca22	0.060739644
12	0xbd730f58	-0.059340805
13	0xbe7865f1	-0.24257638
14	0x3e0cc974	0.13748723
15	0xbe01cfba	-0.12676898
16	0xbe3ba365	-0.18324049
17	0xbe230061	-0.15918113
18	0xbe315451	-0.1731732
19	0xbc9db84c	-0.019252919
20	0x3e2ad31e	0.16682097
21	0x3e0c0e9c	0.13677448
22	0x3d920ce4	0.07131365
23	0x3d04074a	0.032233514
24	0xbe4422c3	-0.19153886
25	0x3e382b51	0.17985274
26	0x3e0e3d2e	0.13890526
27	0xbd8a17a4	-0.0674279
28	0x3b74e76f	0.003736939
29	0x3d993a79	0.07481856
30	0x3e418a69	0.18900456
31	0xbd9f85a6	-0.07789163
32	0x3ccd9fb9	0.025100576
33	0xbe649149	-0.22321047
34	0xbe6b4b50	-0.22977948
35	0xbdd76ad8	-0.10518426
36	0xbd0f2981	-0.03495169
37	0xbdf707eb	-0.12062057
38	0x3e2a6421	0.16639759
39	0xbe411ed6	-0.18859419
40	0xbdc8af93	-0.09799113
41	0x3ec57069	0.38562325
42	0xbe240c89	-0.16020407
43	0xbe32b9ce	-0.17453691
44	0x3eadd335	0.339502
45	0xbd729675	-0.05922552
46	0xbeeae29f	-0.45876023
47	0xbe4428f0	-0.19156241
48	0x3e3310f7	0.1748694
49	0x3e1ceeaf	0.15325426
50	0xbe0a2b11	-0.13492991
51	0xbc93d15e	-0.01804417
52	0x3ec83517	0.39103004
53	0xbea39071	-0.31946138
54	0xbd9250c4	-0.07144311
55	0xbca7aa31	-0.020466896
56	0x3db58ad2	0.088643685
57	0xbb9e3d1f	-0.0048290635
58	0xbe831fed	-0.25610295
59	0x3e454d86	0.19267854
60	0xbde301c2	-0.1108432
61	0x3ec578be	0.3856868
62	0x3e8d4f4a	0.27599555
63	0xbe3cf37d	-0.18452258
64	0x3ea4a1bc	0.32154644
65	0x3eb5eab0	0.35530615
66	0xbefbc07a	-0.49170285
67	0xbde7cb2d	-0.113180496
68	0xbe78817e	-0.24268147
69	0x3e7314f5	0.23738463
70	0xbe0cfac5	-0.13767536
71	0x3e8f558e	0.2799496
72	0xbce86091	-0.028366359
73	0xbd825fee	-0.063659534
74	0x3ccb852d	0.024843777
75	0xbe5708e7	-0.2099949
76	0x3db4b0fa	0.08822818
77	0x3dddc0aa	0.108277634
78	0xbea65ef3	-0.32494316
79	0x3eabb472	0.33536106
80	0xbdecb1d6	-0.11557357
81	0x3d3a18f9	0.045433972
82	0xbe016391	-0.12635638
83	0x3deb08a3	0.11476257
84	0x3e8f4f36	0.2799012
85	0xbc8e78d2	-0.017391596
86	0xbe28c96c	-0.16483086
87	0x3e1391e8	0.14411128
88	0xbe4eeaf2	-0.20206812
89	0x3e3f51d6	0.18683562
90	0x3d8a3d47	0.06749969
91	0x3e3bc925	0.1833845
92	0x3e94eb8e	0.29085964
93	0xbdd9d49a	-0.10636254
94	0xbdc86c95	-0.097863354
95	0xbd58147d	-0.052753914
96	0x3e12484a	0.14285389
97	0x3e20593e	0.15659043
98	0xbe3538de	-0.17697474
99	0xbddff61b	-0.10935613
100	0x3d9caf93	0.076506756
101	0xbe4cf946	-0.20016965
102	0x3c426d56	0.011866888
103	0x3e4b9b38	0.1988343
104	0xbe4e307f	-0.20135687
105	0xbeb3160a	-0.34977752
106	0x3e94c702	0.2905808
107	0xbe45fa0a	-0.19333664
108	0x3da91b87	0.082572035
109	0x3e34d6e8	0.17660105
110	0xbca71ad3	-0.020398533
111	0xbe4133f1	-0.1886747
112	0xbe986051	-0.29760984
113	0x3eb2e91d	0.34943476
114	0xbdde1198	-0.108431995
115	0xbdf3cbb2	-0.11904086
116	0x3e66930e	0.22517034
117	0x3e00d3c8	0.12580788
118	0x3c536ab4	0.012903858
119	0x3dd4f121	0.10397554
120	0x3dec849b	0.1154873
121	0x3dba9de1	0.09112144
122	0xbd79fd1f	-0.06103241
123	0xbe592502	-0.21205524
124	0x3e8a1a94	0.26973403
125	0x3e8d0a17	0.2754676
126	0xbea483de	-0.32131857
127	0x3d512b95	0.051066954
128	0xbe691a0e	-0.22763845
129	0x3e3f5782	0.18685725
130	0xbe6341dd	-0.22193094
131	0xbdca06a4	-0.09864548
132	0x3dd35480	0.103188515
133	0xbe90ee23	-0.28306684
134	0x3d0f8994	0.035043314
135	0xbe5aa1d6	-0.21350798
136	0xbe4fe94b	-0.20303838
137	0x3e4fa17a	0.20276442
138	0x3d17cf35	0.037062842
139	0x3dd1303e	0.102142796
140	0x3ca465d1	0.020068081
141	0x3dcecc1a	0.10097523
142	0x3e3294b4	0.17439538
143	0xbe8adea0	-0.27122974
144	0xbd5e20cf	-0.054230507
145	0xbdca0864	-0.09864882
146	0x3e275219	0.16339912
147	0x3e5c3dad	0.21507902
148	0x3d371cda	0.04470525
149	0xbde93219	-0.113865085
150	0x3db623b1	0.08893526
151	0x3e10c902	0.14139178
152	0xbca5c7f2	-0.020236943
153	0xbdc1fb4d	-0.0947176
154	0x3e32880e	0.17434713
155	0xbe018dc3	-0.12651734
156	0x3e71f056	0.23626837
157	0x3e425da2	0.1898103
158	0x3ce3efbf	0.02782428
159	0xbe10191b	-0.14072077
160	0x3e9116a9	0.283376
161	0x3dd181ee	0.1022986
162	0xbe2c823b	-0.16846554
163	0xbe0b309d	-0.13592763
164	0x3e38abaf	0.18034242
165	0x3c9f9bfe	0.019483563
166	0xbe84ac30	-0.2591262
167	0x3c090a59	0.0083642835
168	0x3e51bc11	0.20481898
169	0x3dbbdd08	0.09173018
170	0xbd09ee7d	-0.033674706
171	0xbd95571a	-0.07292004
172	0x3e064f45	0.13116176
173	0xbe7f4633	-0.24929123
174	0x3e1fa22d	0.15589209
175	0xbc429ffe	-0.011878965
176	0x3e2da59a	0.16957703
177	0xbe473061	-0.19452049
178	0xbe3b12ad	-0.18268843
179	0xbe17d5c7	-0.14827643
180	0xbdb60efa	-0.08889575
181	0xbe940092	-0.28906685
182	0xbd51ed68	-0.0512518
183	0x3e3f990a	0.18710724
184	0xbdee6bb1	-0.11641634
185	0x3da9497b	0.082659684
186	0x3e79f493	0.24409704
187	0x3d6b8ecb	0.057509225
188	0xbce2d4e8	-0.027689412
189	0x3dadc2af	0.084843986
190	0x3e8eb98c	0.27875936
191	0xbdced93c	-0.10100028
192	0x3d668e1e	0.056287877
193	0x3e83fc24	0.25778306
194	0xbde1292d	-0.10994182
195	0xbe19b7eb	-0.15011565
196	0x3e6abcd9	0.22923602
197	0xbe556c54	-0.20842105
198	0x3e1e20c7	0.15442191
199	0xbe55deab	-0.20885722
200	0xbe297fb6	-0.16552624
201	0xbe7b20c1	-0.24524213
202	0xbdbc53ed	-0.09195695
203	0x3e5845a8	0.21120322
204	0x3cd546ef	0.0260348
205	0xbd774fb4	-0.060378745
206	0x3e5fa267	0.21839295
207	0xbd936ea8	-0.071988404
208	0xbcd40bc7	-0.025884522
209	0xbd080204	-0.033205047
210	0x3ea0004c	0.31250226
211	0xbe6c3dda	-0.2307047
212	0xbd05857e	-0.03259801
213	0x3e8c5416	0.27407902
214	0x3e2798bb	0.16366856
215	0x3dd87ff9	0.10571284
216	0xbc779ed4	-0.015113551
217	0xbdba46b1	-0.090955146
218	0x3dd66768	0.10468942
219	0xbde34f6b	-0.11099132
220	0xbe3660a1	-0.17810299
221	0xbdfa8015	-0.12231461
222	0xbe6e9651	-0.23299529
223	0xbe4ae226	-0.19812831
224	0xbeaa0e46	-0.33214015
225	0xbe39fc78	-0.18162715
226	0x3e57acf7	0.21062075
227	0x3e06850b	0.1313669
228	0xbe5ac020	-0.21362352
229	0x3d44389b	0.047905546
230	0xbdcd3cd1	-0.100213654
231	0xbd269fe5	-0.04067983
232	0x3c092172	0.00836979
233	0x3df8cc0c	0.12148294
234	0xbe63d54c	-0.22249335
235	0x3e1765f6	0.14784989
236	0x3ea03f3d	0.31298247
237	0xbe771122	-0.2412763
238	0xbcaeba06	-0.021328937
239	0xbdb1ae4c	-0.086758226
240	0x3de10486	0.10987191
241	0x3e403478	0.18770015
242	0x3e5ff633	0.21871261
243	0xbdea71bb	-0.114474736
244	0x3d02b0fb	0.031907063
245	0x3c9249af	0.0178574
246	0x3e15fa3e	0.14646241
247	0x3e030b4c	0.12797278
248	0x3e008b72	0.12553194
249	0xbd962658	-0.07331532
250	0xbe35c488	-0.17750752
251	0xbd27bcec	-0.040951654
252	0x3e5a2f31	0.21307065
253	0xbc898107	-0.016785158
254	0x3d4461cd	0.047944833
255	0xbd9b27fb	-0.07575985

layers.12.bias f4 [20]
0	0x3d833886	0.06407265
1	0x3e4d01c1	0.200202
2	0xbe9e3aad	-0.3090414
3	0xbdead58e	-0.114665136
4	0xbc6a5ef5	-0.014304866
5	0xbc7cacb3	-0.015422034
6	0xbab586d3	-0.0013849385
7	0xbda27405	-0.07932285
8	0xbce77812	-0.028255496
9	0x3dbba968	0.09163171
10	0xbc27f681	-0.010251642
11	0x3e299f9c	0.16564792
12	0x3de6376a	0.11241038
13	0xbb64fee5	-0.0034941968
14	0xbd7b4ccd	-0.06135254
15	0xbca6d6fc	-0.020366184
16	0xbd64032e	-0.055667095
17	0xbc393b8d	-0.011305702
18	0x3e89f125	0.2694179
19	0x3e29f48f	0.16597198
