Models_Data_Figures/BURGERS/Burgers_Collocation/Models/60_45.pth (torch, 17524 bytes, 17 tensors)

layers.0.weight f4 [20, 2]
000000 3a f3 dc be f9 05 6c be 93 61 15 bf 11 aa 40 bf
       -0.43154317 -0.23049153 -0.5835201 -0.752595
000010 5d 89 0c bf 61 a7 ea bd 2a a0 8d be fa a1 03 3f
       -0.548971 -0.11457706 -0.27661258 0.5141903
000020 00 3f 83 3e 19 91 cd 3e 56 92 f7 be 6d ff 28 bf
       0.25634003 0.40149763 -0.48353833 -0.6601475
000030 13 9c 7d be 97 c0 29 3e 18 77 fa 3e f8 49 7a 3d
       -0.24766569 0.16577373 0.48918986 0.0611057
000040 d1 1e cf be 1a a7 a4 3e 45 77 c8 be dd 8b 95 bd
       -0.404532 0.32158738 -0.39153495 -0.073020674
000050 84 78 82 3e eb 89 a5 3e 7c 9b 23 3f 1c 9d db be
       0.2548257 0.32331786 0.63909125 -0.42893302
000060 67 47 da be 47 92 82 3e a9 7d 90 3e 82 0d e7 3d
       -0.426326 0.25502226 0.2822087 0.11281873
000070 04 c8 4e bf 05 3e bc 3e 0a cb 05 3f fd 50 9a 3e
       -0.8077395 0.36766067 0.5226294 0.30139914
000080 e2 6d 89 bf 00 d0 3d be e2 d4 6d 3e fb d2 c9 3d
       -1.0736659 -0.18536377 0.2322574 0.098546945
000090 49 d0 6d be 19 ee bf 3e d0 0b 84 3e d3 bc 63 3e
       -0.23223986 0.37486342 0.25790262 0.2224

layers.0.bias f4 [20]
000000 c8 8e 97 be 51 9a db be 16 5b b2 be 5c 57 65 3e
       -0.2960112 -0.42891172 -0.34835118 0.22396606
000010 44 df 44 3f 27 8a e7 be ee 00 94 3e 10 0a 09 bf
       0.76903176 -0.4522259 0.2890696 -0.5353098
000020 67 6d 2d bf bc fd 8c bd 39 2d a7 be e8 8b 88 bf
       -0.6774506 -0.068843335 -0.3265169 -1.0667696
000030 e8 84 38 be a4 4d e3 3e 8c 4b 3e 3e 03 08 b3 bd
       -0.1801945 0.44395173 0.18583506 -0.087417625
000040 c3 ad b2 be f5 4a 4c be a7 df 54 3f b6 69 9f be
       -0.34898195 -0.19950469 0.83153766 -0.3113534

layers.2.weight f4 [20, 20]
000000 b8 e6 76 be df 67 98 bd 70 bf b9 3d 39 97 38 3e
       -0.2411145 -0.07441687 0.09069717 0.18026437
000010 db 2f 8a be 2b 65 93 bd d6 c1 14 bf 72 49 53 be
       -0.26989636 -0.07197031 -0.5810827 -0.20633486
000020 3d b3 7a be 97 a8 d9 3d 80 cf 5e be e7 6a 95 3e
       -0.24482436 0.10627859 -0.21758842 0.29183123
000030 80 1f 96 bd 0e 26 04 3e 37 1d 1d 3e 9d 9f ba 3e
       -0.07330227 0.12905142 0.15343176 0.364499
000040 84 b6 43 3d 07 f5 b8 bc df ba b8 3e b3 98 d1 be
       0.047781482 -0.022577776 0.3608007 -0.40936813
000050 98 69 2c 3e 47 f8 b8 3e 09 8a 4a 3f ec 93 bf bd
       0.16837156 0.3612692 0.79116875 -0.09354386
000060 e2 6c 57 3e 09 76 71 3e 8c b4 7c bd a1 36 40 bf
       0.21037629 0.23580183 -0.06169562 -0.7508336
000070 0f 5a 20 3f 4d bf 02 bf 0b 4f 7f 3e fa c2 a3 be
       0.6263742 -0.5107315 0.24932496 -0.31984693
000080 9c 25 f0 be f8 5b c6 be 8d fd a1 3e d3 aa 47 3f
       -0.46903694 -0.38742042 0.31638756 0.7799503
000090 ed 4b 6e 3f 67 36 f7 3e 21 b0 a9 be d6 1b 12 3e
       0.93084604 0.48283693 -0.33142188 0.14268431
0000a0 11 43 2a be 3d 8c e1 3d 6b 8e 51 3d 2d 44 c3 3e
       -0.16627146 0.110130765 0.05116121 0.38137951
0000b0 4d 31 8a be 32 70 34 be a0 85 0b bf e4 09 96 3e
       -0.2699074 -0.17620924 -0.5450077 0.2930442
0000c0 ad 40 4e be 1a 93 cf 3d 22 37 04 bd 75 82 b0 3d
       -0.2014186 0.10135479 -0.03227914 0.08618633
0000d0 b1 4a 24 3d ae 52 e4 3e fe b6 e8 3d 7b 17 96 be
       0.040110294 0.4459433 0.11363028 -0.2931479
0000e0 c1 6b 54 bc 48 44 59 be 35 39 d8 3e 4f ef 1a 3d
       -0.012965144 -0.21217453 0.42231146 0.03782588
0000f0 46 14 84 bd f8 01 9d 3e 59 e2 9f 3c 5c 2d 73 bd
       -0.06449179 0.30665565 0.01951711 -0.05936943
000100 ca d1 b5 be b0 84 2f 3c 18 d7 c0 be 81 25 6e 3e
       -0.3551162 0.0107127875 -0.37664104 0.23256494
000110 d0 a3 78 3e f1 b8 98 bd f2 5b 10 be 13 5d 09 be
       0.2428124 -0.0745715 -0.14097574 -0.13414411
000120 a9 a4 7c be ff 18 6f 3e e3 d9 fa bd aa 98 26 be
       -0.24672188 0.23349379 -0.1224859 -0.16269174
000130 1a ea 1f be 30 68 06 be 82 72 ba 3d 3b 90 b7 bd
       -0.15616646 -0.13125682 0.09103872 -0.08963057
000140 20 80 51 3a 04 fc bb 3e d7 bd 55 be 2e 54 1e bc
       0.00079918094 0.3671571 -0.208732 -0.009663625
000150 bc a2 d4 3e bc 71 37 3e 7e 7a 72 be 72 87 42 3e
       0.41530406 0.1791448 -0.2367954 0.18996981
000160 a4 8a 93 bd ba f5 33 bd 39 ee 3d 3e 4f ce 14 be
       -0.07204178 -0.043935515 0.18547906 -0.14531825
000170 e3 05 61 3e e9 6a e3 3d a2 d5 25 bf 67 7c a7 3c
       0.21974902 0.11104376 -0.647791 0.020445062
000180 15 6a ff be e5 ab 54 3e f2 7b 4f 3e a0 90 1c 3e
       -0.49885622 0.20768698 0.20262125 0.15289545
000190 a4 ae 2c bc 71 5b e0 3e df 89 1d bf a9 2b d6 be
       -0.010539684 0.43819764 -0.615385 -0.41830185
0001a0 7e 54 91 3d 67 32 31 3f 23 4f 15 bf 46 94 51 3f
       0.07096194 0.6921753 -0.5832388 0.8186687
0001b0 fa 03 34 bf 58 8a 98 3e df ee 10 be 82 b2 d0 bd
       -0.7031857 0.29793048 -0.14153622 -0.10190298
0001c0 4c a0 3b 3f 3f 6b e3 3e 03 2a 57 bf 32 98 1b bf
       0.7329147 0.4441776 -0.8404848 -0.60779107
0001d0 f4 c9 1e bf 24 61 4e 3e 48 d6 8a 3f 89 d3 ba be
       -0.62026906 0.20154244 1.0846643 -0.36489514
0001e0 13 67 12 3e f1 e5 8a 3e 96 a2 95 3e 6b d4 24 3f
       0.14297132 0.27128556 0.29225606 0.64386624
0001f0 e3 c3 0d bf d7 7a ef 3c 54 b2 bd be 28 ea ff 3d
       -0.55377024 0.02923338 -0.37050116 0.12495834
000200 82 96 7a 3e 06 c3 da be 71 a9 b5 3d 5c 54 ca be
       0.24471477 -0.42726916 0.08870209 -0.39517486
000210 fa 43 74 bd fa 25 fd be 5e 22 4a be 94 fe 74 3e
       -0.05963514 -0.49443036 -0.19739673 0.23925239
000220 cc 03 05 3e 95 b4 d5 3e ae f3 9d 3e a1 d7 d5 3e
       0.1298973 0.41739336 0.30849975 0.41766074
000230 e2 ef e2 bd eb 15 02 3f 9d f6 ad be c3 69 89 be
       -0.1108091 0.50814694 -0.33977214 -0.26838502
000240 51 e2 99 be fa 20 ef 3b 38 3d 54 bf ea 90 7f bc
       -0.30055478 0.0072976323 -0.8290591 -0.015598515
000250 f5 83 d4 be 38 5a a1 3e 28 d5 ce be 94 cf e5 bc
       -0.41506925 0.31514144 -0.40397 -0.028053083
000260 aa 0c 78 3e 9f 0e 71 3e e2 2f e7 be 9b d0 4a be
       0.24223581 0.23540734 -0.4515372 -0.19806139
000270 18 79 95 be 89 09 73 bd b5 a5 20 3f e4 7b fa bd
       -0.2919395 -0.059335265 0.6275285 -0.122306615
000280 cd 6d 5d bd ff 80 f9 3e dd 10 40 be b5 8e a9 bd
       -0.054059792 0.4873123 -0.18756433 -0.08279172
000290 d3 10 db bd 8c b9 39 3d 06 93 ff be 4a f7 f3 3e
       -0.10696568 0.045342967 -0.49916857 0.47649604
0002a0 56 da 18 be 85 45 8d 3e ab d0 3c 3e 49 1e 9a be
       -0.14927039 0.27592102 0.18438976 -0.3010123
0002b0 f5 de ef 3e 80 95 b8 3e 3d 42 19 bf 84 d0 84 be
       0.4684979 0.3605156 -0.59866697 -0.25940335
0002c0 b7 ae 99 be 4f 38 8d 3c da 14 0d 3f f8 c2 61 3d
       -0.3001611 0.017238764 0.5510994 0.055117577
0002d0 11 31 99 be cb 8a 84 3d 1f d6 ec be 62 48 6f bb
       -0.29920247 0.06471785 -0.4625711 -0.003651165
0002e0 c1 ed 5b bc eb 13 e9 3e 5e a3 17 be 60 99 d9 3e
       -0.013423384 0.4552301 -0.14808413 0.42499828
0002f0 b5 46 3b bf 66 35 be 3e 88 76 c0 be 99 de c9 ba
       -0.73154765 0.37150115 -0.37590432 -0.0015401422
000300 13 1f e0 3e 46 5f 6b 3e 73 01 88 be 04 1f c5 3d
       0.43773708 0.22985563 -0.26563606 0.096250564
000310 7a 76 9f 3e 92 19 0c be c4 89 62 3e 54 ac 0a be
       0.31145078 -0.1368163 0.22122866 -0.135423
000320 e1 b3 50 3f 2b b0 23 be cf 38 50 3f 0d fe ed bd
       0.81524473 -0.15985171 0.81336683 -0.11620722
000330 3e 46 1c 3f 3b 74 80 3f 36 b9 00 3f 28 1f 32 bf
       0.6104468 1.0035471 0.5028261 -0.6957879
000340 b5 b3 d7 3e b8 88 3d be 56 bc 3f 3f 08 41 92 3c
       0.42129293 -0.18509185 0.7489675 0.017853275
000350 be 01 11 bf e3 d6 fe be 5c 82 15 3f 6f 42 07 3f
       -0.56643283 -0.4977332 0.5840204 0.52835745
000360 55 1a 87 3f ec 8b 18 3f c8 7e 1b be 13 13 9d be
       1.0554911 0.59588504 -0.15185082 -0.30678615
000370 e1 6c ec bc 5b c0 07 3f 16 2f 22 bf 2f 90 35 bd
       -0.028860511 0.53027886 -0.633531 -0.044326957
000380 c8 b1 80 be c7 08 92 3e 78 f8 30 bf ff 97 c3 3e
       -0.25135636 0.28522322 -0.69129133 0.382019
000390 98 c0 0e bf ac 00 d2 bd 58 1e 81 be e2 09 84 bd
       -0.55762625 -0.102540344 -0.25218463 -0.064471975
0003a0 35 aa ec 3e af ad 71 be 46 56 75 bf cc a3 2d bd
       0.46223608 -0.23601411 -0.9583477 -0.042392537
0003b0 ec 8b 34 be 83 00 68 bb 1a ab 75 3f 5c e3 1b be
       -0.17631501 -0.0035400696 0.95964205 -0.1522345
0003c0 60 9d 2b 3e cd 37 e2 3d 9d 72 8a be fc f8 e7 3d
       0.16759253 0.110457994 -0.27040568 0.11326787
0003d0 d3 13 b9 bd 0f 8c 96 3d a8 a3 85 3e 51 ec 26 be
       -0.09036984 0.07350933 0.26101422 -0.16301085
0003e0 0d 46 7f be d5 52 45 3e 9e 55 81 3e a3 70 8e be
       -0.24929066 0.19269879 0.25260633 -0.2782031
0003f0 38 61 54 3e df 44 62 bd 7c 44 4f be eb 9f ac be
       0.20740211 -0.05524146 -0.20240968 -0.33715758

layers.2.bias f4 [20]
000000 16 ea 3e 3d 1f a3 0f bf f4 6b 5c 3e df 83 2b be
       0.04660996 -0.5610828 0.21525556 -0.16749524
000010 14 d0 01 bf 83 18 5b be 64 5e c7 be 5f 97 ff be
       -0.5070813 -0.21396069 -0.38939202 -0.49920174
000020 99 05 84 be 26 88 a8 bd 9d 00 02 3e 37 24 2e bd
       -0.2578552 -0.08229093 0.12695546 -0.042515006
000030 65 b5 8a be ca f0 92 ba d6 07 b9 be 9b bb af be
       -0.27091518 -0.0011210677 -0.3613879 -0.3432282
000040 eb 49 92 3e 31 6c a9 3e 92 81 b8 3e 5c 5a 9e be
       0.2857202 0.33090356 0.36036354 -0.30928314

layers.4.weight f4 [20, 20]
000000 a3 fc fc 3d 04 88 13 3c 4b d7 19 3e 59 d6 bf bd
       0.12352874 0.009004597 0.15023534 -0.093670554
000010 9e 4e d1 3d 92 05 2c 3e d4 76 9c bc 83 ae 05 3e
       0.10220073 0.16799 -0.01909963 0.13054852
000020 4f c4 25 3e b7 54 08 be 01 41 a2 bd 8a 77 0e 3d
       0.16188167 -0.13313566 -0.07922555 0.03478197
000030 c9 98 0a be 35 93 c8 bb 7e 66 84 3d 7e fc ef bd
       -0.13534845 -0.006121064 0.06464861 -0.11718081
000040 50 59 0c 3d 6f fb 89 3d ac a4 ea be d9 03 80 3e
       0.034264863 0.0673741 -0.4582876 0.25002936
000050 8c 2f 11 3e 44 f2 c9 be a7 19 8c 3d 61 36 bf 3e
       0.14178294 -0.39442647 0.0684083 0.37346175
000060 59 67 12 be 79 e1 91 3e da eb 5a be 17 e3 39 3e
       -0.14297237 0.28492334 -0.21379033 0.18153034
000070 ca 9d dc 3e 55 e8 45 be f0 2d 0a be d7 2a 48 be
       0.43089134 -0.19326909 -0.13494086 -0.19547592
000080 18 12 f2 3d 51 1b 12 3b 7c ec 94 3e 6a 25 6c be
       0.11819857 0.0022294114 0.29086673 -0.23061147
000090 8f a6 52 bd 17 b6 d7 3d 5a 95 16 bd 65 7b 85 3d
       -0.051428374 0.10532778 -0.036763526 0.06517676
0000a0 11 d4 0d be ef e0 08 3d 53 1b 5d 3d d8 92 41 be
       -0.13850428 0.03341764 0.053981137 -0.18903673
0000b0 f6 18 f3 bd 63 c0 d9 3d 3e a5 0b 3e b5 99 0e 3e
       -0.11869995 0.10632398 0.13637254 0.13925822
0000c0 25 d1 b4 3d b5 d2 8e 3d c1 ad a1 3e 75 69 ff 3d
       0.08828954 0.06973783 0.31577876 0.12471286
0000d0 64 55 07 3e 0d 1b 05 bc 37 22 cd 3d dc 21 71 bb
       0.13216168 -0.008124125 0.100162916 -0.0036793863
0000e0 0b a8 18 be 74 2b 04 bd c4 1e b5 bd 3b e7 08 3e
       -0.14907853 -0.032268003 -0.08843759 0.13369457
0000f0 08 3f 43 be 7b a1 9b be 08 61 92 3e b8 3a 69 3b
       -0.19067013 -0.30396637 0.28589654 0.0035587978
000100 68 2f f0 bd 9a b0 ed 3d 40 9d ab be 01 d5 07 3e
       -0.11727792 0.1160595 -0.3351841 0.13264848
000110 e3 2f 45 3d a8 b1 0e 3d 02 c2 3f 3e 24 38 8e be
       0.04814137 0.034837395 0.18726352 -0.27777207
000120 d6 53 0c be 40 23 02 3e 82 1a 1c be 01 9c b7 be
       -0.13703856 0.1270876 -0.15244487 -0.3586121
000130 b8 6f 16 be 0c 3e 33 3e ad 0b e8 3e 27 a9 3f 3e
       -0.14691055 0.17504138 0.45321408 0.1871687
000140 78 98 ef 3e 7a 63 80 be cc 20 19 3e d5 79 5f 3c
       0.46796012 -0.25075895 0.14953917 0.013639887
000150 03 34 94 bc a1 b9 5c 3e 8e a2 bf 3d 72 84 07 3e
       -0.018091207 0.21555187 0.09357177 0.13234118
000160 6e ac ab bd 61 ec 80 be d5 5e 02 be 38 fb a0 3c
       -0.08382498 -0.25180343 -0.12731488 0.01965104
000170 5d 01 8c be 07 f2 11 bd 98 73 1f bd b8 ea 83 3d
       -0.2734479 -0.035631206 -0.0389286 0.064412534
000180 4a 3e e3 3d cd f6 1f bd c4 0f f6 be 43 94 b9 bd
       0.11095865 -0.039053727 -0.48058903 -0.09061482
000190 04 e2 d3 3d 29 2e 3d 3d f6 e6 bf 3d ef 57 cd 3d
       0.103458434 0.0461866 0.09370224 0.100265376
0001a0 19 ed cd 3d ba 4a 1c bd 66 24 42 3e 6e 3e e1 3d
       0.100549884 -0.038157202 0.18959197 0.10998236
0001b0 68 4a 31 3e d0 da ec 3d 30 b5 09 3d b3 03 54 3e
       0.1731354 0.11565173 0.03362006 0.20704536
0001c0 7b 75 05 bc 79 c6 17 3d 3e 82 ac bd 78 80 bf bd
       -0.008145685 0.037054513 -0.08423279 -0.09350675
0001d0 a6 ef 54 be 17 b4 8b bd 7d f3 fc bd 32 a1 60 bd
       -0.20794544 -0.06821459 -0.12351129 -0.054841228
0001e0 56 a6 72 be bd df 9a 3e 79 11 15 be f8 73 d9 3d
       -0.23696265 0.30248824 -0.14557447 0.106178224
0001f0 04 25 42 3d ed a1 b4 bc 60 27 66 3e ff e2 f8 3d
       0.047398582 -0.022049868 0.22475958 0.12152671
000200 83 b6 27 3e 74 de ea bd 17 db d8 be 5b 37 3f 3e
       0.16378216 -0.11468211 -0.42354652 0.1867346
000210 6c ee 75 bd 99 0f 99 bd 32 77 6a 3e d1 46 5c 3e
       -0.06004183 -0.07473678 0.22897032 0.2151139
000220 3a 76 30 be 9f ef 6c be 2d 62 e8 3d 20 15 0a 3f
       -0.172326 -0.23138283 0.113468505 0.53938484
000230 ef 76 92 3e 04 c4 9c 3d 40 69 8c 3c 76 8f e2 bb
       0.28606364 0.076545745 0.01714003 -0.0069140745
000240 b8 08 12 be b3 b9 15 bd 27 eb a2 bd 3f 1a 3f be
       -0.14261138 -0.03655405 -0.07955008 -0.18662356
000250 bf 1c d0 bd 43 df 1a bd 82 93 5d 3e 2c 8e 35 be
       -0.10161733 -0.037810575 0.21638301 -0.17730016
000260 7c 83 27 bd 87 8f 2b be d3 1a 73 3d 34 6f 1c 3e
       -0.040896878 -0.1675397 0.059351753 0.15276796
000270 b5 51 15 3e bd 86 3a bd e9 64 56 bd 14 b6 0e bd
       0.1458195 -0.045538653 -0.05234233 -0.034841612
000280 42 7a 89 3e 05 1c 05 be 10 d5 c4 3d 9c 56 f0 3b
       0.26851088 -0.1299897 0.09610951 0.0073345434
000290 f1 13 bd bd 0f ca 30 3e eb ea 85 be c6 c3 b2 3d
       -0.09232319 0.17264579 -0.2615579 0.08728747
0002a0 13 c9 5a 3e af 7a 20 3e 11 95 a1 3d b9 5f dd 3d
       0.21365766 0.156718 0.0788976 0.10809273
0002b0 25 39 b1 3d b7 42 c3 3e 0f d0 e1 3d d7 ac 24 be
       0.086534776 0.38136837 0.11026012 -0.16081558
0002c0 6c e6 87 bd 4b a6 12 bd a1 6c 85 3e 4c 15 8c 3c
       -0.06635746 -0.03580312 0.2605944 0.017099999
0002d0 74 44 5d 3e b8 90 f5 bd 82 8b 4d bd 30 85 0e 3d
       0.21608144 -0.119904935 -0.050181873 0.034794986
0002e0 2c ce c8 3d 6a 60 18 3e 2f 53 63 be bc fd 11 3e
       0.09804949 0.14880529 -0.22199701 0.14256948
0002f0 1e 6f d2 bd ec 6d 1a 3d 46 c4 21 3d 49 0a ee bd
       -0.102751 0.037702486 0.03949382 -0.116230555
000300 65 f8 a1 be 45 3c 6a be cd e6 33 3e 70 14 7e bd
       -0.31634822 -0.22874554 0.17568512 -0.06203121
000310 2e d1 89 bb ab 3b 72 3d 8c b7 81 be b8 bc 98 bd
       -0.0042058444 0.059138935 -0.25335348 -0.0745787
000320 79 2c 1f be 6c b1 f3 bd 57 ea ea bc 86 66 8e be
       -0.15544309 -0.11899075 -0.028676195 -0.27812594
000330 d7 03 d8 bd 0f 1e 6b 3e ed 39 2a bf 5f 79 3d be
       -0.105476074 0.22960685 -0.6649464 -0.1850333
000340 e2 5c 66 bd b0 d7 97 3c ed f6 88 3d c1 43 4d 3d
       -0.056240924 0.018535465 0.06687722 0.050113443
000350 7e 1f ef be bf f5 9c 3c e3 ca e2 be 64 fe a8 be
       -0.46703714 0.01916015 -0.44295415 -0.33006585
000360 d2 1b 1b 3d 5d bd e0 3d 4a 7c ce 3e f3 47 21 3d
       0.03786833 0.10973618 0.403292 0.039375257
000370 d2 48 e5 bd 05 44 8f 3e d9 c2 0e be 8d 8a ab 3d
       -0.1119553 0.27981582 -0.13941516 0.08376036
000380 66 0d 3a bd 4c 2d c2 3d d6 0d 1b bd 88 63 91 bd
       -0.045422934 0.09481296 -0.03785499 -0.07099062
000390 1c f9 1d be a0 a9 69 bd 0b ff da 3e 56 b5 ff ba
       -0.15427059 -0.057046533 0.42772707 -0.0019508998
0003a0 0b a8 10 3d 5b 8f 3d 3d 20 7d 38 3c 3b a5 25 3e
       0.03531651 0.046279293 0.011260301 0.16176312
0003b0 12 00 a3 3d d1 dc e8 3b ae 1a 97 3c 2e f8 f7 bd
       0.07958998 0.0071064015 0.018445339 -0.121078834
0003c0 19 93 6f 3e 60 bc d5 bb 0c 45 39 be 0f 5a 0d 3c
       0.23395957 -0.0065227 -0.18092746 0.008627429
0003d0 2b 77 ce bd 6a 4a a3 bc 5c ed 18 3d 1b 38 47 bd
       -0.10081323 -0.019932944 0.03733574 -0.04863749
0003e0 4f 9e 11 bd db 52 5f 3e cd d7 11 3e 7a 7b dd 3d
       -0.035551365 0.2180895 0.14242478 0.10814567
0003f0 03 b9 60 be a8 77 39 be 36 37 f1 bd db 2c 19 3d
       -0.21945576 -0.18112051 -0.11778109 0.037396293

layers.4.bias f4 [20]
000000 89 d6 2b be bf 25 5c 3e 01 f1 5b bc ee b9 21 3e
       -0.16781057 0.21498774 -0.013424159 0.15793583
000010 49 76 10 3e d0 d1 4d 3e 96 e4 ea be fe a6 8c be
       0.14107622 0.20099568 -0.45877522 -0.27471155
000020 3a 3b 89 bb 3a b4 61 bd 32 de 4e 3f b8 a1 1c 3d
       -0.0041879686 -0.055103518 0.80807793 0.038240165
000030 8f e3 bb bd 04 f9 18 3e 4f 80 83 bd 0d 99 37 3e
       -0.09174263 0.14938742 -0.06420957 0.17929478
000040 63 5f d0 bd 1d e1 45 be 9b ff 1f bd 33 4b a9 3e
       -0.101744436 -0.19324155 -0.039062124 0.33065185

layers.6.weight f4 [20, 20]
000000 ba fa 70 3d 0c 29 88 bd 14 59 a7 3d 24 08 96 bd
       0.05883286 -0.06648454 0.08171287 -0.073257715
000010 78 3b 08 3e 4d 24 55 3e d3 30 0a be b8 17 36 3e
       0.13303936 0.20814629 -0.13495187 0.17782485
000020 06 d5 f3 bd f7 41 d0 3d 04 4a ed bc 37 e7 c5 3c
       -0.11905865 0.10168832 -0.028965957 0.024158103
000030 cc a5 39 be 8d 71 52 3e 4c 88 fd 3d be ab 14 be
       -0.18129653 0.20551129 0.12379512 -0.1451864
000040 f2 57 29 3e c9 04 00 3e 79 d1 c1 bd 18 57 22 be
       0.16537455 0.12501825 -0.09463782 -0.15853536
000050 c9 f8 bf bd c3 40 49 3e 26 65 0b be 15 56 03 3b
       -0.09373624 0.19653611 -0.13612804 0.0020040323
000060 c8 8a 87 bd 60 2c 18 3d e2 db d7 bd 36 cd 09 3e
       -0.06618267 0.037151694 -0.10539986 0.13457188
000070 e7 3a fd 3d 8d b9 37 3e e5 ac fd bd d8 c2 89 be
       0.1236475 0.17941876 -0.12386493 -0.26906466
000080 98 85 8b 3d 55 54 15 3e a6 0b b6 bd ac 00 89 be
       0.0681259 0.14582951 -0.088889405 -0.26758325
000090 c1 08 7f bd 88 1b 0a be f3 3b d6 3c 33 9e 36 3e
       -0.062264208 -0.13487065 0.026151633 0.17833786
0000a0 e1 8a 14 3e 78 cb 61 3e 47 60 67 3d 3c 73 af 3e
       0.14506103 0.22050273 0.0564883 0.34267604
0000b0 6e 95 1d be 28 b7 88 3d 84 98 36 be 9d 2e ce 3d
       -0.15389034 0.06675559 -0.17831618 0.100674845
0000c0 fb 53 11 3d 06 41 60 3e 48 c7 96 bd d7 74 ff 3d
       0.03548048 0.21899804 -0.07362229 0.12473457
0000d0 f1 f2 3d 3e f7 bd 69 be 27 e4 85 3e 1c b8 8e bd
       0.18549706 -0.22826372 0.2615063 -0.0696871
0000e0 01 7d 53 bd 40 df 8f 3d f7 0a 2d bd d0 b8 26 3c
       -0.051632885 0.070250034 -0.042246785 0.010175899
0000f0 41 76 f7 bc 1f aa e1 bd 59 58 92 bd 9b b3 e3 3d
       -0.030207755 -0.11018776 -0.07145757 0.111182414
000100 9d 77 76 bd 07 c9 90 3e 75 04 12 3e 83 6c ff bd
       -0.060172666 0.28278372 0.14259513 -0.12471869
000110 ab 4a 99 bd 69 23 91 bd f4 89 78 3d e9 17 2b 3e
       -0.07484945 -0.07086832 0.060678437 0.1670834
000120 ac 7a a4 bd 90 20 a9 bd 7a 89 88 3d 07 b9 b3 3d
       -0.0803121 -0.08258164 0.066668466 0.087755255
000130 ee 7f 37 3e 07 a0 f9 bd c4 6d 89 3e e0 7c e6 bd
       0.17919895 -0.12188726 0.26841557 -0.11254287
000140 99 b3 05 bd ba 12 27 be 60 8e 8d bc 0f 53 42 be
       -0.03264198 -0.16315737 -0.017279804 -0.18976997
000150 40 0c 17 be 64 75 5c bd 59 3e 63 3d c2 8a 1b be
       -0.14750767 -0.05382289 0.05547938 -0.1518965
000160 56 6b dd 3a 33 bc 15 bd f2 0d 73 3d 7f ee 36 3e
       0.001689295 -0.036556434 0.05933947 0.17864417
000170 ab 82 8f 3e 3e 66 fa 3d dc 92 f7 3d cd e6 34 3e
       0.2802938 0.122265324 0.12088558 0.17666169
000180 93 e9 ae bd 71 9b b7 bd 9d bf 90 be 8d 76 2b 3e
       -0.085406445 -0.08965195 -0.2827119 0.16744442
000190 f0 eb fd bd 6c 72 82 be 7b 65 a1 3d de 68 c0 bc
       -0.12398517 -0.25477922 0.07880684 -0.023487505
0001a0 13 8d 7d be df b1 34 3b 86 85 57 be 77 50 98 bd
       -0.24760847 0.002757184 -0.21047029 -0.074372225
0001b0 8e 03 95 3a ed 7b 84 be c6 ac 2b 3e bb fa 9e 3e
       0.0011368857 -0.25875798 0.16765127 0.31050667
0001c0 29 46 03 be aa 07 ac 3d c5 40 6a bc d3 0b 7b 3e
       -0.12819733 0.08399899 -0.014297669 0.2451623
0001d0 dd 21 ca bd 31 b7 cc 3d 83 0c ba 3b d8 06 22 be
       -0.0986974 0.099958785 0.005677761 -0.15822923
0001e0 93 40 bb 3d 59 25 86 be 2c 57 17 3e 09 98 09 3d
       0.09143176 -0.2620037 0.14779347 0.033592258
0001f0 31 9e f8 3d 21 a2 72 3e 48 af e3 3d 8a a3 57 3e
       0.121395476 0.2369466 0.111174166 0.21058479
000200 1a 2f a5 bc 5a d6 1e 3e ee 53 8d be 2b 87 1e 3b
       -0.020164061 0.15511456 -0.27603096 0.0024189453
000210 dc 74 88 3e 6d 8e 9d 3d d8 0c ab 3e d5 63 ed 3d
       0.26651657 0.07693181 0.33408237 0.11591307
000220 4e e7 c0 be ed 42 ea 3c 47 75 8b be 6d 84 d3 3d
       -0.3767647 0.028596366 -0.27237913 0.103279926
000230 33 14 0e be e7 4b 78 be 52 16 fc bd bc 1a f6 be
       -0.13874893 -0.24247704 -0.12308945 -0.48067272
000240 64 ba 1c be 1b 84 e3 bb 7f 7c a4 3e e6 6d 58 bd
       -0.15305477 -0.0069432384 0.32126233 -0.052839182
000250 a8 ae 4f be 2e 71 ee bd e1 dd 95 be 05 b7 37 bc
       -0.2028147 -0.11642681 -0.29270843 -0.011213069
000260 ea 7e 40 3e a7 eb bc 3d 70 a8 a2 3e b4 bc 65 3e
       0.18798414 0.092246346 0.31769133 0.22435266
000270 4c 76 9e 3e 48 90 67 bc 35 99 2c be f5 4e 54 3c
       0.30949628 -0.01413352 -0.16855319 0.012958278
000280 88 78 16 bc c1 51 33 3e a3 2c 35 be 55 83 6b bb
       -0.00918401 0.17511655 -0.17692809 -0.0035936434
000290 23 05 53 be 8e 74 1d 3c 03 c8 a8 bd 9a 2a 40 3d
       -0.20607428 0.009610308 -0.08241274 0.046915628
0002a0 c8 30 f0 3d b8 b7 b2 bd ba d8 15 be 02 db 23 bd
       0.11728054 -0.08726448 -0.14633456 -0.040003784
0002b0 2f 2e d7 bd 95 6f 6a be 46 4e 84 bd 75 6e d3 3d
       -0.10506856 -0.22894128 -0.06460242 0.103238024
0002c0 6d b4 97 bd 7a 2a 70 3d 38 41 37 bd 76 e4 49 3e
       -0.0740746 0.05863426 -0.04473993 0.19716057
0002d0 b2 ff 55 3e 68 48 04 bd 9c 89 23 3e 88 cd 81 3e
       0.20898321 -0.032295614 0.15970463 0.2535212
0002e0 bb e3 58 be 3d 3e 02 be f0 7e dd bd 27 42 22 be
       -0.21180622 -0.12719055 -0.10815227 -0.15845548
0002f0 87 16 1d 3e a5 d1 f5 3d 9c 06 a1 3e 0b 4c 78 3e
       0.15340625 0.12002877 0.31450355 0.24247758
000300 57 71 16 be 45 f1 2a 3e fc 97 7f bd e7 aa b3 3d
       -0.14691673 0.166936 -0.062400803 0.087728314
000310 34 07 2e 3d d5 00 43 be 5e bc 76 3e 6a e3 5c 3c
       0.04248734 -0.19043286 0.24095294 0.013481954
000320 b6 02 3a 3d 22 66 dd bd 95 c6 2b be 12 83 b8 3e
       0.04541274 -0.10810496 -0.16774972 0.360375
000330 93 65 50 bd b2 e2 2e 3e 00 9b 10 3e 95 8a 8e bd
       -0.05087812 0.17078665 0.14121628 -0.06960026
000340 2f 9a 91 3d 50 e3 6f 3e ee f3 ac 3e 32 fa 72 be
       0.07109486 0.23426557 0.33779854 -0.23728254
000350 9c 0d b9 38 74 c0 a4 bd 7a ee 6d bc a1 22 87 bd
       8.8240224e-05 -0.0804452 -0.014522189 -0.06598402
000360 b4 c5 3d be 65 9b 49 bc cf 86 bd 3e 1b e3 22 3e
       -0.18532449 -0.012305115 0.37016913 0.15906946
000370 08 c1 69 be 81 9a 4b bd f7 ba 9d bd 1b ce 59 3e
       -0.22827542 -0.049707893 -0.07701676 0.21270029
000380 24 0e f3 bd 00 f8 48 3e b5 b5 27 bd 9c 76 0e be
       -0.118679315 0.19625854 -0.040944774 -0.13912433
000390 00 43 85 3e c3 e5 24 be fc 67 05 3e 5a ed 10 be
       0.2602768 -0.16103272 0.13027948 -0.14153042
0003a0 81 fb 61 be 39 a3 92 3d 51 08 6d 3e 9d b8 77 bd
       -0.22068597 0.071600385 0.23147704 -0.060478795
0003b0 6d 6d 76 3e 0d 79 28 bc fd 56 8c 3e 2a 8b 77 be
       0.2406518 -0.010282767 0.27410117 -0.2417418
0003c0 8c 97 a9 bd df da 51 3e ad 81 67 be 3b f7 30 3d
       -0.082808584 0.20493649 -0.22608061 0.043204527
0003d0 a8 29 c2 3d f4 4e 1f 3d 17 71 08 3e f1 ac 38 bd
       0.094806015 0.038893655 0.1332439 -0.045086805
0003e0 fc 5a 81 3d af a9 1c 3d cd 48 d6 bd 5c 53 68 be
       0.06316182 0.03824776 -0.104631044 -0.22688049
0003f0 27 75 20 3e 37 d0 2e be cb bb 2c 3e 3f 8a e3 3d
       0.1566969 -0.17071615 0.16868512 0.11110353

layers.6.bias f4 [20]
000000 b3 94 20 3e 9b 67 eb 3c 5c f6 fb 3d 11 a1 0f be
       0.15681724 0.028735926 0.12302849 -0.14026286
000010 ab 94 3f 3e 87 a2 a7 3d 0a 3a b4 3d 9f 86 01 bf
       0.18709056 0.081852965 0.088001326 -0.5059604
000020 29 1d 1f 3e d2 40 71 3e 64 48 14 3d 86 a1 92 bd
       0.15538467 0.23559883 0.03620185 -0.071597144
000030 4e 33 4f 3d 49 a5 14 be bd a9 4a 3e 14 36 b9 bd
       0.050586037 -0.14516176 0.19791313 -0.09043518
000040 3c 3c 59 3e 03 ff 30 be 39 cc 24 3e c0 ff af 3e
       0.21214384 -0.17284779 0.1609353 0.3437481

layers.8.weight f4 [20, 20]
000000 db 22 cb 3d f5 e7 51 3e 0a cb c3 3d 5c 7e 3b be
       0.099187575 0.20498641 0.09560211 -0.18309921
000010 ca f3 11 bc 7d 64 55 3d 20 18 bf bd b8 a8 63 be
       -0.0089082215 0.052097786 -0.09330773 -0.2223233
000020 f4 d1 22 3e 74 2e d9 3d 61 1b 0c 3e 94 11 2d 3e
       0.15900403 0.10604563 0.13682319 0.16901237
000030 b6 92 03 bd f6 42 3b bc f5 56 c6 bc 44 c7 6a bd
       -0.032122336 -0.011429539 -0.024211386 -0.05731894
000040 77 4b a1 3d e7 93 cb bc 08 e8 3f be 5f 7a 47 3d
       0.07875722 -0.024850799 -0.18740857 0.048700687
000050 d9 ed 6c 3b 34 0b 49 be 5f 17 eb bd 32 c1 d5 3c
       0.003615251 -0.1963318 -0.11479067 0.0260931
000060 6c c7 fd bd 49 e3 02 bd 51 57 9e 3d 02 4e 34 be
       -0.12391552 -0.031955037 0.07731498 -0.17607883
000070 da 38 ac bd a8 da 69 be c8 4b 44 be 03 8c 99 3c
       -0.08409281 -0.22837317 -0.19169533 0.01874352
000080 00 78 1d 3e 94 ed cc bd c2 76 c8 3d ee 05 9b bd
       0.15377808 -0.10006252 0.09788276 -0.075694904
000090 36 d4 1e bd 9f d7 11 3d 2e 67 36 be ff 3b 07 be
       -0.0387766 0.035606023 -0.17812797 -0.1320648
0000a0 9d 39 02 bd a3 41 2b 3d 62 44 4c bd 63 ff e7 3d
       -0.031793226 0.041810643 -0.049869902 0.11328008
0000b0 f2 87 1e be 6a 12 ae 3d db f8 0d be 23 53 5a bd
       -0.15481547 0.08499606 -0.13864462 -0.05330194
0000c0 cd 4e 2e 3d 58 9c 63 3e 14 fe 64 be f3 da 96 bd
       0.04255562 0.22227609 -0.22362548 -0.0736598
0000d0 69 95 50 be 6a 87 99 3d 55 3b 2b bd 6f cc 12 3d
       -0.20369495 0.07496531 -0.04180463 0.035839494
0000e0 9e 0b dc 3d 0e a5 73 be f9 50 5d 3e 24 5f bf 3c
       0.10744403 -0.23793432 0.2161292 0.023360796
0000f0 76 14 4e be 31 22 e0 bc 3d 51 83 be 2e b3 33 3e
       -0.20124993 -0.027360054 -0.25647917 0.1754882
000100 18 25 0f 3e 0b 55 0e be 0c bb 02 be bd 11 97 bd
       0.13978994 -0.13899629 -0.12766665 -0.0737643
000110 06 c4 50 be fc 99 84 be 15 40 05 be ec 0f 0d be
       -0.20387277 -0.2589873 -0.13012727 -0.13775605
000120 45 0f bd bb 05 22 ec bd 0c 55 0e be ca 76 2c bd
       -0.0057696425 -0.11529926 -0.1389963 -0.042105474
000130 98 44 6e be 64 cd df bd 1f f9 49 be b8 84 16 be
       -0.23268354 -0.10927847 -0.19723938 -0.14699066
000140 7c 1e 6f 3d 4c f1 2a be 88 87 83 bb bc 19 30 3e
       0.05837868 -0.1669361 -0.0040139593 0.17197317
000150 7e 35 84 3e 3a 8e 22 3e 06 5b 47 be 6f 2b 33 3e
       0.2582206 0.15874568 -0.19468316 0.17497037
000160 7f c0 22 be 3a f5 e2 bd 8b 18 50 be 7f 23 cc bd
       -0.15893744 -0.110819295 -0.20321862 -0.09967708
000170 2f be 44 bc 47 4f 1f be 55 d6 2a 3e 6a cd af 3b
       -0.012008234 -0.15557586 0.16683324 0.0053650634
000180 57 66 29 3e b0 87 24 bd 58 7c 8d bd 41 31 40 3e
       0.16542946 -0.040168464 -0.06908482 0.18768789
000190 4f f5 b7 3d 9d 7f 48 be f5 ee 08 be d8 3f d5 3d
       0.08982336 -0.1957993 -0.13372405 0.10412568
0001a0 24 21 9c 3d 7a 99 ba bc ff 7b 4a 3d a7 b3 a2 bd
       0.076235086 -0.022778261 0.04943466 -0.07944422
0001b0 d0 6e 10 be 5b cd 27 be 30 32 54 be 83 40 c3 3d
       -0.14104772 -0.1638693 -0.2072227 0.09533789
0001c0 10 bc 19 be 9a 1a 58 be 42 7c 61 bb 0a 27 ee 3c
       -0.15013146 -0.21103898 -0.0034406339 0.02907135
0001d0 1f 88 2f 3e 66 ca 6f 3d d6 71 18 3d 1b e8 21 3e
       0.1714177 0.05854263 0.037217937 0.15811197
0001e0 79 0c 29 be 3f be 29 bd 79 64 80 3e 2c 95 fc bd
       -0.16508664 -0.0414412 0.25076655 -0.1233314
0001f0 57 49 16 be c4 5a bd 3c 2a 9f 9b be fc 54 37 3e
       -0.14676414 0.02311457 -0.3039487 0.17903513
000200 9c ed a5 3d d5 8b b4 3d 42 4d 5c be d0 c5 cf 3d
       0.08101961 0.08815733 -0.21513847 0.101451516
000210 90 7b 70 3d 86 43 6c be 51 06 73 be ab 82 ac 3d
       0.05871159 -0.23072633 -0.23732878 0.084233604
000220 e8 e1 c0 bd 28 66 1d 3d e6 8f 59 be fb 6b 31 3e
       -0.09418088 0.038427502 -0.21246299 0.17326348
000230 ea 63 3c 3e 07 10 06 3e b8 e0 f5 3d a4 c2 b5 bd
       0.18397489 0.13092051 0.12005752 -0.088750154
000240 40 04 16 be 6d 37 18 be 8d cd f2 3b 16 0f 28 3e
       -0.14650059 -0.14864893 0.0074097575 0.16412005
000250 8a 35 dc bd cf 11 db 3d 55 60 78 3d 15 01 5b be
       -0.10752399 0.10696756 0.060638744 -0.21387132
000260 83 9f 27 3e b6 56 22 3e b9 15 89 bc 25 8e 16 bd
       0.16369443 0.1585339 -0.016733991 -0.036756653
000270 b8 ae 49 3e c5 c4 2d 3e 0e a7 23 3e 63 25 e0 bd
       0.19695556 0.16969593 0.15981695 -0.10944631
000280 e7 59 48 be e8 53 54 be 1a 00 62 be ad 6e c0 bc
       -0.19565545 -0.20735133 -0.22070351 -0.023490274
000290 38 8f e2 bd 81 fa a1 3b 3a ca 63 3d 45 9a 30 be
       -0.11062473 0.0049431925 0.05561278 -0.17246349
0002a0 8b e4 7a bd a7 9d 40 3d 1b 1b 3c 3e 7d c1 32 3e
       -0.06125311 0.04702535 0.18369715 0.17456622
0002b0 df ab 47 3e 27 05 32 be 8f 7c 3c be 1f f7 03 be
       0.19499157 -0.17384778 -0.1840689 -0.12887238
0002c0 a0 1d 8d be a8 20 47 be c7 45 e6 3d 44 5c d5 3d
       -0.27561665 -0.19446051 0.11243778 0.10417989
0002d0 68 62 92 3d 13 f9 f0 bd 57 f9 66 3e 46 6a 18 3e
       0.07147676 -0.11766257 0.22556053 0.1488429
0002e0 24 18 45 3e bd 81 3f 3e 06 f5 bb 3d 06 1e 91 bd
       0.1924749 0.18701835 0.09177594 -0.07085805
0002f0 77 3e fd bd e0 81 00 3d d6 22 54 bd 99 37 d7 3d
       -0.1236543 0.03137386 -0.051791035 0.10508651
000300 f1 ff 08 be c0 5f 6c be 5b 78 a1 b9 80 52 ac bd
       -0.13378884 -0.230834 -0.00030797985 -0.08414173
000310 f0 ad db 3d ea 5d 3a be 35 d4 cf 3d bf 16 8e 3e
       0.10726535 -0.18199888 0.10147897 0.2775173
000320 a8 72 29 3e b7 09 3d 3e ab 74 89 3c 45 d6 8b bd
       0.16547644 0.18460737 0.016779264 -0.06827978
000330 d3 cd 8e bd 97 6a ce bd 43 56 44 3e af 20 b6 bb
       -0.069728516 -0.10078924 0.19173531 -0.0055580954
000340 2c 10 f3 bd 1a 61 90 3e 18 b6 80 bd 23 c6 bd 3d
       -0.11868319 0.28199083 -0.062847316 0.09266307
000350 a7 d4 6e be 34 d9 e3 3d 19 75 4e 3e 7f e9 43 3c
       -0.23323308 0.111254126 0.20161857 0.011957525
000360 7f 90 fc 3d 27 ca 9e 3c 07 60 9c bd c3 e5 d3 bd
       0.12332248 0.019383503 -0.07635503 -0.10346558
000370 bb b6 04 3e b5 76 8d bc 76 37 39 3e 81 fa 9a bd
       0.12960331 -0.017268518 0.18087563 -0.07567311
000380 85 bc 05 be 74 2c a1 3d 83 22 5d 3e 35 05 70 bd
       -0.13060196 0.07869807 0.21595196 -0.058598716
000390 5c 33 37 be b3 74 9a bd 2b bc 88 be 02 4b 19 bd
       -0.17890686 -0.0754179 -0.2670606 -0.03742505
0003a0 31 77 7d bd 90 dd 38 be fc 29 3c 3e 93 bc 3c bd
       -0.061881248 -0.1805327 0.18375391 -0.046078276
0003b0 fd 7d 43 be aa 2c 9f 3d c8 96 50 be f9 ce 9d be
       -0.1909103 0.07772191 -0.20370018 -0.3082197
0003c0 cb 80 11 3e 88 03 10 3e 0e 28 cb 3d 76 d2 3d 3e
       0.14209287 0.14063847 0.09919749 0.18537316
0003d0 6b 47 71 bd 04 d6 17 be d1 43 a8 bd 3d 75 bf be
       -0.058906 -0.14827734 -0.0821606 -0.37394133
0003e0 86 5f 41 bd d8 70 9c 3e 41 ff bc 3e 84 68 94 be
       -0.04721024 0.30554843 0.36913493 -0.2898599
0003f0 3b b8 1e be 1b 62 2d 3e a8 eb 83 3d 4a 4f b1 3d
       -0.15499966 0.16931956 0.06441432 0.08657701

layers.8.bias f4 [20]
000000 70 14 0b 3e fd bb 12 be 37 79 21 be e4 a5 64 bd
       0.13582015 -0.14329524 -0.15768896 -0.055822268
000010 34 b2 b7 3d 3a 85 47 be 7c 28 bc bd 5b c0 03 be
       0.089695364 -0.19484416 -0.09187409 -0.12866347
000020 f0 89 94 3d c3 4b 18 3e 3d 81 67 3e ac e5 13 be
       0.07252872 0.14872651 0.22607894 -0.14443082
000030 12 6c 4f 3e a2 70 97 be 5c 2a ca 3b c8 d4 3b bd
       0.2025607 -0.2957812 0.0061696004 -0.04585722
000040 42 fd 73 be 17 80 07 3e b4 da 77 bd b4 07 40 3e
       -0.23827079 0.13232456 -0.060511306 0.18752939

layers.10.weight f4 [20, 20]
000000 ab 28 4e bc 13 e8 e2 3d cb 7c e6 3d 35 b2 1b be
       -0.012582938 0.11079421 0.11254271 -0.152047
000010 f0 b6 99 bd a4 64 3c be 87 6b 20 3e 04 8d c2 bd
       -0.07505596 -0.18397766 0.15666018 -0.09499553
000020 c9 bc 17 be 73 fe 09 3e 43 d0 b8 3b 37 e1 44 3e
       -0.1481811 0.13475971 0.005640061 0.19226538
000030 03 90 52 be eb 5c 25 3d 63 87 2f be 39 b9 59 3b
       -0.20562749 0.040371817 -0.1714149 0.0033221974
000040 7a a8 32 be 79 af af bc d0 39 5e bc 2e 8a 15 be
       -0.17447081 -0.021445977 -0.013563588 -0.14603493
000050 86 44 e9 3d a8 ec f5 bc 86 6b 39 3d 0d 66 2e 3e
       0.11390023 -0.030020073 0.045268558 0.17031117
000060 95 f3 39 be 6d 3d 24 3b 53 72 16 be fd 40 9d 3d
       -0.18159325 0.0025061027 -0.14692049 0.07678411
000070 ca fe 9a bc 14 24 b9 3d da b9 24 3e 7b bb 5b bd
       -0.018920321 0.090400845 0.16086522 -0.053645592
000080 cb fc 67 3e ce 65 12 3e ae 7b b7 bd c7 76 2e be
       0.22655027 0.14296648 -0.08959137 -0.17037497
000090 05 d4 72 be 85 d0 04 3e 4c 1e e4 3d a0 a4 37 bd
       -0.23713692 0.12970169 0.11138591 -0.044834733
0000a0 16 5e 05 be 28 ba 38 bc 9b d6 bf 3d f8 b3 39 3e
       -0.13024172 -0.011274852 0.093671046 0.18135059
0000b0 b4 f3 82 bd b6 71 03 be ef 97 34 3e fb f8 18 3e
       -0.06394139 -0.12836346 0.17636083 0.14938729
0000c0 f8 b0 0f ba a4 3d 26 3c f3 3a a1 bd 1c 89 57 bd
       -0.00054813875 0.010146532 -0.07872572 -0.052620992
0000d0 64 f8 61 3e e7 72 c1 bd 61 f2 f8 3d aa 82 0c bd
       0.2206741 -0.09445744 0.12155605 -0.0343043
0000e0 15 5f 1a 3e 25 e3 bc 3d 14 3d 60 bc 72 fe c9 bb
       0.15075333 0.09223012 -0.013686437 -0.0061643654
0000f0 c9 39 41 be a3 ae 0b be 9f 1c b1 bd 07 08 b4 3d
       -0.188697 -0.13640837 -0.08648037 0.087905936
000100 e9 2d 4e 3e d8 91 40 3e f7 69 94 3c 80 71 4d 3d
       0.20134701 0.18805635 0.018116934 0.05015707
000110 ff fb 13 be f5 f4 86 3d 32 81 0b 3e 9a 71 2e 3e
       -0.14451598 0.065896906 0.13623503 0.17035523
000120 85 7d 53 be 50 65 cf 3d 3c 41 ac bd ff 4a 64 3e
       -0.2065335 0.10126746 -0.0841088 0.22294234
000130 a1 41 5f 3d 3d fc c9 3a ba b2 10 3e ea 12 14 be
       0.054505948 0.0015410256 0.14130679 -0.1446034
000140 b9 d1 3a 3e 5b c7 8b 3d b2 13 3e 3e 69 5b 33 be
       0.18244065 0.068251334 0.185622 -0.17515339
000150 48 c7 45 3e 8d 53 31 bd f9 56 0a be 25 c2 dc bc
       0.19314301 -0.04329257 -0.1350974 -0.026948044
000160 ee 82 3d 3a e2 de 9c bd 37 d7 35 3e 55 a2 c1 bd
       0.0007229288 -0.07659699 0.17757879 -0.094547905
000170 e5 19 bd bd 83 6c 87 be 6a a4 f1 bd 7f 9a 3e be
       -0.092334546 -0.26449975 -0.117989376 -0.18613623
000180 1b 56 c4 3d 4b 3b 47 bc 20 8d 17 3d 64 ba 88 be
       0.09586736 -0.012160133 0.03699982 -0.26704705
000190 8e d4 0a 3e 62 b0 62 be 15 3f 35 bd 9d 91 0e ba
       0.13557646 -0.22137597 -0.044249613 -0.0005438568
0001a0 9b 6c 02 be 90 23 5f bd b0 01 fa 3d 09 0c e8 bd
       -0.12736742 -0.054477274 0.12207353 -0.113304205
0001b0 3e 65 25 be 15 ff 8c 3e 4e ab 28 be d7 a0 36 be
       -0.16151902 0.27538362 -0.16471598 -0.17834793
0001c0 f7 9a f4 3d 6a 7c 80 be 6f 22 06 be b3 7d 26 3d
       0.1194362 -0.2509492 -0.13099073 0.04064722
0001d0 6f f2 15 3d bb 1a 96 3e 35 a1 f5 3d 6c 25 b6 bd
       0.036608156 0.2931727 0.119936384 -0.088938564
0001e0 37 08 02 bd d9 a1 99 3d 67 ea d1 bc 9e b3 c7 bc
       -0.031746116 0.07501573 -0.025624467 -0.02437764
0001f0 0a b7 9c 3d c3 ba 13 3e 92 cd 99 3d b9 34 40 3e
       0.076520994 0.14426713 0.075099126 0.18770112
000200 d1 f8 73 be 83 f2 26 3e 86 8a a7 bc 7e 1d 58 3d
       -0.23825385 0.16303448 -0.020451795 0.0527625
000210 63 d9 f1 bd 49 55 87 bd d3 fa 67 3e 33 cd 6a 3d
       -0.11809041 -0.06608064 0.22654276 0.0573246
000220 78 0a 22 be 10 a9 05 bd 3c 61 48 bd e2 05 2d be
       -0.15824306 -0.032631934 -0.048920855 -0.16896775
000230 1f 1b 67 be 01 36 95 3d 52 58 61 be 48 40 8b 3d
       -0.2256894 0.07285691 -0.22006348 0.0679937
000240 fd eb a7 bd e2 6e 1c 3e 13 95 f7 3c a2 8c 93 3c
       -0.08199308 0.15276673 0.030222451 0.018011395
000250 c5 58 dc bc bf ad 02 be de 51 6c be 00 9e 19 be
       -0.026897797 -0.12761591 -0.23078105 -0.15001678
000260 b3 84 83 be 06 bb dc bd cd f9 53 be bd b0 55 3e
       -0.2568718 -0.107778594 -0.2070076 0.20868202
000270 aa 06 20 3e d3 7f 5a 3d 44 60 10 3e fa de 8c be
       0.15627542 0.05334456 0.14099222 -0.27513868
000280 11 b7 55 bd 13 bd 9e 3d c5 ea f9 3c 97 a8 d8 bc
       -0.05217654 0.07750907 0.030507455 -0.026447577
000290 2d 5d 40 3e 0e ef 40 be 41 14 13 3e 4e 45 51 3e
       0.18785544 -0.18841192 0.14363195 0.20436594
0002a0 11 3f 94 bd dd d2 4f 3d 71 2d aa 3d 4f 52 86 ba
       -0.072385915 0.050738204 0.083094485 -0.0010247919
0002b0 76 92 3d be d2 ac f8 3d 6d 95 a2 3d 02 d6 a8 bd
       -0.18512902 0.12142338 0.07938657 -0.08243944
0002c0 11 36 5b 3e 0d 05 73 3d f8 54 0e 3e ef ad 8a ba
       0.21407343 0.05933099 0.138996 -0.0010580401
0002d0 51 2c b9 bb 55 c8 42 be fb 73 63 bd e8 a0 b3 be
       -0.005651035 -0.19021733 -0.05553053 -0.350837
0002e0 42 7e 3a 3e e4 c0 f6 3d c1 6d 01 3e 6a d3 70 3d
       0.18212226 0.1204851 0.12639524 0.05879537
0002f0 2d 0a 35 3e 81 92 8b 3e c7 72 e2 3d dc da 1b be
       0.17679663 0.2726021 0.11057048 -0.15220207
000300 57 15 c3 bd cc c0 9a be ff 32 80 3d 05 55 84 3d
       -0.095255546 -0.30225217 0.06259727 0.06461529
000310 ab eb 63 3d b5 ad 56 3e 82 f1 d7 bd ed b2 de bd
       0.055644672 0.20964701 -0.10544111 -0.10873971
000320 ff d1 5a 3e 6b 89 e3 bd 20 e1 61 3e 38 a2 6c bd
       0.2136917 -0.11110195 0.22058535 -0.05777189
000330 b0 3a a3 3d d8 af aa 3d 00 c2 28 3e f6 66 32 be
       0.07970178 0.08334321 0.16480255 -0.17422089
000340 37 43 26 be 08 85 fd bd 84 b1 ed 3d 2b e1 75 be
       -0.16236578 -0.12378889 0.11606124 -0.24011676
000350 33 3b ec 3d 86 f1 76 be 4b 3d 2e be e0 c1 6b 3d
       0.11534729 -0.24115571 -0.17015569 0.05755794
000360 d4 23 41 be a3 a5 e4 bd df 90 38 3e 1b d1 bf 3d
       -0.18861324 -0.11164405 0.18024014 0.093660556
000370 00 2f fe 3d 8a 26 f3 3c a0 ce 38 be cf ac 72 3e
       0.12411308 0.029681463 -0.18047571 0.23698734
000380 32 e4 41 bd bf ad f8 3d d1 1d 2d bd b3 79 32 3d
       -0.047336765 0.121425144 -0.042264763 0.043573093
000390 9b 0e 5f 3b ed 98 0e be e1 0e 41 be 04 74 58 3e
       0.0034035805 -0.13925524 -0.18853332 0.21138006
0003a0 2a 53 60 be 12 91 92 3e 79 09 11 be 23 15 3b be
       -0.21906725 0.28626305 -0.1416377 -0.18269782
0003b0 6b c9 fe 3c bc f5 72 bd 90 06 0d be 07 d3 2a 3e
       0.031101903 -0.05931638 -0.13772035 0.16682063
0003c0 16 de 13 3e 56 7c 35 3e 37 5a 49 3e 3d 6d 22 3e
       0.14440188 0.17723212 0.1966332 0.15861984
0003d0 b4 99 1c 3e 03 56 b6 bd 76 96 c1 3d 9f 09 4c 3e
       0.15293008 -0.08903124 0.09452526 0.19925545
0003e0 b1 16 10 be 83 5e d4 bd 36 a9 e8 3d 7d 43 4c 3d
       -0.14071156 -0.10369589 0.113603994 0.04986905
0003f0 74 38 3f bd ee 70 06 3e e6 0f 4a be da ce 49 3e
       -0.046684697 0.13129017 -0.19732627 0.19707814

layers.10.bias f4 [20]
000000 4d 2c 78 bd b1 27 77 3c ec 2f 04 be a8 00 8d 3c
       -0.060589124 0.015085147 -0.12908906 0.017212227
000010 2d f7 ab 3d 65 b5 d3 3c c3 e6 a1 bd ab 02 4b be
       0.083967544 0.025843332 -0.079053424 -0.19825236
000020 69 10 86 3d a0 3a 57 3e ca c7 32 3e 8b 76 25 be
       0.06546099 0.21018457 0.17459026 -0.16158502
000030 71 e0 41 3e c0 b1 09 be 3d f1 96 3d 26 96 ec bd
       0.18933274 -0.13446712 0.07370231 -0.11552076
000040 df 61 8b 3d 63 68 24 be 1f 88 24 be d3 92 a0 bc
       0.06805777 -0.16055445 -0.16067551 -0.019601261

layers.12.weight f4 [20, 20]
000000 fc 0f a5 bc 94 88 a8 bb c9 b2 9d 3d d7 bd 43 3e
       -0.020149224 -0.0051432345 0.07700116 0.19115387
000010 94 3e e3 bd 1c f4 5c 3e 99 03 62 3d a1 94 12 3e
       -0.1109592 0.21577495 0.055179212 0.1431451
000020 30 98 d4 bc a3 86 ad bd d4 bf 13 be 95 db a7 bc
       -0.025951475 -0.084729455 -0.14428645 -0.020490447
000030 ae 65 0d be 4e a8 27 be 07 dc 2b 3e ad 73 35 3e
       -0.13808319 -0.16372797 0.16783153 0.17719908
000040 ca 76 6a be b3 dd 4c 3e 0d a3 d8 bd fe c3 cc 3b
       -0.22896877 0.20006447 -0.105779745 0.00624895
000050 6d 5e c9 bc 74 4e 31 3e cf 4a 7c 3c 1e 26 f0 bd
       -0.024581159 0.17315084 0.015398695 -0.1172602
000060 1b 5e 14 be ef fe 7a bd b5 62 8f bb 02 39 89 bd
       -0.14489023 -0.06127828 -0.0043757805 -0.067003265
000070 69 91 4c 3e 8e a1 49 be ea 44 15 3e 12 25 10 3e
       0.19977345 -0.19690534 0.1457707 0.14076641
000080 f7 9b 11 3e 30 e4 8a be 01 b6 2d 3e 7b fc b1 3b
       0.14219652 -0.27127218 0.1696396 0.0054317093
000090 b7 e4 87 bc d6 fa 8c be 6c 19 25 3e 56 9c 92 bb
       -0.016588552 -0.27535123 0.16122979 -0.004474203
0000a0 c4 f9 16 be bd 96 ac 3d cc 5d 2d 3d 31 9e 71 bd
       -0.14743716 0.084271885 0.04232578 -0.058988754
0000b0 38 f1 e4 bd 48 d7 43 3d 18 db e7 bc 44 48 c5 3d
       -0.11178821 0.04781273 -0.028302714 0.09632924
0000c0 51 78 33 bd 98 ee 07 be b4 45 15 3e 94 59 89 3c
       -0.043815915 -0.1327461 0.14577371 0.016766347
0000d0 d7 29 33 be c2 b9 3f bd 62 6b 50 be 66 39 cf bc
       -0.1749643 -0.04680801 -0.20353463 -0.025295924
0000e0 1b 8e b8 bd 90 60 43 3e 4b 29 26 be 69 0e 34 be
       -0.090114795 0.19079804 -0.1622669 -0.17583622
0000f0 1a 0c 0c be 21 d9 17 3e 22 5e cb bd 46 bc 8b bd
       -0.13676491 0.14828922 -0.09930064 -0.0682302
000100 32 ad 78 3e 1c b0 8f bd 8d f1 32 be 7b ef c7 bd
       0.24284819 -0.07016012 -0.17474957 -0.09762474
000110 f1 3c 1e be 51 c9 bc bd 6e ea 2c be 85 88 26 3e
       -0.15452935 -0.092180856 -0.16886303 0.16263016
000120 6f 7a 58 3e 6d 3c c6 3d 6f 55 82 3e 61 c2 86 bd
       0.21140455 0.09679494 0.25455806 -0.065800436
000130 a0 40 c5 3d f1 d8 87 bd f3 b4 33 3d 24 dc 3a bd
       0.09631467 -0.06633175 0.04387374 -0.0456201
000140 1c 7c e3 3d 54 24 81 3d 14 34 1d 3d c7 93 bf bc
       0.11107656 0.06305757 0.038379744 -0.023385895
000150 b9 e8 24 3e 3a 80 0d 3e ec bc f1 3d a3 ac 8c bd
       0.16104402 0.13818446 0.11803612 -0.06868865
000160 44 24 50 be 82 18 74 bd 14 b3 ad bd cf ac c7 bc
       -0.20326334 -0.059593685 -0.08481422 -0.024374394
000170 9b 26 ee 3d 69 a5 5b 3e 1f f0 4d be 09 13 2e be
       0.11628457 0.21449818 -0.2011113 -0.16999449
000180 31 46 7a be a1 58 49 bd a6 3d 95 3d 46 1a 54 be
       -0.24440838 -0.04915679 0.07287149 -0.20713148
000190 c8 8a 8b 3d 7b c4 93 be 9a ac 06 be c0 7f 6b be
       0.0681358 -0.2886084 -0.1315178 -0.22997952
0001a0 76 85 a1 3d 0d 47 25 3e 5e ac 1e 3e 47 03 2f 3e
       0.07886784 0.16140385 0.1549544 0.17091094
0001b0 dd 45 1f 3d d2 3d df 3b 3a 91 e5 bd 95 98 81 3d
       0.038884986 0.0068127895 -0.112093404 0.06327931
0001c0 51 8b 74 3d b3 59 c5 bd d5 3a 5a 3d 0b 1d 0e 3e
       0.059703175 -0.096362494 0.053278763 0.13878267
0001d0 7a 72 73 bd fc e7 21 bd 9b d4 2d bd 91 8b 10 be
       -0.059435345 -0.03952788 -0.042439085 -0.1411574
0001e0 b2 3b d2 3d 1b 33 76 be f7 d1 4d 3d 8e 9c d9 3d
       0.10265292 -0.24042933 0.050249066 0.106255636
0001f0 58 f4 58 3e 3c 98 59 3e 48 65 a8 3d 14 de 01 be
       0.2118696 0.21249479 0.08222443 -0.12682372
000200 66 a5 df 3d cd 9f 06 be a2 fa 2d 3d b9 79 72 bb
       0.10920219 -0.13146897 0.04247535 -0.0036998822
000210 26 8c 67 bd 59 d0 e7 bc d0 2c 2e be 5a 36 ab 3d
       -0.05653014 -0.02829759 -0.17009282 0.08359976
000220 aa 2c b1 3d 55 57 6f 3e 5b 30 e5 bd cc 6a 42 be
       0.08651097 0.23373158 -0.11190864 -0.18986052
000230 5a ca 04 3e 2f 15 84 3d 36 65 f4 bd 76 87 2b 3e
       0.12967816 0.06449353 -0.11933367 0.16750893
000240 f5 b3 ca bd b9 17 82 be 73 de 19 be a9 51 91 be
       -0.09897605 -0.25408724 -0.15026264 -0.28382614
000250 79 50 36 be 06 e5 5b bd dc 6e 08 3e 4a b0 7b bd
       -0.17804135 -0.05368521 0.1332354 -0.06144742
000260 70 27 37 3e 0e f8 38 3c 52 a2 c8 3d bc 78 59 3e
       0.17886138 0.01128961 0.09796585 0.21237463
000270 26 bf 0e 3e 80 5d 83 be 7f ec 7f bd 18 07 37 bc
       0.13940105 -0.25657272 -0.0624814 -0.011171125
000280 05 f6 bf 3a e3 e8 42 be b7 25 e3 3d 0b 8c 8f 3d
       0.0014645463 -0.19034152 0.11091178 0.07009133
000290 9b 11 21 3d 0e 84 6c 3d f9 57 c6 bd 3d af ce bd
       0.03932343 0.057743125 -0.09684748 -0.10092018
0002a0 78 86 2d 3e f4 15 5f 3e 0b be fe bd 2a 46 4b 3e
       0.16945827 0.21785718 -0.124385916 0.19850984
0002b0 e3 85 00 be b5 6a 30 bd 89 46 e4 3d 4a c9 13 bc
       -0.12551074 -0.043070514 0.11146266 -0.009020159
0002c0 91 45 31 ba 79 f7 15 3e e7 50 38 be 14 a1 e6 3d
       -0.00067623804 0.14645185 -0.17999612 0.11261192
0002d0 e8 7a 8a bd b9 e3 45 3d fb a7 2d be 3a a7 dc bd
       -0.06761724 0.048312876 -0.1695861 -0.107740834
0002e0 5b 4e 46 3e b7 e2 c5 3d 14 62 23 be b3 07 2b 3e
       0.19365828 0.09662383 -0.15955383 0.16702156
0002f0 e5 01 bc 3d 8e ff b5 bc 3c 9a 35 3d 13 f3 46 3e
       0.09180049 -0.022216585 0.044336542 0.19428663
000300 83 22 27 3e ec c8 88 bc 96 1d b9 bd 2a 05 27 be
       0.16321759 -0.01669737 -0.09038846 -0.16310564
000310 3f b3 73 bd 13 31 06 3e e1 5e 89 3d 8a 9c 0e 3e
       -0.059497114 0.13104658 0.0670755 0.13926902
000320 ec 50 7f be f9 50 28 3e 8d 8f 23 be e6 f3 02 bd
       -0.24933213 0.16437139 -0.15972729 -0.03197088
000330 d1 dd 0d bd 23 96 26 be 81 f5 00 3e ce 12 47 be
       -0.03463537 -0.1626821 0.12593652 -0.19440767
000340 65 8e 20 be eb e5 02 be 88 22 5b be 02 da 19 bd
       -0.15679319 -0.12783019 -0.21399891 -0.037561424
000350 68 5e 8c 39 f7 e6 35 bc 75 cb 00 be 9c 72 06 be
       0.0002677322 -0.01110243 -0.12577613 -0.13129658
000360 d4 4c f6 bc b2 33 fe bd eb c8 96 bb 3f 77 36 3d
       -0.030065931 -0.12412204 -0.004601588 0.044547316
000370 c6 3b 19 3e e9 b4 18 be 10 59 ca 3d 23 01 24 be
       0.14964208 -0.14912762 0.098802686 -0.16016059
000380 05 5c d2 bd ea 38 7a 3d 57 a9 3e be 9b b2 70 be
       -0.102714576 0.061089434 -0.18619286 -0.23505633
000390 f3 77 eb bc a1 22 55 be f2 10 4a 3e ce c1 3b 3e
       -0.02874372 -0.20813991 0.19733027 0.1833565
0003a0 3f 19 13 bd 7f 00 d0 bc 6a 93 af bd 9d 82 21 3e
       -0.03591275 -0.025390862 -0.08573039 0.15772481
0003b0 66 ac 60 be 85 25 ff bd c0 c2 44 be 3d d3 02 3e
       -0.21940765 -0.12458328 -0.19214916 0.12775894
0003c0 f4 f4 18 3e 9e 2c 5e 3e 6a ac 1e 3e 08 63 3f be
       0.14937192 0.21696708 0.15495458 -0.18690121
0003d0 dd e3 4e bd 99 c9 2e be a1 da e6 bd 69 f7 83 bd
       -0.050510276 -0.17069091 -0.11272169 -0.06443674
0003e0 b5 9a 8c 3d 16 b8 44 3d de 50 5f be d8 fd a7 3d
       0.068654455 0.04802712 -0.21808192 0.08202714
0003f0 8a b8 a7 bd 71 d3 00 be 1b 0e 82 3e ea 03 8a 3d
       -0.08189495 -0.12580658 0.25401387 0.06739028

layers.12.bias f4 [20]
000000 d1 07 3d 3e e5 98 c4 bd 65 91 1a be 23 8c d9 bd
       0.18460013 -0.09599475 -0.15094526 -0.10622432
000010 6c 32 25 3e 0b f7 a5 bd 80 ac 1d 3b 14 d1 44 3e
       0.16132516 -0.0810376 0.0024059117 0.19220382
000020 31 2b fb bd 1a ad de bd f1 67 21 be 21 b1 ea bd
       -0.122640975 -0.1087286 -0.15762307 -0.11459566
000030 e4 12 7e 3e e4 db b8 3c ec be 80 3d ed 51 3e 3e
       0.24811894 0.02256579 0.062864155 0.1858594
000040 6a d0 8d 3d d2 76 2b 3e 1a 25 1e 3d 2b d0 22 be
       0.069245175 0.16744545 0.0386096 -0.15899722
