Models_Data_Figures/CAVITY NS/Models/NSCavityRe1000.pth (torch, 23914 bytes, 14 tensors)

layers.0.weight f4 [30, 2]
0.09280024 -0.60967124 0.029793924 0.24781026 -0.44594026 0.17567326 0.35321143 0.264658
-0.017630583 0.44768065 -0.18033908 0.12184636 -0.4450503 -0.1976528 -0.4618336 -0.086614415
-0.3743676 0.027922144 -0.075173974 0.2732313 -0.0014068735 -0.29809552 -0.05037046 -0.4403594
0.1228318 0.022970038 -0.49265835 0.15621503 0.6150523 0.10449925 -0.12504272 0.41792396
0.039124172 0.70939547 -0.53053635 -0.19316621 0.5045302 0.60229754 -0.020449916 -0.35295826
-0.6114666 0.39465722 0.1453565 -0.4711725 -0.54483896 0.3309875 -0.5165467 0.14104472
0.12268363 -1.0031853 -0.16864558 0.17352915 -0.010316202 -0.25354093 0.5113038 0.5500255
-0.5539977 -0.35168532 0.5012502 0.04237218
00000000: 0d0e be3d 6a13 1cbf 6312 f43c f9c1 7d3e
00000010: 4852 e4be b1e3 333e 21d8 b43e 4181 873e
00000020: 036e 90bc 6636 e53e cfaa 38be 968a f93d
00000030: a2dd e3be 7f65 4abe 7475 ecbe e662 b1bd
00000040: 1cad bfbe fbbc e43c d0f4 99bd f9e4 8b3e
00000050: d766 b8ba fa9f 98be 4151 4ebd ca76 e1be
00000060: 3d8f fb3d a92b bc3c b73d fcbe d5f6 1f3e
00000070: 1174 1d3f b403 d63d 330b 00be 21fa d53e
00000080: ab40 203d f19a 353f 3bd1 07bf 5dcd 45be
00000090: e428 013f 2c30 1a3f 9586 a7bc f2b6 b4be
000000a0: 1389 1cbf 8310 ca3e 56d8 143e 863d f1be
000000b0: 917a 0bbf 3277 a93e 683c 04bf 076e 103e
000000c0: 8e41 fb3d 6068 80bf 6db1 2cbe a0b1 313e
000000d0: 4a05 29bc 1ed0 81be cee4 023f 79ce 0c3f
000000e0: cbd2 0dbf 1910 b4be ef51 003f 738e 2d3d

layers.0.bias f4 [30]
0.75050265 0.29232436 0.36136985 0.84382707 -0.53528756 -0.09849445 0.64190567 -0.011018486
-0.51837337 0.77419394 -0.6928759 0.8107132 -0.56002516 0.33752882 0.37120003 0.9165225
-1.4090513 0.18820524 -0.20454408 -0.83133477 0.0024641773 -0.9656885 -0.36722347 -0.24100988
-0.46387514 -0.55716825 -0.20959988 0.22135943 0.005162867 -0.097438626
00000000: f120 403f 8aab 953e 7805 b93e 0d05 583f
00000010: 9b08 09bf 75b7 c9bd ee53 243f e186 34bc
00000020: 1eb4 04bf 9331 463f 5160 31bf e68a 4f3f
00000030: cf5d 0fbf 94d0 ac3e ee0d be3e 38a1 6a3f
00000040: cb5b b4bf e0b8 403e 0174 51be 5bd2 54bf
00000050: 097e 213b 5d37 77bf b704 bcbe 4bcb 76be
00000060: 0b81 edbe 94a2 0ebf 5aa1 56be 0cac 623e
00000070: 442d a93b e78d c7bd

layers.2.weight f4 [30, 30]
-0.2596218 -0.20063357 0.40989655 -0.10695327 -0.0988482 0.2055739 -0.20742701 0.08467943
-0.33550116 0.3354672 -0.19421963 0.22775608 0.033153303 -0.04944796 -0.14623316 0.3105717
-0.03880822 -0.14197296 -0.18980758 -0.290897 -0.26388568 -0.28147545 0.027436012 0.18456373
0.34006962 0.07151077 0.15699321 -0.22537896 0.15097544 0.13852365 -0.0934258 0.21499887
0.54548573 -0.19015232 -0.14174604 -0.075076625 0.73184234 -0.2727414 0.4954825 0.014891053
-0.0275964 -0.035499733 -0.036957767 0.26499942 -0.8831035 0.05248202 -0.05437384 -1.1981231
0.18952878 0.13481915 -0.077186294 -0.12644784 -0.7281176 -0.2626269 -0.12848431 -0.13788906
-0.15884423 -0.014314775 0.25563884 0.63330346 0.29302564 0.3560084 0.16640753 -0.3213522
0.14148729 -0.058979865 0.28161657 -0.27191174 0.36931318 -0.39493975 0.2865611 -0.012843169
0.1475715 0.23366764 -0.33724904 -0.07857552 0.36842254 -0.08176151 -0.07174134 0.03553865
0.3487727 -0.0042938855 -0.38101202 -0.3739214 0.37578306 0.099521704 -0.23378006 0.21106578
0.0734965 0.26778874 0.5683157 -0.11461778 -0.031644825 -0.005098913 -0.14865024 -0.08769351
0.040658142 0.03239956 -0.22207157 0.0394024 0.0011583646 -0.15688244 0.03451524 -0.4035666
-0.13265362 -0.27645674 0.26022524 -0.03172757 0.1488254 0.097572826 -0.39981472 0.08469531
0.06293899 0.32692385 0.15302964 -0.061907873 -0.012673198 -0.07037213 -0.025459329 -0.3479688
-0.694215 -0.3147311 -0.061693896 -0.66907674 0.27863547 0.61099494 -0.29890344 0.63845336
-0.05684846 0.49484795 -0.27570704 0.56935996 -0.18361056 -0.035143018 0.30673712 0.45116013
-0.36764756 0.16341466 -0.30783924 -0.5495867 -0.11772233 -0.50907665 -0.12524724 0.25911164
0.36547422 0.33043224 0.56610036 -0.64275825 -0.08401835 -0.18020085 -0.11550754 -0.05961845
-0.108489975 -0.039193682 0.20468855 0.23485397 -0.4059491 0.56758267 -0.26848578 0.382443
-0.66138834 0.51238066 -0.095390335 -0.1990184 0.47655573 0.3504994 -0.20464973 0.14104217
-0.32415593 -0.3654915 -0.3180998 -0.25397062 0.15664372 0.028551143 0.32369012 0.31589285
0.5040862 -0.33898166 0.015168026 -0.49532276 -0.37530556 -0.22788846 0.41293234 -0.71612847
-0.09492495 -0.3499249 -0.38918418 -0.36863694 0.10091468 -0.44363102 0.20162362 -0.38486472
0.16422379 -0.08480144 0.1915752 -0.34414196 0.18848298 -0.42199907 0.22560427 0.031482562
0.53405964 0.17078492 -0.32392254 0.24633914 -0.08426984 -0.001852958 -0.2822876 0.4206604
-0.043539245 0.27251023 -0.3309912 -0.13683446 0.28461847 0.4765084 0.38035226 0.15223299
-0.06782572 0.65114754 0.29177913 0.6196734 -0.30463824 0.15909776 -0.34527293 0.18113585
0.21204938 0.56283027 -0.31728402 -0.18388003 -0.510936 -0.45996836 0.07512098 -0.46175444
-0.5324355 -0.3460305 0.03479444 0.03597943 0.2505292 -0.49630597 0.23409054 0.33252883
-0.6754261 -0.04272177 -0.74540454 -0.08086899 0.04015919 0.9511141 -0.08615095 0.3521304
-0.21879481 0.16257496 -0.4445278 0.48295048 0.017156495 -0.19840345 0.29420552 0.24571395
00000000: 26ed 84be e372 4dbe f6dd d13e 510a dbbd
00000010: ed70 cabd f781 523e bf67 54be 696c ad3d
00000020: cfc6 abbe 5bc2 ab3e 83e1 46be e438 693e
00000030: c2cb 073d f289 4abd 25be 15be 4103 9f3e
00000040: 5ef5 1ebd 5c61 11be eb5c 42be 74f0 94be
00000050: 061c 87be 8d1d 90be 7dc1 e03c 46fe 3c3e
00000060: 9b1d ae3e 3d74 923d d4c2 203e bec9 66be
00000070: 4e99 1a3e 25d9 0d3e 0756 bfbd aa28 5c3e
00000080: f4a4 0b3f 4ab7 42be e025 11be c6c1 99bd
00000090: 055a 3b3f c3a4 8bbe e2af fd3e 9af9 733c
000000a0: d811 e2bc 2b68 11bd 0761 17bd 01ae 873e
000000b0: 1213 62bf 63f7 563d 1bb7 5ebd 195c 99bf
000000c0: d513 423e 080e 0a3e d913 9ebd 8b7b 01be
000000d0: ea65 3abf 0877 86be 6491 03be ca32 0dbe
000000e0: 10a8 22be 8588 6abc 18e3 823e 2d20 223f
000000f0: 7507 963e bc46 b63e bc66 2a3e 4788 a4be
00000100: 0be2 103e df94 71bd 0c30 903e 0438 8bbe
00000110: 9e16 bd3e 8b35 cabe 23b8 923e 286c 52bc
00000120: fc1c 173e 9246 6f3e e8ab acbe 34ec a0bd
00000130: e1a1 bc3e 9472 a7bd 20ed 92bd fa90 113d
00000140: 5692 b23e b9b3 8cbb 0214 c3be a072 bfbe
00000150: a366 c03e 09d2 cb3d 0a64 6fbe a121 583e
00000160: 5585 963d 9b1b 893e 237d 113f babc eabd
00000170: 019e 01bd c814 a7bb c537 18be a898 b3bd
00000180: 2789 263d 67b5 043d bb66 63be 6964 213d
00000190: 44d4 973a caa5 20be da5f 0d3d 48a0 cebe
000001a0: 5ad6 07be bd8b 8dbe 3e3c 853e c5f4 01bd
000001b0: b065 183e 43d4 c73d 84b4 ccbe bc74 ad3d
000001c0: 28e6 803d 9062 a73e cdb3 1c3e 1c93 7dbd
000001d0: 3fa3 4fbc 431f 90bd 1590 d0bc f728 b2be
000001e0: 13b8 31bf 6f24 a1be bdb2 7cbd 9d48 2bbf
000001f0: 4fa9 8e3e 2a6a 1c3f df09 99be ae71 233f
00000200: eed9 68bd b65c fd3e 7929 8dbe 93c1 113f
00000210: 6804 3cbe 20f2 0fbd a60c 9d3e 76fe e63e
00000220: 4d3c bcbe 2c56 273e 1b9d 9dbe b7b1 0cbf
00000230: 6818 f1bd d952 02bf d040 00be 48aa 843e
00000240: 701f bb3e 6a2e a93e f4eb 103f ce8b 24bf
00000250: d011 acbd 9286 38be 388f ecbd 7a32 74bd
00000260: fe2f debd 8e89 20bd e099 513e 8f7d 703e
00000270: 8fd8 cfbe 194d 113f f876 89be 92cf c33e
00000280: bf50 29bf 612b 033f 025c c3bd 7bcb 4bbe
00000290: 1dff f33e a874 b33e b38f 51be 5c6d 103e
000002a0: c4f7 a5be b421 bbbe fadd a2be 7008 82be
000002b0: 3667 203e 16e4 e93c b6ba a53e b5bc a13e
000002c0: cb0b 013f 018f adbe 5083 783c f29a fdbe
000002d0: 0d28 c0be 985b 69be de6b d33e 3254 37bf
000002e0: 0368 c2bd 5b29 b3be 2643 c7be fbbd bcbe
000002f0: 5bac ce3d 9b23 e3be 6c76 4e3e fd0c c5be
00000300: 482a 283e 61ac adbd 4a2c 443e 6033 b0be
00000310: af01 413e 4310 d8be ce04 673e dcf3 003d
00000320: 22b8 083f 3ee2 2e3e 2dd9 a5be 5440 7c3e
00000330: aa95 acbd f4de f2ba 0088 90be cd60 d73e
00000340: 3556 32bd 7686 8b3e ae77 a9be 551e 0cbe
00000350: 83b9 913e e9f8 f33e 88bd c23e f7e2 1b3e
00000360: 36e8 8abd 9bb1 263f 1364 953e eaa2 1e3f
00000370: 8bf9 9bbe 86ea 223e 9dc7 b0be ad7b 393e
00000380: 7923 593e a515 103f 0d73 a2be 0c4b 3cbe
00000390: b4cc 02bf f980 ebbe 07d9 993d 146b ecbe
000003a0: b14d 08bf e92a b1be 9d84 0e3d 2b5f 133d
000003b0: 5d45 803e d11b febe 6eb5 6f3e 3841 aa3e
000003c0: bae8 2cbf 06fd 2ebd d5d2 3ebf a49e a5bd
000003d0: f67d 243d 377c 733f e96f b0bd 704a b43e
000003e0: bf0b 60be 0d7a 263e 2699 e3be 4945 f73e
000003f0: c78b 8c3c 462a 4bbe 1ba2 963e 709c 7b3e

layers.2.bias f4 [30]
-0.20047615 0.25389218 0.18161242 -0.23331913 -0.31583098 -0.4457996 0.057264097 0.05619757
-0.27702117 -0.3240254 -0.17942311 0.07368345 0.22099741 0.06318733 -0.0076327305 -0.010444265
-0.15362474 -0.0601982 0.6076352 -0.491353 0.03717136 0.3991426 0.40765393 -0.08444071
0.45859078 0.12401476 -0.13997115 -0.06565169 0.3780477 0.38941127
00000000: 9f49 4dbe 28fe 813e 9bf8 393e 36eb 6ebe
00000010: 99b4 a1be d83f e4be c28d 6a3d 6c2f 663d
00000020: b8d5 8dbe a8e6 a5be b1ba 37be 59e7 963d
00000030: 254d 623e 5c68 813d fc1b fabb 6c1e 2bbc
00000040: ce4f 1dbe 6392 76bd fb8d 1b3f 9f92 fbbe
00000050: ff40 183d 6b5c cc3e 04b8 d03e 40ef acbd
00000060: 69cc ea3e 73fb fd3d 9954 0fbe 6574 86bd
00000070: 788f c13e ea60 c73e

layers.4.weight f4 [30, 30]
0.09373394 0.010500315 0.043908663 -0.10168644 0.100850716 -0.08665842 -0.11804661 0.3212388
0.3673527 0.23660609 0.15899777 -0.09999212 -0.04765156 -0.11100252 -0.5325483 -0.2416508
-0.09203327 0.06408751 -0.41873014 0.12348548 -0.34580895 -0.20240067 0.39286307 -0.056116913
-0.19278173 -0.5551188 0.051741216 0.12106537 -0.22475588 0.014111078 -0.30444127 0.32575423
-0.08458826 0.19471845 0.008993302 -0.04085729 0.25293645 -0.3459998 -0.35178012 -0.33521214
-0.37649494 0.047644008 0.18324876 -0.03321686 0.5125711 0.029200288 0.055884954 -0.06372621
0.38239792 -0.361732 0.020308498 0.12369471 -0.14036538 0.3267615 0.16201925 0.015934426
0.3053124 0.055862788 0.35585615 0.19120446 0.61212164 0.2272784 0.4858032 -0.42894766
0.61797 0.11876059 0.07059849 0.35037035 0.2268678 0.39433467 0.26005423 -0.041399367
0.44198123 -0.5429587 -1.3473322 -0.02581234 -0.60125214 0.2514353 -1.2318854 0.4709951
-0.1645509 -0.6444161 0.863913 0.048890416 -0.38702786 -0.83399194 0.15391232 0.22491063
-0.85335267 0.049591344 -0.7550477 -0.44514942 -0.52481955 -0.20634057 -0.7415904 0.07605993
-0.3755961 -0.17396486 -0.064359315 -0.08578909 -0.44441247 -0.1666299 0.0331334 -0.17901686
1.7762729 -0.42720383 1.1346016 -0.5741816 0.8864262 -0.85941947 -0.23584193 0.48674068
-0.8139129 0.32369167 0.22668734 0.19948745 -0.4240225 0.3760855 0.70756584 0.38958874
-0.29402292 0.1304462 0.024742398 0.1286462 -0.45672822 -0.2057185 -0.13582699 -0.2427985
-0.18415953 -0.62236476 -0.17858164 -0.37306425 0.3571314 -0.17063679 0.04753221 -0.16686054
-0.09065693 -0.011373933 0.3544549 -0.14363231 0.12010515 -0.3082778 -0.2287183 0.30973566
0.082423404 0.15480362 0.20257084 -0.2089362 0.014765029 -0.075024895 0.3483905 0.41133508
0.44864115 -0.22276364 0.22078222 -0.11036125 -0.33483243 0.5888639 -0.22118981 -0.14015236
0.23422682 -0.08296057 0.50610745 -0.11315237 -0.29797333 -0.06871092 -0.4181281 0.1619264
-0.31453964 0.18012081 0.040491708 -0.25933683 0.556735 0.011992416 -0.36119378 -0.21093377
0.119333856 -0.06401664 -0.46064973 -0.21510687 0.44248906 -0.6743297 -0.36568323 -0.050471418
0.49999577 0.51034194 -0.18757163 0.35508797 0.008350008 0.38438654 0.76702166 0.27553982
-0.12819861 -0.04145604 0.091359146 -0.0039193137 0.18526143 0.14796497 -0.58915526 0.56766754
0.035653096 -0.105836 0.18438064 -0.20308499 -0.22813572 -0.30302802 -0.514264 0.036103945
-0.04548576 -0.26087946 0.25862107 0.28429863 -0.13763957 0.07741632 0.024836123 -0.10194159
0.037537627 0.14588234 -0.18058775 0.35834324 0.1724434 0.009598717 -0.010840674 0.12725033
-0.5655687 0.07816576 -0.34036458 0.2177359 -0.22004648 0.05999904 0.18970217 -0.118722275
0.29813954 -0.31366372 -0.20947626 -0.51071286 -0.13963604 -0.16554403 -0.39329562 -0.34325096
-0.060660247 0.2983557 0.35778677 -0.14706263 -0.19503619 0.09186695 -0.16298379 -0.11321548
-0.1255454 -0.37181193 0.196822 -0.046673074 0.42614374 -0.36627948 -0.2780291 -0.37989923
00000000: 94f7 bf3d 8309 2c3c 92d9 333d fb40 d0bd
00000010: d28a ce3d f879 b1bd 6cc2 f1bd 6979 a43e
00000020: a715 bc3e de48 723e 50d0 223e abc8 ccbd
00000030: 482e 43bd 4a55 e3bd 1655 08bf 4f73 77be
00000040: f07b bcbd 5040 833d cc63 d6be f5e5 fc3d
00000050: df0d b1be 1f42 4fbe 5925 c93e d9da 65bd
00000060: 9368 45be 441c 0ebf 99ee 533d 1ff1 f73d
00000070: 6826 66be 2732 673c badf 9bbe 42c9 a63e
00000080: 9c3c adbd 4664 473e a458 133c f959 27bd
00000090: e380 813e e326 b1be 861c b4be eda0 abbe
000000a0: f2c3 c0be 5d26 433d 90a5 3b3e 670e 08bd
000000b0: dc37 033f 7135 ef3c 9fe7 643d e382 82bd
000000c0: a9c9 c33e f034 b9be 025e a63c a753 fd3d
000000d0: f1bb 0fbe 494d a73e 60e8 253e ea88 823c
000000e0: e851 9c3e 61d0 643d c732 b63e 1acb 433e
000000f0: 01b4 1c3f abbb 683e 32bb f83e 079f dbbe
00000100: 4833 1e3f c138 f33d f195 903d be63 b33e
00000110: 0850 683e 3ce6 c93e d425 853e 6292 29bd
00000120: 5d4b e23e 57ff 0abf 6275 acbf 6774 d3bc
00000130: a9eb 19bf 21bc 803e 6cae 9dbf 4526 f13e
00000140: 0880 28be 74f8 24bf 6729 5d3f 5141 483d
00000150: 8428 c6be 7f80 55bf 319b 1d3e f94e 663e
00000160: 5275 5abf 4b20 4b3d ce4a 41bf a0ea e3be
00000170: 935a 06bf f14a 53be ded8 3dbf 4fc5 9b3d
00000180: 224e c0be d823 32be d1ce 83bd 31b2 afbd
00000190: 088a e3be 07a1 2abe e3b6 073d 3250 37be
000001a0: e95c e33f 76ba dabe a03a 913f 91fd 12bf
000001b0: d4ec 623f ea02 5cbf 8c80 71be 1336 f93e
000001c0: 995c 50bf eaba a53e ba20 683e 7046 4c3e
000001d0: 7a19 d9be 478e c03e 0923 353f 2d78 c73e
000001e0: 2c8a 96be b093 053e 92b0 ca3c d4bb 033e
000001f0: 48d8 e9be dfa7 52be 3b16 0bbe 2ca0 78be
00000200: 5194 3cbe 4c53 1fbf 1bde 36be 4702 bfbe
00000210: edd9 b63e 69bb 2ebe 22b1 423d 7ddd 2abe
00000220: 57aa b9bd bc59 3abc 1d7b b53e 5914 13be
00000230: b0f9 f53d 96d6 9dbe 2135 6abe ac95 9e3e
00000240: 9acd a83d d784 1e3e bb6e 4f3e 5ff3 55be
00000250: 05e9 713c a7a6 99bd 3d60 b23e 839a d23e
00000260: 4bb4 e53e 271c 64be bc14 623e 1405 e2bd
00000270: 286f abbe c9bf 163f 957f 62be 1a84 0fbe
00000280: 28d9 6f3e 3be7 a9bd 4290 013f 6ebc e7bd
00000290: f68f 98be 50b8 8cbd e314 d6be 09d0 253e
000002a0: 570b a1be 9771 383e a2da 253d ccc7 84be
000002b0: 2f86 0e3f d77b 443c 64ee b8be 06ff 57be
000002c0: 4f65 f43d 281b 83bd 48da ebbe fa44 5cbe
000002d0: ed8d e23e dfa0 2cbf d53a bbbe 1ebb 4ebd
000002e0: 72ff ff3e c5a5 023f c712 40be 17ce b53e
000002f0: 79ce 083c 50ce c43e 885b 443f 8e13 8d3e
00000300: 7f46 03be cfcd 29bd 811a bb3d 966d 80bb
00000310: 2cb5 3d3e 2184 173e e1d2 16bf a952 113f
00000320: fb08 123d 8bc0 d8bd 47ce 3c3e 83f5 4fbe
00000330: 699c 69be 7d26 9bbe cea6 03bf bbe1 133d
00000340: 474f 3abd fe91 85be fb69 843e 978f 913e
00000350: 63f1 0cbe 738c 9e3d 2075 cb3c c1c6 d0bd
00000360: 0ec1 193d 2e62 153e ffeb 38be c478 b73e
00000370: 0195 303e f043 1d3c 159d 31bc e94d 023e
00000380: 1cc9 10bf 5f15 a03d 4444 aebe 29f6 5e3e
00000390: dd53 61be 8ec1 753d 4941 423e aa24 f3bd
000003a0: bfa5 983e 8898 a0be f280 56be 14be 02bf
000003b0: c0fc 0ebe 6084 29be 0b5e c9be 97be afbe
000003c0: e176 78bd 14c2 983e d42f b73e 9697 16be
000003d0: 91b7 47be bd24 bc3d 39e5 26be 85dd e7bd
000003e0: f98e 00be 225e bebe b58b 493e 442c 3fbd
000003f0: 832f da3e fc88 bbbe d559 8ebe 2782 c2be

layers.4.bias f4 [30]
-0.44563833 0.1616633 -0.87374294 0.16781425 -0.016987992 -0.14113684 -0.38055864 -0.1400957
-0.2255173 0.15544161 0.21984255 -0.12890565 0.112273864 0.0829349 0.23692675 0.11308292
-0.019495739 0.06154655 0.07105658 -0.10213103 0.08121519 -0.11210421 0.0923951 0.048496548
0.30470124 0.28518376 -0.39571938 0.06740862 0.08190738 -0.05119662
00000000: b52a e4be 108b 253e 9ead 5fbf 80d7 2b3e
00000010: 672a 8bbc 2d86 10be 95d8 c2be 3f75 0fbe
00000020: 02ee 66be 162c 1f3e 681e 613e d8ff 03be
00000030: d7ef e53d c6d9 a93d ed9c 723e 0598 e73d
00000040: 87b5 9fbc 3c18 7c3d 1d86 913d 132a d1bd
00000050: 2654 a63d e496 e5bd a439 bd3d 51a4 463d
00000060: cd01 9c3e 9b03 923e bb9b cabe 880d 8a3d
00000070: 0ebf a73d 8cb3 51bd

layers.6.weight f4 [30, 30]
0.22492734 0.09828647 -0.51989865 -0.40330365 0.08773063 0.08751156 -0.21191348 -0.018690612
0.40828222 -0.14693816 -0.27324742 -0.30219886 0.12506734 0.19494028 0.24487463 0.17341353
0.1798027 -0.18314904 -0.03693946 -0.019266466 -0.16961527 0.118435286 0.30082235 0.36544186
0.16151243 0.057319168 -0.037661437 0.054883733 0.06160033 -0.15710227 -0.22477075 0.133371
-0.041130435 -0.3640237 0.05647462 0.22595899 0.12302266 0.1245403 0.060783 0.113472834
-0.18910106 0.08600917 -0.34154916 -0.34316593 -0.06868461 0.23968852 -0.0099240225 0.22500066
0.021572953 0.071662165 -0.059786964 0.04332211 -0.027874643 -0.4011564 -0.10924672 0.0448716
0.1263782 -0.09310946 -0.040780727 -0.022438508 -0.18214951 -0.12277101 0.3407015 -1.5973383
-0.22670047 -0.009222087 0.34909737 0.08251879 -0.17377768 -0.06352337 -0.18612918 0.19543889
-0.08386547 -0.14319485 -0.102792956 -0.17201546 -0.42308676 0.00018799795 0.1676392 0.2788615
0.09555108 -0.22605656 -0.29059982 0.01846994 -0.007280445 -0.32332796 0.15224494 -0.105789386
-0.33431616 -0.037743073 0.14282303 -0.20795801 -0.27423552 -0.048474744 -0.23518924 0.3479583
0.25089416 -0.067953244 -0.07386397 -0.3596272 -0.3043806 -0.014865734 -0.10375269 0.005833229
0.26355696 -0.007558308 -0.22601186 -0.067687 0.4092515 0.069662556 0.3535717 0.16228673
-0.31575876 0.15237176 -0.27608296 -0.6574174 -0.035222284 -0.10620748 -0.19335371 0.15625341
0.040293694 -0.2477948 0.26504168 -0.06495045 -0.21112919 0.10329676 -0.15573607 0.12726203
-0.06731705 0.01814212 -0.23723926 -0.055071075 -0.11335093 0.040939886 -0.26195768 0.10069722
0.20998007 0.005132172 0.08318038 0.059439197 0.27200904 -0.08783886 0.117260076 0.14386353
-0.038976185 -0.2574864 -0.17067672 -0.12938833 -0.16488141 0.23158444 0.028497664 0.18659118
0.14159556 -0.06393746 -0.3271726 -0.054300025 -0.13372979 0.20118974 -0.49284595 -0.13981879
-0.1616271 0.16623007 -0.24735704 0.22322665 -0.6233514 0.3799182 -0.599928 0.2787203
0.0072375424 0.013907447 -0.08338407 0.14256756 0.21183008 0.29767057 0.10045875 -0.122699894
-0.044038817 0.13841495 0.11838115 0.25357586 0.2950425 -0.48787493 -0.120108955 -0.37391344
-0.0101090195 0.31652862 0.14701442 0.0004933886 0.33150062 -0.28559703 -0.061293244 0.0444985
0.22736505 0.2507424 -0.041261926 -0.27546868 -0.099509805 -0.44607052 0.36901194 0.13740997
0.41047892 -0.0050938614 -0.0126455305 0.24666603 -0.49066788 0.21728459 0.4184921 -0.31578922
0.035878308 0.39835882 -0.12399683 0.01937082 0.39162216 -0.20672731 -0.31567064 0.08792698
0.018488728 0.35146824 -0.2226944 -0.042460404 -0.01020184 0.20822112 -0.3693902 0.002614165
-0.16157417 -0.15943724 -0.5329816 -0.48047975 0.053444043 -0.013003059 0.16318054 -0.27806172
0.27926537 0.07822624 0.17464602 -0.035024542 0.06632968 -0.14218481 0.074287154 0.27172107
-0.0018461103 -0.22488025 0.19523436 -0.10477778 -0.12686457 0.36113787 0.23642041 0.14226238
0.27316666 -0.28467354 -0.3538033 0.07825425 0.005134125 0.34028715 -0.30599657 -0.3274577
00000000: 5a53 663e 6b4a c93d 1418 05bf d17d cebe
00000010: 1eac b33d 4339 b33d d9ff 58be 0e1d 99bc
00000020: 5e0a d13e f576 16be 16e7 8bbe cfb9 9abe
00000030: a711 003e 6d9e 473e 6ac0 7a3e 5193 313e
00000040: 331e 383e 6c8b 3bbe d54d 17bd b5d4 9dbc
00000050: a0af 2dbe 338e f23d 6305 9a3e 321b bb3e
00000060: 8463 253e 81c7 6a3d e142 1abd c4cd 603d
00000070: a150 7c3d 6bdf 20be 4e2a 66be 6892 083e
00000080: 6378 28bd 5061 babe ee51 673d cb61 673e
00000090: 4ef3 fb3d fc0e ff3d 98f7 783d 7264 e83d
000000a0: b5a3 41be 9325 b03d 88df aebe 72b3 afbe
000000b0: 84aa 8cbd e870 753e 5e98 22bc 9366 663e
000000c0: c3b9 b03c 9dc3 923d 2de3 74bd 8672 313d
000000d0: 5d59 e4bc 5f64 cdbe bfbc dfbd 48cb 373d
000000e0: 4969 013e 2cb0 bebd b109 27bd f6d0 b7bc
000000f0: 6785 3abe 5e6f fbbd 6d70 ae3e 9575 ccbf
00000100: 2b24 68be 3d18 17bc e4bc b23e 9dff a83d
00000110: c7f2 31be 8a18 82bd a698 3ebe 2221 483e
00000120: a9c1 abbd aca1 12be 1d85 d2bd d224 30be
00000130: d49e d8be 5121 4539 9ca9 2b3e efc6 8e3e
00000140: 49b0 c33d 5f7b 67be 80c9 94be 464e 973c
00000150: cd90 eebb 3e8b a5be 19e6 1b3e 1ba8 d8bd
00000160: 7d2b abbe 7b98 1abd 3340 123e f2f2 54be
00000170: 9968 8cbe 748d 46bd 73d5 70be 9727 b23e
00000180: 3375 803e 122b 8bbd fe45 97bd 0e21 b8be
00000190: c6d7 9bbe 688f 73bc 4a7c d4bd ac24 bf3b
000001a0: f0f0 863e afab f7bb a76f 67be 7b9f 8abd
000001b0: 6a89 d13e 3eab 8e3d 5a07 b53e 7e2e 263e
000001c0: 22ab a1be 5807 1c3e bf5a 8dbe 824c 28bf
000001d0: 3e45 10bd 4f83 d9bd 84fe 45be e500 203e
000001e0: 000b 253d ecbd 7dbe 8bb3 873e be04 85bd
000001f0: 4032 58be 408d d33d 4779 1fbe fa50 023e
00000200: 86dd 89bd c99e 943c d9ee 72be 3592 61bd
00000210: 8824 e8bd 95b0 273d 511f 86be 583a ce3d
00000220: 0405 573e c72b a83b 7a5a aa3d 8476 733d
00000230: c544 8b3e dce4 b3bd 0d26 f03d f650 133e
00000240: 7ea5 1fbd 42d5 83be e1c5 2ebe 607e 04be
00000250: acd6 28be 7924 6d3e ef73 e93c c211 3f3e
00000260: 6dfe 103e a5f1 82bd 2b83 a7be b469 5ebd
00000270: 76f0 08be af04 4e3e 4e56 fcbe a82c 0fbe
00000280: 9381 25be 3738 2a3e 2a4b 7dbe 8795 643e
00000290: f593 1fbf a384 c23e e294 19bf 6db4 8e3e
000002a0: e828 ed3b 10dc 633c 44c5 aabd 3bfd 113e
000002b0: fce9 583e 4768 983e 51bd cd3d 154a fbbd
000002c0: 0c62 34bd a6bc 0d3e d171 f23d b2d4 813e
000002d0: d00f 973e beca f9be affb f5bd 9571 bfbe
000002e0: 4da0 25bc 0a10 a23e f38a 163e c056 013a
000002f0: 73ba a93e c639 92be a00e 7bbd 0f44 363d
00000300: 62d2 683e 4f61 803e 4402 29bd 3b0a 8dbe
00000310: cccb cbbd 5b63 e4be 22ef bc3e 33b5 0c3e
00000320: 4b2a d23e 68ea a6bb 332f 4fbc 0596 7c3e
00000330: d238 fbbe da7f 5e3e 9944 d63e 20af a1be
00000340: 22f5 123d b0f5 cb3e 0df2 fdbd 8eaf 9e3c
00000350: b382 c83e 53b0 53be 959f a1be 0f13 b43d
00000360: ac75 973c a5f3 b33e 000a 64be f6ea 2dbd
00000370: 9e25 27bc eb37 553e b620 bdbe 6952 2b3b
00000380: b373 25be 8443 23be 7b71 08bf 7101 f6be
00000390: 24e8 5a3d c80a 55bc cd18 273e 1b5e 8ebe
000003a0: dffb 8e3e 1435 a03d 68d6 323e e575 0fbd
000003b0: dbd7 873d e598 11be dd23 983d 061f 8b3e
000003c0: 2ff9 f1ba 0247 66be 84eb 473e bc95 d6bd
000003d0: c9e8 01be 10e7 b83e 3118 723e 3bad 113e
000003e0: 80dc 8b3e bbc0 91be b525 b5be c443 a03d
000003f0: 293c a83b 1e3a ae3e 95ab 9cbe 89a8 a7be

layers.6.bias f4 [30]
-0.28451276 -0.0557806 0.011577513 -0.29481634 0.082384646 0.13051419 -0.42412907 0.19808552
-0.091923654 0.72072434 -0.45965534 -0.048454225 0.27722976 0.087809466 -0.15877955 -0.07804248
-0.1312376 0.11280353 0.110742815 -0.23319355 0.03499631 -0.28077236 -0.028321223 -0.047734644
-0.14514418 0.09808476 0.0126558645 -0.19127943 0.095057115 0.19195995
00000000: a8ab 91be 337a 64bd 9caf 3d3c 2bf2 96be
00000010: 48b9 a83d 83a5 053e 7227 d9be eed6 4a3e
00000020: 7842 bcbd 6481 383f f257 ebbe f077 46bd
00000030: 0ff1 8d3e 73d5 b33d 1b97 22be bcd4 9fbd
00000040: 2663 06be 8a05 e73d 21cd e23d 4aca 6ebe
00000050: 4a58 0f3d 65c1 8fbe e901 e8bc 6785 43bd
00000060: ada0 14be aae0 c83d 8b5a 4f3c c1de 43be
00000070: 4ead c23d 2691 443e

layers.8.weight f4 [30, 30]
-0.2610529 0.29548094 0.014033368 -0.15168142 -0.0042827195 -0.15929678 -0.06299037 -0.07774665
0.1513296 0.12929362 -0.2441821 0.06609801 -0.38674426 -0.0020233856 0.1005454 -0.008511533
-0.35110077 -0.07913248 -0.08436596 -0.11413784 -0.2427072 0.21325436 -0.038321972 -0.10566234
-0.14118701 -0.11250777 0.12471908 0.219485 0.18190734 0.31587324 0.2406992 0.018975396
-0.02728579 0.26924205 0.030746516 -0.06986185 0.00526191 -0.19617143 0.03482543 0.44956443
0.05263781 -0.22957397 0.21586983 -0.29926383 -0.09576123 -0.006429511 0.09772984 -0.061505
0.0717954 -0.13132815 -0.121996164 0.1398067 -0.17910363 0.12803148 0.38751924 0.2645515
-0.21179461 -0.32496607 0.26733175 -0.12227401 -0.27435076 -0.086309165 -0.18444109 -0.039900664
0.17911045 0.11357808 -0.013510726 -0.13952789 -0.029877175 0.09983114 0.27471727 0.15861428
-0.031391744 -0.20236658 -0.09614773 -0.1932217 -0.12998326 0.006248604 0.23329458 0.020216951
0.11278672 0.11441295 0.015324369 0.27300894 0.048561696 -0.18701287 -0.015560688 -0.27107653
-0.16546665 -0.029472398 -0.1768791 -0.15068473 -0.012934793 -0.16631368 0.21943627 -0.0029058082
-0.057180595 0.18989557 -0.0083727995 -0.31618237 -0.592973 0.097342655 -0.11388196 0.44080824
-0.26952842 0.20620807 0.014072231 -0.012589055 0.07764964 -0.2236821 -0.31990203 -0.22921821
0.2777412 -0.05253705 0.09677174 -0.34577632 0.039095096 0.2884752 -0.096321546 0.063600965
-0.0032138242 0.062205635 0.34635922 0.24069121 -0.21435948 -0.050000176 0.2940173 0.08383619
0.1143216 0.19749513 0.46861202 -0.14123577 0.424293 -0.34525323 -0.19895296 -0.19928695
0.01902904 0.13547903 -0.14875491 -0.177072 0.15668371 0.06327087 -0.0048167133 -0.033094186
0.33100522 -0.051537234 0.025641264 0.06851953 0.23779678 0.29552296 -0.08883313 0.042004894
-0.000390287 0.36305895 0.47178996 -0.07899362 -0.032921992 0.053598654 0.2380826 -0.2772877
-0.12585993 0.26270983 -0.2553706 -0.035926007 -0.055331483 0.18753922 0.14145389 -0.2682225
0.19274977 0.36198023 0.008007563 -0.33447227 0.02273873 0.023618989 0.122300245 -0.07490398
-0.0038113291 0.3450675 0.025303012 -0.19855486 -0.14348826 0.1594385 0.15086755 0.046590675
0.20859407 -0.057388566 -0.07694588 -0.14353715 -0.18436623 -0.24260534 0.11383581 -0.012105021
-0.23962148 -0.11817098 0.068825565 -0.15883088 0.028062487 -0.10597863 0.18666677 0.023299722
0.0304704 -0.002191564 -0.19369785 0.037995763 0.03518339 -0.1122353 0.023477338 0.19239256
-0.22394656 0.004769423 -0.19315912 0.012417808 -0.22659387 0.14038834 0.34212157 0.0871303
0.37895596 -0.020198511 0.55463016 0.31711346 0.259763 0.40306532 0.1475202 -0.16444883
0.18675789 0.34667706 -0.17899606 0.1000305 0.12304564 0.34213126 0.08231585 0.29640868
0.30170378 -0.07290908 -0.12353789 0.20406829 0.11559615 -0.026516886 -0.04747358 -0.34190783
0.22012885 0.03612901 0.14959624 0.0056516873 0.15820108 0.3878803 -0.27694294 -0.15791321
-0.011383337 -0.041890673 -0.27700156 -0.16019085 -0.0531628 0.24877715 0.22503744 -0.011393307
00000000: baa8 85be 4749 973e 36ec 653c 6052 1bbe
00000010: 0e56 8cbb b21e 23be 1801 81bd a339 9fbd
00000020: 26f6 1a3e 8c65 043e df0a 7abe 655e 873d
00000030: 5803 c6be c79a 04bb bfea cd3d f573 0bbc
00000040: 7bc3 b3be 3610 a2bd 0fc8 acbd 1ac1 e9bd
00000050: 3c88 78be 5a5f 5a3e 80f7 1cbd 7f65 d8bd
00000060: 5493 10be 796a e6bd b86c ff3d adc0 603e
00000070: eb45 3a3e 23ba a13e da79 763e 4a72 9b3c
00000080: 7386 dfbc 18da 893e 1ee0 fb3c bb13 8fbd
00000090: 1a6c ac3b 2ae1 48be 1ca5 0e3d 4f2d e63e
000000a0: bf9a 573d 7015 6bbe fb0c 5d3e 1c39 99be
000000b0: 771e c4bd a6ae d2bb 9526 c83d abec 7bbd
000000c0: 7709 933d e37a 06be 20d9 f9bd 7d29 0f3e
000000d0: f166 37be af1a 033e ec68 c63e 4b73 873e
000000e0: b0e0 58be f461 a6be b5df 883e cc6a fabd
000000f0: b477 8cbe dcc2 b0bd 20de 3cbe e16e 23bd
00000100: bb68 373e a09b e83d 185c 5dbc 66e0 0ebe
00000110: fac0 f4bc 4574 cc3d bea7 8c3e c86b 223e
00000120: a194 00bd 2f39 4fbe 1ae9 c4bd e9db 45be
00000130: 551a 05be 17c1 cc3b c6e4 6e3e 059e a53c
00000140: b9fc e63d 5651 ea3d 1013 7b3c d4c7 8b3e
00000150: a1e8 463d 4d80 3fbe 42f2 7ebc 8bca 8abe
00000160: 1770 29be 1970 f1bc cb1f 35be 194d 1abe
00000170: 74ec 53bc 224e 2abe e7b3 603e 5f6f 3ebb
00000180: 3336 6abd fc73 423e 112e 09bc a8e2 a1be
00000190: 14cd 17bf 965b c73d f23a e9bd 9eb1 e13e
000001a0: a1ff 89be 3528 533e 378f 663c 5342 4ebc
000001b0: c606 9f3d ec0c 65be 33ca a3be 2eb8 6abe
000001c0: 1834 8e3e 1731 57bd 4330 c63d 9809 b1be
000001d0: 2e22 203d 05b3 933e 3b44 c5bd 3941 823d
000001e0: 069f 52bb 56cb 7e3d ff55 b13e c277 763e
000001f0: 0d81 5bbe fccc 4cbd 6f89 963e 4fb2 ab3d
00000200: 7121 ea3d 2a3c 4a3e eaed ef3e 1ca0 10be
00000210: ef3c d93e 08c5 b0be 53ba 4bbe e111 4cbe
00000220: cae2 9b3c 04bb 0a3e 3553 18be 5d52 35be
00000230: b271 203e 2894 813d 85d5 9dbb c58d 07bd
00000240: 8479 a93e b518 53bd a10d d23c f853 8c3d
00000250: 0081 733e c94e 973e 25ee b5bd 530d 2c3d
00000260: 6f9f ccb9 dde2 b93e 748e f13e 68c7 a1bd
00000270: 36d9 06bd 438a 5b3d edcb 733e a7f8 8dbe
00000280: 6de1 00be e781 863e efbf 82be 2627 13bd
00000290: 44a3 62bd 480a 403e 4ad9 103e 7654 89be
000002a0: 3260 453e 7955 b93e 2732 033c f33f abbe
000002b0: 9346 ba3c 9c7c c13c 8d78 fa3d 4267 99bd
000002c0: 7ec7 79bb b0ac b03e 4348 cf3c f751 4bbe
000002d0: 96ee 12be d943 233e 067d 1a3e ddd5 3e3d
000002e0: af99 553e 4610 6bbd cd95 9dbd 67fb 12be
000002f0: 80ca 3cbe 896d 78be c022 e93d 2354 46bc
00000300: 555f 75be a003 f2bd 6bf4 8c3d 90a4 22be
00000310: 4de3 e53c 530b d9bd 9325 3f3e 0fdf be3c
00000320: 0f9d f93c 58a0 0fbb bb58 46be 72a1 1b3d
00000330: 751c 103d 9fdb e5bd 8c53 c03c 8e02 453e
00000340: 3f52 65be d248 9c3b 81cb 45be 1074 4b3c
00000350: 3908 68be f6c1 0f3e 8f2a af3e 5f71 b23d
00000360: 8406 c23e 5977 a5bc 3efc 0d3f b25c a23e
00000370: a8ff 843e 945e ce3e 890f 173e 4665 28be
00000380: 763d 3f3e a87f b13e be4a 37be cadc cc3d
00000390: 5aff fb3d d42b af3e 3695 a83d e1c2 973e
000003a0: eb78 9a3e 5b51 95bd 6f01 fdbd 47f7 503e
000003b0: adbd ec3d f139 d9bc a873 42bd 8b0e afbe
000003c0: 7569 613e 03fc 133d c22f 193e ca31 b93b
000003d0: 77ff 213e 3f98 c63e 77cb 8dbe 00b4 21be
000003e0: 2d81 3abc 8e95 2bbd 26d3 8dbe 1209 24be
000003f0: 3cc1 59bd 70bf 7e3e 3770 663e feaa 3abc

layers.8.bias f4 [30]
0.18701842 -0.2895063 0.06654853 0.27223682 -0.19226235 -0.13736862 0.0029137547 -0.18838118
-0.17023502 -0.046916116 0.21510985 -0.076806374 -0.07140847 0.2718245 -0.17102472 -0.26906246
-0.29464105 -0.02049573 -0.25878933 0.047785517 0.014540969 -0.07696414 0.16178983 -0.19022588
-0.047543712 -0.16583855 0.093861386 -0.6002981 0.01939595 -0.004763404
00000000: c281 3f3e 2b3a 94be 984a 883d a062 8b3e
00000010: 6ce0 44be 5caa 0cbe b1f4 3e3b ffe6 40be
00000020: 1752 2ebe 1d2b 40bd c245 5c3e a94c 9dbd
00000030: 9b3e 92bd 952c 8b3e 1b21 2fbe 8ec2 89be
00000040: 31db 96be a9e6 a7bc 0980 84be bfba 433d
00000050: 3f3d 6e3c 609f 9dbd 3cac 253e 93ca 42be
00000060: 32bd 42bd 95d1 29be 663a c03d 23ad 19bf
00000070: 41e4 9e3c 5416 9cbb

layers.10.weight f4 [30, 30]
-0.02504683 -0.07244405 -0.006878001 -0.17781074 -0.11430339 -0.2768227 -0.17509785 -0.09949117
-0.19616508 -0.19502583 0.2141253 0.048311066 -0.12013059 0.4866788 0.19823426 0.060151484
0.2764042 0.029235702 -0.21466337 0.41848582 0.3224494 0.17789578 0.018927926 0.022254754
0.060906086 0.034952052 0.1942063 0.05237967 -0.026617603 -0.12637421 -0.050909586 0.10195331
-0.017542128 0.041075382 0.17389387 0.0024006274 0.04774737 0.08623592 -0.035849288 -0.123994514
0.13703579 0.14697789 -0.026160013 0.07131276 -0.004784304 0.01407653 0.14417098 -0.12358705
-0.07283631 -0.16633473 0.22221053 0.120776586 0.13110903 -0.010187735 0.16221353 -0.14938541
-0.04400059 -0.19135877 -0.09064128 0.19450888 -0.183113 0.23713692 0.12287234 0.07448423
-0.118809685 0.19493385 -0.07897451 -0.3018879 0.27579305 0.051098447 0.049788836 0.104571044
-0.2479586 -0.30243298 0.15347447 -0.17129382 -0.037142545 -0.1224899 0.041274887 0.28247046
0.37607515 -0.28116602 -0.2287669 0.077352315 -0.20040637 0.14653136 0.49375516 0.47278795
0.18977074 -0.25226524 0.28468525 0.26206577 0.10765778 -0.14814268 0.13056774 0.015314584
0.12112224 0.06425656 0.0108224945 0.14350502 -0.2442489 0.21549965 -0.1361565 -0.40016818
0.3185471 -0.067428626 -0.11856467 -0.0357335 -0.2570538 -0.0147833275 0.2889461 -0.21152931
0.014151762 0.16431703 0.061381888 0.3313377 -0.11343436 0.24297853 0.19517893 0.16077153
-0.005898478 -0.0036903706 -0.10219959 -0.10275578 0.036844466 -0.11219157 -0.19779935 0.04280151
-0.14812641 -0.04690799 0.08820763 -0.07022832 -0.1198222 0.03594987 0.07453981 0.10918348
-0.10592139 0.15088017 0.22629417 -0.084717706 -0.008495165 0.1205095 -0.08639066 -0.065495126
-0.10621629 -0.21528694 -0.016720323 -0.026596323 -0.08585439 -0.18595086 0.21531622 0.010724276
-0.16945527 -0.0033054661 0.1548296 -0.051424135 -0.09550574 -0.30328318 -0.38872957 -0.1300777
0.17786357 0.16403182 0.22454673 0.21159428 -0.053759426 0.15162057 0.18244466 -0.06229293
-0.17896388 -0.013556624 0.00082464895 -0.2838979 -0.06331525 -0.09734084 0.046503965 -0.30582142
0.12862709 -0.15209712 -0.18646745 0.27195248 -0.085498825 -0.052840374 -0.04270151 0.32396019
-0.0003871215 -0.13158208 -0.17209294 -0.32238865 0.024169685 0.03485365 0.1392269 -0.4176507
-0.28487304 0.5174118 -0.49102604 0.06615592 -0.24887548 -0.04681068 0.24945906 0.18909045
-0.0034045456 0.3238518 -0.05234154 -0.05117973 0.042505037 -0.16378115 0.11857915 0.055801276
-0.13255417 -0.10531515 -0.076643966 0.073082626 0.19663943 0.06296868 -0.10439952 0.117256604
-0.06736845 0.23729014 0.111660734 0.01832964 0.06057103 -0.32289553 -0.12277518 -0.15802974
-0.09207322 0.03291283 0.008737054 -0.11920546 0.009526489 -0.059764814 -0.13173155 -0.005321274
0.0626712 0.21888125 0.09212633 0.13080458 -0.21518974 0.2381985 0.016021509 0.040791474
0.17620894 -0.0001393698 0.009007306 -0.16106519 0.10177737 -0.027317205 -0.080789864 0.054811437
0.18108676 0.024429377 -0.2905147 -0.12522277 -0.0037492004 -0.4991015 -0.08723446 0.04616158
00000000: 022f cdbc 8c5d 94bd db60 e1bb 0514 36be
00000010: e517 eabd b4bb 8dbe da4c 33be 07c2 cbbd
00000020: 80df 48be dab4 47be aa43 5b3e d3e1 453d
00000030: 0707 f6bd f72d f93e ecfd 4a3e 6761 763d
00000040: da84 8d3e b67f ef3c b7d0 5bbe c643 d63e
00000050: 1618 a53e 502a 363e bd0e 9b3c 9a4f b63c
00000060: a978 793d e229 0f3d 04de 463e 118c 563d
00000070: 290d dabc 3e68 01be 9286 50bd e6cc d03d
00000080: 82b4 8fbc a93e 283d 3c11 323e d853 1d3b
00000090: bf92 433d 759c b03d b4d6 12bd d6f0 fdbd
000000a0: 1c53 0c3e 5f81 163e 864d d6bc 6d0c 923d
000000b0: a7c5 9cbb 3fa1 663c 8fa1 133e 351b fdbd
000000c0: 342b 95bd a753 2abe 288b 633e b759 f73d
000000d0: 7241 063e 75ea 26bc 4e1b 263e 7df8 18be
000000e0: f639 34bd 8ef3 43be 23a2 b9bd 562d 473e
000000f0: f981 3bbe 05d4 723e 7ea4 fb3d 308b 983d
00000100: 7e52 f3bd bd9c 473e 63bd a1bd 0d91 9abe
00000110: bf34 8d3e 9b4c 513d 61ef 4b3d 5829 d63d
00000120: dce8 7dbe 7fd8 9abe 6928 1d3e a667 2fbe
00000130: c822 18bd fcdb fabd db0f 293d f89f 903e
00000140: ec8c c03e fef4 8fbe df41 6abe e46a 9e3d
00000150: 5437 4dbe 510c 163e 7acd fc3e 4311 f23e
00000160: 4353 423e e928 81be 44c2 913e 7c2d 863e
00000170: af7b dc3d b7b2 17be 8db3 053e 05ea 7a3c
00000180: f00e f83d f198 833d d550 313c fbf2 123e
00000190: 621c 7abe f1ab 5c3e 9c6c 0bbe d8e2 ccbe
000001a0: 9b18 a33e 0518 8abd 09d2 f2bd 4a5d 12bd
000001b0: 8e9c 83be c535 72bc bef0 933e 249b 58be
000001c0: cbdc 673c b942 283e 936b 7b3d 18a5 a93e
000001d0: 4650 e8bd 5dcf 783e fcdc 473e 4ba1 243e
000001e0: 0548 c1bb 25da 71bb 054e d1bd 9f71 d2bd
000001f0: 39ea 163d b2c4 e5bd ea8b 4abe a350 2f3d
00000200: 73ae 17be 9822 40bd 34a6 b43d ded3 8fbd
00000210: 5765 f5bd 2c40 133d 54a8 983d 979b df3d
00000220: 50ed d8bd 5580 1a3e a9b9 673e 7a80 adbd
00000230: 4e2f 0bbc afcd f63d 96ed b0bd 4f22 86bd
00000240: ed87 d9bd 2e74 5cbe 0ff9 88bc 88e0 d9bc
00000250: 6dd4 afbd e769 3ebe db7b 5c3e e0b4 2f3c
00000260: af85 2dbe 85a0 58bb a78b 1e3e 1da2 52bd
00000270: 8398 c3bd ef47 9bbe 9007 c7be 1733 05be
00000280: de21 363e f5f7 273e 94ef 653e 2cac 583e
00000290: d832 5cbd 6c42 1b3e c6d2 3a3e df26 7fbd
000002a0: 4f42 37be 9a1c 5ebc 412d 583a 115b 91be
000002b0: 6dab 81bd a25a c7bd f17a 3e3d a094 9cbe
000002c0: d2b6 033e 59bf 1bbe 53f1 3ebe 5b3d 8b3e
000002d0: 021a afbd 266f 58bd c7e7 2ebd 1cde a53e
000002e0: 91f6 cab9 74bd 06be 2239 30be 2010 a5be
000002f0: 81ff c53c b3c2 0e3d 7f91 0e3e 50d6 d5be
00000300: e1da 91be 1a75 043f c467 fbbe c17c 873d
00000310: 37d9 7ebe 8ebc 3fbd 3272 7f3e eda0 413e
00000320: cc1e 5fbb e7cf a53e 1564 56bd d6a1 51bd
00000330: c319 2e3d 3fb6 27be a0d9 f23d e18f 643d
00000340: 48bc 07be 78af d7bd 83f7 9cbd 58ac 953d
00000350: d95b 493e b9f5 803d 6acf d5bd 3b24 f03d
00000360: 78f8 89bd 30fc 723e 62ae e43d 0b28 963c
00000370: 5419 783d 9052 a5be 8e71 fbbd 8cd2 21be
00000380: e290 bcbd 9bcf 063d dc25 0f3c fe21 f4bd
00000390: fe14 1c3c f3cb 74bd a3e4 06be 155e aebb
000003a0: c259 803d 6822 603e bbac bc3d a3f1 053e
000003b0: b35a 5cbe 4fea 733e 8a3f 833c f614 273d
000003c0: 1e70 343e cc23 12b9 6193 133c 46ee 24be
000003d0: a770 d03d 55c8 dfbc 2875 a5bd f581 603d
000003e0: cf6e 393e 1e20 c83c 58be 94be 663a 00be
000003f0: 25b5 75bb 3b8a ffbe fba7 b2bd ed13 3d3d

layers.10.bias f4 [30]
0.11601271 0.13428222 -0.31091297 -0.4815546 0.21049261 0.31320703 0.37994966 -0.12284465
-0.30288145 0.1376131 -0.48380747 -0.1930175 -0.13778423 -0.10256174 -0.089511506 -0.012439529
-0.056494027 0.057289876 0.0998191 -0.42460516 -0.019769963 0.36551756 -0.51917535 0.37520155
-0.08578808 0.07240608 -0.3438631 -0.35594615 0.21100047 0.20018013
00000000: 1298 ed3d 4781 093e fc2f 9fbe 538e f6be
00000010: 608b 573e ac5c a03e c388 c23e fa95 fbbd
00000020: 4713 9bbe 73ea 0c3e 9db5 f7be 61a6 45be
00000030: 4f17 0dbe e40b d2bd cf51 b7bd 2bcf 4bbc
00000040: 4866 67bd caa8 6a3d f56d cc3d d965 d9be
00000050: 9ef4 a1bc 1e25 bb3e ade8 04bf 6b1a c03e
00000060: a9b1 afbd a449 943d d30e b0be 933e b6be
00000070: 8210 583e 05fc 4c3e

layers.12.weight f4 [3, 30]
1.667925 0.28188977 -1.4155247 -0.9784741 0.521024 0.5264023 -0.08558353 -0.8833618
-1.02339 0.119396694 0.027184691 -1.3253038 -1.0126865 0.6710231 -0.61203337 -0.55034053
-0.17274812 0.36601588 0.092767544 -0.042214885 0.19782631 1.358521 -1.4583262 0.08468413
0.14695925 -0.1676646 -0.00109549 0.042291235 -0.044782348 0.199636 0.2609172 0.10690993
-0.37177774 0.49057704 -0.062409524 0.37582752 -0.62488973 0.12210135 -0.1978056 0.06623119
0.07204423 -0.37572324 0.33027118 0.61305875 0.5834793 -0.08984249 -0.5158695 0.01922061
0.7939127 0.5048855 0.021642817 -0.14778937 0.032365475 -0.58496475 0.14442538 -0.18544088
0.61862504 -0.23379607 -0.029063035 0.5378624 0.25596988 0.055279054 0.12987955 0.0320261
-0.053249348 0.25652447 0.40372923 -0.13465087 -0.0750899 -0.055254716 0.26083297 -0.1264812
0.0029364163 -0.4485192 0.26263246 0.545312 0.11728817 -0.2192363 -0.38358217 -0.121785805
0.07473008 -0.34519953 0.04303073 0.17669117 0.20871463 0.020954907 -0.1962583 -0.12664697
-0.16896373 0.1465788
00000000: 917e d53f db53 903e ea2f b5bf 477d 7abf
00000010: d461 053f 4dc2 063f 6b46 afbd 0024 62bf
00000020: 72fe 82bf 4186 f43d 6eb2 de3c 8ea3 a9bf
00000030: b69f 81bf 2bc8 2b3f 38ae 1cbf 1ee3 0cbf
00000040: e2e4 30be 6f66 bb3e e9fc bd3d 84e9 2cbd
00000050: fb92 4a3e 04e4 ad3f 6faa babf e06e ad3d
00000060: 7c7c 163e 45b0 2bbe 8b96 8fba 9339 2d3d
00000070: b26d 37bd 616d 4c3e f096 853e 98f3 da3d
00000080: a759 bebe ea2c fb3e 21a1 7fbd 776c c03e
00000090: c6f8 1fbf 4610 fa3d 8d8d 4abe 38a4 873d
000000a0: ed8b 933d cc5e c0be 4e19 a93e 6bf1 1c3f
000000b0: e65e 153f 57ff b7bd 0610 04bf 8a74 9d3c
000000c0: dd3d 4b3f 2d40 013f 474c b13c 1956 17be
000000d0: a991 043d 40c0 15bf 3fe4 133e 37e4 3dbe
000000e0: 365e 1e3f 3d68 6fbe 9a15 eebc 5ab1 093f
000000f0: 7c0e 833e 4a6c 623d 25ff 043e cd2d 033d
00000100: fd1b 5abd 2d57 833e 99b5 ce3e ebe1 09be
00000110: bcc8 99bd c552 62bd e68b 853e 4a84 01be
00000120: e470 403b 4fa4 e5be c377 863e 9199 0b3f
00000130: c834 f03d 7b7f 60be e264 c4be d66a f9bd
00000140: 160c 993d febd b0be fe40 303d 88ee 343e
00000150: 4ab9 553e a0a9 ab3c f0f7 48be beaf 01be
00000160: d404 2dbe c118 163e

layers.12.bias f4 [3]
2.8288364 0.4160824 0.03208909
00000000: a80b 3540 c108 d53e da6f 033d
