Models_Data_Figures/BURGERS/Burgers_Epochs/Models/1epoch.pth (torch, 15082 bytes, 9 tensors)

layers.0.weight f4 [30, 2]
0.23390524 0.50115716 0.5483259 -0.13084601 0.3473336 0.5291803 -0.16286588 -0.2971198
0.6729639 -0.47370067 -0.5688978 0.7053802 0.28545332 0.53603435 0.70155406 0.49625832
-0.5492651 -0.071390525 -0.13572997 -0.6348467 0.47435507 -0.28717995 0.59089106 0.021536982
-0.34477872 -0.6466343 -0.39483848 -0.16129023 -0.4642411 0.017647244 -0.59456694 -0.7155931
-0.63227814 -0.60660416 0.20538943 -0.44590554 -0.16812347 0.12135696 -0.11317384 0.39186376
-0.29380548 0.08944488 0.2086029 0.5571681 0.34074217 0.31198037 -0.5067232 0.65557057
-0.5033912 -0.534574 -0.4581014 -0.71280366 0.4004168 0.009341852 -0.3136319 0.2391452
-0.20754084 0.1838458 0.4815991 -0.14966296
00000000: db84 6f3e d64b 003f 165f 0c3f 7ffc 05be
00000010: b6d5 b13e 5c78 073f 50c6 26be 1620 98be
00000020: 5d47 2c3f e588 f2be 49a3 11bf cc93 343f
00000030: f026 923e 8c39 093f 0c99 333f 9215 fe3e
00000040: a39c 0cbf 3235 92bd ccfc 0abe 5085 22bf
00000050: abde f23e 4009 93be a344 173f 536e b03c
00000060: d686 b0be d389 25bf 4528 cabe 4429 25be
00000070: 02b1 edbe f490 903c 8a35 18bf 1c31 37bf
00000080: fbdc 21bf 694a 1bbf 9b51 523e bb4d e4be
00000090: 8f28 2cbe ff89 f83d b0c7 e7bd 5ea2 c83e
000000a0: ac6d 96be e12e b73d 009c 553e 92a2 0e3f
000000b0: c275 ae3e e4bb 9f3e 9db8 01bf 79d3 273f
000000c0: 3fde 00bf d7d9 08bf 448c eabe 4d7a 36bf
000000d0: 6e03 cd3e 910e 193c 5c94 a0be 7be2 743e
000000e0: 9685 54be 1342 3c3e 2894 f63e 3f41 19be

layers.0.bias f4 [30]
-0.5212306 0.10646563 0.23205142 -0.3850227 -0.6010974 -0.49788895 -0.30732635 0.43788448
-0.06457567 -0.16785754 -0.13347207 -0.53576446 0.08275141 -0.09993271 -0.43818358 -0.5773915
0.54070246 -0.7209398 0.4032244 0.71815324 0.34060985 0.69910437 0.23869875 -0.12653057
-0.41844472 -0.23245902 0.4044061 0.37394127 0.1543975 -0.5291864
00000000: 5e6f 05bf a70a da3d e39e 6d3e b221 c5be
00000010: 85e1 19bf 4deb febe e159 9dbe 6532 e03e
00000020: 4040 84bd d9e2 2bbe e7ac 08be dc27 09bf
00000030: 9279 a93d 85a9 ccbd 9959 e0be eecf 13bf
00000040: 7a6b 0a3f 838f 38bf 6e73 ce3e e4d8 373f
00000050: 6a64 ae3e 81f8 323f 726d 743e 3b91 01be
00000060: 633e d6be bd09 6ebe 510e cf3e 3b75 bf3e
00000070: 611a 1e3e c378 07bf

layers.2.weight f4 [30, 30]
-0.10830613 -0.060119368 -0.0030592731 -0.06217891 -0.04181397 -0.13919976 -0.0372668 0.09381519
-0.039546806 -0.009110498 0.05869526 -0.06210051 -0.1506736 -0.05057302 -0.14462511 0.13379431
-0.08296534 -0.16417038 -0.07322097 0.16243944 0.16443068 -0.09117869 0.04194266 -0.17115006
-0.0893339 0.071157604 -0.045257024 0.043384146 0.07123564 -0.09593574 0.013340688 -0.1055213
-0.04787511 -0.08784792 -0.01986266 -0.07219986 0.081335135 -0.1545814 -0.22858825 -0.16386285
-0.05302429 -0.17216267 0.055760704 0.10515009 0.15068449 0.047376253 -0.17656967 0.078221746
-0.056564942 -0.11319277 0.2156411 -0.06809683 0.13309248 0.034012116 -0.14451633 0.023081452
-0.13620773 0.010887164 0.0066794646 0.09479461 -0.027857713 0.07299589 -0.070381336 -0.029580459
-0.1313858 0.04160329 -0.049702216 0.046999224 0.095509484 0.09811463 0.08392759 -0.03772705
0.09175929 0.14822166 0.120092474 -0.14286584 -0.03454345 -0.09149676 -0.03814262 0.07591555
-0.02139741 0.04381869 0.005103681 0.021167079 0.047817346 0.16354014 -0.055263754 -0.1350065
0.12806557 0.016760275 0.12019362 0.04686158 -0.034658164 0.0075066118 -0.15838051 -0.076339416
0.05408171 -0.023561433 0.004015467 0.008559017 -0.14167224 0.072640866 0.09161905 -0.07506964
0.034553215 0.1319976 0.020068252 0.022993015 -0.05466535 -0.1805412 -0.186249 -0.107431956
0.113800384 0.082941085 -0.1544452 0.12531093 -0.02476709 0.09413222 0.12140442 0.12146663
-0.16943552 0.04790863 0.075181805 -0.13163684 0.09205163 -0.03258299 0.12962058 0.15276703
-0.008659822 -0.12227994 0.09261631 0.039039996 0.15133463 0.02046874 -0.08613097 0.20377527
-0.028839476 -0.098338515 -0.10306322 -0.087381005 0.04068873 -0.12811142 -0.079049036 0.12808488
0.008608886 -0.07051632 0.013663716 -0.0323484 -0.1337724 0.1331125 0.036182456 -0.038947042
-0.12998569 0.042296346 0.031024033 0.038093533 -0.07272708 0.029307598 -0.19053848 -0.18757573
-0.07361478 -0.2322056 -0.044402473 0.082526036 0.19108991 0.11029745 -0.11355576 -0.09563388
-0.062391426 0.089593746 -0.13806802 -0.14049503 -0.115485065 0.118424885 -0.037598334 -0.017234683
-0.21424708 0.11411597 0.12126153 0.02845015 -0.20452169 0.14968327 0.13117255 -0.07266638
-0.16007832 -0.0766005 0.02236481 0.08440903 0.043533802 0.042918164 -0.07538868 -0.17869496
-0.0019524373 -0.13613637 0.13715225 0.089659855 0.14112712 0.0702511 -0.06680618 -0.13754965
0.044301897 0.07856238 -0.12780184 -0.072729155 -0.050525334 0.10580745 -0.103991136 0.07397965
-0.030393817 0.03689935 -0.14308602 0.033084407 0.118531086 -0.035945706 0.1357075 0.1501661
0.086812116 0.21729185 0.0663055 -0.17724712 0.16042434 -0.13339967 -0.06770677 0.06267252
-0.035849653 -0.16591746 -0.12849264 0.08488643 -0.1958782 -0.11989988 0.06272497 0.077598
0.036624458 0.16476172 -0.08763085 0.029239016 -0.096130446 0.016671069 -0.06032186 -0.14574021
0.09012673 -0.087531194 0.16055728 0.013620105 -0.13718244 -0.032531157 -0.13645174 -0.123425096
0.14545634 -0.10694031 -0.11019692 0.14373183 -0.06881744 -0.042723823 -0.054497723 -0.07997434
00000000: 9bcf ddbd ba3f 76bd 167e 48bb 50af 7ebd
00000010: 2045 2bbd 628a 0ebe 12a5 18bd 2e22 c03d
00000020: d5fb 21bd 3344 15bc 716a 703d 1b5d 7ebd
00000030: 2e4a 1abe a825 4fbd 9b18 14be 6001 093e
00000040: bbe9 a9bd 481c 28be e0f4 95bd 8656 263e
00000050: 8460 283e e5bb babd 11cc 2b3d f641 2fbe
00000060: b1f4 b6bd 14bb 913d 6e5f 39bd 93b3 313d
00000070: fee3 913d f579 c4bd e792 5a3c 8d1b d8bd
00000080: b118 44bd 9ce9 b3bd 04b7 a2bc 85dd 93bd
00000090: 0993 a63d 964a 1ebe 0a13 6abe aacb 27be
000000a0: ff2f 59bd 694b 30be 5665 643d ee58 d73d
000000b0: 094d 1a3e 9a0d 423d aece 34be b932 a03d
000000c0: a4b0 67bd 9cd1 e7bd 05d1 5c3e 5a76 8bbd
000000d0: 6549 083e 4a50 0b3d 17fc 13be 5015 bd3c
000000e0: 0a7a 0bbe 1360 323c 69df da3b ad23 c23d
000000f0: dc35 e4bc df7e 953d 1724 90bd b852 f2bc
00000100: 008a 06be 3668 2a3d 8d94 4bbd 4282 403d
00000110: 7a9a c33d 53f0 c83d 3ae2 ab3d ae87 1abd
00000120: 4bec bb3d 6bc7 173e 0bf3 f53d 6c4b 12be
00000130: 6f7d 0dbd a762 bbbd 703b 1cbd 9d79 9b3d
00000140: 9f49 afbc 3a7b 333d c73c a73b 9566 ad3c
00000150: 1fdc 433d 1177 273e 3f5c 62bd 253f 0abe
00000160: 9f23 033e d84c 893c 1328 f63d eef1 3f3d
00000170: b8f5 0dbd 06fa f53b 802e 22be d757 9cbd
00000180: c884 5d3d e803 c1bc 2e94 833b 1f3b 0c3c
00000190: 8712 11be bcc4 943d c5a2 bb3d 1dbe 99bd
000001a0: ac87 0d3d 612a 073e 2d66 a43c d95b bc3c
000001b0: c6e8 5fbd cbdf 38be 0fb8 3ebe 4905 dcbd
000001c0: 2d10 e93d 04dd a93d e226 1ebe 8251 003e
000001d0: 5ae4 cabc 65c8 c03d e1a2 f83d 7fc3 f83d
000001e0: 8180 2dbe d73b 443d ebf8 993d cfcb 06be
000001f0: 9185 bc3d be75 05bd 42bb 043e f66e 1c3e
00000200: ede1 0dbc e86d fabd 9fad bd3d 67e8 1f3d
00000210: 77f7 1a3e 0fae a73c 6f65 b0bd 77aa 503e
00000220: c440 ecbc b465 c9bd cf12 d3bd d0f4 b2bd
00000230: 3aa9 263d a42f 03be 76e4 a1bd af28 033e
00000240: 490c 0d3c dc6a 90bd c7dd 5f3c c27f 04bd
00000250: a2fb 08be a54e 083e 0e34 143d ef86 1fbd
00000260: f81a 05be ef3e 2d3d 1d26 fe3c f707 1c3d
00000270: eff1 94bd 7d16 f03c 851c 43be da13 40be
00000280: 59c3 96bd 4ec7 6dbe 5edf 35bd 6903 a93d
00000290: 13ad 433e a1e3 e13d ec8f e8bd b2db c3bd
000002a0: 278e 7fbd ed7c b73d b461 0dbe eedd 0fbe
000002b0: 6f83 ecbd bf88 f23d b600 1abd c02f 8dbc
000002c0: 9663 5bbe a2b5 e93d f757 f83d 4a10 e93c
000002d0: 226e 51be 9246 193e 1952 063e 1cd2 94bd
000002e0: 92eb 23be b9e0 9cbd 6836 b73c a4de ac3d
000002f0: 8050 323d f5ca 2f3d 6165 9abd d0fb 36be
00000300: ede8 ffba 5567 0bbe a471 0c3e 969f b73d
00000310: a183 103e cfdf 8f3d aed1 88bd d1d9 0cbe
00000320: e875 353d 50e5 a03d 7cde 02be 06f3 94bd
00000330: a7f3 4ebd 94b1 d83d 4ef9 d4bd a582 973d
00000340: 74fc f8bc c623 173d 2485 12be 8483 073d
00000350: 6dc0 f23d ce3b 13bd e8f6 0a3e 24c5 193e
00000360: 8dca b13d c181 5e3e 2ecb 873d 4580 35be
00000370: 4746 243e ec99 08be d9a9 8abd 735a 803d
00000380: 16d7 12bd 44e6 29be 9393 03be f0d8 ad3d
00000390: 4b94 48be 118e f5bd f375 803d b3eb 9e3d
000003a0: 8703 163d 4cb7 283e ce77 b3bd a986 ef3c
000003b0: 0ae0 c4bd c491 883c 0e14 77bd ec3c 15be
000003c0: 5d94 b83d 8e43 b3bd 2169 243e dc26 5f3c
000003d0: 8e79 0cbe 643f 05bd 01ba 0bbe 4cc6 fcbd
000003e0: 82f2 143e 8503 dbbd ecae e1bd 702e 133e
000003f0: 28f0 8cbd 2dff 2ebd 0139 5fbd 96c9 a3bd

layers.2.bias f4 [30]
-0.17161745 0.079539336 0.13631438 -0.17398009 -0.18883923 0.08640413 -0.139223 0.16334902
0.008851551 -0.046455357 0.14905934 0.12878606 -0.14507896 -0.019475035 -0.05780994 0.06676504
-0.093536496 0.027786016 -0.109219104 0.025843903 0.17285861 -0.10822976 -0.1489466 0.16151802
-0.13904038 -0.087134905 -0.12706923 0.058387365 -0.0075730686 0.053222638
00000000: 7cbc 2fbe 85e5 a23d ff95 0b3e d627 32be
00000010: 125f 41be a6f4 b03d 7990 0ebe f744 273e
00000020: 1906 113c f947 3ebd 03a3 183e 7ee0 033e
00000030: 948f 14be 1c8a 9fbc 1eca 6cbd 1cbc 883d
00000040: 1090 bfbd 809f e33c 44ae dfbd 98b6 d33c
00000050: d901 313e 90a7 ddbd 7585 18be fb64 253e
00000060: 9a60 0ebe c973 b2bd 701e 02be 9727 6f3d
00000070: 8127 f8bb fbff 593d

layers.4.weight f4 [30, 30]
0.11934449 0.13433015 -0.072674245 0.1080826 0.07555941 -0.004324429 -0.09359743 -0.16313332
-0.11319564 0.059316315 0.081407726 -0.16746737 -0.028229758 0.03730069 -0.042741466 0.15496543
0.1441361 -0.020865884 -0.011805721 0.016067091 -0.004702454 -0.0059832837 -0.020608021 0.19909811
0.021017151 -0.076254055 -0.13795184 -0.021477481 -0.085243724 0.06923395 0.1604608 0.028309675
-0.15959896 -0.12001718 -0.10336177 0.0505555 0.078901835 0.07884783 -0.19072786 -0.122878574
-0.030180838 -0.03132134 0.049891386 -0.15713525 -0.0931982 0.11482054 0.09795034 0.069644645
0.098640054 -0.15093128 0.059268214 0.11032661 0.100121126 0.019935943 0.10131871 0.15918678
-0.15013504 0.09571341 -0.0095049115 -0.10293174 -0.034124672 -0.14177953 0.04159321 -0.070698954
-0.015817758 -0.121500924 0.033620894 0.05457038 -0.083148144 -0.12315746 -0.07396989 -0.102963015
-0.124482624 0.026583811 0.09137054 -0.046983942 0.14799987 -0.07273911 0.15091237 0.100834705
-0.0135778515 0.06147232 0.04899067 -0.04920352 0.1856036 0.021330511 -0.13992122 -0.15405892
-0.07020938 -0.07989694 -0.08459751 0.09225722 -0.07553481 0.05602912 0.15038346 0.05866026
0.07587222 0.10814865 -0.046908256 0.10326177 -0.1751363 -0.10628363 0.01714731 -0.07980296
0.12354259 -0.072670735 -0.14944208 -0.09501083 -0.18779732 0.116687514 -0.13153738 0.04610535
-0.008082116 0.18515615 -0.14260532 -0.16138914 -0.1611003 -0.051641617 0.15508068 -0.018744571
0.11353194 0.10986252 0.16242073 -0.15033631 0.08917939 -0.03060998 0.007852208 0.009131935
0.106299 -0.07856356 0.049078096 -0.08306903 -0.03695777 -0.08297737 -0.049136017 0.115930974
-0.13145831 -0.005819325 -0.09585647 0.06485315 -0.17840438 0.14019184 -0.021022163 -0.09624413
0.08684939 -0.12953557 -0.16121131 0.05156847 -0.07125679 -0.0049497224 0.0042061135 -0.005215561
0.07861462 0.039012574 0.04064403 -0.09558978 -0.14611422 -0.18881108 0.022493755 0.0010255913
-0.054819167 0.18145904 -0.010969904 0.13928613 -0.10809111 -0.11463076 -0.020078687 -0.018799447
0.12909836 -0.01889813 -0.01045062 0.19594511 0.12277511 0.025415838 0.0075411936 0.106184535
-0.031682525 -0.14787495 0.16858056 -0.08032211 -0.088251635 0.0801192 -0.12525254 0.13708009
0.17452905 0.024230516 -0.18547471 0.116148844 -0.0692416 0.12799394 -0.08905758 -0.0060994364
0.058785755 -0.11945507 0.17971373 -0.10223374 0.09592292 -0.02533404 -0.1127354 0.15183046
-0.01665239 0.03088231 -0.0069140783 0.10039981 -0.09798594 -0.07592884 -0.023124171 0.04415666
0.012663202 -0.051951744 -0.025822807 0.14934236 0.1133324 0.095788166 -0.09936864 0.039254364
-0.16517507 0.034752112 -0.117203034 -0.016990276 -0.15508923 -0.120504335 -0.0043833856 -0.02937636
0.11385814 -0.13797271 -0.0777559 -0.11908229 0.015899131 -0.17109025 -0.08627138 -0.10926687
-0.0520447 0.114622355 0.15097198 0.17309485 0.07863233 -0.13198747 0.031624354 -0.018616546
-0.044252038 -0.18909425 0.12484144 -0.13734768 -0.13482982 -0.058136594 -0.14952461 0.17311704
0.056142733 0.1880074 0.15707049 0.087815225 -0.03875801 0.12234388 -0.13880949 0.06028953
00000000: e26a f43d d88d 093e 3cd6 94bd 695a dd3d
00000010: e4be 9a3d f1b3 8dbb 02b0 bfbd 6c0c 27be
00000020: 1ed3 e7bd aaf5 723d 18b9 a63d 917c 2bbe
00000030: 1842 e7bc 9cc8 183d ad11 2fbd 42af 1e3e
00000040: 6a98 133e eeee aabc c86c 41bc 229f 833c
00000050: 0b17 9abb 6c0f c4bb 27d2 a8bc 60e0 4b3e
00000060: 292c ac3c 162b 9cbd 3f43 0dbe 8bf1 afbc
00000070: 4394 aebd 87ca 8d3d d64f 243e b1e9 e73c
00000080: e96d 23be 91cb f5bd 56af d3bd 4913 4f3d
00000090: 4997 a13d f97a a13d 2a4e 43be c3a7 fbbd
000000a0: ce3d f7bc ce4a 00bd e95a 4c3d 10e8 20be
000000b0: b3de bebd 0827 eb3d 309a c83d daa1 8e3d
000000c0: cc03 ca3d bb8d 1abe 3ac3 723d ebf2 e13d
000000d0: 4e0c cd3d b450 a33c 2f80 cf3d dc01 233e
000000e0: 00bd 19be 6405 c43d 7dba 1bbc e0cd d2bd
000000f0: 50c6 0bbd a72e 11be a45d 2a3d 9dca 90bd
00000100: 3e94 81bc 7ad5 f8bd 10b6 093d 3185 5f3d
00000110: 9349 aabd fa39 fcbd 877d 97bd 46de d2bd
00000120: bff0 febd 4bc6 d93c 7a20 bb3d 3c72 40bd
00000130: 478d 173e 3ef8 94bd c688 1a3e 6d82 ce3d
00000140: a375 5ebc 66ca 7b3d 71aa 483d a189 49bd
00000150: df0e 3e3e 53bd ae3c 8247 0fbe 9fc1 1dbe
00000160: efc9 8fbd 02a1 a3bd 7641 adbd 5af1 bc3d
00000170: ffb1 9abd ca7e 653d 1ffe 193e be45 703d
00000180: e562 9b3d 0a7d dd3d df22 40bd e87a d33d
00000190: ee56 33be 3bab d9bd 8478 8c3c bc6f a3bd
000001a0: e603 fd3d 65d4 94bd 5807 19be 0a95 c2bd
000001b0: f14d 40be ddf9 ee3d bcb1 06be f7d8 3c3d
000001c0: da6a 04bc 9399 3d3e 2107 12be 3243 25be
000001d0: 7af7 24be 2986 53bd 78cd 1e3e 378e 99bc
000001e0: 6f83 e83d 9aff e03d 9f51 263e c3f1 19be
000001f0: afa3 b63d c8c1 fabc 8ca6 003c 1d9e 153c
00000200: 4ab3 d93d efe5 a0bd 1d06 493d 1820 aabd
00000210: 0861 17bd 0af0 a9bd d942 49bd 386d ed3d
00000220: 029d 06be 09b0 bebb 6650 c4bd bad1 843d
00000230: a3af 36be 738e 0f3e ac36 acbc a41b c5bd
00000240: 18de b13d f9a4 04be 9414 25be 7639 533d
00000250: 14ef 91bd 4831 a2bb 70d3 893b 4ce7 aabb
00000260: b400 a13d a6cb 1f3d 5b7a 263d 93c4 c3bd
00000270: f79e 15be b157 41be d344 b83c 226d 863a
00000280: 108a 60bd 66d0 393e 1dbb 33bc 06a1 0e3e
00000290: df5e ddbd 88c3 eabd 0f7c a4bc 4c01 9abc
000002a0: 5c32 043e 40d0 9abc 1439 2bbc d6a5 483e
000002b0: 8471 fb3d e034 d03c 1e1c f73b 4777 d93d
000002c0: 89c5 01bd 886c 17be 62a0 2c3e eb7f a4bd
000002d0: 46bd b4bd 8915 a43d 3442 00be b95e 0c3e
000002e0: beb7 323e 137f c63c 15ed 3dbe 72df ed3d
000002f0: 8ace 8dbd d810 033e d263 b6bd c8dd c7bb
00000300: 55c9 703d dca4 f4bd e006 383e ec5f d1bd
00000310: 3c73 c43d 5589 cfbc d1e1 e6bd 7279 1b3e
00000320: 986a 88bc e6fc fc3c 7e8f e2bb 6a9e cd3d
00000330: daac c8bd 9480 9bbd e76e bdbc 9ddd 343d
00000340: 5279 4f3c 5acb 54bd 5a8a d3bc 34ed 183e
00000350: d11a e83d 962c c43d c981 cbbd 2fc9 203d
00000360: a723 29be 3b58 0e3d 2508 f0bd 312f 8bbc
00000370: b6cf 1ebe faca f6bd 81a2 8fbb b1a6 f0bc
00000380: 752e e93d b848 0dbe 7c3e 9fbd 6ae1 f3bd
00000390: e53e 823c 4832 2fbe 0daf b0bd 4fc7 dfbd
000003a0: d32c 55bd 20bf ea3d 6698 1a3e c73f 313e
000003b0: fd09 a13d b927 07be 8a88 013d ba81 98bc
000003c0: a041 35bd eca1 41be deac ff3d dfa4 0cbe
000003d0: d410 0abe a320 6ebd fb1c 19be 9845 313e
000003e0: ecf5 653d 0385 403e 16d7 203e 78d8 b33d
000003f0: b8c0 1ebd 6e8f fa3d 1324 0ebe 27f2 763d

layers.4.bias f4 [30]
0.0069610924 0.17001672 0.16825916 0.11977554 0.11857537 -0.06361047 0.09068631 -0.0287373
-0.06316879 -0.11327631 0.10301662 0.04304474 -0.056026846 0.1718002 -0.09455936 -0.016679222
0.11445824 0.18114564 0.16648355 0.18646987 -0.1861222 0.110990696 0.07226296 0.10045015
0.11388499 0.04352618 0.002974245 -0.077805795 -0.026360786 -0.08472356
00000000: e019 e43b dd18 2e3e 214c 2c3e e14c f53d
00000010: a5d7 f23d 3546 82bd beb9 b93d 7c6a ebbc
00000020: a35e 81bd 69fd e7bd 61fa d23d ae4f 303d
00000030: 687c 65bd 64ec 2f3e 56a8 c1bd dda2 88bc
00000040: 1569 ea3d 3e7e 393e aa7a 2a3e f5f1 3e3e
00000050: d196 3ebe 174f e33d 9afe 933d cfb8 cd3d
00000060: 893c e93d 8248 323d 8deb 423b a558 9fbd
00000070: 93f2 d7bc 8c83 adbd

layers.6.weight f4 [30, 30]
0.03880133 0.05102645 0.11646776 0.08716063 0.02884262 -0.103592485 -0.008923954 -0.17042606
-0.13117482 0.1053925 0.019858388 -0.1591805 0.11964483 0.04818657 0.018892031 -0.10190488
-0.12672323 -0.14002572 0.030160395 0.13403301 -0.102471255 -0.13811696 0.11311406 0.13203993
-0.12721401 0.09765827 -0.0061832364 0.062715024 -0.06510519 -0.028605964 -0.09727108 -0.028394079
0.16315979 0.1329315 -0.020372346 0.056928664 0.021436216 -0.087234505 -0.10790163 -0.0776841
-0.035831105 -0.15609793 0.105389334 -0.09929073 -0.087038256 -0.054960378 -0.17233068 0.12668698
-0.15863644 0.030983401 -0.118046016 -0.067740515 0.14408669 0.059101712 0.1386304 -0.03616866
0.07665859 -0.17123942 -0.092212394 0.090715006 -0.07290131 0.1387489 -0.044554643 -0.055035293
0.12746195 -0.112562545 -0.03602205 -0.011573518 -0.15952194 -0.02183916 -0.20626415 0.10531165
-0.07580066 0.11865182 0.13766403 -0.08064316 -0.03392816 -0.16114074 0.115694225 -0.07795011
-0.090872325 0.022415318 -0.07468682 0.16109653 0.06410184 0.08725476 -0.08122229 -0.17787948
-0.18645564 -0.1577906 -0.07586811 -0.054948572 -0.00031784872 0.030627742 0.08371458 0.10052029
0.1548509 0.019975832 0.12605554 0.07144543 -0.12984638 -0.11919913 -0.124680154 0.1741457
0.06582827 -0.1081299 0.078230225 0.12501812 -0.17325835 0.015362528 0.0875494 -0.1339452
0.078178 0.040938277 0.02780912 0.01666205 -0.12658195 -0.14510433 0.02936142 0.16324432
0.07747995 0.0493432 0.051002663 -0.067312256 0.19779165 0.16075224 0.012342069 -0.049243055
-0.15723796 0.00478045 0.11259004 -0.13113016 0.029013151 0.20298617 0.08706936 0.012882656
0.08758987 -0.014155772 0.084077656 0.21187745 0.1840025 -0.06099024 -0.018980792 0.10417267
-0.1340132 -0.06114619 -0.008861734 -0.09333252 0.05897534 -0.1586237 -0.15433086 -0.024506995
0.07866353 -0.053738434 0.08037955 0.18020931 0.122619905 -0.04657572 -0.08183548 -0.089737706
0.015292766 0.12155251 0.09908647 0.09428736 0.032430604 -0.1434077 -0.12505727 0.04730979
-0.09845447 0.1424969 -0.049264025 -0.12433927 -0.034424588 0.05287507 -0.13599367 0.050917033
0.16046141 -0.03270402 0.13925216 -0.099060595 -0.008660156 -0.0029385453 0.09953513 0.10823341
-0.061401904 -0.03528467 0.10260804 -0.085759245 0.13545647 -0.103547186 -0.060242925 0.06718203
-0.12074087 -0.1095917 0.0090938695 -0.032578867 0.019965693 0.08120561 -0.042949073 -0.17196459
0.047943704 0.0040099295 0.019212622 -0.15075342 0.15137829 0.10992082 0.00046964767 0.0051905913
-0.13063458 0.1371383 0.08798531 0.09167687 0.010993536 0.037406735 0.20281084 -0.025661688
-0.006831493 0.16444612 0.12024093 -0.11197644 -0.02563954 0.1316193 0.18403761 0.06767808
0.06768207 -0.17140082 -0.1385658 0.11948839 0.011783595 0.03630466 -0.030654088 -0.005422423
-0.18616623 0.15648814 0.11231744 0.062012635 0.097800784 0.12731631 -0.0020848718 -0.09095286
0.054665066 -0.132964 0.1410777 -0.06542606 -0.13491605 0.14318298 -0.14800277 -0.13429084
-0.1843298 -0.07184012 0.019376364 0.07392557 -0.107322976 -0.12694535 0.07734234 -0.0687625
00000000: 25ee 1e3d 1c01 513d a686 ee3d 4681 b23d
00000010: 5c47 ec3c 4c28 d4bd c735 12bc 2b84 2ebe
00000020: b152 06be 06d8 d73d 0fae a23c 3700 23be
00000030: 5908 f53d 485f 453d 76c3 9a3c 81b3 d0bd
00000040: bcc3 01be e762 0fbe ef12 f73c f33f 093e
00000050: 73dc d1bd 886e 0dbe 58a8 e73d 7a35 073e
00000060: 6444 02be 0f01 c83d bf9c cabb bc70 803d
00000070: df55 85bd 0e57 eabc 0f36 c7bd b39a e8bc
00000080: 5c13 273e 321f 083e e8e3 a6bc 082e 693d
00000090: 019b af3c 01a8 b2bd 88fb dcbd d718 9fbd
000000a0: a3c3 12bd 23d8 1fbe 5dd6 d73d f058 cbbd
000000b0: 1d41 b2bd 221e 61bd 7477 30be 3bba 013e
000000c0: 9771 22be e7d0 fd3c 1cc2 f1bd 8abb 8abd
000000d0: 768b 133e a314 723d 21f5 0d3e 9725 14bd
000000e0: 2eff 9c3d 6359 2fbe dad9 bcbd cac8 b93d
000000f0: 484d 95bd 3114 0e3e ee7e 36bd b06c 61bd
00000100: 6385 023e 3187 e6bd db8b 13bd da9e 3dbc
00000110: b859 23be 0ae8 b2bc e936 53be a2ad d73d
00000120: 603d 9bbd baff f23d cdf7 0c3e 3e28 a5bd
00000130: 41f8 0abd 1402 25be 18f1 ec3d 4fa4 9fbd
00000140: 451b babd 54a0 b73c 67f5 98bd 7df6 243e
00000150: d347 833d a0b2 b23d df57 a6bd 0a26 36be
00000160: 3aee 3ebe dc93 21be bd60 9bbd c111 61bd
00000170: efa4 a6b9 08e7 fa3c 8d72 ab3d 95dd cd3d
00000180: 3c91 1e3e 5ba4 a33c b414 013e fb51 923d
00000190: 73f6 04be ac1e f4bd 4f58 ffbd 4053 323e
000001a0: f9d0 863d 3673 ddbd 2b37 a03d c004 003e
000001b0: a36a 31be 1db3 7b3c 1a4d b33d ee28 09be
000001c0: ca1b a03d e5ae 273d f4cf e33c da7e 883c
000001d0: b39e 01be 3b96 14be 5c87 f03c 8529 273e
000001e0: cfad 9e3d 181c 4a3d 2be8 503d 02db 89bd
000001f0: e589 4a3e 3c9c 243e 6436 4a3c 16b3 49bd
00000200: fd02 21be 52a5 9c3b 9b95 e63d fc46 06be
00000210: fdac ed3c 9bdb 4f3e 6c51 b23d c711 533c
00000220: 5162 b33d 9ced 67bc e830 ac3d 67f6 583e
00000230: 276b 3c3e e7d0 79bd 9b7d 9bbc 7b58 d53d
00000240: c23a 09be 6d74 7abd ce30 11bc 1f25 bfbd
00000250: 2090 713d 406e 22be e908 1ebe e5c2 c8bc
00000260: 581a a13d d51c 5cbd 099e a43d ca88 383e
00000270: 2520 fb3d 2fc6 3ebd 5c99 a7bd 67c8 b7bd
00000280: 828e 7a3c 86f0 f83d d9ed ca3d bb19 c13d
00000290: f4d5 043d 78d9 12be 030f 00be e9c7 413d
000002a0: 7fa2 c9bd b5ea 113e 13c9 49bd 96a5 febd
000002b0: cc00 0dbd 8893 583d ed41 0bbe 618e 503d
000002c0: ff4f 243e a7f4 05bd 1e98 0e3e 48e0 cabd
000002d0: 54e3 0dbc 9c94 40bb 13d9 cb3d 7aa9 dd3d
000002e0: 9080 7bbd a886 10bd 2a24 d23d 8ba2 afbd
000002f0: 1ab5 0a3e 8c10 d4bd 49c1 76bd bb96 893d
00000300: fd46 f7bd 9d71 e0bd 74fe 143c 6b71 05bd
00000310: 188f a33c 204f a63d 5eeb 2fbd 7c17 30be
00000320: 9e60 443d ba65 833b ca63 9d3c 1b5f 1abe
00000330: e902 1b3e 2b1e e13d 0b3b f639 d615 aa3b
00000340: 12c5 05be fc6d 0c3e a431 b43d 15c1 bb3d
00000350: 3b1e 343c ce37 193d a5ad 4f3e 7638 d2bc
00000360: b8da dfbb 9064 283e e040 f63d e753 e5bd
00000370: 030a d2bc 36c7 063e 5b74 3c3e ce9a 8a3d
00000380: e69c 8a3d b283 2fbe 31e4 0dbe 54b6 f43d
00000390: fb0f 413c 32b4 143d 481e fbbc 95ae b1bb
000003a0: 5ca2 3ebe 6d3e 203e b006 e63d f600 7e3d
000003b0: c74b c83d 355f 023e 58a2 08bb 7e45 babd
000003c0: 7ae8 5f3d b727 08be ac76 103e 19fe 85bd
000003d0: 6f27 0abe 8f9e 123e 0a8e 17be 8a83 09be
000003e0: f3c0 3cbe ea20 93bd 2ebb 9e3c 4a66 973d
000003f0: 26cc dbbd f6fd 01be a965 9e3d 5bd3 8cbd

layers.6.bias f4 [30]
-0.111293554 -0.036604673 -0.045185782 0.16958179 0.056380056 0.021069262 -0.05131201 0.13086294
-0.04243686 -0.050329346 -0.14900607 0.010707112 0.042598866 -0.0070091463 0.025969522 -0.12163135
0.10496704 0.1522299 -0.1071317 -0.12620233 -0.096238114 0.096253365 0.10453096 0.18350585
0.049165193 0.13954529 0.13632965 -0.117581435 -0.068466656 -0.1104107
00000000: e0ed e3bd c8ee 15bd ba14 39bd d9a6 2d3e
00000010: c6ee 663d 7299 ac3c 8b2c 52bd ef00 063e
00000020: 46d2 2dbd 2526 4ebd 0c95 18be e26c 2f3c
00000030: 267c 2e3d fbac e5bb 09be d43c db19 f9bd
00000040: f6f8 d63d 28e2 1b3e dd67 dbbd 2f3b 01be
00000050: 7d18 c5bd 7c20 c53d 5414 d63d f5e8 3b3e
00000060: 7161 493d f6e4 0e3e 009a 0b3e 89ce f0bd
00000070: 3f38 8cbd 011f e2bd

layers.8.weight f4 [1, 30]
-0.013821701 0.053187545 0.17646137 0.02034913 0.20504057 0.17744559 -0.16666569 0.12564096
0.04775254 -0.08238738 -0.059086297 -0.004926208 -0.020258212 -0.10061148 0.06397659 0.10804137
-0.19701259 -0.028340356 0.015080972 -0.05067844 -0.17754641 0.0019009667 0.14349164 0.07163678
0.12118316 -0.18730845 0.039647754 0.24864183 0.20739488 -0.027124004
00000000: 6a74 62bc 2fdb 593d 4ab2 343e 38b3 a63c
00000010: 28f6 513e 4cb4 353e 69aa 2abe 06a8 003e
00000020: 2b98 433d b7ba a8bd 7904 72bd 076c a1bb
00000030: 8df4 a5bc 640d cebd 2906 833d cb44 dd3d
00000040: abbd 49be 092a e8bc 2e16 773c 3294 4fbd
00000050: bace 35be dc29 f93a 79ef 123e 4eb6 923d
00000060: e02e f83d c9cd 3fbe af65 223d f79b 7e3e
00000070: 535f 543e 2933 debc
