PINN's/BURGERS/Burgers_Epochs/Models/10000epochs.pth (torch, 15152 bytes, 9 tensors)

layers.0.weight f4 [30, 2]
000000 75 7e 40 3e 39 35 9f be d6 b7 a8 be 6f 98 ca 3d
       0.1879824 -0.31095293 -0.32952756 0.09892356
000010 84 81 ab 3e de 35 95 3d 94 af 46 3f 15 ce 03 3f
       0.3349725 0.07285665 0.7761166 0.5148633
000020 c0 9d d5 bd 9c 6a 1c bf 20 7d 94 be 3c 07 16 3f
       -0.10430479 -0.61100173 -0.29001713 0.5860479
000030 98 14 27 bf 24 50 d6 3e 5e ad 7b 3e a0 dd 5a 3d
       -0.652658 0.41858017 0.24577853 0.053434014
000040 ac c3 25 3f 50 8f e6 bd 47 9c 96 be 51 80 c6 be
       0.64751697 -0.112578034 -0.29416105 -0.38769773
000050 3b 76 a9 be 71 4d bc be 08 92 65 3e 7f d3 23 3e
       -0.33098015 -0.36777833 0.22418988 0.15998648
000060 51 72 28 bf c4 59 36 3f 6a b2 73 3d 83 08 09 bc
       -0.65799433 0.7123072 0.05949632 -0.008363846
000070 6f 4a 69 be 1c a2 55 3e 97 26 9b be 05 73 16 3e
       -0.227823 0.20862621 -0.3030288 0.14692314
000080 de 0d 0b bf 3c 5b 61 3e ee cb 85 bf 3e 99 eb 3e
       -0.54318035 0.2200746 -1.0452859 0.46015352
000090 a3 9c da 3e ab 2f 6c be 5f 96 ae 3e 81 46 7b 3e
       0.4269763 -0.23065059 0.340991 0.24538614
0000a0 82 55 56 bf 8c cc 6b bd 08 f0 e8 3e 36 89 fd 3e
       -0.83724225 -0.057568118 0.4549563 0.49518746
0000b0 8e 00 c1 be bd aa a9 3e 7a ba 51 3e de 69 21 bf
       -0.37695736 0.33138075 0.20481291 -0.63052166
0000c0 36 f9 e1 3d d2 be 01 bf 62 a6 1b bf bf 71 81 3e
       0.11033861 -0.50681794 -0.60800755 0.25282094
0000d0 63 25 e1 be 34 c2 cb bd f6 a7 91 be 5a 2f 8a 3e
       -0.43973836 -0.09949151 -0.28448457 0.2698925
0000e0 14 09 d6 3e 60 e3 8d 3e 1c c6 fe 3e ea a6 8a be
       0.418038 0.27712536 0.4976052 -0.2708047

layers.0.bias f4 [30]
000000 8d 18 a1 be 85 92 18 bf c8 48 12 bf d7 1f 49 be
       -0.31464043 -0.5959857 -0.57142305 -0.19641052
000010 d8 3e 94 3d f1 ab d1 3e cb 8d ec 3e cb 40 1d bf
       0.07238549 0.40951493 0.4620193 -0.6142699
000020 88 4a c7 3d cd 97 6b bf b5 cc d2 3d 1f 13 a4 3e
       0.097310126 -0.92028505 0.10292951 0.32045838
000030 4e 9a 23 bd 86 27 8a 3e 5d c2 45 3f 0f 06 54 3f
       -0.03994208 0.2698328 0.772497 0.82821745
000040 fe 94 3b be ab 2b 58 3e 8f bc 65 bf d4 0e 30 be
       -0.18318555 0.21110408 -0.8974084 -0.17193156
000050 6a 7c ea be 17 d0 1a 3f 58 3e 80 be 43 eb 00 bf
       -0.45798045 0.6047377 -0.25047565 -0.5035898
000060 6a ff 87 be 81 37 6b 3f 85 9e 48 3d f4 cd 5d bf
       -0.26562053 0.9188157 0.0489793 -0.86642385
000070 6f ab 40 bf ea e2 9c 3e
       -0.75261587 0.30641872

layers.2.weight f4 [30, 30]
000000 48 be 21 3e ed 84 f4 3d 0d 48 99 be d5 e0 d3 bd
       0.15795243 0.11939416 -0.29937783 -0.10345618
000010 4b ef a5 bd e4 0c 9a bb 7c 1e 43 be 0e 91 d2 bd
       -0.08102282 -0.0047012437 -0.19054598 -0.10281573
000020 f5 e8 72 3e f9 e2 01 3d fc 8b 83 be aa 29 18 be
       0.23721679 0.0317106 -0.25692737 -0.14859644
000030 82 fc 33 3e ba fe f6 bd 79 18 f9 bb 92 58 83 be
       0.17576793 -0.12060304 -0.0076017943 -0.2565351
000040 78 f3 22 3e 08 f0 94 bd ab ab 20 3e 0d 73 63 3d
       0.15913188 -0.07272345 0.15690486 0.055529643
000050 1a fc dd 3d 6b 21 04 3e a2 18 87 be 18 83 16 3e
       0.108391 0.12903373 -0.2638598 0.14698446
000060 70 4d 97 bd bb 50 1e bd df 14 f8 3c 5e 15 af ba
       -0.07387817 -0.03865121 0.03028339 -0.0013357808
000070 48 54 35 be e1 c3 31 bc 2d 00 9d bd af 2a 3a 3e
       -0.17707932 -0.010849924 -0.07666049 0.18180345
000080 dc af f0 3d d6 5a 16 3e 96 d6 4a 3e 5c f6 89 3e
       0.117522925 0.14683089 0.1980842 0.2694577
000090 44 66 78 3d 91 8d b7 3c 4b 4b 51 b9 1b a1 b9 bd
       0.060644403 0.022406371 -0.00019959842 -0.090639316
0000a0 61 78 45 3e 7e ec 18 bd d4 3c 41 3d 18 b7 bc bd
       0.19284202 -0.03733491 0.04717715 -0.0921461
0000b0 4a 32 0a bd f1 3c 0a be 3b f7 30 be d9 3d 8c bc
       -0.033739366 -0.1349981 -0.17281811 -0.017119335
0000c0 66 61 07 3e 75 8e 86 bd 12 09 48 3e 46 5d 8d 3b
       0.13220748 -0.0657014 0.1953471 0.0043140976
0000d0 1a 6b c2 bd 02 7d 5f 3e 09 fd ee 3d ec 5a eb 3b
       -0.09493084 0.2182503 0.116693564 0.0071824696
0000e0 06 db 99 bd 72 b9 f9 3c 74 d4 84 be e5 3c 2e 3e
       -0.075124785 0.030483935 -0.2594334 0.17015417
0000f0 5f 4f 21 3d 14 11 a1 3d ce 8b 11 be d6 9b f5 bd
       0.039382335 0.078645855 -0.14213488 -0.11992614
000100 95 07 6f 3d 70 29 ab 3d 79 53 e7 bd 58 58 c1 bd
       0.05835684 0.08357513 -0.11295218 -0.09440678
000110 1e b7 25 3e 33 74 66 3d 42 4b 42 3e 0b 30 20 3e
       0.16183135 0.05626316 0.18974021 0.15643327
000120 4c 61 95 3d 3c 1a 06 be 5f 1a 85 3c ef de 38 be
       0.072939485 -0.13095945 0.016247926 -0.18053792
000130 f7 e5 94 3d 92 b3 60 bd 4c 04 d1 3d b4 e3 b1 bc
       0.07270425 -0.05485875 0.10205898 -0.021715023
000140 3e 35 6f be 05 6b 87 3e 02 91 3a bd 9b 7f b3 bd
       -0.23360154 0.26448837 -0.045548446 -0.08764573
000150 69 be 89 bd ca 20 50 bc 47 fb 37 bd 08 f2 eb 3d
       -0.06725771 -0.01270313 -0.04491737 0.11520773
000160 e6 a3 08 3b 2d 86 49 3e e5 5c f5 bd ac dd a5 3d
       0.0020849644 0.1968009 -0.11980609 0.08098921
000170 9e a2 10 be 16 e7 02 be e8 8a 78 3e a2 85 56 3e
       -0.14124534 -0.12783465 0.24271739 0.20949414
000180 7a f3 07 3c 63 fd 2b 3d d0 b5 b8 bb 85 0b 60 3e
       0.008297795 0.041989695 -0.005636908 0.21879394
000190 58 b7 25 3e d3 bb 2e bc 66 fa cc 3d d0 7d 90 3d
       0.16183221 -0.010664898 0.10008697 0.07055247
0001a0 9f 7e 92 bb e7 25 8a 3d ba 64 0a 3e 79 fd 71 3d
       -0.004470661 0.067455105 0.13514987 0.05907962
0001b0 97 a0 be 3d 05 b9 0d 3e dd e6 6c bd 6a c9 5a 3e
       0.09307974 0.1384011 -0.057837356 0.21365896
0001c0 60 28 1d be 01 90 22 bd 87 47 4e be 2e c0 ca be
       -0.15347433 -0.039688114 -0.20144473 -0.39599746
0001d0 60 9f 54 bd ef 49 50 3e 10 55 16 bd f6 76 67 3d
       -0.051909804 0.20340703 -0.036702216 0.056509934
0001e0 21 d4 cc 3d 9f 91 95 bd 5c bb da 3d 3c 84 e8 bd
       0.10001398 -0.07303166 0.10680267 -0.11353347
0001f0 b9 0b 3f 3e 53 80 c0 bd 54 95 c4 bc 04 f6 4d 3e
       0.18656816 -0.09399476 -0.023996986 0.20113379
000200 c6 18 fa 3d 36 13 12 3e 86 f1 e8 3d 3c cd f1 bb
       0.122117564 0.14265141 0.11374192 -0.007379202
000210 b9 eb 6f bd 7b 4b 7e 3d 10 cc 72 bd eb 80 61 be
       -0.058574412 0.062083703 -0.05927664 -0.22021835
000220 77 9e dc 3d 07 18 2a 3d bd 4c 09 bd 82 bb 9f 3c
       0.10772412 0.04152682 -0.03352045 0.01949859
000230 31 6a f0 3d 9c 58 15 bd 88 ed e2 bd 1a 0e 99 3d
       0.117390044 -0.036461458 -0.11080462 0.07473393
000240 50 2d 79 3d 78 8d 85 3e ae 8f a5 bb e9 e2 15 be
       0.06083423 0.26084495 -0.0050525283 -0.1463734
000250 c2 36 33 3e 49 5d 7a be a7 bc bf 3e f9 c9 ed bd
       0.17501357 -0.24449648 0.37448618 -0.11610789
000260 cc fb fb bd 3b b0 16 3f 5c 5a 85 be d3 08 57 bf
       -0.12303886 0.58862656 -0.260455 -0.8399784
000270 e9 75 90 be 39 86 d6 3c b2 2f eb 3b 98 bc 05 bf
       -0.28214958 0.02618705 0.0071773166 -0.52240896
000280 8d b8 f5 be fd 5e 8e be 11 95 30 3e fa 75 da be
       -0.47992364 -0.27806845 0.17244364 -0.42668134
000290 fd da c6 3c e9 c3 b0 3d b4 14 39 3e 64 54 a8 be
       0.024274344 0.08631117 0.18074304 -0.32876885
0002a0 c6 f5 54 be d3 4a a1 3e 65 eb a7 3e ea cf 48 be
       -0.2079688 0.315024 0.3279678 -0.19610563
0002b0 88 39 f3 bc 99 79 9a 3e 9d 7a bf 3d 12 a1 82 3e
       -0.029690519 0.30170897 0.093495585 0.25513512
0002c0 b1 d0 65 be b8 31 33 be 4e 5e 5f bd 75 e7 a2 3b
       -0.2244289 -0.17499435 -0.054533295 0.0049714395
0002d0 e8 14 0a 3d e6 8f bb 3e fc 4c 9a be 2a 9b 04 3c
       0.033711344 0.36633223 -0.3013686 0.008093635
0002e0 e7 d5 8d 3d 6b e9 f4 bc 24 66 fe bc 61 b0 80 be
       0.06925564 -0.029896459 -0.031054564 -0.25134566
0002f0 65 2f 8d 3e bb 04 a9 3d 46 6a db bc 83 dc 32 bd
       0.27575222 0.082528554 -0.026784074 -0.043667328
000300 39 f9 2c be f2 08 2d be 99 54 34 be 19 1d 2d be
       -0.16891946 -0.16897944 -0.17610396 -0.16905631
000310 da 3b 13 bc 16 8c a2 3d 31 12 b7 3c 19 1c 4a be
       -0.008986438 0.079368755 0.022347542 -0.19737281
000320 4a 15 f0 bd a7 0a 93 3d 2c 6e 5a be 4a e7 50 bc
       -0.117228106 0.07179766 -0.2133109 -0.012750456
000330 94 79 14 3e 90 bf 6f be da 25 d5 bc 56 bc 86 bc
       0.14499503 -0.23412919 -0.026019026 -0.016447227
000340 f8 1e 88 3d ae 66 71 3e dd 4b 6d bd d6 8b 2e 3e
       0.06646532 0.23574325 -0.057933677 0.1704553
000350 c1 41 54 bd 5f 4c 83 be 06 78 89 3e 37 ab fe 3c
       -0.05182052 -0.25644204 0.26849383 0.031087501
000360 04 2f 8f bd a9 52 9e 3d 7a 9b 42 3e 79 01 26 be
       -0.069913894 0.0773061 0.19004622 -0.162115
000370 9d 2e 52 3e 04 dd 4a be d6 07 01 3e 2b ea 12 3e
       0.20525594 -0.19810873 0.12600645 0.1434714
000380 0d ff 18 be a6 ce 07 bd d3 d7 68 be f7 d9 dd 3c
       -0.14941044 -0.03315606 -0.2273858 0.027081473
000390 56 e6 8f 3d b7 f8 80 3e a9 c6 1f 3d c2 35 90 3e
       0.07026355 0.25189754 0.039007816 0.28166014
0003a0 9d 80 97 bd fb 81 78 3d 7f da 97 3d 17 a7 92 bc
       -0.07397578 0.060670834 0.07414722 -0.01790194
0003b0 d0 05 66 be 7c 05 42 3e 51 c2 9c 3d fb b9 0d 3e
       -0.22463155 0.18947405 0.076542504 0.13840477
0003c0 82 33 c0 3d 57 bf 89 be 0a b2 58 3c 6f a8 c2 bd
       0.09384824 -0.26903793 0.013226042 -0.095047824
0003d0 13 bb b4 3b b4 6c 85 3e 32 a0 62 3c bb 17 5c bc
       0.005515465 0.26059496 0.013832139 -0.013433392
0003e0 92 0b 8f 3d 3e 23 26 bc fe 3e d0 bd 0d 33 be 3e
       0.06984629 -0.010140238 -0.10168265 0.37148324
0003f0 a6 46 d1 bc e8 b3 19 3e b4 68 8c bd b8 f3 0c 3e
       -0.025546383 0.15010035 -0.06855908 0.13764846

layers.2.bias f4 [30]
000000 ad 5c af be 7d 36 30 3e b2 74 bf 3d 1a 09 5a bd
       -0.34250394 0.17208286 0.0934843 -0.053231336
000010 e6 be e7 3d f0 eb b7 bd b9 6c 17 3e e2 cd 44 bd
       0.11315708 -0.089805484 0.14787568 -0.048047908
000020 20 93 2f 3e 0d dd c4 3c 1d b9 5f 3e b6 85 11 bd
       0.17145967 0.024031186 0.21847959 -0.035527907
000030 7d 88 ab be ba 17 7f 3e 1c 96 44 be 58 c7 d3 bd
       -0.3350257 0.24911395 -0.19197887 -0.10340756
000040 c6 ed 30 be d5 25 52 be 1b 5f 50 3e f2 0c 33 3e
       -0.17278203 -0.20522244 0.2034878 0.17485407
000050 4a c9 34 be ad 43 be be b9 25 d1 bd 41 fd 91 be
       -0.1765491 -0.37161008 -0.10212273 -0.2851353
000060 8a a4 ca bd be 36 cc bd 8b ad 4c be ff fc 3f 3e
       -0.098946646 -0.09971379 -0.19988076 0.18748854
000070 08 5f 38 3e 81 e1 30 3e
       0.18005002 0.17273523

layers.4.weight f4 [30, 30]
000000 02 92 3e 3e 78 73 47 3e 94 75 bc bd e0 83 51 3e
       0.18610385 0.19477642 -0.09202114 0.20460463
000010 be b6 35 be 8f 1a bb 3c 59 fe dc 3d 7e 8d d5 3d
       -0.17745492 0.022839813 0.107907005 0.10427378
000020 86 85 84 bd 90 67 b9 3e cc 1a e9 bd 76 78 c5 bc
       -0.0647078 0.36211824 -0.11382064 -0.024105292
000030 c1 ae 40 3d 3b 20 11 3c e8 a9 83 be 48 19 60 be
       0.04704166 0.008857782 -0.25715566 -0.21884644
000040 d7 31 19 3e 23 c2 4e bd ed 69 83 3d ca b0 1d bd
       0.14960419 -0.050478112 0.06416688 -0.038498677
000050 38 83 9e 3e 0e 54 93 bc 00 5f b9 3c 3d a4 57 3e
       0.30959487 -0.017984416 0.022628307 0.21058746
000060 04 9c 64 bd 1f dd a5 3e 4d 61 49 be 2e 8b 0b bd
       -0.05581285 0.32395265 -0.19666024 -0.03406828
000070 ac 62 a8 bd 8d f4 72 bd 71 ca f9 3d 00 5c e2 bd
       -0.08221945 -0.059315253 0.12196816 -0.11052704
000080 d0 1c 02 be cf 48 9c 3d a0 e9 a8 39 49 db b8 3c
       -0.12706304 0.07631075 0.0003221752 0.0225655
000090 ce bb 74 bd 22 ad de 3c c6 d8 2c bd cd 1e 86 3b
       -0.059749417 0.027182166 -0.04219892 0.004093027
0000a0 15 2d 9a 3d 3f b5 11 be d3 4e a6 3d 10 14 cd bd
       0.0752813 -0.14229296 0.08120503 -0.10013592
0000b0 97 7a 41 bd df ed 0d be b4 fe f9 bd cd 3a 4e bd
       -0.04723605 -0.13860272 -0.12206784 -0.050349046
0000c0 62 e6 8d be d4 6f f5 3d b1 12 99 3d db 12 de bc
       -0.2771483 0.1198422 0.07474268 -0.0271086
0000d0 e3 08 1d 3e 27 92 3c bd 16 70 dd 3c 97 9f 84 3e
       0.15335421 -0.04603782 0.027030986 0.25903007
0000e0 a5 79 eb 3d 25 48 13 3e 4d e4 24 3e 1b 4a 38 be
       0.11497811 0.1438299 0.16102715 -0.17997019
0000f0 f2 47 a3 bd 75 7b 48 be 38 0b 24 be bf 52 85 3d
       -0.07972707 -0.19578345 -0.16019905 0.06509923
000100 53 9c 38 be 06 e4 16 3e df 84 41 bd fb b9 18 be
       -0.18028383 0.14735422 -0.047245856 -0.14914696
000110 52 1b b8 3d 59 2e 15 3e b1 c6 c4 ba 0a 27 24 3d
       0.08989586 0.14568461 -0.0015012828 0.040076293
000120 ba 7f 2b 3e 7d d4 37 bd 83 2f 34 3e a6 96 01 3d
       0.16747943 -0.04488038 0.1759625 0.03163781
000130 1d 17 08 bd 78 35 ad 3c ce 1f ef b9 07 7e 22 3d
       -0.033225168 0.02114366 -0.0004560933 0.03967097
000140 b7 11 fe 3d eb e8 a2 bc 06 45 36 3d bc 92 f1 bd
       0.124057226 -0.019886455 0.04449942 -0.117955655
000150 59 f0 a3 3c 48 c0 46 bc 67 6d 07 3e b3 d9 03 3d
       0.020012068 -0.012130804 0.13225327 0.032190036
000160 ee 91 98 3d 33 3c ee bd 9f ce 4c be d0 a6 9d bd
       0.07449709 -0.11632576 -0.20000695 -0.076978326
000170 8a e9 d4 bd 20 08 56 be a7 33 14 be c2 02 95 3d
       -0.103961065 -0.20901537 -0.14472829 0.07275917
000180 91 7d 82 3d 04 e3 e4 3d d9 8a af bd 34 b9 92 be
       0.06371606 0.11176112 -0.08571405 -0.28656924
000190 7d 86 f7 3c 85 15 0f 3e d0 5c ed bd 73 11 17 3d
       0.030215496 0.13973053 -0.11589968 0.036881875
0001a0 f6 23 bf 3c 01 f5 4f bd 89 41 fa 3b ba 32 c9 3d
       0.023332577 -0.050770763 0.007637207 0.098241284
0001b0 74 f7 a1 3e f1 62 69 be b2 af 89 bd a7 fe 1c 3e
       0.31634104 -0.2279165 -0.06722964 0.15331517
0001c0 5a 83 06 be 47 42 57 be 36 77 b1 bd 8b 51 fe bd
       -0.13136044 -0.21021377 -0.08665316 -0.12417897
0001d0 ab 32 a6 bd 5c 0a 20 3e 57 eb 3e be a9 35 11 bd
       -0.08115133 0.15628952 -0.18644463 -0.035451565
0001e0 d1 03 84 be 7a bd e2 bb 9e d0 73 3b 9a c6 7b 3e
       -0.25784162 -0.00691956 0.0037203203 0.24587479
0001f0 57 0f 74 3d a0 f5 78 be 04 78 ce 3c bd c5 84 3c
       0.05958494 -0.24312449 0.025203712 0.01620757
000200 c5 b2 b3 3e ae 59 89 be 7a 34 7c 3e e5 e9 4b be
       0.35097328 -0.26826233 0.24629393 -0.19913442
000210 a3 06 dd be 73 48 df 3d 31 0d bf be 8f cd fe bd
       -0.43169126 0.109024905 -0.37314752 -0.12441551
000220 db a6 17 3d 84 90 2f be 62 01 0b bf df 87 7e 3e
       0.03702436 -0.17144972 -0.54298985 0.24856518
000230 0c 2e 83 3e bb 43 84 bd 70 42 1e be 43 01 8d be
       0.25621068 -0.06458231 -0.15455031 -0.27540025
000240 34 3d 96 be fd dc 0e 3e 5e 08 33 be 2d 69 1f bc
       -0.2934357 0.13951488 -0.1748366 -0.009729666
000250 92 7f 49 3e 58 91 14 3e 9f 73 6d 3d 4b 97 31 be
       0.1967757 0.14508569 0.057971593 -0.1734287
000260 82 6f 33 3e db 73 70 bd c0 1b aa b9 33 a2 0e 3d
       0.17523006 -0.05870424 -0.00032445602 0.034822654
000270 d3 49 d5 3d 16 a6 07 3e 56 28 fb bd 3f ad 2a 3e
       0.104144715 0.1324695 -0.12263553 0.1666765
000280 f5 27 ac bd f6 6a 06 3d b6 32 85 3d ed 80 06 3e
       -0.08406059 0.03281685 0.06503813 0.13135119
000290 0b 62 ce bd e3 da b0 3d 36 f5 a5 3d b4 82 db ba
       -0.10077294 0.08635499 0.08103411 -0.0016747327
0002a0 2d 06 12 bc a4 22 f2 bd 0f d3 2b 3e c2 e5 3b be
       -0.008912605 -0.118230134 0.16779731 -0.18349364
0002b0 10 02 3a 3e 5b 66 f5 3c c1 01 20 be 0f 61 2d 3c
       0.1816485 0.029956033 -0.15625669 0.010582223
0002c0 5c dc 2e 3e 5a 8b 19 be 80 f3 8b bd f5 1f 91 bb
       0.17076248 -0.14994565 -0.06833553 -0.0044288584
0002d0 d1 7e 0b be f2 50 0b 3d e5 37 03 3d 77 b6 f9 bd
       -0.13622595 0.034012742 0.032035727 -0.121930055
0002e0 69 9f a9 3d 5d ac df bd db bc 62 3e 0d 0b 79 be
       0.08282358 -0.109215476 0.22142355 -0.24320622
0002f0 51 f2 3a 3e 17 71 32 3e f8 7d 2f 3d 72 0d a6 bd
       0.18256499 0.17425953 0.042844743 -0.08108033
000300 08 29 ea bc cd a7 33 3d aa 86 50 3e 0f 43 15 3e
       -0.028584018 0.0438612 0.2036387 0.14576362
000310 8f fd 34 bd 1f 31 6c bd cc 47 b1 be 6b 22 10 39
       -0.044187125 -0.057664033 -0.3462509 0.00013745732
000320 e1 18 73 bd 58 d2 ee bc 68 86 a0 bc b7 76 45 bd
       -0.0593499 -0.029153034 -0.01959534 -0.04820892
000330 a7 ac 2f be d0 e0 c0 bb 1b a5 3a 3d 23 a0 19 bc
       -0.17155705 -0.0058861747 0.045567613 -0.0093765585
000340 27 3a 71 3d 9a d9 47 be 18 3f fd bc 1b 9e a9 3c
       0.05889335 -0.19516602 -0.030913875 0.020705273
000350 bc 36 1f 3e 42 c3 81 3e 95 1b 34 bd b9 22 b9 be
       0.15548223 0.25344282 -0.043971617 -0.36159304
000360 36 c2 51 bd 9b d5 62 bd dd a7 b0 3d 10 72 80 3d
       -0.051210605 -0.05537949 0.086257674 0.06271756
000370 19 d6 e9 3d 8b 71 ba 3d 95 94 60 be 53 58 7d 3d
       0.11417789 0.09103688 -0.2193168 0.06185181
000380 91 56 92 bd bd c5 11 3e d3 8e 7d bd 51 a5 e0 3d
       -0.071454175 0.14235587 -0.061903786 0.109690316
000390 11 a0 c8 be 47 30 ae 3d 81 f4 b8 3c 56 43 eb bc
       -0.3918462 0.08505302 0.022577526 -0.028718632
0003a0 26 6a 4d be 7b ac 16 be 99 66 16 3e 0d 16 63 bd
       -0.20060024 -0.14714234 0.14687575 -0.05544095
0003b0 61 ca 20 be 1e 0a 9c 3d 03 16 66 3d 36 36 13 3e
       -0.15702201 0.07619117 0.056173336 0.14376149
0003c0 a2 0e 73 bd 00 e9 e7 3d 15 bd 23 bd 43 ce 71 3e
       -0.059340127 0.11323738 -0.039975245 0.23613839
0003d0 4e 8b 75 bd 89 b4 ec be e9 84 71 3e 0f 78 7f 3e
       -0.059947304 -0.46231487 0.23585857 0.24948142
0003e0 6d 48 25 be af d8 5f be 4e b6 67 3d ef f6 c3 3b
       -0.1614091 -0.21860002 0.056570344 0.0059803645
0003f0 67 3c aa be 50 09 9f 3e a7 d6 0a 3e 0d 0f c6 bd
       -0.33249208 0.31061792 0.13558446 -0.096708395

layers.4.bias f4 [30]
000000 1c 29 bb be ad 4e 7a be 93 91 78 3b ca a4 c6 3e
       -0.365548 -0.24444075 0.0037928566 0.387976
000010 b9 15 06 3f d1 c4 1d be 2d 69 e0 3d 55 96 18 bc
       0.52376896 -0.15407111 0.10957561 -0.009313186
000020 c2 78 a1 3e bd de 27 bd 0c 15 bd 3d 29 98 87 bd
       0.31537443 -0.040983904 0.0923253 -0.06620819
000030 6c 89 28 bd 5a a4 ae bc d2 0e 76 be cb a3 ae bd
       -0.04114668 -0.021318603 -0.24029091 -0.08527335
000040 8e 80 f5 bd 16 f7 1c be 78 91 89 bd 8b 2f 6b 3e
       -0.119874105 -0.15328631 -0.06717199 0.22967355
000050 9f 41 2e 3e 15 df 08 3e 00 40 4d be 8f 08 82 be
       0.1701722 0.13366349 -0.20043945 -0.25397155
000060 83 24 b5 3d e9 96 4c be ad 65 cd 3d 82 1d e5 bd
       0.08844855 -0.19979443 0.10029159 -0.11187269
000070 10 68 65 3e ea 9c 82 3e
       0.22402978 0.2551034

layers.6.weight f4 [30, 30]
000000 5f f0 81 be b8 e8 5d 3e 6b f1 c9 bd 6d 4c 28 be
       -0.253787 0.21670806 -0.098605 -0.16435404
000010 59 09 fe bd a8 d9 75 3d bc ac 0c be da bb 20 3d
       -0.12404127 0.060022026 -0.13737768 0.03924165
000020 ec fe 40 3e 06 c3 21 3d 13 d7 c5 bb 7a ff 80 3d
       0.18847245 0.03949263 -0.0060376017 0.06298728
000030 47 0b 84 bd 61 18 eb bd 53 0b f8 bd 19 b2 ae bd
       -0.064474635 -0.11479259 -0.12111535 -0.08530063
000040 a4 4c 2a be e6 22 53 be ba f0 a6 3d 84 53 f4 3d
       -0.16630799 -0.20618781 0.08151384 0.11929992
000050 79 ca 11 be 96 ad bc 3d d5 06 af 3d 27 c4 28 3d
       -0.14237393 0.092127964 0.08546225 0.04120269
000060 a3 01 ae 3c f9 ce 47 be d0 47 07 3e 38 7c 14 be
       0.021241015 -0.19512548 0.13210988 -0.1450051
000070 e1 3c 8b 3d 35 2e 7b bd 64 89 cf 3b b8 04 36 3d
       0.06798721 -0.061323363 0.006333517 0.044438094
000080 88 41 05 3e 9b b7 23 be cf c0 36 be 71 f1 a7 3c
       0.1301328 -0.15988009 -0.17846988 0.02050087
000090 3e 0d 01 3e eb e6 13 be c6 e3 a8 bd bc 7e b3 bd
       0.12602708 -0.14443557 -0.08246569 -0.08764407
0000a0 3a e2 93 3c b7 17 07 bd e9 1f 18 3e 7a 16 e1 3d
       0.01805221 -0.0329816 0.14855923 0.10990615
0000b0 cd 92 c9 3c dd 40 bd 3d ce 5c 19 3c dd ad e3 3d
       0.024606133 0.09240887 0.009360505 0.11117146
0000c0 cc 29 8f 3d f7 54 9c b9 4c a8 13 3e e8 21 a6 bd
       0.06990394 -0.00029817942 0.14419669 -0.08111936
0000d0 62 c1 dd 3c 0d 87 45 bc ca 75 c0 3d 5a bd ea bc
       0.027069751 -0.012056124 0.093974665 -0.028654743
0000e0 95 f0 56 3d 9a 0e f4 3d 1d a2 ad 3d 4a 98 f6 bd
       0.05247553 0.119168475 0.08478186 -0.120407656
0000f0 cd e8 32 3c 23 cd 5f bd 3d cd f1 3d e6 e2 bb 3d
       0.010919762 -0.054638993 0.11806724 0.09174137
000100 24 53 05 be d8 8c 6b 3c 2d 7f 18 be ad 0c 92 3d
       -0.13019997 0.0143768415 -0.14892264 0.07131324
000110 79 64 a8 bd 92 9e 27 3b c8 a4 2f 3e 6e 92 89 3d
       -0.08222289 0.0025576693 0.17152703 0.06717382
000120 9f 0e 03 be ab 31 87 3d 2b d6 30 be f7 75 07 bd
       -0.12798546 0.0660127 -0.17269199 -0.033071484
000130 c9 e8 03 be 53 0f 99 bd 32 04 09 3e 11 23 10 3d
       -0.12881769 -0.07473626 0.13380507 0.035189692
000140 29 b4 aa 3d ea 2e b0 39 c2 9a 0e be 38 14 7e bd
       0.08335144 0.0003360429 -0.13926223 -0.062031
000150 9a e3 21 3e b3 e1 28 3e e1 22 12 3c 65 ee ca bc
       0.1580948 0.16492347 0.008919449 -0.024771878
000160 75 d2 9d bd 0c 18 9f bd 44 4f 84 be 5f fa c4 bd
       -0.07706157 -0.077682585 -0.25841725 -0.09618067
000170 3a 78 79 3b 5d 67 13 3e ae 05 c0 3d 2f 77 15 be
       0.0038066045 0.14394899 0.09376083 -0.14596246
000180 e6 43 8f ba fb c9 ad b9 28 ae 37 3e 2f 8a 72 bd
       -0.001093027 -0.00033147619 0.17937529 -0.059213813
000190 25 49 4b 3d 6f e2 0b bd e8 4a f9 bc 27 ae d9 3d
       0.049630303 -0.03415149 -0.030431226 0.1062892
0001a0 95 8e 3d bd 33 d8 6e bd ed e6 9b bd 08 55 30 be
       -0.046278555 -0.058311652 -0.07612405 -0.17219937
0001b0 10 cd 2a be 77 2f dc bd 02 38 8d bc 5a 98 86 bd
       -0.16679788 -0.10751241 -0.01723862 -0.065720275
0001c0 87 57 83 3d ae af cc bd 1e 88 80 3e 58 c9 77 be
       0.06413179 -0.09994446 0.2510385 -0.241979
0001d0 a4 56 ce bd eb 36 c5 bb b0 77 c6 bc be e0 11 3e
       -0.10075119 -0.0060185096 -0.024226993 0.14245889
0001e0 1e a5 a3 3e ec b5 19 3c a4 71 00 3e be 75 b8 bd
       0.31961912 0.009381752 0.1254335 -0.090068325
0001f0 f2 63 e9 3e f3 cb 98 3d 76 67 a8 bd 26 79 d9 bd
       0.45584065 0.07460775 -0.082228586 -0.1061881
000200 9f ae 9b bd 5b 39 74 3e 1b 93 04 be ab b8 47 3e
       -0.07601666 0.23850004 -0.12946741 0.19504039
000210 0a d4 0c be 9c 38 03 be 96 01 c6 3e 01 e3 4e 3e
       -0.13752761 -0.12814564 0.38673085 0.20203783
000220 2a ff 10 bd 11 9d f6 bc 9c a1 06 3e 7c 27 af 3c
       -0.035399593 -0.030104192 0.13147587 0.021381132
000230 87 ff 67 be 75 d4 d9 bd 59 66 85 be 27 12 15 3d
       -0.2265607 -0.10636226 -0.26054648 0.036394265
000240 7e 0e 16 3e e9 de c9 3c 11 3e 35 3c b9 01 16 3e
       0.14653966 0.024642425 0.011062161 0.14649095
000250 b1 92 da bd fa f7 10 be 92 e1 27 be 52 2f 23 3e
       -0.106725104 -0.14157096 -0.16394642 0.1593602
000260 3f 2d e3 bd 4b 8a 10 be a7 e1 c1 3c 04 43 52 bd
       -0.110926144 -0.14115255 0.02366717 -0.051333442
000270 b0 1f 99 bd df b4 12 bc f9 ed 88 bd df 5d 2c 3e
       -0.07476747 -0.008954256 -0.06686015 0.16832684
000280 35 83 1c 3e f5 74 f4 3d e1 c9 01 3d 9f 49 9e bd
       0.15284427 0.1193637 0.031686667 -0.07728886
000290 8d b1 83 3d a7 5d 7f 3d da ac 08 3d f8 91 db bb
       0.064303495 0.062345173 0.03336797 -0.0067007504
0002a0 1e 1a 51 bd 5c 1a b9 3b 2d 18 34 3e 6f 55 dd 3d
       -0.051050298 0.0056488942 0.17587347 0.10807311
0002b0 91 9d 1f 3e fe ea 45 3e 44 23 12 be 64 7e d7 3d
       0.1558745 0.19327924 -0.14271265 0.10522154
0002c0 51 7d 2c bd 23 19 70 3a dc cb 1a be 93 b2 09 be
       -0.0421117 0.0009159019 -0.15116829 -0.13447027
0002d0 5b 71 84 3d 23 56 ab 3d e6 62 48 3d 02 cc 11 3e
       0.06466933 0.08366039 0.048922442 0.14237979
0002e0 67 d9 88 be 71 5d ea 3d 23 ee 39 bc 29 6b 15 be
       -0.26728365 0.11443604 -0.01134828 -0.1459166
0002f0 07 5c ef bd 88 28 14 3e 73 c3 54 bd 3f 47 0d be
       -0.11687475 0.14468586 -0.051944207 -0.1379671
000300 bd ab 16 bd 78 fe c5 bd 3a f2 bd bd 14 62 db bd
       -0.036784876 -0.09667677 -0.09274717 -0.10712066
000310 bd 9a b8 3d d7 e1 0f be a8 9c 2c bd dc e7 72 3d
       0.09013889 -0.14050995 -0.042141587 0.05930315
000320 f3 58 33 bd c1 d5 a1 3d 04 1e c5 bc 2f 66 33 bd
       -0.043786 0.079020984 -0.024062164 -0.04379862
000330 c0 cd 3c 3e 67 58 d9 3d 6b df fa 3d df 5d 3f 3d
       0.18437862 0.106125645 0.12249645 0.04672038
000340 07 7b cb 3d 1d 33 eb 3d aa d4 45 be d9 be e3 3c
       0.09935575 0.114843585 -0.19319406 0.027800964
000350 6f 32 e4 3d 71 5b 7b 3a 59 ee fd bd d7 2c bb bb
       0.11142432 0.0009588516 -0.12398977 -0.0057121324
000360 97 ef 2b 3e 4c 79 b6 3e 14 39 65 be 77 c3 d0 bb
       0.16790615 0.35639417 -0.22385055 -0.0063709575
000370 37 cb 4d 3e 3e 9b 6b 3d d0 00 cb bd 67 b9 03 3e
       0.20097052 0.057521097 -0.09912264 0.12863694
000380 21 88 fc bd 70 8b 34 bd c9 35 82 3e d0 da c8 3e
       -0.12330652 -0.04407829 0.2543166 0.3922944
000390 f5 31 25 bd a6 8d 34 be ec 7c cb 3d 30 8e 33 3d
       -0.040330846 -0.1763216 0.09935936 0.043836772
0003a0 33 90 b3 be 42 2c bb bd 4a ff 02 bf b0 25 34 bd
       -0.35070953 -0.09139301 -0.5117079 -0.043981254
0003b0 10 f9 b4 3e 2a 4c 2b 3e 87 c3 88 be c7 65 ee 3e
       0.3534627 0.16728273 -0.26711676 0.46562025
0003c0 dc 61 b2 bd d0 15 c4 bd 7b de 32 3e 34 d2 14 3e
       -0.087100714 -0.09574473 0.17467682 0.14533311
0003d0 2a a2 46 3b 82 57 e8 bd 10 99 26 3b 9b a9 1d be
       0.003030906 -0.11344816 0.0025420822 -0.1539673
0003e0 80 9f ff 3d f5 08 0f be db 16 f4 3c 74 13 b6 bb
       0.12481594 -0.1396826 0.029796055 -0.005556518
0003f0 02 e5 b1 3d 79 55 04 3e e7 d4 8f 3d d3 24 08 3e
       0.08686258 0.1292323 0.0702303 0.13295297

layers.6.bias f4 [30]
000000 be c7 13 be 16 87 dc bd 96 da 0a 3e 97 c5 77 3e
       -0.14431664 -0.10767953 0.13559946 0.24196468
000010 1f a4 24 be e8 fd 91 bc 0e 1c ff 3d c7 82 28 3e
       -0.16078232 -0.017821267 0.12456523 0.16456138
000020 da bd 8e bc 0c 71 cc bd 78 21 a8 bd 13 b7 42 be
       -0.017424513 -0.099824995 -0.08209509 -0.1901515
000030 e3 d1 11 3e be dc 25 3d 1c 61 3b 3e 68 e9 81 bd
       0.14240222 0.04049372 0.18298763 -0.06343347
000040 1e ed 21 3e 6d b0 54 3e bd b1 f7 bd ab b4 92 3e
       0.1581311 0.20770426 -0.12094448 0.28653464
000050 93 d6 f5 3c 71 7a d7 bd eb 30 4e 3c b6 1e 72 3d
       0.030009544 -0.10521401 0.012584905 0.05911132
000060 5f 66 6e 3e 2a 53 6d be 4e ae b8 3c dc ff 0f be
       0.23281239 -0.23176256 0.022544052 -0.14062446
000070 5b 68 f7 3d 10 f3 57 3c
       0.12080451 0.013180509

layers.8.weight f4 [1, 30]
000000 31 b5 6c 3e d5 63 8d 3c fa 92 9f 3d 94 2a ca bd
       0.23115994 0.017259518 0.077917054 -0.098714024
000010 56 58 8c 3e 6e 93 86 3d c2 57 04 3e 00 26 1a bf
       0.27411145 0.06571089 0.12924102 -0.60214233
000020 1c 65 5d 3a 70 92 29 bc 1a 60 de bd a0 75 a5 bd
       0.00084455474 -0.010349855 -0.10858174 -0.08079076
000030 f9 0e a1 3d 08 48 29 be bd 7c 0d be a5 00 04 3e
       0.07864184 -0.16531384 -0.13817115 0.12890871
000040 1b 60 92 3e 79 22 e3 3b ff 7d 43 be ef 8f 55 be
       0.28588948 0.0069315997 -0.19091032 -0.20855688
000050 9f aa 90 3d e0 3e 84 bc 70 be ca bf d5 37 7c 3d
       0.070637934 -0.016143262 -1.5839367 0.061576683
000060 fd 41 81 3e 31 62 a7 3e 32 90 dd bd b1 0d 7c 3d
       0.25245658 0.32692102 -0.10818519 0.061536495
000070 cc db 5e 3e cd e4 22 3c
       0.21763533 0.009942246
