PINN's/BURGERS/Burgers_Epochs/Models/200epochs.pth (torch, 15124 bytes, 9 tensors)

layers.0.weight f4 [30, 2]
000000 98 71 80 bd 00 b3 3f bd b7 70 15 bf 2e a2 85 3e
       -0.06271666 -0.046801567 -0.58375114 0.26100296
000010 9d 3a 87 bf e1 58 96 3e c7 56 84 3e fe 22 02 be
       -1.0564762 0.29364684 0.25847456 -0.12708661
000020 1d ba cc be 0a cc 1f 3d 85 83 03 bf 53 c3 31 bf
       -0.39985743 0.039012946 -0.5137256 -0.69438666
000030 1e 2f e7 be b7 3d 4c be 3b 6e c0 be 6a 10 7f be
       -0.45153135 -0.19945417 -0.375841 -0.24908605
000040 ab 24 b1 3e 67 58 26 be 55 ae 09 bf 2b 66 c1 3e
       0.34598288 -0.1624466 -0.53781635 0.3777326
000050 2c 73 16 3f 78 5b cc 3e 6b b9 fa be a0 37 6f 3e
       0.5876949 0.39913535 -0.48969588 0.23361063
000060 14 33 8a be 39 77 12 be ef 2b d9 be 46 16 62 3d
       -0.26992095 -0.14303292 -0.4241633 0.055197023
000070 30 14 b2 3e 28 43 03 be bb bf d6 bd 94 f2 07 3e
       0.34781027 -0.12818587 -0.104857884 0.1327613
000080 92 91 83 bf f4 3b c4 be e8 fa cd bd 0a 21 12 3f
       -1.02788 -0.3832699 -0.10057622 0.57081664
000090 9f ed 0a bf 94 2a 1c 3d e0 97 06 bf 2f 6d 9c 3e
       -0.5426883 0.038126543 -0.5257549 0.3055205
0000a0 14 9a 88 be 53 8e 83 be b3 c1 0e 3f 54 d5 1a 3e
       -0.26680052 -0.25694522 0.5576431 0.1512044
0000b0 43 ca 8e 3b 63 53 ba be f8 d4 35 3f 51 86 16 bf
       0.0043576076 -0.36391744 0.7102809 -0.587987
0000c0 c0 f4 06 3f 14 f2 a8 3e 97 f8 7c 3f 1a 92 e7 bd
       0.5271721 0.3299719 0.9881682 -0.113071635
0000d0 ec f3 e9 3e 3a 0e 00 bf bb e0 dd 3e 5c 28 31 3e
       0.4569391 -0.5002171 0.43335518 0.17300552
0000e0 8b 8b ed 3e ac 59 36 bf 90 e0 a6 be ea 4d cf 3e
       0.46395525 -0.7123058 -0.32593203 0.4048913

layers.0.bias f4 [30]
000000 ec d5 1d 3f 62 e5 1d be 2b 9c 66 3e ac 32 21 3f
       0.61654544 -0.15419534 0.22520511 0.62967944
000010 fe b6 e5 be 83 bf e2 be 8b c2 b7 be c3 79 c7 be
       -0.44866174 -0.44286737 -0.35890612 -0.38960084
000020 da a7 67 bf 70 bc 71 bd 3d 91 a2 bc a1 16 23 bf
       -0.90490496 -0.0590176 -0.019844646 -0.63706404
000030 97 c6 93 3d 16 36 a3 bd 1d ad 5b bf 27 8c 59 be
       0.072156124 -0.079693004 -0.85811025 -0.2124487
000040 41 a7 7e be 5a 5c 67 3f 42 9b aa bc 52 d0 18 bf
       -0.2486849 0.9037529 -0.020825986 -0.5969287
000050 19 39 9a bf 7c 4a 44 bd 0a ca 66 bf 21 40 94 be
       -1.2048675 -0.047922596 -0.9015204 -0.28955176
000060 30 44 8b be a6 79 ce be b3 b5 b9 bd a1 2d 7f 3e
       -0.2720046 -0.40327185 -0.090678595 0.2491975
000070 f1 86 0d bf 1b 03 3d bf
       -0.5528403 -0.73832864

layers.2.weight f4 [30, 30]
000000 1b b4 af bc 3d ed 7f 3e f2 c5 2c be ed d6 6e 3e
       -0.021448186 0.24992843 -0.16872385 0.23324175
000010 77 17 df bd e6 bf 9f 3d 00 69 be be d6 78 76 be
       -0.108931474 0.078002736 -0.37189484 -0.24069533
000020 3f 0e 2e 3c 1c 4c dd 3d 38 94 a6 3d 1b af 9c be
       0.010623514 0.10805532 0.08133739 -0.30602345
000030 c5 fd 29 3d 4c 95 44 3e 57 61 5c be bd b8 0e be
       0.04150178 0.19197577 -0.21521507 -0.1393766
000040 d2 9e 38 bd 57 b4 e3 bd 95 0a 1e 3e 71 69 f1 bc
       -0.045073338 -0.111183815 0.15433724 -0.029469224
000050 13 c7 37 be 64 fe 4f be f7 bb ad bd 72 9a 50 bd
       -0.17947035 -0.20311886 -0.08483117 -0.05092854
000060 c5 4a d5 3c f8 a9 90 3e 20 39 11 3e f0 d2 2c 3e
       0.02603663 0.28254676 0.14181948 0.16877341
000070 99 fc 7c 3b 3e 95 f5 bd a4 5f 54 be 85 71 09 3e
       0.0038602708 -0.11991356 -0.20739609 0.1342221
000080 ec 63 b9 3e c1 10 02 3e 7b 1d 14 be d8 76 2f 3d
       0.36209047 0.12701704 -0.14464371 0.042837948
000090 d7 9f 70 be 2d ef f5 bd 61 34 3b be 63 b6 60 be
       -0.23498474 -0.1200851 -0.182817 -0.21944575
0000a0 31 cc d8 bd 70 fd cf bd c8 f2 fa 3d 85 43 8d 3e
       -0.105858214 -0.10155761 0.12253338 0.27590576
0000b0 92 72 a0 be b0 1e 6a be 77 70 0a bd c8 c6 c9 bd
       -0.3133741 -0.22863269 -0.03379866 -0.09852368
0000c0 39 93 24 3e a9 5f 73 3d 61 12 a5 be 0f 08 71 be
       0.16071786 0.0594174 -0.32240584 -0.2353823
0000d0 73 16 f8 3d 8e a8 a9 be 2d 5c 2d be bd e6 95 3e
       0.12113657 -0.3313641 -0.16929694 0.29277602
0000e0 74 48 bc 3c 20 8e 31 be ec 98 11 bf d6 2c a3 bc
       0.022983767 -0.17339373 -0.56873965 -0.01991884
0000f0 bd 0c 39 3d 05 6d d0 bd d9 dd 2e bd 03 e0 da 3d
       0.045178164 -0.10177044 -0.04269204 0.10687258
000100 f7 59 d8 bd 8e 61 ad bd bf a2 a3 bd 9e e0 dc bd
       -0.105640344 -0.08465873 -0.07990026 -0.1078503
000110 1d 32 60 3c ad e1 92 be 52 1b 38 3e bf 2b 82 3e
       0.013683823 -0.28687802 0.17979172 0.25424
000120 8b c2 6f bd 2b 18 58 3d d0 85 ef bd 81 75 1c be
       -0.05853514 0.052757423 -0.116954446 -0.15279199
000130 98 ab 3a 3d 8c 41 08 3e 51 f5 8a 3c 01 66 29 3e
       0.0455738 0.13306254 0.01696268 0.16542818
000140 dd 3c 16 be dd ab 8b bd f0 2b 39 3b b7 36 d3 bd
       -0.14671655 -0.0681989 0.0028254949 -0.103131704
000150 bb a1 99 bd 7b 2f 15 be 62 29 2a 3d ec 35 42 be
       -0.07501551 -0.14568894 0.041543372 -0.18965882
000160 6f bc 13 be 35 0a 01 3e f3 f6 8a 3d 25 d0 11 3b
       -0.1442735 0.1260155 0.06785383 0.0022249308
000170 65 1a de bd 70 5d bc 3e 1f 78 20 be 72 5f 47 3d
       -0.10844878 0.36790037 -0.15670823 0.048675008
000180 3c 1b 98 be 19 de 27 be 58 32 08 3c 55 e1 32 3d
       -0.29708278 -0.16393317 0.008312784 0.043671925
000190 03 22 e9 bc 5e d4 db bd 80 94 21 3e 40 e8 dc 3e
       -0.0284586 -0.10733865 0.15779305 0.43145943
0001a0 06 da 58 be 80 70 46 be 76 c8 ba be 75 b3 96 bc
       -0.2117692 -0.19378853 -0.36481065 -0.018396119
0001b0 59 a3 a1 3e a7 80 98 bc df aa 0a bb 92 64 06 be
       0.31569937 -0.018616034 -0.0021158976 -0.13124302
0001c0 36 c2 07 3e 9b 49 83 bd 05 e5 23 3d 57 2b 5c 3d
       0.1325768 -0.064105235 0.040013332 0.05375227
0001d0 f4 6f 2f 3e b0 69 6e 3e a9 f7 ce bd 71 6e 83 be
       0.1713255 0.23282504 -0.10105831 -0.25670198
0001e0 42 41 84 3a bf 15 0d 3e e4 ee a0 be 16 f3 b6 3e
       0.0010090249 0.13777827 -0.3143226 0.35732335
0001f0 f2 03 1a 3d d0 de 26 3f 38 18 65 3e 99 1a 11 3e
       0.03760142 0.65183735 0.2237252 0.14170302
000200 e6 6b 93 be d6 13 94 3e 08 bd 57 3e aa 73 64 be
       -0.28793257 0.28921384 0.21068203 -0.22309747
000210 c8 53 04 be 13 24 8a 3e 48 c4 fc bd 18 8a 8a 3e
       -0.12922585 0.26980647 -0.12342125 0.27058482
000220 e4 34 17 3f e3 1f 3e 3f 9a ff 0f bc 0c 63 8d be
       0.5906508 0.74267405 -0.0087889675 -0.2761463
000230 15 57 7a be 24 1c f0 3d 8d 9a 7f be 9e 48 5d 3e
       -0.24447282 0.117241174 -0.249613 0.21609733
000240 8d 6c e3 3d 1f 05 38 be 4c 46 00 3c c3 98 87 3e
       0.11104689 -0.17970704 0.00782926 0.26483735
000250 aa 0b 21 3d 86 35 b8 be 46 62 92 3d cf 2a a4 bd
       0.039317764 -0.35978335 0.071476504 -0.080159776
000260 de 92 90 bd 60 44 2a bb 60 6e 50 bd f5 d4 db bd
       -0.07059263 -0.0025980696 -0.05088651 -0.10733978
000270 77 6d 85 3a fb 25 25 3e a2 22 67 bd 64 36 8e 3e
       0.0010179718 0.1612777 -0.056429513 0.27775872
000280 f0 3d 25 3e 6a 5f a2 3d d0 97 0c bd 9f d5 62 be
       0.16136909 0.07928355 -0.034324467 -0.22151802
000290 3d cb 6b bd bd be 2c be fc 96 1f 3e d4 b8 b7 3e
       -0.05756687 -0.16869636 0.1558494 0.358832
0002a0 8b 4e db bd 64 01 a2 bd 00 75 53 3e ef 07 96 bd
       -0.1070834 -0.079104215 0.206501 -0.07325732
0002b0 49 07 23 be 34 1a 8e 3e 6f 5b 69 be e2 85 c6 bd
       -0.15920748 0.27754366 -0.22788785 -0.09693505
0002c0 6b 0c 7c 3c 80 6a 96 3c 56 44 12 3e 34 46 50 be
       0.01538382 0.01836133 0.1428388 -0.2033928
0002d0 91 29 42 bd 47 e0 b6 be 5e 01 92 3e c5 f6 0a be
       -0.047402922 -0.35717985 0.28516668 -0.13570698
0002e0 0e b3 18 3e 48 d0 06 bf 88 e6 8e 3e 95 d7 ea 3c
       0.14912054 -0.5266156 0.27910256 0.02866725
0002f0 90 e1 00 3e 59 78 89 bd 6a 03 95 bd 6c 7a 68 3e
       0.12586045 -0.067124076 -0.07276042 0.2270295
000300 1d 8c 80 3e c8 90 ff be ab 86 53 3d 60 55 24 be
       0.25106898 -0.49915147 0.0516421 -0.16048193
000310 52 ee cd 3b be 98 a0 be dc be d8 bc 9d 8f 40 3e
       0.0062845135 -0.31366533 -0.026458196 0.18804784
000320 5a 1f a0 3d 6d 60 6d bd 55 3e 90 3e d2 d3 94 bd
       0.0781848 -0.057953287 0.28172556 -0.07266964
000330 84 86 e4 bd d8 8f 6a be f6 f1 01 be 12 36 4f be
       -0.11158469 -0.22906435 -0.12689957 -0.2023547
000340 ba ce 3d be 2d 37 07 3f d1 c5 85 bd 57 d6 b6 be
       -0.18535891 0.52818567 -0.06531871 -0.35710403
000350 28 b6 b7 3e bd fe 94 be f6 95 c2 3e 2b d4 73 be
       0.35881162 -0.291006 0.38005036 -0.23811404
000360 f8 e9 1f 3f 0b e0 ee 3e 22 99 32 3e f7 fd 2a 3e
       0.62466383 0.46655306 0.17441228 0.16698442
000370 2f fc 9a be 49 e1 a2 3e 67 12 66 bc 36 fa 21 bf
       -0.30270526 0.31812504 -0.014042473 -0.63272417
000380 85 31 03 3e 19 60 b5 bd dc 73 ff 3e 81 b7 c9 b9
       0.12811859 -0.0885622 0.4989308 -0.0003847443
000390 e4 1b 8f be 04 1c 45 3e 8f 70 18 3e 11 57 20 3f
       -0.27950966 0.19248968 0.14886688 0.6263285
0003a0 8a 76 34 bd e2 af 84 3d c0 fa 84 3d e6 df c0 be
       -0.04405836 0.064788595 0.06493139 -0.3767082
0003b0 f8 6f 2c be 5d 82 4f be 4a 50 b0 3e a7 7f c3 3e
       -0.16839588 -0.20264573 0.34436256 0.38183329
0003c0 9d 0e 88 be 51 75 33 bb 04 4a 04 be a1 ed 44 be
       -0.2657365 -0.0027383158 -0.1291886 -0.19231273
0003d0 26 2d 69 be 62 e7 7c bd 35 a5 b6 be a6 31 a2 be
       -0.22771129 -0.0617441 -0.35672918 -0.31678504
0003e0 a6 df da 3e 92 49 92 be 5d ee 16 be 72 7b 78 3d
       0.42748755 -0.28571755 -0.14739366 0.0606646
0003f0 d4 e0 73 3d e6 27 28 3e 6d 8a 84 3d d8 cf 9d be
       0.059540585 0.1642147 0.06471715 -0.30822635

layers.2.bias f4 [30]
000000 ae 1e 26 bc e5 d2 f7 3d 51 e8 03 3e c4 c6 80 bd
       -0.010139151 0.12100772 0.1288159 -0.062879115
000010 69 b5 00 be e4 3e ca bd 88 c3 a9 3d 0e a4 d6 3a
       -0.12569202 -0.09875277 0.08289248 0.0016375796
000020 36 2c bf 3e 3a 08 87 be 49 2f aa 3c 01 e1 d1 bc
       0.37338418 -0.26373464 0.0207745 -0.025619986
000030 76 aa a8 bb 05 fa e6 3d af 90 16 3e d5 12 3b be
       -0.0051472737 0.11278156 0.1470363 -0.18268903
000040 8c b1 97 3e a2 70 b2 be ad dc 2b be 4b d3 02 3e
       0.29627645 -0.34851557 -0.167834 0.12775914
000050 90 2e f4 bd 8e dc ce bc 17 71 09 3e f5 39 bf bd
       -0.119229436 -0.025251653 0.13422047 -0.09337226
000060 ce 77 a2 be a9 79 89 bc ad 48 1a 3e df 6f 36 bd
       -0.3173203 -0.016781645 0.15066786 -0.044540282
000070 81 42 31 3e e3 16 18 bf
       0.17310525 -0.5940992

layers.4.weight f4 [30, 30]
000000 5c 77 0a 3e ac c2 f0 3d 9b 4a b9 3d 3f e7 f0 bc
       0.13522094 0.11755881 0.09047433 -0.029407142
000010 73 8d 08 3c b2 8e 0d be 7d ee b2 bd 28 9f 8c be
       0.008334505 -0.13823965 -0.08736894 -0.27465177
000020 cb 28 bb 3d be 86 b2 3e 30 22 5e 3e 9e 6c 5a be
       0.0913864 0.34868425 0.21692729 -0.21330497
000030 57 92 9c bd 4a d5 d8 3d be 83 9a be de 83 12 be
       -0.076450996 0.10587557 -0.30178636 -0.14308116
000040 6b ee 15 bf dc fb d4 be 5e 91 43 3e 48 4f ae 3d
       -0.5856692 -0.41598403 0.19098422 0.085112154
000050 02 2c 95 3c 43 12 5c be 30 f9 9c bd c8 11 a9 bd
       0.018209461 -0.21491341 -0.07664716 -0.08255345
000060 c4 33 46 3a 56 e4 b5 3d fa 9e e3 3d 24 29 26 bd
       0.0007560814 0.08881442 0.11114307 -0.04056658
000070 8f 5d 09 bf 19 da 1c bf f9 0b 0d 3f 9b 05 ca 3e
       -0.53658384 -0.6127029 0.55096394 0.39457402
000080 4b 73 5c 3e cc 4f 1f 3e f1 2c 97 bd 22 cf 59 3d
       0.21528356 0.15557784 -0.07381619 0.053176053
000090 cb c5 1e bd 2c 20 47 be 3a bf c8 3e 4a 50 ab 3e
       -0.03876285 -0.19445866 0.39208394 0.33459693
0000a0 fd df ce 3e 01 ba 0f be 12 fa c6 be 9b fe 01 3d
       0.40405264 -0.14035799 -0.38862664 0.03173695
0000b0 61 38 b9 be 81 bc e9 be b6 39 d1 be 63 f6 62 be
       -0.36175826 -0.4565163 -0.40864342 -0.22164302
0000c0 ec 0b 58 3f 36 89 61 3d e2 5d 52 3e bc 5c 2c 3e
       0.8439319 0.055062495 0.20543626 0.1683225
0000d0 1e ed 2e be 4f cc 0f be d4 a9 14 3d 80 7c dd 3c
       -0.1708264 -0.14042781 0.036294773 0.027036905
0000e0 ad 9a 10 be ab ce ce 3c 9e 83 eb be c3 67 34 bf
       -0.14121504 0.025245031 -0.45998853 -0.7047083
0000f0 da 37 e9 bd df e3 a0 3d 00 10 2a bd 3a bf d9 3d
       -0.11387606 0.07855963 -0.041519165 0.10632177
000100 22 04 a8 3e b8 2c 83 3e eb 18 83 be 76 45 b6 bd
       0.32815653 0.25620055 -0.25604948 -0.08899967
000110 a9 d7 5f be d9 c7 3e 3d ef 6e 1d 3e 7f 1e 00 be
       -0.21859612 0.04657731 0.15374349 -0.12511633
000120 b0 40 6b 3d 7d 9d 05 bd 4a 4c 22 3d 54 c6 0a 3e
       0.057434738 -0.032620896 0.039623536 0.13552219
000130 7d 32 26 be 57 b8 bc bd 16 52 c7 3d 75 f0 0b be
       -0.16230197 -0.092148475 0.097324535 -0.13665946
000140 3b 86 89 bd 57 5d 48 be 88 37 1a bd e4 ed dc 3c
       -0.067150556 -0.19566856 -0.037650615 0.026968904
000150 2c e0 17 3e e3 cd 75 3c 8e c4 21 be d3 69 b2 3d
       0.14831609 0.0150027005 -0.15797636 0.087115906
000160 43 4a ee bd 3b 6a 38 3e 7d fa 45 3d 2a 3a 59 3c
       -0.11635258 0.18009274 0.048334587 0.013258496
000170 11 55 b6 3d 4e 7f f7 bd 9d 22 ab 3d cf 1d de bd
       0.08902944 -0.12084828 0.08356211 -0.10845529
000180 64 29 97 bd 90 27 40 bd f1 38 e0 3d 41 45 25 be
       -0.073809415 -0.04691273 0.10948361 -0.161397
000190 58 72 32 bc ec 32 d8 bc e4 f3 23 be 32 49 d0 3c
       -0.0108915195 -0.026391469 -0.16011006 0.025425527
0001a0 7a c9 18 be 36 39 6f 3d c0 0f 4c be 9c 64 ba 3c
       -0.14920607 0.05840417 -0.19927883 0.022753052
0001b0 f8 95 8b 3c f8 39 68 3d a9 82 9e 3a 8a 7c d4 3d
       0.017039284 0.05669591 0.0012093383 0.103753164
0001c0 bd bf b3 3d 01 91 5e bd e0 a9 ba 3d 35 a8 27 bd
       0.087768055 -0.054337505 0.09114432 -0.0409319
0001d0 b1 14 bc bd fc 4d 31 bd 1d 44 e5 3c cd a3 27 be
       -0.09183634 -0.043287262 0.02798658 -0.16371079
0001e0 fb 37 47 3e 97 d2 06 3d 38 77 7c 3d 6e b4 d5 bc
       0.19454949 0.032915678 0.061637133 -0.026087012
0001f0 15 b8 1c 3d e8 f0 44 3c a8 43 3e bd af 80 35 be
       0.03826149 0.012020327 -0.04645124 -0.1772487
000200 2d 66 a6 3d 59 03 18 3e 9c 5c 9c ba d2 78 0f be
       0.08124957 0.14845027 -0.0011929455 -0.14010933
000210 85 60 73 3d 19 f1 d9 3c 30 e7 b2 bd 98 9d 0d be
       0.05941822 0.026604222 -0.08735502 -0.13829648
000220 bc 81 9a 3d bb 46 a1 3d 94 f2 af 3d 09 4f f4 bd
       0.07544276 0.07874819 0.0859119 -0.11929137
000230 25 7e 17 3d 10 9a 94 bb 8f 61 bf 3d b6 38 2c 3e
       0.036985535 -0.0045349672 0.0934478 0.16818509
000240 cb 28 c3 bd 6e eb 58 be 5b 5b 4e 3e 2f f4 0d be
       -0.09529265 -0.2118356 0.20152037 -0.1386268
000250 3c d0 f5 3c e3 94 2e 3e 09 e3 65 3e de a1 8d 3e
       0.03000652 0.17048983 0.22449888 0.27662557
000260 f6 6d c9 bc fb 07 94 3d ac c4 98 3e 1f 07 24 be
       -0.024588566 0.07228085 0.2983755 -0.16018341
000270 a2 b1 f9 be 75 52 da be 8f 7c 54 3d 70 df c9 3e
       -0.48768336 -0.42641035 0.0518766 0.39428282
000280 97 79 b8 3e ab 2a ff 3c 75 1e 5f be 41 8d 9c 3e
       0.36030266 0.031148275 -0.21788962 0.30576518
000290 f5 7a 98 3d e2 7b 4f be 0a d6 05 bf 4d 24 77 be
       0.07445327 -0.20262101 -0.5227972 -0.24134941
0002a0 de 64 bd 3e e4 e1 98 3e 22 de 37 3e 01 de ac be
       0.36991018 0.2985984 0.1795583 -0.33763126
0002b0 5e 53 23 bd 0a 9e db 3d 96 b3 84 3d 16 0b f7 3d
       -0.039874427 0.10723503 0.06479566 0.12062661
0002c0 67 a2 ec bc ff a5 d9 bd ee 55 07 bf 3e 1d ff bd
       -0.028886033 -0.10627364 -0.52865493 -0.124567494
0002d0 70 bd fe 3d 39 19 a5 bc d2 82 12 be 8a 9c d2 bc
       0.12438476 -0.020153629 -0.14307716 -0.02570941
0002e0 33 a5 e5 3d 9b 51 91 bd 15 ff 25 3d 36 94 00 bc
       0.1121315 -0.07095643 0.04052647 -0.007847836
0002f0 c4 84 cc bd 0c a6 20 3e 00 5c b8 3d 2e 92 85 bd
       -0.099862605 0.15688342 0.090019226 -0.06522022
000300 b4 11 40 3e 96 73 3d be 71 2a 2e bd 4a 43 28 3e
       0.18756753 -0.18501124 -0.042520944 0.16431919
000310 07 d0 66 3e 27 ac a3 bd e8 21 35 3e 1e ba d9 bd
       0.22540294 -0.0799182 0.17688715 -0.10631202
000320 b9 e4 4c 3e 23 59 ab 3d bd ee a7 3d b1 a5 6e bc
       0.20009126 0.08366611 0.081998326 -0.014565871
000330 76 3f df bd 5e c0 10 be 55 cb 0d be ac a7 22 be
       -0.10900776 -0.14135882 -0.13847096 -0.15884274
000340 37 29 1e 3e 05 4f ff 3d ba eb 09 3e 17 8e 77 bd
       0.1544541 0.12466244 0.13468829 -0.06043824
000350 42 cb 71 3d 02 cc c2 3d 2e 25 05 be f2 dc 33 3e
       0.059031732 0.09511568 -0.13002464 0.17564753
000360 4e 2e 1f 3e ae e9 e9 bc 03 da 25 3e cf d6 1c be
       0.15545008 -0.02855381 0.16196446 -0.15316318
000370 3e fe 8e 3d c5 9a 0a 3e e3 ce 0a be b2 93 90 3d
       0.069820866 0.13535602 -0.13555484 0.07059421
000380 46 7b 88 3d f3 27 59 3e b4 6d 08 3e df e0 93 3d
       0.066641375 0.21206646 0.13323098 0.07220625
000390 97 a7 72 bc 57 83 f0 bc d2 91 6b 3d 26 ae 09 3e
       -0.014810464 -0.029359503 0.057512112 0.13445339
0003a0 bc 3f da 3c 86 14 95 bd f1 96 2f bc d0 b8 34 3e
       0.026641719 -0.07279305 -0.01071714 0.17648625
0003b0 6a 4e 6a bd d3 9d 29 bb 7b 05 b4 bc e2 34 42 3d
       -0.057203688 -0.0025881424 -0.02197527 0.047413714
0003c0 9a 97 58 bd 64 16 17 be 8f 15 18 3d 0a 51 18 bd
       -0.052878954 -0.14754635 0.037129935 -0.03718666
0003d0 10 31 e9 3d 23 b6 51 3b 86 5e a2 3c ab 90 02 3e
       0.11386311 0.003199943 0.019820463 0.12750499
0003e0 81 1b c3 3c 25 96 38 3e 2d 05 b2 bb 83 1a 1f be
       0.023816826 0.18026026 -0.005432746 -0.15537457
0003f0 99 fb 8b 3d 06 36 54 3e 00 79 d6 bd 51 a4 05 3e
       0.06835098 0.20723733 -0.10472298 0.13050963

layers.4.bias f4 [30]
000000 b6 99 85 3d e1 ad 18 3e 26 5e 64 3c f8 27 ce 3c
       0.06523459 0.1491008 0.013938462 0.025165543
000010 6e d0 d3 bc 4a 97 71 be fe 75 61 be 81 60 18 be
       -0.025856223 -0.23592868 -0.22017667 -0.14880563
000020 3f 0c 99 bc 71 64 3a be 38 24 01 be 11 1b 76 3c
       -0.018682597 -0.18202378 -0.12611473 0.015021102
000030 c4 55 f2 bd 82 62 81 3d ce 3e 9f 3c 70 40 c2 3d
       -0.11832765 0.06317617 0.019439127 0.09484947
000040 a9 4c 6f 3d 4c 60 fe 3d 49 44 2f bd 4d 20 6d be
       0.05842272 0.12420711 -0.04278973 -0.23156853
000050 06 f2 cf 3c 06 9e e5 3d ea 4c 28 3d 3e fb a0 3e
       0.02538396 0.11211781 0.041088976 0.31441683
000060 7c ef 1e be 73 86 1f bc 9b 0b e0 bc 16 b1 20 bd
       -0.15521044 -0.009736645 -0.027349284 -0.039231382
000070 9f 67 23 3e 9b 13 89 be
       0.15957497 -0.2677277

layers.6.weight f4 [30, 30]
000000 4e 19 f5 be 03 8f 2c be ed 78 54 3e c9 70 2d be
       -0.47870868 -0.1685143 0.20749255 -0.16937555
000010 b4 26 94 bc ee ce 5c bf d0 24 7f 3d 36 94 aa 3b
       -0.018084861 -0.8625325 0.062290967 0.0052056564
000020 f4 e3 66 3d 74 50 c0 3d e3 2a 1e bf c7 aa 0a be
       0.056369737 0.09390345 -0.6178419 -0.13541709
000030 d8 98 b8 be f7 9f e1 3d e9 41 8b be e3 63 c0 3c
       -0.3605411 0.11016839 -0.27198723 0.02348513
000040 8b b8 28 bd 10 9d e5 bd 7a 78 23 3e 8a 0f 1d 3f
       -0.04119162 -0.11211598 0.15963927 0.61351836
000050 6d ef 93 3e 48 3f 71 be b8 7d a5 be e8 19 e0 3e
       0.28893605 -0.23559296 -0.32322478 0.43769765
000060 11 e9 a0 3c 81 72 c2 3c 33 f0 d0 3e d3 bd 9e bd
       0.019642385 0.02373624 0.40808257 -0.0775105
000070 9a 92 a3 3d 4f a2 44 3f 4e 8d 72 be b9 d2 0b be
       0.079869464 0.76810163 -0.23686716 -0.13654603
000080 38 04 c8 bd 16 7f 90 3c ff 1d 0f 3e 9f 8f 07 be
       -0.0976643 0.017638724 0.13976286 -0.13238381
000090 20 a3 16 3d ab b1 71 3d 67 f4 a0 bd 19 98 5d 3d
       0.036776662 0.059007328 -0.07859116 0.05410013
0000a0 f3 7a 78 bd 48 d7 73 bd 04 27 59 be cd 2d b7 bd
       -0.06066413 -0.05953148 -0.2120629 -0.08944283
0000b0 79 5a 15 be 4a a1 0e bd 0c 17 9d 3d ee 14 eb 3d
       -0.14585294 -0.034821786 0.076704115 0.114786014
0000c0 48 99 4f bd c2 8e 40 3e 71 2f 22 3c 1c cb 28 be
       -0.05068329 0.18804458 0.009899006 -0.1648373
0000d0 b4 8d 54 be 38 b1 9c 3d 17 25 61 3d c5 2f d4 3d
       -0.2075718 0.07650989 0.054967012 0.10360674
0000e0 fb a9 0f bd 0e 3b e2 bd 4c 33 8d bd 93 04 fc 3d
       -0.035074215 -0.1104642 -0.0689455 0.1230556
0000f0 f7 39 44 be 1d ba 7d 3b 4a a6 99 bc a6 7a 9c 3d
       -0.19162737 0.0038715668 -0.01875605 0.07640581
000100 8a 1c fb bc 2e 49 a6 be a0 44 1f 3e 36 2f 83 bd
       -0.030653257 -0.32477707 0.15553522 -0.06405489
000110 c0 a5 ab 3c 38 dd 68 bd 79 c9 65 be a0 03 5d 3d
       0.02095306 -0.056851596 -0.22440137 0.053958535
000120 42 de 1a be b5 1e f5 3d 60 3e 51 bd 97 ae ee bd
       -0.15123847 0.119687475 -0.051084876 -0.11654394
000130 06 aa 82 3d 4c d9 f3 bd e9 d6 03 3d 8d a3 9a 3d
       0.06380086 -0.119066805 0.032187376 0.07550726
000140 e1 d6 13 bd 27 2f ff bd 70 13 6a be 27 c4 9e 3e
       -0.036093596 -0.124601655 -0.22858977 0.31009027
000150 cb b5 29 be 33 55 0a be 08 db 3f be 22 8d de bd
       -0.16573255 -0.13509063 -0.18735898 -0.10866763
000160 0f 52 1f 3e cd 19 77 3e 1c 37 37 3c 7d 68 80 be
       0.15558647 0.24130936 0.011182573 -0.25079718
000170 56 67 7a 3c b1 c8 9d 3d 6f 2a 18 be 29 f0 1d 3e
       0.015283426 0.077042945 -0.14859937 0.15423645
000180 14 c2 b4 3c 40 e8 15 3d 15 61 5c be 49 a1 84 bd
       0.0220652 0.036598444 -0.21521409 -0.06476075
000190 b5 af a1 bc b2 03 3e bd bb 53 de 3d e9 9c 8d 3d
       -0.019737104 -0.046390243 0.10855814 0.06914694
0001a0 07 b7 98 bd d2 0a 09 bd d2 37 b3 3d 39 83 cb bd
       -0.07456785 -0.033457585 0.08750881 -0.09937138
0001b0 4a 5b 42 3e a1 5b 62 3d cf e6 57 bd 9c 3a 0a be
       0.18980137 0.055263165 -0.05271035 -0.1349892
0001c0 71 4a 1b 3e f8 c2 df bd 4a a1 65 bd a6 37 20 bd
       0.15165116 -0.10925859 -0.05606202 -0.03911557
0001d0 d2 8b 05 be 5f be bb 3d 49 ef 52 3c 2c 6f 9b bd
       -0.13041618 0.0916717 0.012874433 -0.07589564
0001e0 54 04 29 be 02 e8 62 be f1 9e 8e bd 78 c6 18 be
       -0.16505557 -0.22158816 -0.069639094 -0.1491946
0001f0 8c b8 37 3d 58 05 8b 3d 92 2a f6 3d 57 59 50 be
       0.044853732 0.067881286 0.120198384 -0.2034658
000200 cc 9a 61 bd 63 69 0b be 45 2f 21 3e 1f 3e d9 bd
       -0.055079266 -0.1361442 0.15740688 -0.10607552
000210 85 fe ed bd 4f 91 18 3e 67 71 94 3d 59 4b 0e 3d
       -0.116208114 0.14899181 0.07248192 0.034739826
000220 21 f2 89 bd af 5b 01 3e db d2 46 3e bd 11 e1 3d
       -0.067356355 0.12632631 0.19416372 0.109897114
000230 ee 4e 1f 3e c5 ea 6f 3d bf 4c 9a 3d 58 76 6d 3d
       0.15557453 0.058573503 0.075341694 0.05797419
000240 aa be 8e 3d 1b 93 68 bd 4c d8 a2 bd c5 ae a5 3c
       0.0696996 -0.056780916 -0.079514116 0.020224938
000250 ab cf 21 3e 16 36 83 3e 35 ca 96 3e 32 00 a3 3b
       0.15801875 0.25627202 0.29451147 0.0049743885
000260 32 35 db 3d 24 12 dc 3d e6 89 74 bd ab 78 0d 3e
       0.107035056 0.107456475 -0.059701823 0.13815562
000270 3c 52 61 be 47 d1 6a 3d ba 81 78 bd f0 ef 32 3d
       -0.22004026 0.05732849 -0.060670592 0.043685853
000280 cc c3 d6 3d 46 01 72 be 05 fa ae 3c 16 c2 b6 bb
       0.10486564 -0.23633298 0.021359453 -0.005577336
000290 c7 8a 1b 3e 3e 97 e0 bd bd 37 07 be 2c f4 03 3d
       0.15189658 -0.10966347 -0.13204856 0.032215282
0002a0 7f 38 45 3e 71 53 e5 bd 38 1f 2d 3d e9 ef 74 bd
       0.19259833 -0.11197556 0.0422661 -0.05979911
0002b0 f2 80 78 bc a2 ff 98 3c 5f 9b cf bd 4d 55 03 be
       -0.015167462 0.018676583 -0.101370566 -0.12825508
0002c0 ac 5b 59 3e d5 29 90 3d 2d ca f2 bd 74 30 9f 3d
       0.21226376 0.07039229 -0.11854968 0.077729136
0002d0 95 14 49 bd f1 97 5a 3c f3 ad d6 3d 2e 3d a4 bd
       -0.049091894 0.01334189 0.10482397 -0.080194816
0002e0 e6 75 82 3d 7f 00 86 3b 1f d2 1d 3c 35 c2 f2 bd
       0.063701436 0.0040894146 0.009632616 -0.11853448
0002f0 f2 a5 32 bd df 45 33 bd 75 77 aa 3d f1 10 23 3e
       -0.04361529 -0.043767806 0.08323566 0.15924431
000300 68 e1 8f 3d 4c 85 3f 3d 7d da c1 bd 63 d4 a2 3c
       0.07025415 0.04675798 -0.094655015 0.019876665
000310 53 9b 38 bd e5 1b c1 3d 4c 3d 14 be ac d3 ab 3c
       -0.045070004 0.094291486 -0.14476508 0.020974956
000320 0f 9e 06 3e 77 5c 21 be 79 ee 1b be 72 be de bc
       0.13146232 -0.15757929 -0.15227689 -0.02719042
000330 c7 5b 61 3d ae 09 e3 3d 5b 21 41 be 59 f6 2f be
       0.055019166 0.11085831 -0.1886038 -0.17183818
000340 37 5e a4 3c 38 6f d6 bd cc 06 de 3d 50 43 90 bd
       0.020064456 -0.10470432 0.1084114 -0.07044089
000350 84 f5 ab 3d ae 7c 14 3e 56 0a fb 3a 09 a5 08 bd
       0.08396438 0.14500687 0.0019152861 -0.033360515
000360 ac 7b 2b be 53 8a 12 be 97 c9 06 3e 59 a3 21 bd
       -0.16746396 -0.14310579 0.13162838 -0.03946242
000370 4d 07 a2 bc 44 91 9c 3c 04 b0 db 3d 4c 70 64 3e
       -0.019778872 0.019112237 0.10726932 0.22308463
000380 7a 01 b8 3d eb f9 0d 3e ce b6 a2 3d 75 ce b6 bc
       0.08984657 0.13864867 0.079450235 -0.022315243
000390 b6 a7 81 3d 15 9b 47 be 17 7e ec bd fd 5f f9 bd
       0.063308164 -0.19492753 -0.11547487 -0.121765114
0003a0 bf b0 4a 3e 39 ea 9e bc dd 7a 5f bd cd 62 d7 bd
       0.19793986 -0.019398795 -0.05456053 -0.10516892
0003b0 15 20 4f bd db 71 93 3c a0 fe a4 bc 56 57 2f be
       -0.050567705 0.017998626 -0.020140946 -0.1712316
0003c0 d3 67 2e bd 8e fd 7b 3c 9a dc 37 3e 4e 46 3b bd
       -0.042579483 0.015380276 0.17955247 -0.045721345
0003d0 fd 40 cf 3c 16 8b 2f 3e 9c f5 eb 3d 16 7f fa bd
       0.025299544 0.17142901 0.11521456 -0.12231271
0003e0 2a 00 2d 3e 6c fb 2a 3b bc 4e 4e 3d c9 af 20 be
       0.16894594 0.00260898 0.050368056 -0.15692057
0003f0 64 5a ff 3d b1 ca eb bd 4d fe c5 bd 77 8a 68 bc
       0.124684125 -0.1151327 -0.09667645 -0.014193169

layers.6.bias f4 [30]
000000 85 f9 9e be d5 f3 46 3e 0b 54 0e 3d ba 62 ba 3d
       -0.31049743 0.19428952 0.03474812 0.09100862
000010 b6 65 9f 3b 46 b5 0e bd 66 6c 05 be a9 32 e2 bd
       0.00486442 -0.034840845 -0.13029632 -0.11044819
000020 c7 ae 06 3c e5 65 2f 3d a1 d3 ba bd b8 95 c8 3d
       0.008220381 0.042821784 -0.09122396 0.097941816
000030 6b fc 37 bd 53 aa ae 3e b0 83 f5 bd d6 ac 2b bd
       -0.04491846 0.34114322 -0.11988008 -0.041912876
000040 54 9a 04 3e b4 38 0f 3e 03 d2 fe 3d f7 07 9d 3e
       0.12949497 0.13986474 0.124424 0.3067014
000050 de 1c 81 bd b8 1b a5 bd 02 7e be b9 2a cd 3e be
       -0.06304334 -0.080619276 -0.00036333507 -0.18632951
000060 bf 76 c2 3c df 23 f1 bd 02 0c 04 be 9e 1f cc bc
       0.023738263 -0.1177442 -0.12895206 -0.02491742
000070 f7 22 de 3d 42 8e 49 bd
       0.10846513 -0.049207933

layers.8.weight f4 [1, 30]
000000 65 c9 29 bf be 08 0f 3e c9 d1 87 bd 68 b1 14 3e
       -0.6632293 0.13968179 -0.0663181 0.145208
000010 8a 33 6b 3e d6 dc 92 3d 1d 17 9c bd ed d6 11 3e
       0.2296888 0.07171027 -0.07621596 0.14242144
000020 bf 40 95 be 8d 5a 82 3e dd 92 0b 3d 48 09 34 3e
       -0.2915096 0.2545971 0.034075607 0.17581666
000030 a7 9c ef be 1f 10 a8 3e 3b 16 cf 3d 9d 24 08 be
       -0.46799204 0.328248 0.10111662 -0.13295217
000040 16 35 3f be d5 e1 6c 3e bc 36 b3 bc 00 13 55 bf
       -0.18672594 0.23133023 -0.021876685 -0.83232117
000050 df 59 73 3e d7 7b 28 bf 39 11 75 3e fa 78 ad 3e
       0.23764752 -0.65813965 0.23932351 0.3388136
000060 55 e4 2c be e6 27 3c 3e 6f 96 da be 36 bc 85 bd
       -0.16883977 0.18374595 -0.42692897 -0.06530039
000070 ee e5 2a 3e cb 3a 55 3c
       0.16689274 0.013014506
