PINN's/BURGERS/Burgers_Epochs/Models/5epochs.pth (torch, 15096 bytes, 9 tensors)

layers.0.weight f4 [30, 2]
00000000: 2440 ebbe b423 33be 69df 583f 3c1b 413e
00000010: 64c4 97be 8db4 363e 8765 503f e6ee 9fbe
00000020: d25b 6bbd 3fb9 b2be cc67 c63e b745 873e
00000030: 3f21 263f 0cf8 fabd cf93 33bd 0976 97be
00000040: 4a4b 0dbf 1ca5 c8bb 5b4b 3e3f cb1c f03e
00000050: 6ccc 73be 908e 153e 567f d1be fa90 eebe
00000060: 23de 64bf c141 9f3e 9186 d3be 7d51 65bd
00000070: 9200 abbe 5448 4cbe 605f 36bf dd4f c73e
00000080: 7e39 593f a39a b4bc ab7b 20be 3b6a bfbe
00000090: 34c6 a43e 00b2 b63d e170 883f 69d4 29be
000000a0: 15b1 c4be b426 1f3f c84f 673d 0c74 f83d
000000b0: 7670 3d3f cf5a f9bd 0a5e 31be 4225 5b3e
000000c0: 9b27 36be a988 cbbd fa60 143f 1d5c 95be
000000d0: 3b07 b33e 716d 24be ba63 a03f 1434 c0be
000000e0: ebca ba3e af54 353d 9e48 f9be 074a 0c3e
-0.45947373 -0.17494088 0.84715897 0.18858045 -0.29642022 0.17842312 0.8140492 -0.31236953
-0.057460614 -0.34906957 0.38751066 0.26420376 0.6489448 -0.122543424 -0.043842133 -0.2958224
-0.55193007 -0.006123198 0.74333733 0.46896967 -0.2380845 0.14605165 -0.40917462 -0.46594983
-0.89401454 0.31104854 -0.41313604 -0.055985916 -0.33398873 -0.19949466 -0.7123928 0.38928118
0.8485335 -0.022046393 -0.15672176 -0.37385735 0.32182467 0.089206696 1.0659448 -0.16584934
-0.38416353 0.6216843 0.05647257 0.12131509 0.73999727 -0.121755235 -0.1732103 0.21400931
-0.17788546 -0.09938175 0.57960474 -0.2917184 0.34966454 -0.16057374 1.2530434 -0.37539732
0.3648294 0.044270214 -0.48688215 0.13700114

layers.0.bias f4 [30]
00000000: 52e7 ddbe b370 9f3e 6695 023e 0dba 6a3e
00000010: 97b7 10bf 091a 1b3f 8834 68bf 39fa 223e
00000020: e379 07bd c9c0 e63e 74f1 583e c3bf eabe
00000030: ebaf a9be 2c9f c33b ce5e 813e f1e9 003d
00000040: 67a7 873f 224f ce3e 2a54 17bf 5984 9abe
00000050: 3275 5d3f 290a 2cbf 3323 d4be f3aa 2f3c
00000060: c7b0 10bf 8990 bbbd b33b f53d c45f dc3e
00000070: b6f1 96bd f5a0 f23e
-0.43340546 0.3114067 0.12752303 0.22922535 -0.56530136 0.605866 -0.90705156 0.15915765
-0.033075225 0.45068958 0.21185857 -0.45849428 -0.33142027 0.0059699025 0.25267643 0.031473104
1.0597962 0.4029475 -0.591128 -0.30179098 0.8650695 -0.67203003 -0.41433105 0.01072191
-0.5651974 -0.09158427 0.11974277 0.43041813 -0.073703215 0.47388425

layers.2.weight f4 [30, 30]
00000000: 3793 c2bd 0ffc cd3c 14f1 e43c 3cf3 e0bd
00000010: 474d b7bc 4c84 28be baf1 6dbe 69d4 303e
00000020: b306 66bd 4be6 863d a823 dabd 26cf ba3c
00000030: a037 28bd eb48 063e 7f7e f3bd 9460 c5bd
00000040: 36b2 63bd 27cc 99bd bd4a 03be 9a6e 293e
00000050: 2633 7ebd 9f40 74be e817 4a3d 8460 0e3e
00000060: 7aac 793d 366b b8bd ba9f febd b0f4 80bd
00000070: c1c0 e43d 4b83 8cbd c5e3 1dbd 381f a8bd
00000080: 6763 97bd 44c4 db3d c8d6 543e 2b89 d1be
00000090: 25b1 5bbe f37e abbe 5c8c fbbd 0693 00bd
000000a0: 8d07 94be dfb6 dc3d 9a69 57bb 40c0 173d
000000b0: 6f94 1bbe 26d5 a439 4bd5 a43e dfc4 433e
000000c0: 12a3 0bbe 674f 603c e1ab 193e f506 ba3d
000000d0: e670 2d3e d752 f23c 5a8e b9bc 6dc9 b3bc
000000e0: c8db 31be 9a9e 86be 1ceb 29be 2d68 4a3d
000000f0: bbaa 0bbd c817 42bc 2981 d5bd c7fe 313b
00000100: 2121 a9bc a255 1e3e e06b 6bba e849 9c3d
00000110: 9dfc 8cbb 9188 87bc ec76 47bd 1119 3ebe
00000120: 7719 1fbe 90ec 4abe 8530 183e 42f5 c13d
00000130: 0152 3f3d 566d 713d 64f7 43be 7fc5 43bd
00000140: 4625 a63d 1856 14be 29cf 84be 5be3 123c
00000150: 6264 a7bd 6d9d 133e 5c04 413e 6329 81bc
00000160: 8d5b 1b3e a4a2 ac3e 131a 543d acb2 633e
00000170: fcfe 473e 6fa3 6a3e 5594 b6bc e1a1 2dbd
00000180: 64df 32be 85b9 eb3d 7e99 903e 6e31 6cbd
00000190: 2756 173e cce9 6abd 461f 943a eda5 76bd
000001a0: a0bb 8a3d 0698 bcbb 79f7 54be 64a8 433e
000001b0: b7cf df3d 520c 12bd 152a 993d 4353 8b3e
000001c0: dbef a33b 0142 ac3d 69c0 68be 959a 743e
000001d0: cda4 1abe 91e6 c93d 7d8d c9bd be1e c93d
000001e0: 62ab 173e 4805 2fbe ce00 62bd eec9 64be
000001f0: ef51 3dbe ae7c 3abe 9ea9 3ebe 394c 0b3e
00000200: e145 3bbe 1e91 34be aef5 ef3c 8f47 09bd
00000210: 7681 a8bd 34e2 8bbd 6b44 97bd 8a5b 17be
00000220: 60e9 7e3e 252e 60bd 421a 993c 59eb 6abd
00000230: 48e0 0abe d753 533d 4e23 9c3d fdf5 e03d
00000240: 0226 7d3e dc02 d93c 881b 53be 3096 ccbd
00000250: 5cd8 883c 2c5e 4dbe 1fe0 8d3d 9161 09be
00000260: 26f7 15bd ef1c 213e fc0a 653d 4e9e 9ebe
00000270: 70d9 3fbe 0581 0fbe cfea 22be 2729 2cbe
00000280: ba2a c03c 23e1 bc3c 67bd b9bd c28f 3b3d
00000290: 58d6 013e 78d4 3dbe aebf 1f3d 1017 0cbe
000002a0: d492 c5bb b5eb a1bd a6ca 833e fa3e 31be
000002b0: d2c3 eebd 3e3f f93c 83a4 cd3d 5610 ef3d
000002c0: 5dc4 7abe eef6 903c 76c6 173e 8716 5dbe
000002d0: da8c 65be 2e99 083e dd1b f63d 8f34 6b3e
000002e0: 0aa9 8c3e d854 953e 228b 503e b02c 2cbd
000002f0: b6e2 923e 4516 92bd 3929 98bd 560e cebd
00000300: efe0 513e fce2 38be ca3e febd 8c94 033e
00000310: 43ab 3ebe e064 ae3d 3baf 403d 02bd f23d
00000320: df05 58bd 0b11 e53e c7ec 803e 898f 4b3e
00000330: 3065 cabe f070 a5bd 85c2 8a3e 8a4e 5c3d
00000340: 0d31 51be 8b81 cbbc 8f79 013e 656f 0b3e
00000350: d9cf 0bbc ba5d ebbc bf34 0d3e 4524 ab3d
00000360: 0c39 5ebe 146a e3bd 2a54 383e e886 2e3e
00000370: bf71 ebbd 7632 1dbd f906 833e 91ef 9b3e
00000380: 2a0f ac3d 2a4f 53be a57f 2dbe f9f0 c2bd
00000390: 9557 843e 7b9f 1b3e 6baa 33bd 0054 c53d
000003a0: 3a68 8b3e c953 81bd a353 c0bc 6a4b 96bd
000003b0: a2f0 3ebd 4ba5 1bbe bff6 d63d 2dbc b8bd
000003c0: 2441 7bbd 8517 a4be 78ee e23c 1be9 37bd
000003d0: b8d3 e93d 7a21 1ebe 1afd 543c 60b5 4f3e
000003e0: 50b3 84bb 3edd 033e 6020 2dbc 0839 14be
000003f0: b8c2 13be 3364 9ebe bb9e 87be 5a6b 05be
-0.09500735 0.025144605 0.027946986 -0.10983893 -0.022375716 -0.16456717 -0.23236743 0.17268528
-0.056158733 0.06586894 -0.10651332 0.022803854 -0.041068673 0.13113753 -0.118893616 -0.096375614
-0.055589877 -0.07509642 -0.12821479 0.16546097 -0.062060498 -0.23852776 0.049339205 0.13904005
0.060955502 -0.09004824 -0.12432809 -0.062966704 0.111695774 -0.0686098 -0.038547296 -0.082090795
-0.07392006 0.10730794 0.20785058 -0.40924963 -0.21454294 -0.33495292 -0.12282631 -0.031390212
-0.2891201 0.107770674 -0.003286934 0.03704858 -0.15193342 0.00031439326 0.3219398 0.19118069
-0.13636425 0.013690806 0.15006973 0.09083358 0.16937599 0.029580517 -0.022650886 -0.021946633
-0.17368996 -0.26292878 -0.16593593 0.049415756 -0.03409837 -0.01184649 -0.10425026 0.0027159916
-0.02064568 0.15462354 -0.0008980613 0.07631284 -0.004302575 -0.016544612 -0.048697397 -0.1856425
-0.15537058 -0.19816804 0.14862259 0.09470607 0.046709064 0.05894216 -0.19137341 -0.04779577
0.08112578 -0.14485967 -0.259393 0.008965339 -0.081734434 0.14415522 0.18849319 -0.015766805
0.15171643 0.33717835 0.05178268 0.22236127 0.19530863 0.22913907 -0.022287527 -0.042390708
-0.1746803 0.115099944 0.28242105 -0.057664327 0.14778958 -0.057351872 0.0011300824 -0.060216833
0.06774068 -0.0057554273 -0.20797528 0.19107205 0.1092829 -0.03565628 0.0747873 0.2721196
0.0050029582 0.08411027 -0.22729649 0.23887093 -0.15101929 0.0985843 -0.0984144 0.09820317
0.14811471 -0.17091858 -0.05517655 -0.22342655 -0.18488286 -0.18211624 -0.18619391 0.13603295
-0.18288375 -0.17633483 0.029291954 -0.03351551 -0.08227818 -0.06830254 -0.073860966 -0.14781013
0.24893713 -0.054731507 0.018689279 -0.05735335 -0.13562119 0.051593628 0.07623921 0.109844185
0.2472153 0.026490621 -0.20615971 -0.099895835 0.01670473 -0.20055455 0.06927513 -0.13416125
-0.036612652 0.15733694 0.05591868 -0.30980152 -0.1873529 -0.14014061 -0.15909885 -0.16812573
0.023457874 0.023056572 -0.09069329 0.045791395 0.12679422 -0.18538082 0.03900116 -0.13680673
-0.006029466 -0.07906286 0.25740546 -0.1730918 -0.116584435 0.030425664 0.10041144 0.11673038
-0.24488969 0.01769587 0.148218 -0.21590625 -0.22417012 0.13339683 0.12017033 0.22969268
0.27472717 0.29166293 0.20365575 -0.042034805 0.28688592 -0.07133154 -0.074297376 -0.10061328
0.20495962 -0.18055338 -0.1241432 0.12849635 -0.18620019 0.08515334 0.047042113 0.11852457
-0.052739974 0.44739565 0.25180647 0.19878973 -0.39530325 -0.08078182 0.27101532 0.05378584
-0.20428868 -0.024842044 0.12644027 0.13616712 -0.008533441 -0.028731216 0.13789652 0.08356527
-0.21701449 -0.11104217 0.18000856 0.1704365 -0.11496305 -0.0383782 0.25591257 0.30456212
0.0840133 -0.20635667 -0.16943224 -0.09518618 0.2584807 0.15197556 -0.043863695 0.09635162
0.27227956 -0.06314809 -0.023477381 -0.07338603 -0.046616204 -0.15199773 0.10496282 -0.09020267
-0.06134142 -0.32049194 0.027701601 -0.04490004 0.11417335 -0.15442458 0.012999797 0.20284033
-0.004049696 0.12877366 -0.010566801 -0.1447488 -0.14429748 -0.3093582 -0.2648829 -0.13029233

layers.2.bias f4 [30]
00000000: 4e93 5c3d eb03 e5bd 951c d1bd 26e1 043d
00000010: 9399 403c 0d65 07be 832e 743e 6281 eabd
00000020: fdff 903e 4c51 0c3d e8dd ae3e d1df 0bbe
00000030: e2f0 acbd 77f2 bebd 82bf 4cbe 8571 3b3e
00000040: d86e 62bd 710a 25be f893 293e d3f7 913e
00000050: d3d5 9a3d 7cc3 323e b3af 66bd 2dc7 f43d
00000060: 156e acbe 6d0d b4bc 58cd 6abe 6df7 0f3e
00000070: 1c73 833e 7577 8b3c
0.05385142 -0.11182388 -0.1021053 0.03244128 0.011755365 -0.13222142 0.23845868 -0.11450459
0.28320304 0.03425722 0.34153676 -0.13659598 -0.08444382 -0.0932359 -0.1999493 0.18305023
-0.05528149 -0.16117264 0.16560352 0.28509387 0.07560315 0.17457384 -0.056319904 0.11952052
-0.33677736 -0.021979058 -0.22929895 0.14059229 0.2567376 0.017024735

layers.4.weight f4 [30, 30]
00000000: 81e6 01be d317 0e3b 68e4 2cbd e4a7 fd3d
00000010: 0669 c23d 4582 4abd de66 ea3d 396f 6abc
00000020: 36f1 2f3e 2973 1cbe 5f34 043e 7e47 293e
00000030: 92c2 afbd 2a7d f5bd c646 97bd e46a a3bd
00000040: 3335 dfbd a5f4 313e aebb d7bd 43da e43c
00000050: 1df7 14be d39d 163e da3a ad3b cfcd cdbd
00000060: db47 2cbe 272d 543d ae2e 34bd bad9 f03d
00000070: b4b3 44be 89a7 00bc 4e17 e73d 2aaa 99bd
00000080: 8444 a73d 14f8 a23c 3f92 fa3d b765 00be
00000090: c645 d43d 820d e8bd 4a0f 153c 1967 043e
000000a0: 9d8f 88bd 5288 1ebd 7707 df3c 94a3 aabd
000000b0: e586 cebd 8ba8 313e 2be5 eebd 05e0 d13d
000000c0: 6232 8e3d b9a6 0b3e e163 033d 977f b63d
000000d0: d96a 0ebe 4e64 52be 8df0 85bd 5a90 6d3d
000000e0: 300e 1b3d a208 5d3d 37e7 823c 4e68 423a
000000f0: f3f2 25bd f2fc f13d 7bca 303d 8ee4 8dbd
00000100: 9ab8 c6bd b991 f8bd 2ff7 83bd 442e 06be
00000110: 149c e8bd e8d3 363e 2b3e 00bc acb0 353d
00000120: f111 e5bd fb12 c03d 3a3f ce3c 64ec 273e
00000130: fe14 fbbd 09dd 68bd e5af 243e e79a 48be
00000140: a767 143e d0da 353c 33c3 1a3e 18d7 c6bb
00000150: 1718 42bc a8a9 9ebd 42ee 003e 4adf ca3d
00000160: e8e0 113e 46ed 07bd 4d71 48bd 1b6d 1a3d
00000170: cd52 433e 4d48 d3bb 65bc 083e cf1f 4e3e
00000180: f8a7 723d cfb5 babd 5616 98bd b477 ddbc
00000190: e8ca ee3d 482b 82bd f3f5 81bc dd43 d0bd
000001a0: 7163 103e 7e5e 40be 0b8d b0bd ccba 5c3e
000001b0: 2a0a 0abe 2bab f3ba 0144 2abe 5540 29be
000001c0: 8457 bc3d db49 88bd c9ff 2fbe ba68 8ebc
000001d0: 7130 05be 0b60 173e 8984 06be e7b8 fbbd
000001e0: 694d 793d 1003 0fbd d616 993d 6fdf c83c
000001f0: 23dd 0d3e 60cf 0fbe d7aa d13d 6a5c 093e
00000200: 33e5 94bd b6a8 0d3e 76ce 713d 7e91 ab3d
00000210: bdea 5c3e e0a0 3ebe 4e51 02bd 2a89 cd3d
00000220: a9a1 5a3c 65cd 95be d397 22be 0199 73bb
00000230: 33c3 013e d16c 9abc 7706 e0bd c76c d73d
00000240: 6bf1 67bd 9ec1 20be 342c 3bbe aca3 2f3d
00000250: 92ad dc3d 7e47 2b3e cd97 da3d 5aff de3c
00000260: eeb7 8b3d 403f 393c 4778 c4ba 7a51 a63d
00000270: 177f 5b3d df45 6abd 8302 233e 8cf4 a53c
00000280: 5c4a c03d 1e81 083d 04f3 f33d ddae c43d
00000290: c04a da3c 8fb4 01bd adf9 533e b852 653e
000002a0: 6fa6 1fbe 9e3d b4bd 81a4 373d 1410 35be
000002b0: 6ff8 21bd 6c35 11be d5ff a53b 8aa7 a03c
000002c0: de0e ce3b 0ff1 78bd a50f b93c 339f a53d
000002d0: a99a eb3d 5665 58be 35b8 c53c d51b 223e
000002e0: b096 4cbe 1c98 d3bd 0e43 d63d 8a01 c3bd
000002f0: 5421 2f3d 96e4 23be f469 51bc 3876 55be
00000300: 63da 6ebd f688 e63d a50e be3d bb7b 763d
00000310: e25a 543d 7e35 013e e28f 313e 9dc8 13bd
00000320: 96da 66bd d49d ce3c a2ba 233e 45a5 623c
00000330: ab08 613d ba03 28be 82e2 fabd 3fe4 663d
00000340: aa47 9b3d 8dc6 183e b8ef 13be e4da 01be
00000350: 59b3 abbd f4b7 bcbc 84f6 3cbe 7636 07bd
00000360: aff1 1e3d 5c5c 263e 495d 133d 33bd 7e3c
00000370: dedc 22be d1a4 06be 2217 cbbd 75a2 21be
00000380: 73b4 013e 118e 893d 7f33 bebd 23cd 363c
00000390: 648a 17be eba3 debd 54a8 42bd 1453 29be
000003a0: 5553 8cbd 10a8 57bd 71b2 29be cfc6 4abd
000003b0: 336f 0ebe 32f4 11be 5ad1 8abd 553d d5bd
000003c0: d316 2a3e 5763 3cbe c562 6dbe 1899 4bbe
000003d0: 41de ec3d a378 a83d c47b a33d 300c c23e
000003e0: c2f2 35be ccea 2b3d 0b2f 73be f6de 3abd
000003f0: 7403 a13e 7077 5fbe 864f 0fbd 5423 65bd
-0.12685587 0.002168168 -0.042210013 0.12385538 0.09492688 -0.04944064 0.114454016 -0.014308744
0.17181858 -0.15278305 0.12910603 0.16531178 -0.08582033 -0.11986764 -0.07386546 -0.07979372
-0.10898819 0.1737848 -0.10533844 0.027936107 -0.14547391 0.14708643 0.0052865567 -0.100490205
-0.16824286 0.051800873 -0.04398983 0.11760278 -0.19209176 -0.0078524435 0.11283742 -0.07503159
0.08167365 0.019893683 0.122349255 -0.12538801 0.10364871 -0.113307014 0.0090978835 0.12929954
-0.06668017 -0.038704224 0.02722524 -0.08331981 -0.10084323 0.1734945 -0.11664804 0.102478065
0.069432035 0.13637818 0.032077674 0.089110546 -0.13907947 -0.20546076 -0.06540022 0.057998993
0.037855327 0.05396331 0.015979392 0.00074160553 -0.040514898 0.118158236 0.04316185 -0.06928359
-0.09703179 -0.121371694 -0.06443631 -0.13103586 -0.113578945 0.17854273 -0.007827322 0.04435794
-0.11185063 0.0937862 0.025176633 0.1639877 -0.12259863 -0.05685142 0.16082723 -0.1959034
0.14492665 0.011099532 0.15113525 -0.0060681216 -0.011846564 -0.07747203 0.12590888 0.0990587
0.14245951 -0.033185266 -0.048936177 0.037701707 0.19074555 -0.006447828 0.13353117 0.20129322
0.05924222 -0.091167085 -0.07426135 -0.027034618 0.11659795 -0.063559115 -0.015864348 -0.10169194
0.14100434 -0.18786046 -0.08620652 0.21555632 -0.1348044 -0.0018590441 -0.16627504 -0.16528447
0.0919638 -0.06654712 -0.17187418 -0.017383922 -0.1300676 0.14782731 -0.13136496 -0.12291127
0.06086484 -0.03491503 0.07475059 0.024520604 0.13853888 -0.14043951 0.10237663 0.1341416
-0.07270279 0.1383389 0.059034787 0.0837736 0.2157392 -0.18616056 -0.03181582 0.100359276
0.013344207 -0.29258266 -0.15878229 -0.0037170055 0.12672119 -0.018850716 -0.10938733 0.105187945
-0.05662672 -0.15698859 -0.18278581 0.0428807 0.107752934 0.16726491 0.10673485 0.02722137
0.06822191 0.011306584 -0.0014989459 0.08121009 0.053588 -0.05719554 0.15918927 0.02025821
0.09389183 0.03332626 0.11911586 0.09603665 0.026646972 -0.031666335 0.20700713 0.22394836
-0.15590833 -0.08800815 0.044834618 -0.17681915 -0.039543565 -0.14180535 0.005065898 0.019611139
0.0062883934 -0.060776766 0.022590468 0.080870055 0.115041085 -0.21132407 0.024135688 0.1583093
-0.19979358 -0.10331747 0.104620084 -0.09521778 0.042756394 -0.16005167 -0.012781609 -0.20845878
-0.05831374 0.11256592 0.09280137 0.060176592 0.051844485 0.12618062 0.17340043 -0.03607999
-0.056360804 0.025221743 0.15989164 0.013833349 0.054939907 -0.16407672 -0.12250234 0.056370016
0.07582028 0.14919491 -0.14446914 -0.12681156 -0.08383817 -0.023036934 -0.18453413 -0.033010922
0.038804706 0.1624617 0.035977636 0.015548038 -0.15904567 -0.1314881 -0.099165216 -0.15784629
0.12666492 0.0671655 -0.09287166 0.011157307 -0.14798886 -0.108711086 -0.04752381 -0.16535598
-0.06851832 -0.05265051 -0.16571976 -0.049506005 -0.13909607 -0.1425331 -0.06778212 -0.10412089
0.16610269 -0.1839727 -0.23182209 -0.1988262 0.11565829 0.08226135 0.07982591 0.37899923
-0.17768386 0.041971967 -0.23748414 -0.04562279 0.31447947 -0.21822906 -0.03498795 -0.055941895

layers.4.bias f4 [30]
00000000: 6b1f 593d 247e 2d3e 7cad 913d 004d 973d
00000010: bfe9 edbd a547 12bd 8014 053e 06fb 113e
00000020: 8dbd 08be 0308 8bbc 9fcd 9ebe 46ca 08be
00000030: 27f9 80bd e915 513e c0c2 59be 0549 88bc
00000040: 8bb4 1a3e e974 203d 884c 81bd 4b17 c9bd
00000050: 37d6 293e 7971 983d 0a76 813d ac72 093e
00000060: 5326 debd 3e7a 573d 6ddc ac3d 70bb 0ebe
00000070: dccb 80bd 1977 073e
0.053008478 0.1694265 0.07113168 0.073877335 -0.11616849 -0.035712857 0.12996101 0.14255914
-0.13353558 -0.016971594 -0.3101625 -0.13358411 -0.06297522 0.20418514 -0.21265697 -0.01663638
0.15107934 0.039173994 -0.06313425 -0.09818896 0.16585623 0.07443518 0.06321342 0.1342265
-0.108471535 0.052606814 0.084404804 -0.13938689 -0.06288883 0.13229026

layers.6.weight f4 [30, 30]
00000000: ffcd 8ebc 7ed0 2a3e e09b 043e 2a24 efbd
00000010: 9d73 f0bd cce7 20be 4bd0 2b3e c43e 12be
00000020: 2531 b53d ce0a 2b3e 0897 99bc f50e 3cbe
00000030: f297 0e3e 84f2 853d 9617 a6bc 7ab9 1abd
00000040: b386 1a3e 5af5 8a3b bcd7 0e3d d409 8bbc
00000050: 7ae0 b338 9ec4 413d 1aaa b03d a1b1 193e
00000060: 6bd2 463d 91bd cabd 2ab7 98bd b56e c1bd
00000070: ada0 e6bd c0cd a33d 4707 11be 1881 563d
00000080: 5a03 033e fe19 0e3e f879 73bd 7110 50bd
00000090: ecb2 bdbd 24d8 87bd ab84 4bbe 048f a63d
000000a0: 1bff a9bd 52ee 273e c54d 8fbd f869 3e3e
000000b0: 3858 3c3e 6424 3b3e 821e dabd 872b c7bc
000000c0: a8f6 ed3d 0ccb 783c aaec 0b3e a239 dabd
000000d0: 0738 953d 9ebb 45bd 3d57 c3bd a0ea a93d
000000e0: 4066 033d eaba 503e e027 04be dff3 1a3d
000000f0: 4111 8d3c b67b b6bd b150 0d3e 8076 723d
00000100: 9cfc 203e 895d 003e 85a3 e7bd 1d6e e63a
00000110: 8315 c2bd dec5 0a3e 2061 35be 5297 083e
00000120: c574 e33d e1f4 7abc fe25 65bc 1723 37bc
00000130: 3988 1e3e b01f 563e dad5 313e 4dfb 363e
00000140: aca8 af3d 6199 c63d 529f 123e 0a46 bdbd
00000150: 31fa 673d c877 2dbe 1f98 023e 386e f4bd
00000160: 288c 3bbd aaa7 16be c9c6 f33d 7fc2 2b3d
00000170: 6129 8d3c 53ae a43d d836 25be e605 cfbd
00000180: 7c73 0f3e 613c 3f3e a5f2 163c 175f b2bb
00000190: 2359 2a3e e070 913d 7bbd 7ebd ff11 ac3d
000001a0: afe4 153e 7d15 703c ae6b 94bb b39f 2e3e
000001b0: 9b43 f43d e935 cb3d 4ef8 99bd dd2b 223e
000001c0: 0084 0fbe 3f64 cf3d 895f 69bd 0569 a93d
000001d0: 8562 2a3d 54d7 3f3c 50ef 09be b1c1 abbd
000001e0: 34b3 5dbd b2d4 92bc 3778 0ebe d46e d8bd
000001f0: 1c1c 07be cb5d e03d b4ad 63be 2d15 a2bd
00000200: 2977 1dbe 5ea6 97bd 0856 8c3e cb78 d8bc
00000210: 062f dfbd f236 c33c e67e 823e c97e 05be
00000220: 35e9 9e3c f68c 023e f84d 403e e69c a6bb
00000230: 6b70 80bd 39fa 02bd c21c e8bc ede6 b83d
00000240: 23ab febd 22ad 47be 8979 81bc 0300 1cbd
00000250: 9875 853e 5653 8bbd e200 4ebe c7eb 8cbd
00000260: 989a f93c e861 113d db52 47bd 2557 c73d
00000270: d683 f9bd 1a9a f3bc 8ebd 66bd c78b efbd
00000280: 7522 1d3e 185c 823d 2666 fb3d 7025 3ebd
00000290: e79d 4cbe 18c0 a83d 9e27 0ebe dfcd 63bd
000002a0: 6c8a 003d a214 50be 18f1 9e3d 5f97 283e
000002b0: f135 d03d 6bab 8f3d 8bf7 103e e9f2 963d
000002c0: 10ad 90bd 207b 11be 9deb 10be 39a9 dbbd
000002d0: 971a 513e f473 d33b 46ba 47be bda1 933d
000002e0: d5dc a0bd 9b22 283e 4e75 263e 2ee6 b53d
000002f0: 7346 27be 0146 df3c ba61 4cbe 333f cd3d
00000300: 15da 6bbd a117 243e 7780 593d b24d 04bc
00000310: 197a 2d3d 542d 473e f9f5 88bd be62 b93b
00000320: f2c9 5e3e 2800 e33d bb52 12bd 4ae3 3b3d
00000330: 3c83 57be e0f8 813d 4d70 943d e280 543e
00000340: 9f75 16be 3ddd 08be 9468 3fbe d0a0 90bd
00000350: a79b 7f3d f597 a9bd 9951 4cbd 870c 803d
00000360: ca7e cd3d 5bc6 ca3c 8f50 f6bd a777 913c
00000370: 97a0 273e 8b8d f53d 9daa 2c3e 166d 383e
00000380: 9364 98bd 82fc ec3d 6298 e1bd 69ff da3d
00000390: 1f45 57bd 455e 1ebe 893d e2bd d8e6 39be
000003a0: 6072 003e 8e9d 24be 4756 aebd 06a6 0cbe
000003b0: 53ab f33b 0477 ff3c 2c25 02be ad30 f63d
000003c0: 6756 2bbe 1833 913d 86a9 3b3e f1e0 e03c
000003d0: 0a35 a5bd c884 903d c27b 813b faa7 37be
000003e0: cf2f d3bd 5835 863d 92bb 34be bcf3 c9bd
000003f0: 301d 1b3e 3143 333d c0a5 9ebd dd6b acbc
-0.017432211 0.16681096 0.12950087 -0.116768196 -0.117408015 -0.15713423 0.16778676 -0.14281756
0.08847264 0.1670334 -0.018748775 -0.1836508 0.1392515 0.06540397 -0.020274919 -0.03777454
0.15090446 0.004240674 0.03487371 -0.01697246 8.577197e-05 0.04730665 0.08626194 0.15009166
0.048540514 -0.09899438 -0.07456811 -0.09444944 -0.11261115 0.07998228 -0.14162932 0.052369207
0.12794247 0.13877103 -0.05944249 -0.05079693 -0.09262642 -0.066330224 -0.19874828 0.08132747
-0.08300611 0.16399506 -0.06997255 0.18595111 0.18393028 0.182756 -0.1065035 -0.024312748
0.116193116 0.015185129 0.13664499 -0.10655524 0.07286077 -0.04827463 -0.09538124 0.08296704
0.032079935 0.20383802 -0.12905836 0.03783023 0.017220141 -0.08910315 0.13800313 0.05919504
0.15721363 0.12535681 -0.11310486 0.0017580424 -0.09476759 0.13552043 -0.17712831 0.13338974
0.111062564 -0.015317173 -0.013986109 -0.0111778 0.15481652 0.20910525 0.17366734 0.17869301
0.085770935 0.096972235 0.14318588 -0.092418745 0.056635085 -0.16940224 0.12753342 -0.11935085
-0.04578796 -0.14712396 0.1190315 0.041933533 0.017231645 0.08041062 -0.16134202 -0.10108547
0.14008898 0.18675376 0.009213124 -0.0054434645 0.16635565 0.07101607 -0.06219242 0.0840187
0.14638017 0.014653561 -0.004529438 0.17053108 0.11926957 0.09922392 -0.075180635 0.15837045
-0.14015198 0.10126542 -0.056975875 0.08271984 0.04159786 0.011709053 -0.13470197 -0.08386553
-0.05412598 -0.017923687 -0.13913046 -0.10568014 -0.13194317 0.109553896 -0.22234231 -0.07914195
-0.15377487 -0.07404779 0.27409387 -0.026424786 -0.10897641 0.02382991 0.2548744 -0.13036646
0.019398311 0.12749085 0.18779743 -0.0050846217 -0.06271442 -0.031976912 -0.028334025 0.090284206
-0.124349855 -0.19499639 -0.015805023 -0.03808595 0.2606628 -0.068030044 -0.20117524 -0.068809085
0.030469224 0.03549376 -0.048663 0.097334184 -0.12183349 -0.029736567 -0.056333117 -0.11696582
0.15345176 0.06365222 0.12275343 -0.046422422 -0.1998211 0.08239764 -0.138823 -0.055616256
0.03138201 -0.20320371 0.07760829 0.16463993 0.101665385 0.07015117 0.1415693 0.0737055
-0.07064259 -0.14207125 -0.1415238 -0.10725636 0.204203 0.0064530317 -0.19504651 0.072085835
-0.0785462 0.16419451 0.16255686 0.08881794 -0.16335468 0.02725506 -0.19959155 0.1002182
-0.057581026 0.16024639 0.05310103 -0.008075165 0.04235277 0.19450885 -0.066875406 0.005657523
0.21756724 0.11084014 -0.03572343 0.045871057 -0.21046156 0.06346297 0.07247982 0.2075229
-0.14693306 -0.13365646 -0.18692237 -0.070619226 0.0624043 -0.08280937 -0.049882505 0.062523894
0.10033949 0.024752786 -0.12027084 0.01775725 0.16369854 0.11989888 0.16861959 0.18010363
-0.07441058 0.115715995 -0.11015393 0.10693247 -0.052556153 -0.15465648 -0.11046893 -0.18154466
0.1254363 -0.16075727 -0.0851255 -0.13735208 0.007436195 0.03118468 -0.12709492 0.12021003
-0.16732179 0.070898235 0.18326387 0.02745101 -0.08066757 0.07056576 0.0039515207 -0.17935172
-0.10311853 0.06553143 -0.17649677 -0.09860942 0.15147853 0.04376525 -0.07746458 -0.021047527

layers.6.bias f4 [30]
00000000: cc5b f83d 6590 43bd ca2c e63d 09d6 37bd
00000010: 346f 44be 8161 0bbe ec71 223e 6338 033e
00000020: 3952 393e 8ef6 7e3c 54f3 ffbd 13a2 e0bd
00000030: b8e9 87bd 5580 5f3e 5090 41be ba77 3dbc
00000040: 014f 10bd fdbf 123e c279 883e 4df4 413e
00000050: 3d06 903d 54d3 313e 1f14 4d3e 541b 523d
00000060: 3aa3 1b3e 7a83 0bbc 0832 2fbd 0769 51bd
00000070: ada3 023e 1f09 58bd
0.12126884 -0.047745127 0.112390116 -0.044881854 -0.19183046 -0.13611414 0.1586377 0.12814479
0.18097772 0.015561713 -0.12497583 -0.10968413 -0.06636375 0.21826299 -0.18902707 -0.01156419
-0.035231594 0.1433105 0.26655394 0.1894085 0.0703244 0.17365772 0.20027207 0.051295593
0.15198985 -0.008515233 -0.042772323 -0.051125553 0.1275775 -0.052743074

layers.8.weight f4 [1, 30]
00000000: 5cef 9c3d e44d f5bd 250d 3fbd ab4e 643c
00000010: 70d0 85be a3a1 5b3d c767 49be 9345 9dbd
00000020: 8f12 d23d 6b50 d63d 0a63 113d 2d84 04bd
00000030: 8ced f1bd 9305 a03e f4e5 d4b9 0ad2 e73d
00000040: 4dae 093e 3f05 0ebd 228d c43d f18d dd3d
00000050: d146 6bbe 2880 54be d123 833d fc60 0a3e
00000060: 5818 82bd fee3 ac3c 9871 843e 7480 e3bd
00000070: 6bd3 573c e4b5 d73c
0.07662842 -0.11977747 -0.046643395 0.0139347715 -0.26135588 0.053620946 -0.19668494 -0.07679286
0.10257446 0.10464557 0.03549484 -0.032352615 -0.118128866 0.31254253 -0.0004060712 0.11319359
0.13445397 -0.03467297 0.095972314 0.10818089 -0.22976233 -0.20752013 0.06403316 0.13513559
-0.063522995 0.021104809 0.25867915 -0.11108485 0.013172965 0.02633185
