PINN's/BURGERS/Burgers_Architecture/Models/10_5.pth (torch, 5006 bytes, 9 tensors)

layers.0.weight f4 [10, 2]
00000000: 0470 ac3e e957 2abe dbf4 c1be 11de 18be
00000010: 3e0b 9d3e ba00 363e d95e e6be 74d4 77be
00000020: c662 e73e 8fea 2dbe b1e7 fa3e 3c5e 343d
00000030: 672d 00bd 3249 ac3e 1d3d 663e f4d1 0fbf
00000040: caa9 ed3d 4bf3 35be 945b 823d 5f7c b83e
0.3367921 -0.16635098 -0.37882122 -0.14928462 0.3067264 0.17773715 -0.44994238 -0.24202138
0.45192546 -0.16984008 0.49004892 0.04403518 -0.0312933 0.33649594 0.2248425 -0.5617974
0.1160465 -0.1776859 0.063651234 0.36032388

layers.0.bias f4 [10]
00000000: 5cd1 2d3f 8c11 60bf 543e 28bf 5642 dcbe
00000010: e2af 263e fc17 6dbd ac49 35bd ab95 1ebf
00000020: d1d9 69bd 2140 723f
0.6789758 -0.87526774 -0.65720105 -0.4301936 0.16278031 -0.0578842 -0.044259712 -0.61947125
-0.05709249 0.946291

layers.2.weight f4 [10, 10]
00000000: 762d a5be 0094 2fbf 3498 65be 2d41 14be
00000010: 70cb edbd f23d 0f3e 9a46 323e 85a7 80bd
00000020: 7160 813e 6114 bd3d 6fce 43bf 8826 03bf
00000030: 56d9 81bf a77b fabe 4ad3 20bf 80c2 93be
00000040: dcec 073e 2f8e 4f3e 33d0 553e 5f7b 0d3f
00000050: 2a5a 2b40 4854 ac3e 9333 b63f 363a d23f
00000060: 9f2c dcbf 0221 1dbe 6b9a b0be 5810 5e3f
00000070: c4ff 5abf 5b65 5e3f 1e2c 0f3f f7ee 9bbf
00000080: 1b6d 043f 7c8d a2be 3226 023e c686 57bf
00000090: e778 7dbe d638 cf3d d7bc f5be ccdd b43e
000000a0: 2df5 eabf ae97 94bf 0b2f da3e a61d b3be
000000b0: 8ee1 61bf 1dcd af3e 635b 1a3e e582 96be
000000c0: 78f0 993f 3d60 a5be 9089 9d3f 0776 0d40
000000d0: f2b4 d33f 581a f3bd 86b8 e0bf 53c2 41bf
000000e0: cf9e 3ebf ee13 73be 958c a6be 55e5 06bf
000000f0: 0501 f03f 1324 de3e f2d7 1d3f 8ebf d83d
00000100: d097 93bf 6cbf 94bf bade 993e 555b 97be
00000110: aad6 9abf d5e3 873f 4c4c 8d3f 4b7c 053f
00000120: 0a33 b4be b05e 143f 341f 2cbe 4340 5f3e
00000130: 8203 8e3e f276 b43e 7c3a e4be d944 d83e
00000140: f6c1 c93e bb98 dc3f 546d 3840 1712 bdbe
00000150: 6061 d9bf 48de 3b3c 7b17 fe3e 6a21 39bf
00000160: 4ab7 febe 1127 c3bf c209 89bf 88f1 ec3e
00000170: a62a abbf 1e97 5e3e 15a0 78bd ddf3 383f
00000180: 69cc 9d3e 80bd 893d 6f09 df3e 1004 9cbe
-0.32261246 -0.68585205 -0.22421342 -0.14477988 -0.11611068 0.13988474 0.17409745 -0.06281952
0.2526889 0.092324026 -0.7648687 -0.5123067 -1.0144451 -0.48922464 -0.628224 -0.2885933
0.13273948 0.20269082 0.20880203 0.55266374 2.6773782 0.33658051 1.4234489 1.6424015
-1.7201117 -0.15344623 -0.34492812 0.8674369 -0.8554652 0.86873406 0.5592669 -1.2182301
0.5172898 -0.3174857 0.12709883 -0.8419002 -0.24753152 0.101182625 -0.47995636 0.35325468
-1.8356072 -1.1608789 0.42614016 -0.34983557 -0.88234794 0.34336177 0.15073924 -0.2939674
1.202651 -0.32299986 1.2307606 2.2103288 1.6539595 -0.11870259 -1.7556312 -0.7568714
-0.7446107 -0.23738071 -0.3252913 -0.5269368 1.8750311 0.43386897 0.6165763 0.10583411
-1.1530704 -1.1620917 0.3005274 -0.29561868 -1.209676 1.0616404 1.1038909 0.5214278
-0.3519519 0.5795698 -0.16808778 0.21801858 0.2773705 0.35246998 -0.4457587 0.42240027
0.39405793 1.723411 2.8816729 -0.36927864 -1.6982841 0.01146657 0.4962729 -0.7231661
-0.49749213 -1.5246297 -1.0706103 0.46278024 -1.337239 0.21737334 -0.06069954 0.72247106
0.30820015 0.067255974 0.43561885 -0.3047185

layers.2.bias f4 [10]
00000000: 35fb 0b3e c834 2b3e 1618 ebbe afb7 293d
00000010: a9ba 903f e46d 973f 17a6 a2be 7d28 a13e
00000020: 9974 5f3f 3677 f73e
0.13670047 0.16719353 -0.45916814 0.04143494 1.1306964 1.1830411 -0.31767341 0.31476203
0.8728729 0.48333138

layers.4.weight f4 [10, 10]
00000000: bde4 c3be c476 593f 5dd1 49be 5e6f 3d3f
00000010: db1f 033f ff94 8bbf 096a c5bc c2cc 493b
00000020: 2bbb f4be 4f04 17bf d24a 003e 15f7 9abe
00000030: 4f21 fb3e 280d 1cbf 09c1 6fbf b826 a83e
00000040: d9ff 723d 513d 4f3f 0969 1abf 075d 173f
00000050: 80be 893d ee73 07bd 9c55 ecbd 1fe6 293e
00000060: a0d7 5ebe 7307 813e b95e 363d 9ab2 d03d
00000070: b117 74be 79a3 0e3e f3f1 6ebe 3802 0f3f
00000080: c40f 723e 902c 073f f215 a73e 3a21 63be
00000090: 0972 7f3e 1dd9 c73d 77a0 03be b4c3 acbe
000000a0: 45ac 84bb c92e 2d3f 0b78 183e 54a3 273f
000000b0: 246c 163e 0c2b 143f 981a 713e 750d bcbe
000000c0: 5779 07be 12f7 29bf 76de a43e 0c41 693e
000000d0: 42d2 413e 39b9 c03d 6c5f c1be 42d8 babd
000000e0: f571 e5bd ede9 91bd b895 87be 280d 763e
000000f0: 9ccc bd3e 8477 fdbd 0575 53c0 57a9 86bf
00000100: d91f 8a3f eb9b 2bc0 cefc c0bf 0b0b 2b3f
00000110: aac4 44c0 22d3 d03f faa1 1b3f 776b ad3e
00000120: f751 f03d 7982 b43e e0b0 9cbd 0073 d3be
00000130: e7f7 a33d fbea 2abe 4f0d fabd cd23 9bbe
00000140: b7be 003f 752e 3fbf 827e 87be edbc e1be
00000150: 8099 10bf 2c5a 813e 15df b03e 58d6 1fbd
00000160: 3691 6abd fbfc 8f3e 6429 f43e 82ee a9bf
00000170: 394e 763e 5f60 2fbe 5002 bbbf 862e ed3e
00000180: 2049 a13e b597 123f ebb8 a8be e5aa f73e
-0.3826045 0.84946847 -0.19708772 0.7399806 0.5122048 -1.0904845 -0.024098413 0.0030792211
-0.47799048 -0.5899095 0.12528542 -0.30266634 0.4904885 -0.60957575 -0.93653923 0.3284204
0.059326027 0.80952936 -0.6031652 0.59126323 0.06725788 -0.033069544 -0.11539766 0.1659169
-0.21761942 0.25200996 0.04452393 0.101903155 -0.23837163 0.13929547 -0.23334484 0.5586276
0.23638827 0.5280237 0.3263393 -0.22180644 0.24945845 0.09758208 -0.12854181 -0.3374306
-0.0040488564 0.67649513 0.14889543 0.65483594 0.1468969 0.57878184 0.23545301 -0.36729017
-0.13229881 -0.66392624 0.32200974 0.2277872 0.18927863 0.094103284 -0.37768114 -0.09123279
-0.11203376 -0.07124696 -0.26481414 0.24028456 0.37070167 -0.123763114 -3.3040173 -1.0520428
1.0790969 -2.6813915 -1.507715 0.66813725 -3.0745034 1.6314433 0.6079403 0.33871052
0.117343836 0.35255793 -0.07650924 -0.41298676 0.08006268 -0.166912 -0.1220957 -0.3030075
0.5029101 -0.7468026 -0.26463705 -0.4408945 -0.5648422 0.25264108 0.34545198 -0.039022774
-0.05726739 0.28122696 0.4768783 -1.3275912 0.24053277 -0.17126606 -1.4610081 0.46324557
0.31501102 0.57262737 -0.3295358 0.4837257

layers.4.bias f4 [10]
00000000: cbd5 23be 6d44 2bbd 7c6a b2be df16 da3e
00000010: ab88 3b3e 1099 56be 5d24 dc3e cf14 593e
00000020: dcd2 a73c 96c0 58bf
-0.15999524 -0.041813303 -0.34846866 0.42595574 0.18313853 -0.20956826 0.42996493 0.21199344
0.020486288 -0.8466886

layers.6.weight f4 [10, 10]
00000000: 4248 393e c627 2f3e daad f4bb 64da 30be
00000010: a132 5c3d b612 163e 734e 663e 0e32 0f3e
00000020: 63ee 463d 96fd c53e 3876 9ebe 8875 113e
00000030: 5a87 f9bd 945a 8abd 495e 7abd 0462 033e
00000040: 85da 4d3d 4592 e33e 6f4a 90be 54c3 333e
00000050: 1125 ecbd 65b4 d53e e8cc 72be 3024 de3e
00000060: 2dd7 6abe 1fc0 063f 7c83 bb3e c75f f73e
00000070: 4adc 953d 8b1c b93e 9cf8 303e 91fe 4fbe
00000080: 567f 903c 5a48 a0be a76e 25be 44ee 91bd
00000090: 1819 333e 77ba 9ebc 51ca f7bc 6630 f83d
000000a0: 3aff 0d3b e8bf 87be 6237 a5b9 fffe 013d
000000b0: d010 383c fbd3 99bd bce3 47be 15e8 8dbe
000000c0: bdbc f6bc 03bd 36be 1aff 09bd 6b61 7dbe
000000d0: ec20 55be c369 a4be b42c 31be 2347 33bf
000000e0: d0b3 b63e b5d7 81be e63f 043e 6af7 ae3d
000000f0: 8e44 51be d1e6 473e e2b1 883d e439 443e
00000100: 6de3 d23d ad7b 8e3e 5b01 873d b4b8 f0bd
00000110: 9e82 3abe c449 0e3e a832 00be bffb 8ebf
00000120: 87fe 88be 0d86 31bc 88b0 393f 5c19 04bf
00000130: 6320 99be 6d07 93be 9632 b5be 0364 a5bf
00000140: aa1a d33d 30ef 72bf 071b 78bd c9d7 323e
00000150: 8125 4e3f 73c4 3a3d 1170 1dbf b2ae dd3e
00000160: 9047 05bd 77a6 32bf c1c8 af3c fd7b 683e
00000170: 2db8 063d 692e 8bbe d7f5 d13d 7751 c6bd
00000180: 3253 493e 6ca1 94be 3017 ee3d ca6c 053f
0.1809397 0.17105016 -0.007467014 -0.1727081 0.05375922 0.14655575 0.22490864 0.13983938
0.048567187 0.38670033 -0.3094957 0.14204991 -0.121840194 -0.06755558 -0.061125074 0.12830359
0.050257225 0.44447532 -0.28181788 0.1755498 -0.11530507 0.41739193 -0.23710978 0.43386984
-0.22933646 0.52636904 0.36623752 0.4831526 0.073174074 0.3615459 0.17282337 -0.20311953
0.017638844 -0.313052 -0.16155492 -0.07125524 0.17490041 -0.019376023 -0.03024784 0.12118606
0.002166702 -0.265136 -0.00031512516 0.031737324 0.011234477 -0.07511135 -0.19520468 -0.27716127
-0.030119294 -0.1784554 -0.03369055 -0.24744193 -0.2081334 -0.3211194 -0.17302209 -0.7003042
0.3568406 -0.25359884 0.12915 0.08543284 -0.20436308 0.19521643 0.066745535 0.19162709
0.10297284 0.27828732 0.065920554 -0.11753979 -0.18213889 0.13895327 -0.12519324 -1.1170577
-0.2675669 -0.010835183 0.7253499 -0.51601195 -0.29907522 -0.28716603 -0.35390157 -1.2921146
0.1030782 -0.9489622 -0.06057265 0.17465128 0.80525976 0.045597505 -0.61499125 0.43297344
-0.03253895 -0.69785255 0.021458032 0.22703548 0.032890487 -0.27183846 0.10251968 -0.09683507
0.19660643 -0.29029405 0.116255164 0.52119124

layers.6.bias f4 [10]
00000000: adc8 03bd 2a05 ac3d 18d8 9e3d 7c25 1a3d
00000010: 8c68 54be 0a88 ae3d af54 043e 0444 ba3e
00000020: 8eee 9e3f b234 ec3d
-0.0321738 0.083994225 0.0775606 0.037633404 -0.20743006 0.08522041 0.12922929 0.36380017
1.2416551 0.11533488

layers.8.weight f4 [1, 10]
00000000: 043c 183d 2f60 89be e51c 63bf 29f7 d1bd
00000010: 4e07 483e e93d bebf 8b80 72bc d81b 573e
00000020: ca19 723f f84e 373e
0.03716661 -0.26831195 -0.88715965 -0.1025222 0.19534037 -1.4862643 -0.014801155 0.21006715
0.945706 0.17901218
