PINN's/CAVITY NS/Models/NSCavityRe100.pth (torch, 23896 bytes, 14 tensors)

layers.0.weight f4 [30, 2]
00000000: a351 d73c 98b7 9f3e 7978 e6be 42b5 f0be
00000010: f208 d8be 42ac b2bd 3888 513d 7d54 a63e
00000020: 02a8 6e3d e05f e03e 24d7 fcbe a667 7cbe
00000030: f7d4 41bf 9021 92bd 499d 11bf 3eca e93e
00000040: 9c5f f73e bd11 b2bd a33d eabe 7b3e 1a3e
00000050: 44a3 87be f61b f13e 9218 e33c 847a 003e
00000060: 91af f2be 104c 203d 7500 8d3e 7ab0 013d
00000070: 5db0 12bf 08bd 30be 6b4a c9bd f28b 4a3e
00000080: e3b8 08bd 91d3 14bf e6fc f3be 0046 a1be
00000090: be75 a7be 8e4d fc3e 8f4c ecbd c3ae 043f
000000a0: 9cd1 663e 8e56 25be 3f5d dcbe 01b5 133d
000000b0: 402c 22bf 97e0 cebe 4e40 fe3e b1d3 803e
000000c0: 8cfc 2bbd 922a c1be ad63 d4be 2186 8e3e
000000d0: 0f06 223f 9624 6bbe d57a 033f 2f11 13bd
000000e0: 188d 613d f4c4 abbe f640 e2be 9e90 fabd
0.026284045 0.31194758 -0.45013788 -0.4701329 -0.42194325 -0.08724262 0.0511553 0.32486334
0.058265693 0.43823147 -0.4938289 -0.24648914 -0.75715584 -0.07135308 -0.56880623 0.4566211
0.48315132 -0.086947896 -0.4575015 0.15062897 -0.2649175 0.47091645 0.027721677 0.12546736
-0.47399572 0.03913504 0.2753941 0.03166244 -0.5730036 -0.1725961 -0.09828647 0.19779947
-0.033379447 -0.58135325 -0.47653884 -0.31498718 -0.32707018 0.4927792 -0.1153804 0.51829165
0.22540897 -0.16146299 -0.4303989 0.03606129 -0.6334877 -0.40405723 0.49658436 0.25161508
-0.041988894 -0.3772779 -0.41482297 0.27836707 0.63290495 -0.22963175 0.513593 -0.03590506
0.055066198 -0.335487 -0.44190186 -0.12234615

layers.0.bias f4 [30]
00000000: 1681 8f3e a84f b5bc 1154 09bf e06e 323e
00000010: 2e27 38bd 3e25 6dbe 7e28 483d 5663 21bd
00000020: 6859 993f 44f6 c93e 89e2 17bf 63be 4cbe
00000030: bfc8 08be 2381 c53d a72c 353e b16f 673f
00000040: 4afd cfbe 2936 2fbf 70fe ca3d 9799 0fbf
00000050: 8caa 85bf cf0c 3e3f cc04 313f 818b 74bf
00000060: e451 b63e 27c6 473e 0c26 74be ec76 11bf
00000070: 0fff 733e 5b54 e2be
0.28028172 -0.02213271 -0.536439 0.17425108 -0.04495924 -0.23158738 0.04886674 -0.039401375
1.198041 0.39445698 -0.5933004 -0.19994502 -0.13357829 0.096437715 0.17692815 0.904048
-0.40622932 -0.68442017 0.09911811 -0.56093735 -1.0442672 0.74238294 0.69147944 -0.95525366
0.35609353 0.19509183 -0.23842639 -0.56822085 0.23827766 -0.44204983

layers.2.weight f4 [30, 30]
00000000: 80a3 e53d 81f7 1cbc b1fa 3cbd b97b bf3d
00000010: 7d83 28be ac19 31bd 3faf e33d 81a4 983d
00000020: 77b4 d1bd 68f0 233d ae1d 883e c769 753e
00000030: 4d82 73bd 8711 873e b1f7 a6bd b434 433d
00000040: 868f e7bd 9ede eabe d760 823e 82aa f03c
00000050: 869b 7bbe 78b9 fb3c 40a4 ebbd dae6 3bbe
00000060: c176 4a3e dc7b c73d 499f 21be 7fae 823e
00000070: 529e 3e3e 3987 473e ef36 e0be 2ea4 e3be
00000080: 03f0 99be b798 b9be 4fd8 14bf 6de6 99bd
00000090: d0cb 03bf 1dc9 cebe 9dc5 6abe d8a5 13bf
000000a0: 6968 8d3e a2a0 8a3b d41e e7bd d36c 75be
000000b0: 2a96 1a3f 9384 37bc f545 11be 3270 c73e
000000c0: 5d99 7c3e 79b7 ef3e 2e3c 34bd fcf3 1d3f
000000d0: a14e 0b3f f116 fb3e b4a1 d1be 60bf 98be
000000e0: b42e 163f a284 c93e 324c 38bf 1b53 b7be
000000f0: 9a43 91bc 17c5 c73e 3962 00bf 236a 9d3e
00000100: f356 a13e e167 9dbe 2da2 cf3d 467d afbe
00000110: 5a4a 47be 6179 d5be 8f14 afbe c920 25bf
00000120: f5af ad3e 7902 34bf b590 873d 2500 85bd
00000130: e579 6fbd ad4c 173f dac1 23bf 2228 b6be
00000140: d191 013f e7c0 713d 7319 223e b2d4 133f
00000150: 25b5 43be 7d92 303e 0d23 bb3c cfea 473e
00000160: 6d84 003f d986 31be b510 e43e 0848 6d3e
00000170: 7094 1f3f 1605 353e 9324 ad3e 0bfd 7b3e
00000180: 287c e2be f8fa 42be 6742 09be 0b42 213e
00000190: 70ba 073c 3ef4 63be 6748 adbe 4823 9c3e
000001a0: 90e3 e7bc 627d 06bf a4db 463e e2db 483d
000001b0: 0ad7 763d a29f 06be daf2 8d3e b155 a23c
000001c0: 829e a8bd d107 50be f967 43be be3f 18be
000001d0: 3f50 863d 8503 41be f1a8 933e 7c43 e03e
000001e0: 3618 8cbe 98ff 8cbb eb23 773e e5ed e0be
000001f0: 9e2f 97bd da7c 953e 0d42 c03d 228a 41be
00000200: 4ba5 013e 42e4 82be b312 df3c b2a4 ba3e
00000210: 6ae2 a4be d067 c63e f8b2 83be 90ad 703d
00000220: daf1 843c 1384 cfbc 5e20 e93e 3cd6 06bd
00000230: e22a e6be 80c7 b83d b9b4 5b3d 8569 903d
00000240: e43d 71bd e3d5 b8bd abcd 153e 7d51 963c
00000250: 7ebe 7fbe 92a3 90be cf28 c5bd 3ab5 90be
00000260: 189d 5bbf 829b 20be 4140 963e 6d62 4bbf
00000270: 5098 2d3f 9f83 6fbf ca4e f9be b360 1abf
00000280: 85f3 763d e330 9f3e baf0 413f f905 18bf
00000290: 7faa ec3e 4d20 483e 1562 e2be 9b5b 6c3f
000002a0: 61c3 29bf 3424 dbbd be5a 6c3d 7b59 6a3e
000002b0: d57f 483f 023b 493f 90ba e5bd 7f2e 4cbf
000002c0: 74c9 b93e 0859 163f 47d3 8abd 653c 96bf
000002d0: 29bc 1cbf 2372 2abf 5fa5 e8be bb9e bbbe
000002e0: 989c 00bf 00ca 84be c7b4 153e 1420 113e
000002f0: 4c26 7dbe 4409 a73d 1a05 f53d 21c7 b33e
00000300: f25d 61bc e4e6 463e 15c1 b43e d4f1 073f
00000310: 5fb9 9dbe a286 8a3e 08ff e9bd cbb0 023f
00000320: 3c3f e0be dea5 563e bf45 763e d850 8b3c
00000330: 05e5 2abe 2cf9 b03d 9765 3bbe a650 34be
00000340: 942f adbe bfb5 95be 0c45 ee3e 4b4e 92bc
00000350: 541c 8cbd 060d 0a3f cb32 e53e fdb7 80be
00000360: a80b aa3c 26cd 493d c3e2 15be 13ed 03bd
00000370: f026 0abf b6ad d7be 2ee9 933e db87 9dbe
00000380: 6183 a03d c994 fabd d1b9 6dbd a179 f73d
00000390: aeed 94be fde8 acbe 9c14 b73e f029 07be
000003a0: 8854 1fbd f9b1 953d f803 203e c1b4 653e
000003b0: e11d 11bd 9083 bfbc bc15 1a3f 4248 60be
000003c0: f3c2 b8be 9939 02be 1ff2 953d 26ab 393e
000003d0: f616 61be 7fbf 223e 1ce5 083f 61dc 783f
000003e0: 1904 dc3e c0c8 093f 3c1d 773e be32 2b3e
000003f0: 0eee b13c 7621 2e3f b508 9ebe dbb3 da3e
0.11212826 -0.009580494 -0.046137515 0.0934977 -0.16456409 -0.043237373 0.1111741 0.07453252
-0.10239499 0.04002419 0.26585144 0.23966132 -0.059450436 0.2638056 -0.08152712 0.047657683
-0.11306672 -0.45872968 0.25464508 0.02937818 -0.24571046 0.030728087 -0.115059376 -0.18349782
0.19771864 0.09740421 -0.15783419 0.25523755 0.18615082 0.19485177 -0.4379191 -0.44461197
-0.30065927 -0.36249325 -0.5814256 -0.07514653 -0.5148287 -0.40387812 -0.22926946 -0.5767493
0.2761872 0.0042305747 -0.11285177 -0.23967294 0.6038538 -0.011201042 -0.14186843 0.38952786
0.24667878 0.46819666 -0.044002704 0.61700416 0.54416853 0.4904094 -0.40943682 -0.29833508
0.58665013 0.39359003 -0.71991265 -0.35805592 -0.01773243 0.39017555 -0.50149876 0.30745038
0.3151165 -0.30743316 0.101383545 -0.34275264 -0.19461957 -0.41694167 -0.34195372 -0.6450315
0.33923307 -0.7031627 0.066193976 -0.06494168 -0.058465857 0.5910137 -0.6396767 -0.35577494
0.50613123 0.059021857 0.1583002 0.5774642 -0.1911207 0.17243381 0.022843862 0.19523166
0.50202066 -0.17336597 0.44543996 0.23172009 0.6233587 0.17677721 0.33816966 0.24608247
-0.4423535 -0.1904105 -0.13404237 0.1574785 0.008284196 -0.2226114 -0.338443 0.30495667
-0.028306752 -0.5253507 0.19419724 0.04903782 0.06026367 -0.13146833 0.27724344 0.019816251
-0.08233358 -0.20315482 -0.19082631 -0.14868066 0.065582745 -0.18848999 0.2883983 0.43801486
-0.2736222 -0.00430293 0.24134795 -0.439315 -0.07382129 0.29196817 0.09387598 -0.1890035
0.1266071 -0.25564772 0.027230596 0.36453778 -0.3220399 0.38751078 -0.2572248 0.058759272
0.016228605 -0.025331533 0.45532507 -0.032919154 -0.44954592 0.090224266 0.053639147 0.07051376
-0.058896914 -0.09025171 0.14629237 0.018349404 -0.24975011 -0.28249794 -0.09626924 -0.28263265
-0.8578658 -0.15684322 0.29345897 -0.7944706 0.67810535 -0.9356021 -0.48692924 -0.603038
0.060290832 0.31091985 0.75757945 -0.59384114 0.46223828 0.19543572 -0.44215456 0.9232728
-0.6631375 -0.107002646 0.057703726 0.22885697 0.78320056 0.78605664 -0.112172246 -0.7975845
0.3628651 0.587296 -0.06778579 -1.1737181 -0.6122461 -0.6658041 -0.45438668 -0.3664454
-0.50238943 -0.25935364 0.14619742 0.14172393 -0.2472164 0.08156064 0.11963864 0.3511286
-0.013755308 0.19424015 0.3530356 0.53103375 -0.3080549 0.27055842 -0.114255965 0.51051015
-0.43798244 0.20961711 0.24050044 0.017006323 -0.16688927 0.08641276 -0.18300472 -0.1760889
-0.33825362 -0.29240224 0.46537054 -0.017859599 -0.06841341 0.5392612 0.44765314 -0.25140372
0.020757511 0.04926791 -0.14637284 -0.032208513 -0.53965664 -0.42124718 0.2888884 -0.30767712
0.078375585 -0.1223541 -0.058038536 0.12083746 -0.29087585 -0.33771506 0.3575791 -0.13199592
-0.038898975 0.07309336 0.15626514 0.22432233 -0.035428885 -0.023378164 0.60189414 -0.21902564
-0.36086234 -0.12717284 0.073215716 0.18131694 -0.21981415 0.15893362 0.53474593 0.9721127
0.42971876 0.53821945 0.24132246 0.16718575 0.021719959 0.6801981 -0.30866018 0.42715344

layers.2.bias f4 [30]
00000000: 2c9c 833d 067f 56be 7ac9 88be f645 083e
00000010: 485e 88bd f924 00be 3fff 94be cd14 4f3e
00000020: acb0 63be 0a29 7d3c 2040 7cbe 94ae 8a3d
00000030: 08a3 90be 8769 34bf c55c 7abb a118 083f
00000040: ace9 8f3d 115e 01be 3cef 5fbe 279d 8c3d
00000050: 78a6 1d3e b6f2 ffbd 135a 9a3d e395 5bbe
00000060: 4b9a cb3c 7731 0e3f 060f 853e 29b3 ad3e
00000070: abbd 373e 0c0e 64be
0.06426272 -0.20946893 -0.26716214 0.13307938 -0.06658608 -0.12514104 -0.29100987 0.20222779
-0.22235364 0.015451679 -0.24633837 0.067715794 -0.28249383 -0.7047352 -0.0038202268 0.5316258
0.07026991 -0.1263354 -0.21868604 0.06865912 0.15395534 -0.12497465 0.075367115 -0.21443896
0.024853846 0.5554423 0.25988024 0.3392575 0.17943446 -0.22270983

layers.4.weight f4 [30, 30]
00000000: d4fd 393e 956d e9bd c3d1 d9be 2d16 b43e
00000010: 5858 893b b695 b2be d661 f7bd 18f3 6bbe
00000020: d6e9 29bc c621 e7bd 3e3f 7b3e 1358 e93d
00000030: 1e4d 4ebd df77 eebe 06ae dc3d b9b1 233e
00000040: a981 88bd 5af4 d7bd a46d fabe 23f4 13bd
00000050: d409 9fbe 0c22 16bd db77 f53d a43d 28be
00000060: 9143 893e bf01 543d d131 b73e 232f aebd
00000070: 257b c2be 0ef4 123e ce21 0ebd 828d 9f3c
00000080: 585b dc3d 488f 0a3e 7aaa 34be b439 c5bd
00000090: ce74 ba3d a88a 023e fc3c 9d3e 479e 023d
000000a0: 20b3 45be 830d 8a3c 9997 03be d5b1 7a3e
000000b0: de8a 5dbe 6295 5fbd 9231 85bc f6fc 69be
000000c0: 4b8c f93c 4442 9b3e c40c 093e 152e 413e
000000d0: 54b9 153e d5b3 00bd cc5c 103d 2f8c 6bbd
000000e0: f2a1 53bd a28b 88bc 745f 513d 5f0d 40be
000000f0: 3b8f 8f3d 842f e0bd c7e3 983e 989b 15bf
00000100: c9d9 033f e096 373f 8ceb 343f 3bfa bf3d
00000110: 3eca 093e 5fba e53d b453 663e 6cd7 353e
00000120: 7745 d1be 0110 4b3f 7f6e 85bd 0488 02bf
00000130: d8b1 d8be 5693 653e 5dd5 1cbe 085a 11be
00000140: b4df 8dbe b4ba 9a3d 35df 02bd 0cb8 bc3e
00000150: 1e34 2bbd 9866 4cbe 37d3 ab3d 848f 17bf
00000160: 055c 2f3e 8e7d 5abc f163 c23c d6dc 49be
00000170: d8d4 103e d0b0 d03d f6e4 58be 678f 95be
00000180: ab9e f1bd c874 dabd 9846 a3bd b14c 90bd
00000190: 140f ccbd 1d20 36be db55 23bd 9718 febd
000001a0: fe00 57be 1b52 a9bd 14cf b03c 267f 17be
000001b0: 5c3a 573e 0a55 24bd b263 7abd 3b8e d33c
000001c0: bd2b ce3d d859 1d3e d63b 9fbd ba01 68be
000001d0: 70c7 2bbe 1012 003e 9283 45bd b9bf 1dbe
000001e0: 04f5 56be 352e d33d c3dd ebbe 5bec 50be
000001f0: 7704 1b3d c56a 01be 1d99 d03e 4184 5ebe
00000200: 18f0 2cbd 442e 7abe 05b8 b33e 30a5 4bbe
00000210: 6376 6abe 384a de3e 90a2 aabd fac0 8cbe
00000220: 519f b3be c346 b63e 468a 1f3e 105f 863e
00000230: 3e77 e9be f225 4a3e 049c bbbd 3f0c 933e
00000240: c769 883e 7ed6 4ebe 264d 2d3e c38a aebe
00000250: 7044 87be a51c 873e 1397 9ebd 2f0e a23e
00000260: 209e f5be 177a cebe ffa5 b43e 3267 68be
00000270: f8dc a93e 4247 71be 3863 803d e1bd 91bc
00000280: b9dd 0d3e a4d7 cfbe 45dd 623e d1af 043f
00000290: e816 e43c ce47 1fbf 316f 90be eafe d63e
000002a0: 21b5 7e3e acd4 23bf c717 2ebe 271d 63bd
000002b0: f73a cabd 79a2 a23e 9836 d73d 869c 6bbf
000002c0: 654b bfbd cccb 1ebf 64c9 fcbb e72e 003f
000002d0: 2eed 49be 31f2 893e 3fb4 533e de2e 63be
000002e0: e01a f9bd b205 5f3e eb2b b8be ff45 b43e
000002f0: 6c6b 0abf aded c03c 4d2e 56be a625 0abd
00000300: 0ada a93d 0ea3 13bf 6a47 c3bd 228a 3e3e
00000310: 4d5c 243d d36f ab3c 325c 8a3e 08ab 8c3d
00000320: bfa4 b13e ef12 7bbe 2f9d 833d fe32 f73d
00000330: 55a5 15bf 9174 103e 2fe6 3abf b59c 923e
00000340: 30df 3cbc cca5 0abf 7a9f acbd f612 3e3e
00000350: b25d aebc 69eb e6bd bdc6 0ebd f644 37be
00000360: c4c2 843e 1827 7c3c 632d 113e 3c65 ecbc
00000370: 3d6a 0c3e 9f1a 9e3e 66b5 1e3d 381d 053d
00000380: c7e3 40bd 9902 44be 5ee7 6ebe 8b5c bc3d
00000390: 6fae 903b 7d48 5cbc b146 ecbd e282 903d
000003a0: a947 6d3e 69ce 02be 2b48 6b3e c3e4 97bc
000003b0: 0204 7a3e 92e0 c0be 0250 71bd 01fc 8c3e
000003c0: ea9e cfbe 3d35 52be 6fe3 f93e 214e 9bbe
000003d0: a3a7 27be 633b 693f 319e 693e 2887 203e
000003e0: 29fa c33e 2557 593e 7abf 12bd 8062 9c3e
000003f0: aa04 b7be 6c44 cebe 6804 d9be 32fb 09be
0.18163234 -0.11397854 -0.42542848 0.3517317 0.0041914396 -0.34879845 -0.120792076 -0.23041952
-0.010370692 -0.11285739 0.24535844 0.11393752 -0.050366513 -0.4657583 0.1077538 0.15985765
-0.06665356 -0.10544653 -0.48911774 -0.0361215 -0.31062186 -0.036653563 0.11985751 -0.16429764
0.26809362 0.051759478 0.35780194 -0.08505084 -0.37984577 0.14350912 -0.034700207 0.019476656
0.1075961 0.1353122 -0.17643157 -0.096301466 0.0910431 0.12748206 0.3071059 0.031889226
-0.19306612 0.016852146 -0.12850799 0.244819 -0.21635005 -0.054585822 -0.016258989 -0.22850403
0.030462405 0.30323994 0.13383776 0.18865235 0.14621478 -0.0314215 0.035244748 -0.057506736
-0.051668115 -0.016668145 0.05111642 -0.187551 0.07009741 -0.10946563 0.2986128 -0.5844054
0.5150419 0.7171459 0.70671916 0.093738995 0.13456056 0.11217188 0.22492868 0.17757958
-0.4087331 0.79321295 -0.06515216 -0.50988793 -0.42323184 0.22419485 -0.15315767 -0.141945
-0.27709734 0.07555142 -0.031951148 0.36859167 -0.04179775 -0.19961011 0.083898954 -0.5920336
0.17124946 -0.013335599 0.023729296 -0.19713148 0.14143693 0.10189974 -0.21181092 -0.2921097
-0.11797842 -0.106668055 -0.07972449 -0.07045878 -0.099638134 -0.17785688 -0.0398768 -0.12407034
-0.20996472 -0.082676135 0.021583118 -0.14794597 0.21018356 -0.040120162 -0.061130233 0.025824657
0.10066936 0.15366304 -0.07775085 -0.22656909 -0.16775298 0.1250689 -0.04822118 -0.15405168
-0.20991904 0.10311548 -0.46067628 -0.20402662 0.037846055 -0.12638386 0.40741816 -0.21730138
-0.04222116 -0.24431711 0.35101333 -0.19887233 -0.22896723 0.43416 -0.083317876 -0.2749098
-0.35082486 0.35600862 0.15580091 0.26244402 -0.45598787 0.19741037 -0.09160617 0.2872028
0.26643202 -0.2019901 0.16923961 -0.34090242 -0.264194 0.26389042 -0.07743659 0.31651446
-0.47972202 -0.40327522 0.35282895 -0.22695616 0.33176398 -0.23562339 0.062689245 -0.017790737
0.13854112 -0.40594208 0.2215472 0.51830775 0.027842954 -0.6221894 -0.28209832 0.4199136
0.24873783 -0.63996387 -0.17001258 -0.055447724 -0.09874528 0.31764582 0.1050846 -0.9203571
-0.09340552 -0.6202972 -0.0077144373 0.5007157 -0.19719383 0.2694259 0.20674227 -0.22185847
-0.12163329 0.21779516 -0.35971007 0.35209653 -0.5407016 0.023550833 -0.209161 -0.03372731
0.08293541 -0.57670677 -0.095351055 0.18607381 0.040127087 0.020927345 0.27023464 0.06868559
0.34696004 -0.24518941 0.06426465 0.12070273 -0.584554 0.14106967 -0.7300748 0.28635183
-0.011527821 -0.54159236 -0.08428855 0.1856192 -0.021284912 -0.1127537 -0.0348575 -0.178974
0.25929844 0.01539018 0.1417747 -0.028856866 0.13712402 0.30879685 0.038747214 0.03249857
-0.047092225 -0.19141616 -0.23330447 0.09197339 0.0044153254 -0.013445017 -0.11536921 0.07056214
0.23171867 -0.12774052 0.22976749 -0.0185417 0.24415591 -0.37671334 -0.058914192 0.27536014
-0.4055093 -0.20528121 0.4880633 -0.30333045 -0.16372542 0.9110624 0.22814251 0.15676558
0.38276795 0.21224649 -0.035827138 0.305439 -0.35745746 -0.40286577 -0.42386174 -0.1347473

layers.4.bias f4 [30]
00000000: 53f1 afbd 84b1 2bbd 2ee4 6dbe 446f 6f3d
00000010: 6898 64be 62d6 533d af3f 9a3e c4ea 3dbe
00000020: 75ba 933e 1611 0ebe a80c 5bbe 9489 5f3e
00000030: b801 2bbd a28a bf3c a695 c8bc b1b1 d83e
00000040: f6c0 e93e a847 243e b932 76be 7e64 57be
00000050: 436b 3cbc e0c0 93be 1c95 debd 900e 7abe
00000060: f6bc 9abc eae7 c4be 7ff0 b23d 6911 3f3e
00000070: 5d4a 4d3d cb00 79be
-0.08590951 -0.04191734 -0.23231575 0.05845572 -0.22323763 0.051718123 0.30126712 -0.18546587
0.28853193 -0.13873705 -0.21391547 0.21829826 -0.041749686 0.023381535 -0.02448542 0.42323068
0.4565503 0.1604296 -0.24042787 -0.21034428 -0.011500183 -0.2885809 -0.10868284 -0.24419618
-0.018888932 -0.38458186 0.08737277 0.18658985 0.050119746 -0.24316709

layers.6.weight f4 [30, 30]
00000000: 6e28 b5be b064 583e 1dbe f03e 9aa2 a2bd
00000010: 8823 20bd e52b 96be f27e 9f3e 5050 6b3d
00000020: 3cbd 58be 2596 e9bd 483e ed3d f55a 223e
00000030: e401 bdbe 1286 393e f1c3 0a3b 2928 b4be
00000040: fec8 f0bd 9b7c aebd d6ea acbe ec6b 4ebe
00000050: 771a d4be e3e7 3f3c 5fc2 b8bd 6d26 f5bc
00000060: aaaf 52be 74dd 2ebe 7027 863e 337d 8a3e
00000070: 31f5 67be a057 80be 7e86 d73d d4ec 98be
00000080: 5589 98bd 168b 43bd 8dec 2e3f 74bc cebd
00000090: 6d2d 8dbe 22a0 b8bd bf93 12bf e7a7 093f
000000a0: 6e3d 82bd cc56 79be 9963 b63d eba8 523e
000000b0: 16c5 56be 8588 20be 2098 4ebe 5123 55bd
000000c0: 50f3 283e f73c 243e 93d4 c43c 3760 713e
000000d0: f729 d33e ed60 893e 6047 b53d 6474 d83c
000000e0: 0bde 36bd 2bda 1f3e 5be2 34ba 9275 243e
000000f0: febb 72bd 84f3 d43d 0af1 b1be be86 433e
00000100: 7d6e 213e 95ee 593e 58b5 d5bd 5c0e 233e
00000110: ce99 94be d070 013e 7826 fdbd ee44 11be
00000120: 17e6 06bc 565d 4abe f510 1c3d dc15 90bd
00000130: d849 e73d d095 bdbd f5c8 16be 2b7a 133e
00000140: 5179 e9bd 668e 893e 2d3b 7ebd 8393 503d
00000150: d862 b8bc 5276 1bbc 782e bebd 9373 04bd
00000160: 5aac a93d 9c0d 8dbd 800c 15be 27f3 493e
00000170: c7d9 7e3d 192e 743e a433 fdbe 6bdf 4a3d
00000180: 9c5d 903e 7219 d4bd ada3 d73e bf69 cfbe
00000190: 1047 aebe 6eb0 d83d 8a81 233d 9d9c 64be
000001a0: d3b6 f43c 1168 fd3e f85a c53e d59e 4e3e
000001b0: b292 3c3b 3a3c 8e3d 8db3 453d d843 7ebe
000001c0: 2126 33be 7d16 16be 9373 233e 17ec 893e
000001d0: c148 ccbd 0290 9fbd 04bb e3bd 61e2 97bd
000001e0: af61 1cbd c4b6 4f3e e94e 64be 7223 413e
000001f0: 6f2a ecbd d702 933d eae6 e9bd e361 283b
00000200: 899d 703e 60db 65be 75d3 9bbe ad7c f3bd
00000210: 8457 d7bd 8ed6 f73d d1d1 283e 005f 4b3e
00000220: dcd6 6c3d 53b8 203e efb3 60bd 43e9 b9bb
00000230: 1f49 72be ce6c 75be e5ec 873d b998 fdbd
00000240: 2a4a 303d ad83 903d 39b5 e03c 5a43 04bc
00000250: 159f cdbd 8856 783e 0a99 3cbd cd88 713d
00000260: 4ca6 ce3d 8eaf 793c 788a c13e 51f4 173f
00000270: ddd7 cdbe 1a98 013e 08c7 9e3e 31b1 903d
00000280: 30fe a83e fe39 7fbe 4fe8 2e3e 9088 903e
00000290: 072c 223e 37f9 01bf b638 a2be c8d9 77be
000002a0: 64c3 7fbc 81e4 3fbd 6794 443e 4d89 dd3e
000002b0: ae09 19be 0e33 e13e 8787 30be c9d4 323e
000002c0: 515d 923c 3edc 8c3e f864 8d3e 8903 55be
000002d0: 796b c8be 9eb8 e7bb fdb4 b0bb 96a4 a8bd
000002e0: adcf 75be 32bb 463e e04d eb3e ec94 63be
000002f0: b1bc 873e 432c 263e fd6a 8fbc ff54 abbd
00000300: 261e 94be 2fd0 ebbe b62a 403e 0934 1f3e
00000310: 8411 9dbb cadf 53be 02e8 193d 3f37 3ebe
00000320: 69db 243e 0458 3bbd b9e2 013e 4491 8abd
00000330: ea11 3e3e fa5a 24be 9625 d93d 7f40 b1be
00000340: bd11 40bd 7cf2 19be 0c05 8b3e e998 6dbd
00000350: 98ee 1cbc 8020 82bd d55e 933c 0951 d33d
00000360: a9c1 15be 987d c3bd 78ec 76ba 8b67 303e
00000370: 5fbf d3bc 9341 8bbe 390c b93e f8e4 313d
00000380: d2d8 6bbd bb0b 6ebd 2fbe 53bd 63bf 96bd
00000390: ffed 00bd 6290 cb3d 7128 4a3e 268e 043e
000003a0: 402f ba3e 65d5 833d 2fc8 a3bd 0874 853e
000003b0: 3061 9dbd c327 4f3d 67ec 933e 6383 a63c
000003c0: cb65 513e 903b c4be 2646 b2be b449 cabd
000003d0: 6a3c c83e 8e61 8d3d ffa3 7fbe 5b86 dfbd
000003e0: bc5c 973d d7f9 bbbe 1351 56be cb10 99be
000003f0: e405 703e 41d1 ec3e 193f 24bf 05f3 9c3d
-0.35382408 0.21132159 0.47020045 -0.0794117 -0.039096385 -0.29330364 0.3115154 0.05744964
-0.21165937 -0.11405591 0.11584145 0.1585501 -0.36915505 0.1811755 0.002117392 -0.3518689
-0.11757086 -0.0851986 -0.33772916 -0.20158356 -0.4142644 0.011713001 -0.09021448 -0.02992555
-0.20574823 -0.17076665 0.26201963 0.27048644 -0.22652127 -0.25066853 0.10523699 -0.29868186
-0.07448069 -0.047740065 0.683297 -0.10094538 -0.2757372 -0.09014918 -0.5725669 0.53771824
-0.06359373 -0.24349517 0.089057155 0.2057225 -0.2097362 -0.15677078 -0.20175219 -0.052035633
0.16499066 0.16038881 0.024027145 0.2357186 0.41242954 0.2683176 0.08851504 0.026422687
-0.04464535 0.15610568 -0.00069001847 0.16060475 -0.059261315 0.103980094 -0.3475421 0.19094369
0.15764804 0.21282418 -0.10434979 0.15923446 -0.29023594 0.12640691 -0.12360853 -0.14186451
-0.008233569 -0.19762167 0.03810211 -0.07035419 0.112933815 -0.0925709 -0.14725097 0.14402072
-0.114000924 0.26866454 -0.062068153 0.05092193 -0.02250807 -0.009488659 -0.09286207 -0.032336783
0.082848266 -0.068873614 -0.1455555 0.19721662 0.062219407 0.2384571 -0.4945346 0.049529474
0.28196418 -0.10356416 0.42117062 -0.40510365 -0.3403859 0.10580526 0.03991846 -0.22325368
0.029872334 0.4949346 0.38545966 0.20177777 0.002877396 0.06945081 0.048266936 -0.24830568
-0.17495014 -0.14657016 0.15962057 0.26937935 -0.09974814 -0.07791139 -0.11119655 -0.07416225
-0.038179096 0.20284563 -0.22295727 0.18861178 -0.11531531 0.07178276 -0.114209965 0.002569311
0.23497595 -0.22446966 -0.30434766 -0.118890144 -0.10514739 0.1210147 0.16486289 0.19860458
0.057822093 0.15695314 -0.054859098 -0.005673559 -0.23660706 -0.23967287 0.06636981 -0.12382645
0.04303948 0.07056365 0.027430164 -0.0080726985 -0.10040108 0.24251759 -0.046044387 0.058968354
0.10090312 0.015239609 0.37800956 0.5935717 -0.40203753 0.12655678 0.31011224 0.070650466
0.3300643 -0.24924466 0.17080806 0.2822919 0.15837108 -0.50770897 -0.31683892 -0.2420417
-0.01561055 -0.046848778 0.19197236 0.43268815 -0.14945099 0.43984264 -0.172392 0.17463984
0.017866762 0.2751178 0.27616096 -0.2080213 -0.39144495 -0.0070715686 -0.0053926692 -0.08234517
-0.24005003 0.19407347 0.4595785 -0.22224778 0.26511148 0.16227822 -0.01750707 -0.08365821
-0.2892925 -0.4605727 0.18766293 0.15547194 -0.004793348 -0.20690838 0.037574776 -0.18575762
0.16099323 -0.045738235 0.12684144 -0.067659885 0.18561521 -0.1605033 0.10602872 -0.3461952
-0.046891917 -0.15033907 0.27152288 -0.058007155 -0.00957837 -0.06353855 0.017989555 0.103181906
-0.14624657 -0.095454395 -0.0009419392 0.17226999 -0.025848089 -0.27198467 0.36142138 0.043431252
-0.057579823 -0.058116656 -0.051695045 -0.07360723 -0.03147697 0.09939648 0.1974199 0.1294485
0.36364174 0.06437186 -0.07997166 0.26065087 -0.07684553 0.05057503 0.28891298 0.020326322
0.20448987 -0.38326693 -0.34819144 -0.09877339 0.39108592 0.06903373 -0.24964903 -0.10914298
0.073907346 -0.3671405 -0.20929365 -0.29895625 0.23439747 0.46253398 -0.6415878 0.0766354

layers.6.bias f4 [30]
00000000: 1542 91bd 0990 cbbb 3695 1bbe 2e79 073e
00000010: 1eaa 68bd fe58 13bd 97d1 633e b186 13be
00000020: ce97 c43e 131f ae3e deec a9be d618 793d
00000030: a226 03bd e465 4c3c 0d7f 853e 9b71 8cbd
00000040: ebb6 b83d ed99 61be 2fb8 edbd 057f 6a3d
00000050: 4e59 efbd c9f0 0a3e 9099 44bd d44b 863d
00000060: 15e0 0dbe 0652 8cbe af36 97bd 34e5 2cbd
00000070: c166 3bbc e7bc 42be
-0.07092682 -0.0062122387 -0.15193638 0.1322982 -0.05680286 -0.03597354 0.22247921 -0.1440685
0.38397068 0.34008083 -0.33188528 0.0608147 -0.032019265 0.0124754645 0.26073495 -0.06857606
0.09019264 -0.22031374 -0.11607396 0.05725004 -0.116869554 0.13568415 -0.04799801 0.06557432
-0.13855012 -0.2740633 -0.07383477 -0.042210773 -0.011438073 -0.19017373

layers.8.weight f4 [30, 30]
00000000: 0466 b33d f727 e43c db00 3e3e 6ef8 67bd
00000010: d8c9 ce3d 90d5 e83e 7771 b0be 6d55 a1bd
00000020: 2c0b cf3d 2172 2dbf 1386 903e aeb7 9c3e
00000030: e18c 07be c297 bebd 2a14 3dbe 66d3 5a3e
00000040: e1dd 8f3d 02cb 893e af42 a33e e84a cd3d
00000050: 5440 c33e 207e 8ebe 7fa6 54bd b935 bb3d
00000060: 617f 12be 1190 393e 26ce 32be 11fd b7bc
00000070: a4c5 cabc 292b cb3d f2aa 3ebe 1e93 923d
00000080: 7824 1f3e ba10 6abe 6e5b 9d3d 3e49 223e
00000090: 90b5 0cbf 0854 053e ef34 f6be a833 97be
000000a0: 3c41 033f c96b f03c fefc 5b3e 56e8 8abd
000000b0: 49f9 afbd a99c ff3d c959 38bd 6931 da3d
000000c0: e3ee 533e da73 d6be 6e55 da3e c961 0abf
000000d0: 18c1 1cbd 1b05 ab3d fbfb 823d 0483 e5bd
000000e0: e3ed 563e 4da1 d7bc 5052 893e 5266 543e
000000f0: f856 9ebe 8da5 223d e4b7 20be e18d cf3d
00000100: 0ab0 c03d e899 09be 9c91 be3d 35c1 6e3e
00000110: 7e42 933e 48fa c73e 8fde 9abd f484 c7bc
00000120: fa74 903e 1c99 cabc db52 753d 93be b83d
00000130: d1ee cd3d feee cfbe a7c6 65be 61a3 b3be
00000140: ba2c 603e 425b abbc 7883 053e 4e03 ccbd
00000150: 6840 6b3d 3be6 12be 0931 023e fcae 99bd
00000160: 7029 b33e 7ece d43d bf9e d43d 4c30 433e
00000170: ad2d d33c fa51 0abe 5de5 f5bd 7559 81be
00000180: e85d a53c 0436 553d ffa4 f5be 8d82 07be
00000190: fa31 b43e d99a e7bd 8788 febd f17f 76be
000001a0: 30fa b5be b9ab 32bd 19e5 a5be 3b09 bf3d
000001b0: c68a 993e 2fa8 983d 1b75 973e 6d54 cfbd
000001c0: d9a7 b1bd f7cf ab3c 9ee7 7b3e f9c5 5bbd
000001d0: ed8a 4a3e 4c90 77be 1ae5 c6bd 4466 8bbe
000001e0: f604 b8be a7dc e7bd 27ce a4bd b06f c0bb
000001f0: 709f 1a3e 8474 9dbd a994 e93c 87f2 613e
00000200: fa76 8d3e 8d4b fe3d 8010 293e 103a 5cbe
00000210: 6666 60bd 053e 2e3e ae9f e1be 33d3 943c
00000220: c4b5 113e ed34 09be 7b77 69bd 2eae 16be
00000230: a0ad 213e 1df0 6b39 682f a0bb aac8 543d
00000240: 94c1 433e 3103 06be 04b2 8d3e 0cf0 95be
00000250: 244a ed3d 4fb0 ebbd b2f7 b53d b610 2bbd
00000260: c08f 303e bcef 5dbd af18 60bd aec1 dd3d
00000270: 0fa3 9bbe a1a9 8cbe d494 b1bd 5e13 b2be
00000280: 77b2 1abd 2d18 073d c3d2 8ebc 2a03 d8bd
00000290: 898d e9bd 99a3 913d ceda 0e3e 68cc 4f3e
000002a0: 10f7 6cbd 0688 88bd e5b3 343e 82c7 3abe
000002b0: 78c7 0dbd 5f23 7e3d 9f05 9e3c daba 513e
000002c0: fae1 e83c 650c 663e d6ba e43c d2de f43d
000002d0: 1949 ae3d c26f d8bd d1e2 ea3d 9676 13be
000002e0: efc3 2fbe f400 2a3e 1923 013e 95ee 8bbd
000002f0: 2480 943d 7257 c4bc 10bd 0e3e 604c 733d
00000300: c52e 1a3d 25f6 0e3e 3e58 8fbe 114a 1abe
00000310: 5e22 b03d abed 22bd 0381 143e 5cc5 38be
00000320: e126 5b3d f108 a63d 0bc6 e9bc d62b 1c3e
00000330: fa40 da3d 85da 533e d165 603d a203 debd
00000340: aa55 e0bc e0a5 9d3d 4d47 b53d 7408 463e
00000350: 49ac 8f3d 255a 4ebe 100c f8be c711 6c3e
00000360: c4e2 243d 9701 ad3e 4fa7 edbd 4c53 cb3d
00000370: f451 08bd 7789 55be 1c65 4bbe 7cc0 3dbe
00000380: f2f8 3c3e 7136 2abe 7644 8ebe 2bce 3c3e
00000390: bdf0 5c3d d8be c73d 214e 72be 8c50 473e
000003a0: b873 333d fee6 b13d 80c2 753e 2d76 e9bd
000003b0: 2f8c f43e 0c91 8bbe dd62 9a3d dd99 c8be
000003c0: 797b ac3d 21dd 603d fdef f7bd 040c dabd
000003d0: 36bd 0b3e eb03 81be b93b 343e 6bd0 a5bc
000003e0: 2bef 093d f3f2 a93e 4675 8dbe ef9d 62bc
000003f0: 4274 903d cf90 48be 8819 d83c 494b 153e
0.08759692 0.027851088 0.18555014 -0.056633405 0.100970924 0.45475435 -0.34461567 -0.07877622
0.10109553 -0.6775227 0.2822729 0.30608886 -0.13237335 -0.09306289 -0.18464723 0.21369705
0.07024742 0.26912695 0.31886813 0.10024053 0.38135016 -0.278306 -0.051916596 0.09141106
-0.14306404 0.18121363 -0.17461452 -0.022459539 -0.024752446 0.099203415 -0.18619898 0.071569666
0.15541255 -0.22857943 0.076834545 0.15848252 -0.5496454 0.13020337 -0.4808726 -0.29531598
0.51271415 0.029348271 0.21483228 -0.06782596 -0.08592469 0.124810524 -0.0450075 0.106539555
0.20696597 -0.41885263 0.42643303 -0.5405546 -0.038270086 0.08350583 0.06395718 -0.1120663
0.20989184 -0.026322031 0.26820612 0.20742157 -0.30925727 0.039708663 -0.15695149 0.10134483
0.09408577 -0.13437617 0.093051165 0.2331589 0.28761667 0.39058137 -0.07561981 -0.02435539
0.28214246 -0.024731211 0.05989347 0.09020724 0.10055316 -0.40612024 -0.22439061 -0.35085586
0.21892062 -0.020917539 0.13038433 -0.09961568 0.05743447 -0.14345638 0.12714018 -0.07504079
0.34992552 0.10390948 0.10381841 0.19061393 0.025778616 -0.13507834 -0.12006638 -0.25263563
0.02018638 0.052053466 -0.47977445 -0.13233395 0.3519438 -0.11308832 -0.12428384 -0.24072243
-0.3554244 -0.0436208 -0.3240135 0.093279324 0.29988688 0.074539535 0.29581532 -0.10123525
-0.086745925 0.020973189 0.24600074 -0.0536556 0.19779558 -0.24176139 -0.097116664 -0.2722646
-0.35941285 -0.11321383 -0.08047133 -0.005872689 0.15099883 -0.07688239 0.02851327 0.22065173
0.27629834 0.12416754 0.165102 -0.21506524 -0.054785155 0.17015846 -0.44067138 0.018167114
0.14229494 -0.13399096 -0.05699871 -0.14714882 0.15788889 0.00022500796 -0.0048884638 0.05194918
0.19116813 -0.13087155 0.27674878 -0.29284704 0.11586407 -0.115082376 0.08885135 -0.041763984
0.17242336 -0.054183707 -0.05471104 0.10827957 -0.3039784 -0.27473167 -0.08670965 -0.347804
-0.037767854 0.03298204 -0.017434483 -0.105474785 -0.11403949 0.07111282 0.13950655 0.20292819
-0.057852805 -0.066665694 0.1764675 -0.18240169 -0.034614056 0.06204545 0.01928979 0.20481434
0.028428067 0.22465666 0.027921122 0.11956562 0.08510036 -0.10568191 0.11469043 -0.14400706
-0.17164586 0.16601926 0.12611045 -0.06832615 0.072510034 -0.023967478 0.13939309 0.05939901
0.03764226 0.13961084 -0.2799701 -0.15067317 0.08600305 -0.03977744 0.14502339 -0.18044037
0.053503875 0.08107174 -0.028536817 0.15251097 0.106569245 0.20688827 0.0547846 -0.10840537
-0.027384598 0.07697654 0.0885149 0.19339162 0.07015283 -0.20151575 -0.48446703 0.23053657
0.040255323 0.33790275 -0.11604177 0.09927997 -0.03328128 -0.2085322 -0.19862789 -0.18530458
0.1845434 -0.1662233 -0.27786607 0.18438022 0.053940523 0.097531974 -0.23662616 0.1946432
0.04381153 0.086866364 0.23999977 -0.11399493 0.47763202 -0.272591 0.07538388 -0.39179888
0.08421988 0.054898385 -0.12106321 -0.10646823 0.13646397 -0.25198302 0.17600907 -0.020240983
0.033675354 0.33193168 -0.27628535 -0.0138316 0.070534244 -0.1958649 0.026379362 0.145795

layers.8.bias f4 [30]
00000000: 5881 1ebe a7a9 fe3d 91ff a23d 56e2 fc3c
00000010: d56b 4ebe 7b45 0ebe b04d 2a3d e778 20be
00000020: 7c08 c53e 41ab 053e d1ce 313e 5acf b4bd
00000030: 411d 523d 2c0e 1bbc 5d19 43bd 5e18 d93d
00000040: 445a ea3d 35d8 dd3d 1412 d6bd 3e4b 483e
00000050: 720c bebd 3e6f a13d 1a86 89be edb9 06bd
00000060: d0a8 a6bd d2e3 ce3d 1741 bfbd 1a90 443d
00000070: f337 703e 1b68 df3c
-0.15479028 0.12434702 0.07958902 0.030869644 -0.20158322 -0.13893692 0.041577995 -0.1567112
0.38483036 0.1305361 0.1736405 -0.08828612 0.05129743 -0.009463828 -0.04763161 0.10600351
0.11442998 0.10832254 -0.10452667 0.19559953 -0.092797175 0.07882546 -0.26860124 -0.032892156
-0.08137667 0.10102047 -0.09338587 0.04798899 0.23458843 0.027271321

layers.10.weight f4 [30, 30]
00000000: d5ab b73d e86b c3be a692 f2bd 8e45 58be
00000010: e162 893e 127f b7bd 0846 233e c375 dfbe
00000020: aa95 77bc 18dc 96be 56f5 453d 63c1 1d3e
00000030: dcf1 54bc 58f8 9b3e 5ca5 fb3d 8372 5ebe
00000040: 9381 7abe 871d 38bd 8485 7f3e 9e77 7a3d
00000050: 372d 40be 89dc 1c3e 8b13 7a3d 78a9 b43e
00000060: 8186 88be 0fdb abbe 6bb7 a03d e3e1 95be
00000070: 80c8 1ebd 4b6c b83c b88b 24be 2679 fabe
00000080: 430a c8be cf65 f53e 182f e13d 50cb 863d
00000090: 2d04 133e 4176 5d3e 974f 5c3e b900 ae3e
000000a0: c223 c9bd c2fd b23c 7005 043c bb55 0d3e
000000b0: 0de5 313e 4a35 943e 62eb f33d 83b8 3b3e
000000c0: 9f0d 55bb 5eb7 18be 7d19 9fbd ca40 31bd
000000d0: 6f8a 86be b8de ce3d fd39 ba3e 6fe8 033e
000000e0: b07b 00be adfc c23d 12b6 b93e a9a2 f43d
000000f0: 1cdb 983e 9482 1b3e edce 743e a443 2bbe
00000100: f57e 74be 32d5 bf3d ffe0 c73d c2fa 8cbe
00000110: 5687 58be 15e7 90be 0796 a83d 17a4 91bc
00000120: 1769 1e3e 8589 7e3d 40e7 42be b3c5 103c
00000130: 581e 9b3b 3c1f 63be 5435 ab3e f7b4 523e
00000140: de67 113e 29db 7f3d 3c83 293e 191f 32bd
00000150: 6f62 43be e0da 93bc ea43 9ebd 7a87 3c3d
00000160: ab0c f0bd 65c8 e4bd 9251 333e 4120 8a3e
00000170: 8952 db3d 28f7 403d f073 10be ce17 0f3e
00000180: 578f 423d 7e63 1fbe 6066 94be 1479 1abd
00000190: 1f09 f63b 831a aebc 4f72 c23d 2930 b4bd
000001a0: d419 81bd 8fea 6d3e a050 38bd 39b7 0bbe
000001b0: 5633 62be cbdc 3f3e db49 1c3e 1824 653b
000001c0: 1838 d13d 1540 8abe 708c ee3d 14d2 ab3c
000001d0: 2e27 fc3d ed28 f23d 6e95 96bc 06ec 923d
000001e0: 8d94 8d3d 3c05 febd c8a4 343e 57a9 a33d
000001f0: 56d6 c6bb 959d 0bbe e79a 7a3d 30a7 a93e
00000200: bbfb 4bbd 7b91 aabd 8b1d 7bbe c859 8e3c
00000210: 9e5d 1ebe a828 46be 11f0 153e 0209 acbd
00000220: 4a40 c13d 06df d63d ac29 81be 48cd b2bd
00000230: 8729 12be 6b78 b7bd da09 13be c42d f33d
00000240: ed84 983d 75cb f2bd 4b4f 9b3d 8a5e 473e
00000250: 223d 13be 45d1 4abe b3d4 30be e73c 333e
00000260: a8b1 c83d 5f97 7abd f4fa e1bd 94c2 1a3e
00000270: 7f69 2dbd 7951 31be fcf2 2dbe 5756 dcbc
00000280: fb53 3a3d d992 02bd e0ab dbbd a671 94bd
00000290: 9be7 c83d 99b0 19be d706 2e3e f5b4 0fbe
000002a0: c242 963c f21c 9ebd 2c13 a03d 5544 393e
000002b0: 99c5 0ebe 8dae 203c 99d6 61be 29ea 6f3d
000002c0: 74fd bfbc 3810 97bc 812b 58be efb7 0abe
000002d0: c2c9 1bbc 6496 99be 7dc5 b33d d6c7 023e
000002e0: 8aef 8b3e 4ddd e53d b23b 7b3e 83d6 6ebd
000002f0: d684 673d 9dc9 ed3d ab30 693d dbb0 ddbc
00000300: 0598 f53d 27c2 1bbe 374a 813e 5a62 3e3d
00000310: 0834 a0bd 51f1 18be 489f 853e 487a 0f3e
00000320: 8b64 51be 8667 09be 413e 013e c781 453e
00000330: 87c1 b1bd ae1a 5abc 6c11 183e 1fff febd
00000340: 1cad 793d 0106 09be 3fda b6bd 1727 be3c
00000350: 7041 793e 48fe 4abe c70b 283e e674 8b3d
00000360: 26ab 08be 005d 4b3e d11f dcbd aea4 a3be
00000370: 94b8 9dbd fd7f 5bbd 21a8 50bd 5259 42be
00000380: 2252 6a3e 215e a8be 9d73 423e 58a4 c43d
00000390: 8b98 5e3d cee1 9cbd 930a b4be 4d12 57bd
000003a0: 9807 673d be46 bcbc 602a 00be 9986 e2bd
000003b0: cec3 493e a39b 60bd 7e83 66be 3609 93be
000003c0: 6c90 513d b908 bfbe fd87 b23b 37d7 34bd
000003d0: 7a03 9a3e b19f 25be ceb8 403e 29b1 2bbe
000003e0: c55c 90bd 2060 7ebd 7837 afbd 85e3 013e
000003f0: 8871 f73d dca9 523e 3ac9 553e 3fbe dabc
0.08968321 -0.38168263 -0.11844377 -0.21120283 0.2683325 -0.089597836 0.15944684 -0.43644533
-0.015111366 -0.29464793 0.048329674 0.15405802 -0.012997117 0.3046291 0.12287399 -0.2172337
-0.24463491 -0.044950034 0.24953276 0.061149232 -0.18767248 0.15318502 0.061053794 0.35285544
-0.26665118 -0.33565566 0.07847484 -0.292739 -0.03876543 0.022512576 -0.16068923 -0.48920554
-0.3907033 0.47929236 0.109953105 0.065817475 0.14357062 0.21627142 0.21514736 0.33984926
-0.098212734 0.021849517 0.008057937 0.13802235 0.17372532 0.28946906 0.1191013 0.18332104
-0.003250934 -0.14913699 -0.077685334 -0.04327468 -0.2627749 0.10101074 0.36372367 0.12881635
-0.12547183 0.0952085 0.3627172 0.119450875 0.29854667 0.1518653 0.23907061 -0.16725022
-0.23876555 0.09366836 0.097597115 -0.27535063 -0.21145377 -0.28301302 0.082317404 -0.01777844
0.15469776 0.062142868 -0.19033527 0.008836198 0.004733842 -0.22179884 0.33439124 0.20576845
0.14199778 0.062464867 0.16553968 -0.04348669 -0.19080518 -0.018048704 -0.07727797 0.046027638
-0.11721166 -0.11171035 0.17511585 0.26977733 0.10709102 0.047110707 -0.14106727 0.13973925
0.04749998 -0.15565297 -0.28984356 -0.037713125 0.0075084115 -0.021252876 0.09494459 -0.08798248
-0.063037544 0.23234008 -0.044998765 -0.13644113 -0.22089896 0.1873657 0.15262549 0.003496414
0.10215777 -0.27002016 0.1164788 0.020974196 0.123121604 0.11824212 -0.0183818 0.07173924
0.069130994 -0.12403342 0.17640984 0.079912834 -0.0060680313 -0.13634332 0.061182883 0.33135366
-0.049800616 -0.083285294 -0.24522988 0.017376795 -0.154654 -0.19351447 0.1464236 -0.084001556
0.0943609 0.10491757 -0.25227106 -0.087305605 -0.14273654 -0.08958515 -0.14359227 0.118739635
0.074472286 -0.118552126 0.07583483 0.19469658 -0.14378789 -0.19806392 -0.17268638 0.17503701
0.0979951 -0.061179515 -0.11034194 0.15113288 -0.042336937 -0.17316236 -0.16987222 -0.026896639
0.045490246 -0.031878326 -0.10726142 -0.07248239 0.098098 -0.15008773 0.16994797 -0.14033873
0.01834238 -0.07720365 0.07816157 0.18092473 -0.13942565 0.009807241 -0.22054519 0.058572922
-0.023436286 -0.01844035 -0.21110345 -0.13546728 -0.009508552 -0.2999755 0.08777902 0.12771544
0.2733119 0.112238504 0.2453449 -0.058310043 0.056523167 0.1161072 0.05693118 -0.02706187
0.11991886 -0.15210782 0.25251934 0.046480514 -0.07822424 -0.14935805 0.26098084 0.1401149
-0.2044851 -0.13418397 0.12621404 0.19287787 -0.086794905 -0.013312025 0.14850396 -0.12451004
0.060956106 -0.13381197 -0.08928346 0.023211999 0.24341369 -0.19823563 0.16410743 0.06809406
-0.13346538 0.19859695 -0.10748256 -0.31961578 -0.07701221 -0.053588856 -0.05094159 -0.18979385
0.22882894 -0.32884315 0.18989415 0.096016586 0.054344695 -0.07660256 -0.35164317 -0.052507687
0.056403726 -0.022982951 -0.12516165 -0.11060829 0.197036 -0.054835927 -0.22511098 -0.28717965
0.051163122 -0.37311342 0.00544834 -0.044150557 0.30080777 -0.16174199 0.18820497 -0.167668
-0.070489444 -0.06210339 -0.08555502 0.12684448 0.12082201 0.20572609 0.20877543 -0.026702045

layers.10.bias f4 [30]
00000000: 6b72 8ebe 963c 71be 4ea3 093e dc51 46bc
00000010: aec7 15bd b9ba 543d 5d84 3ebe 40e5 4d3d
00000020: b307 70be 1e1b ffbd b8c6 27be d077 afbb
00000030: 382f 573e 0822 2dbe 302a 153e 9d70 e13d
00000040: a473 ccbd 1e53 593b 1fa7 d3bc 35cb d63d
00000050: 3704 e6bd ce0b a7ba 4781 823c 1a70 61be
00000060: 36b2 26be 72b4 c2bd 99e1 a23d 4edd c93d
00000070: e250 10be b49a 113e
-0.2782167 -0.23558268 0.13441202 -0.012104478 -0.036567383 0.051935885 -0.1860518 0.050267458
-0.23440437 -0.12456344 -0.16384399 -0.005354859 0.21014106 -0.16907513 0.14566875 0.110078074
-0.09982994 0.0033161114 -0.025836525 0.104879774 -0.11231273 -0.0012744607 0.015930785 -0.2201542
-0.1627892 -0.095070735 0.079531856 0.09856664 -0.14093354 0.14219171

layers.12.weight f4 [3, 30]
00000000: 31ff 423d 2840 4bbe aa8a 093f ab1e a8bd
00000010: 3851 a8be 0c41 84be 2a19 9dbe 4b69 0bbf
00000020: 51ff b6be 64f0 ae3c bbb1 a3be ff23 dbbe
00000030: 54ac 26be 2c9c 893c 3a98 263f 6acd 16bf
00000040: 35f3 26be 7d59 e53e 685c bf3e dd98 dfbd
00000050: 6888 ae3e 2236 8e3f 6383 a7be 3ef6 86bf
00000060: 5bf5 0f3e c85b cf3e 161e 653f 4b36 0c3f
00000070: ea5b 343e 065d 0fbe 2017 0c3f a297 47bf
00000080: aa17 af3e fbe3 42be 68b9 813e c093 843e
00000090: a1d3 3f3e 960b fa3e 82b9 b33e 464b ac3e
000000a0: 2bde 3bbf fd2a f33d ecfa 853e 89b3 79be
000000b0: 12a2 69be f6bf ac3d c00d 523e f3ae 063f
000000c0: afb1 b13e a1a3 ff3e d085 b33d a9b5 19be
000000d0: 5aad c4be 8148 d43d bf97 53be 5749 ed3e
000000e0: 244e 8bbc 96c3 87be 6484 0b3f c71d b13e
000000f0: 75e4 703f 7337 a53e eca7 8bbd c3db ebbd
00000100: 6e71 0fbc d277 95bd fcbc 223f 6d3f 44be
00000110: ae1b 743f e5c0 1dbf 65ed 9bbc b9cd 5f3e
00000120: ce52 963e de2c 94be 1c6a 01be 3650 9d3e
00000130: 6f99 1dbe 41cf 273e 049e 90be 186b b63d
00000140: 04c4 bcbe 3ae0 bcbe da39 4f3e e721 2a3f
00000150: 7ef9 373f 9497 89bd 5516 b93e 50ee 9c3d
00000160: 0cd5 67bf b17d c4be
0.04760665 -0.19848692 0.5372721 -0.082089745 -0.32874465 -0.25830877 -0.3068326 -0.5445754
-0.35741666 0.021354862 -0.31971535 -0.428009 -0.16276675 0.016798101 0.6507603 -0.58907187
-0.16303714 0.44794837 0.37375188 -0.10917828 0.34088445 1.111027 -0.32717428 -1.0543897
0.1405844 0.4049971 0.8949903 0.54770344 0.17613187 -0.1400033 0.54722786 -0.7796575
0.34197742 -0.1903228 0.25336766 0.25893974 0.18733074 0.48836964 0.3510247 0.3365118
-0.73385876 0.11873434 0.26168 -0.24384893 -0.22815731 0.08435051 0.20513058 0.526107
0.34705874 0.49929526 0.08765757 -0.15010704 -0.38413507 0.103653915 -0.20663355 0.46345016
-0.017005034 -0.26516408 0.5449889 0.3459303 0.940986 0.32268867 -0.06819138 -0.115165256
-0.008755071 -0.072982445 0.6356962 -0.1916482 0.95354736 -0.6162246 -0.019034097 0.2185582
0.2936005 -0.2894048 -0.12638134 0.3072526 -0.15390562 0.16387655 -0.28245556 0.08907145
-0.36868298 -0.3688982 0.20236912 0.6645798 0.7186507 -0.06718364 0.3614985 0.07662642
-0.9055946 -0.38377145

layers.12.bias f4 [3]
00000000: 6d1c 8d3f a873 87be 8673 9fbc
1.10243 -0.26455426 -0.019464266
