PINN's/CAVITY NS/Models/NSCavityRe10_2.pth (torch, 23914 bytes, 14 tensors)

layers.0.weight f4 [30, 2]
0	0xbee2adb1	-0.4427314
1	0xbd82d0fa	-0.06387515
2	0xbe2bdd98	-0.1678375
3	0xbf00954f	-0.50227827
4	0xbed9c4b0	-0.42532873
5	0x3d5dc1e4	0.054139987
6	0x3ea9f653	0.33195743
7	0xbbf44d0a	-0.007455473
8	0xbeb0d138	-0.3453462
9	0x3db05264	0.08609465
10	0xbcf4229b	-0.029801657
11	0xbdff67e3	-0.12470987
12	0x3e0592b7	0.13044249
13	0xbef22a94	-0.4729811
14	0xbe3c8c1d	-0.18412824
15	0x3cfb89b9	0.03070532
16	0xbd155d8b	-0.036466163
17	0x3f13c781	0.57726294
18	0x3ebc6223	0.36793622
19	0x3de32ccb	0.11092528
20	0xbd26ef2c	-0.040755436
21	0xbea9420e	-0.33058208
22	0xbe9b0670	-0.3027835
23	0x3dcbd0aa	0.09951909
24	0x3e4e043b	0.20118801
25	0x3db5d9ab	0.088794075
26	0xbec7d102	-0.39026648
27	0x3ca5884a	0.02020659
28	0x3d79c957	0.06098303
29	0x3f1db936	0.61610734
30	0xbeab688d	-0.33478203
31	0x3ebe0f7d	0.37121192
32	0x3d481158	0.048844665
33	0xbe8619e2	-0.26191622
34	0xbe576b74	-0.21037084
35	0xbe07318c	-0.13202494
36	0x3d062abc	0.0327556
37	0x3f02fb70	0.51164913
38	0xbaaf8f20	-0.0013394095
39	0x3e896a15	0.26838747
40	0x3ec9e5bd	0.3943309
41	0xbe93b4e1	-0.28848937
42	0x3e02401f	0.12719773
43	0x3f019b05	0.50627166
44	0x3c8d7f26	0.017272543
45	0x3e42a0ef	0.19006704
46	0xbed72438	-0.4201982
47	0xbeb98627	-0.36235163
48	0xbea9db3b	-0.33175072
49	0x3e8466c2	0.25859648
50	0x3e258474	0.16163808
51	0x3ea196ea	0.3156045
52	0x3d0ed821	0.034874085
53	0xbe5752da	-0.21027699
54	0xbefc7a0b	-0.4931186
55	0xbeac9254	-0.3370539
56	0x3c17b60c	0.009259712
57	0xbe69c5b5	-0.22829325
58	0xbd934208	-0.07190329
59	0xbea2d204	-0.31800854

layers.0.bias f4 [30]
0	0x3e7cde90	0.24694276
1	0x3f57e8ce	0.84339607
2	0xbe315a6a	-0.17319646
3	0x3f19ae10	0.60031223
4	0xbf27aa46	-0.6549419
5	0xbf59cfbe	-0.85082614
6	0x3ea8a4f6	0.32938355
7	0x3f8356cd	1.0260864
8	0x3e6a7d3c	0.22899336
9	0x3ed3c7c3	0.41363344
10	0x3f4d93fa	0.8030392
11	0xbe2893d7	-0.16462646
12	0xbdea9dc0	-0.1145587
13	0xbf101e41	-0.56296164
14	0xbe9fb4b4	-0.31192553
15	0x3d5b7c8c	0.053585574
16	0x3e4407a7	0.19143544
17	0xbd93f629	-0.07224686
18	0xbf4adf41	-0.7924691
19	0x3e8361c7	0.25660536
20	0xbdc821b2	-0.09772052
21	0xbea420ff	-0.32056424
22	0x3e4e5e1b	0.20153086
23	0x3ec9838a	0.3935817
24	0xbef4a86c	-0.47784746
25	0x3e92d325	0.28676715
26	0xbeee184c	-0.46502912
27	0x3f6c775b	0.9236962
28	0xbdd8bb5c	-0.10582611
29	0xbf2b7db1	-0.66988665

layers.2.weight f4 [30, 30]
0	0xbe50b3a6	-0.2038103
1	0x3edf318f	0.43592498
2	0xbdb5470e	-0.08851443
3	0xbd94f6d4	-0.07273641
4	0xbe9eef3e	-0.31041902
5	0x3e604cb2	0.21904257
6	0x3d25981f	0.040428277
7	0xbd29564e	-0.041342072
8	0x3d9e3c45	0.07726339
9	0x3cfae1ad	0.030625189
10	0xbe44943d	-0.19197173
11	0x3e41baaf	0.1891887
12	0xbf055cc6	-0.52094686
13	0x3d2c8ee1	0.042128447
14	0xbe7b71c5	-0.24555118
15	0x3e75a19c	0.2398743
16	0x3d7647ee	0.06012719
17	0xbccaf188	-0.024773374
18	0x3d8beac2	0.06831886
19	0x3f1875bd	0.59554654
20	0x3d717e12	0.05895812
21	0x3dbcb845	0.09214834
22	0x3ac18bdb	0.0014766412
23	0x3e30c853	0.17263918
24	0x3d8a5afd	0.06755636
25	0x3e09cbfc	0.1345672
26	0x3ea0c4df	0.314002
27	0x3ef16244	0.47145283
28	0xbd512f92	-0.051070757
29	0x3e7c5ec4	0.24645525
30	0xbe143468	-0.14473116
31	0x3f3be2d2	0.73392975
32	0xbdfb012d	-0.12256084
33	0x3ddcf565	0.10788993
34	0xbe1364aa	-0.14393869
35	0x3ebb994b	0.3664039
36	0xbe420ddf	-0.18950604
37	0xbe4b929c	-0.19880146
38	0xbf184794	-0.5948422
39	0x3ea5fe56	0.32420605
40	0xbf2cc31f	-0.6748523
41	0x3eeaa435	0.45828405
42	0xbeb16643	-0.34648332
43	0x3dc2417d	0.09485147
44	0x3e2ba070	0.16760421
45	0x3e6d809f	0.23193596
46	0x3f2829da	0.6568886
47	0x3e3bfb37	0.1835755
48	0xbeb803c1	-0.35940364
49	0x3f1a8168	0.6035371
50	0xbe81ef31	-0.253778
51	0xbf231f20	-0.6371937
52	0x3d91919d	0.07107852
53	0x3f18bf84	0.5966723
54	0x3f36b75c	0.71373534
55	0x3eab817c	0.33497226
56	0x3ebcaf25	0.36852375
57	0x3d78d591	0.060750548
58	0xbe2787e0	-0.16360426
59	0x3e947aa1	0.28999808
60	0x3e88dd52	0.26731354
61	0x3e2f88dd	0.17142053
62	0x3f165e81	0.5873795
63	0x3eac2437	0.3362138
64	0xbed23ff6	-0.41064423
65	0xbe6777f1	-0.22604348
66	0xbe83de88	-0.25755715
67	0x3d9d187a	0.07670684
68	0xbdd286bd	-0.102796055
69	0x3eab6ff9	0.33483866
70	0x3b409e39	0.0029391183
71	0x3f1b7d9b	0.60738534
72	0x3da6c4cb	0.08143004
73	0xbd997f9f	-0.07495045
74	0x3e40f81c	0.18844646
75	0xbd295ee8	-0.041350275
76	0xbe04cabd	-0.12967964
77	0x3e9eaf1d	0.30992976
78	0xbdab0663	-0.083508275
79	0xbddd3055	-0.10800234
80	0x3cb2eb43	0.021840697
81	0x3eabb950	0.3353982
82	0xbe86b843	-0.26312456
83	0x3d97215d	0.073794104
84	0x3e8024a1	0.25027946
85	0xbe9679cf	-0.29389808
86	0xbb47138f	-0.0030376648
87	0xbecbde43	-0.3981801
88	0x3e59ac36	0.212571
89	0xbd9ad6cf	-0.07560503
90	0x3eadc620	0.3394022
91	0xbd6a3972	-0.05718369
92	0x3ead8d28	0.33896756
93	0xbd1c0846	-0.038093828
94	0xbed03f3a	-0.40673238
95	0xbebc105a	-0.36731225
96	0xbe74d7b0	-0.23910403
97	0x3e1c4445	0.15260418
98	0xbca4807b	-0.020080796
99	0xbeb3ffd5	-0.35156122
100	0x3ef63211	0.48085073
101	0xbed3650e	-0.41288036
102	0x3ddcbf58	0.107786834
103	0xbe7e5f9e	-0.24841163
104	0x3ed13f4c	0.40868604
105	0x3eec71c4	0.46180546
106	0xbe2afd46	-0.16698179
107	0x3e83d9fb	0.25752243
108	0x3d0fecf7	0.035138097
109	0xbdf98f23	-0.12185504
110	0x3f18fb1f	0.5975818
111	0xbeb09639	-0.3448961
112	0xbedf1bfa	-0.43576032
113	0x3ee3ce9a	0.44493562
114	0x3e28281e	0.16421553
115	0xbe2dd9a3	-0.16977553
116	0x3ca29c20	0.019849837
117	0xbf03717b	-0.5134503
118	0x3e4215dc	0.18953651
119	0xbec3b8c7	-0.3822691
120	0xbe5398b4	-0.2066372
121	0xbf0717b9	-0.5277057
122	0xbf026c6d	-0.50946695
123	0xbe8dcd72	-0.27695805
124	0x3eb4b4e5	0.35294262
125	0xbe5edbab	-0.21763484
126	0xbdf3bfb9	-0.119018026
127	0xbda3f06f	-0.080048434
128	0x3f6b9685	0.9202655
129	0xbf5d9719	-0.8655868
130	0xbd30add9	-0.043134544
131	0xbf7b230a	-0.9810034
132	0xbe3d3586	-0.18477449
133	0x3f4caa95	0.7994779
134	0x3e93b6f2	0.28850514
135	0x3e84e69a	0.25957185
136	0xbe93eee8	-0.28893209
137	0xbdf6b7ee	-0.120468006
138	0x3f240b8f	0.64080137
139	0x3cd76171	0.02629158
140	0xbeb7ed5a	-0.35923272
141	0x3e379df0	0.17931342
142	0x3f3d5b8f	0.7396783
143	0xbf55c952	-0.83510315
144	0xbe8bc93f	-0.27301976
145	0x3df0a79a	0.117507175
146	0xbe7bfa5d	-0.24607225
147	0xbe967ea4	-0.29393494
148	0x3dcecc05	0.100975074
149	0xbcb80095	-0.022461215
150	0x3dfc2d01	0.12313271
151	0x3eb830aa	0.35974628
152	0x3d61def3	0.05514426
153	0xbf1a584e	-0.6029099
154	0x3ee1b8dd	0.44086352
155	0x3e9a3634	0.3011948
156	0x3e9592aa	0.29213458
157	0xbe6b96a1	-0.23006679
158	0x3f152fde	0.58276165
159	0xbeb82d3b	-0.35972008
160	0xbf1cac69	-0.6120058
161	0xbeed0192	-0.4629026
162	0x3c717925	0.014738356
163	0x3e21175a	0.15731564
164	0xbe71c1ec	-0.23609132
165	0xbdff1b1b	-0.12456342
166	0xbe2cdeba	-0.16881838
167	0xbf0206cf	-0.5079164
168	0x3f03d91b	0.5150315
169	0xbe331972	-0.17490175
170	0xbeb7bd7b	-0.3588675
171	0x3ee1d030	0.44104147
172	0x3e823b3d	0.2543582
173	0xbf294e6e	-0.661353
174	0xbef37ef3	-0.47557792
175	0x3f0addc2	0.54244626
176	0xbf1de6fd	-0.61680585
177	0x3f1980df	0.59962267
178	0xbe52b87d	-0.20578189
179	0x3e733b27	0.23753034
180	0x3e1d52e9	0.15363659
181	0xbce343cd	-0.02774229
182	0x3e503ec2	0.2033644
183	0x3da27d41	0.079340465
184	0xbd5b5d30	-0.053555667
185	0x3d94a59f	0.07258152
186	0x3e12645e	0.142961
187	0x3dc75709	0.097333975
188	0xbe172e36	-0.14763722
189	0x3c167c7b	0.009184952
190	0xbde2ea50	-0.11079848
191	0xbd6bb2cf	-0.057543572
192	0xbdebac18	-0.11507434
193	0x3d4dded2	0.050261326
194	0x3d2f628a	0.042818584
195	0xbe571950	-0.2100575
196	0x3d4c6416	0.049900137
197	0x3dceb4b3	0.100930594
198	0xbe09c58a	-0.13454261
199	0xbe16dc39	-0.14732446
200	0xbcc53f44	-0.024078019
201	0x3e080783	0.13284115
202	0x3e52bf85	0.20580871
203	0xbdb15bcf	-0.08660089
204	0x3da0d753	0.0785357
205	0xbca14914	-0.019688167
206	0x3da3a8f7	0.07991212
207	0x3e60eabe	0.21964547
208	0xbe0ad740	-0.13558674
209	0x3e85bbaf	0.26119754
210	0x3df76ae8	0.120809376
211	0x3e7279a7	0.23679219
212	0x3eb246de	0.34819692
213	0x3ecba5b7	0.39774868
214	0xbf2a72fc	-0.665817
215	0xbe63a009	-0.22229017
216	0xbef4eaad	-0.47835293
217	0x3dfe4aab	0.124165855
218	0x3d027b23	0.031855714
219	0xbe34c7b3	-0.17654304
220	0x3ea84227	0.3286297
221	0x3e94eee8	0.2908852
222	0x3e405eff	0.18786238
223	0xbe88ecb1	-0.2674308
224	0x3e58ba48	0.2116481
225	0x3e53ae80	0.20672035
226	0x3e6136b5	0.21993525
227	0xbcbb2b99	-0.022847937
228	0x3d310987	0.043221977
229	0xbd80c80a	-0.062881544
230	0x3ed6dc79	0.41965082
231	0x3e2024b0	0.15638995
232	0xbe8624fa	-0.26200086
233	0x3e6b2d33	0.22966461
234	0x3e506897	0.20352398
235	0xbed75822	-0.42059427
236	0x3ee52d6d	0.4476122
237	0xbef7b388	-0.4837916
238	0x3e8fa6b9	0.28056887
239	0x3d04e3f1	0.032443944
240	0x3d409600	0.04701805
241	0xbeb50609	-0.35356167
242	0xbe89fb1a	-0.26949388
243	0xbd85c531	-0.06531752
244	0x3ea13067	0.3148224
245	0x3c71a123	0.014747891
246	0xbe0099a2	-0.12558606
247	0xbe2bbf7a	-0.16772261
248	0x3ed1919e	0.4093141
249	0xbee4e7a2	-0.44707972
250	0xbe86c288	-0.2632029
251	0xbedd8398	-0.4326446
252	0x3dab66c4	0.0836921
253	0x3ec04779	0.3755453
254	0xbecb8d13	-0.3975607
255	0x3e1bc348	0.15211213

layers.2.bias f4 [30]
0	0xbda59c58	-0.08086461
1	0xbce4b0ca	-0.02791633
2	0xbe2b5455	-0.16731389
3	0xbe8783a2	-0.26467615
4	0x3db6e0b4	0.089295775
5	0x3f02f563	0.5115568
6	0xbd5ff897	-0.054680433
7	0xbdcb46e3	-0.0992563
8	0x3d67bd00	0.05657673
9	0xbe1cb356	-0.15302786
10	0x3c2bf95c	0.010496464
11	0x3e9a876a	0.30181438
12	0xbe21d942	-0.15805534
13	0xbe4049ff	-0.18778227
14	0xbe3e6e32	-0.18596724
15	0xbd42c41c	-0.047550306
16	0x3eb5bd5c	0.35496032
17	0xbd8c565d	-0.0685241
18	0x3e344ef7	0.17608248
19	0x3cab2666	0.020892333
20	0x3d53f84a	0.05175046
21	0x3e4ade4d	0.19811364
22	0x3cbad602	0.022807125
23	0x3e0c75f7	0.13716875
24	0x3e5523be	0.20814416
25	0x3e42e8e7	0.19034158
26	0xbe80eb6d	-0.25179616
27	0xbe38cc4f	-0.18046688
28	0xbd64ce0f	-0.055860575
29	0xbe437fb8	-0.1909169

layers.4.weight f4 [30, 30]
0	0x3e5a29f9	0.21305074
1	0x3dc486e9	0.095960446
2	0x3e138d10	0.1440928
3	0xbde88ef4	-0.11355391
4	0xbebe6b01	-0.37191013
5	0xbdb0867f	-0.08619403
6	0x3dd6b301	0.10483361
7	0xbdcb7e31	-0.099361785
8	0xbe26cfbe	-0.16290185
9	0xbdc2e9bc	-0.095172375
10	0xbe8ce5d4	-0.27519095
11	0xbdb75804	-0.089523345
12	0xbdda977a	-0.10673423
13	0x3dc2d314	0.09512916
14	0x3ec57626	0.38566703
15	0xbe95b495	-0.29239336
16	0x3cb7be86	0.022429716
17	0x3d5a1b38	0.053248614
18	0x3d62d971	0.05538315
19	0x3d859da9	0.06524212
20	0xbe84715b	-0.25867733
21	0x3ea9d637	0.33171245
22	0xbe041d7c	-0.12901872
23	0x3d3d170f	0.04616457
24	0xbe833d6b	-0.25632796
25	0xbda0ab65	-0.07845191
26	0x3d672a7b	0.056436997
27	0x3ddf9ee4	0.10918978
28	0xbe2a6767	-0.16641007
29	0xbe21bfd4	-0.15795833
30	0x3c718d7f	0.014743208
31	0xbe907348	-0.28212953
32	0xbe246cf4	-0.16057187
33	0xbe7835d9	-0.24239291
34	0xbe38fda2	-0.18065503
35	0x3e8aac4e	0.27084583
36	0xbcca3412	-0.024683032
37	0xbdbd2993	-0.09236445
38	0x3e87f08d	0.26550713
39	0x3e7511af	0.23932527
40	0x3e4437b2	0.19161871
41	0xbc6b3386	-0.014355546
42	0x3d98cc24	0.07460812
43	0x3df4494a	0.11928041
44	0xbe6811c9	-0.22663034
45	0x3d05cce1	0.03266609
46	0x3e166ee5	0.1469074
47	0xbc333f22	-0.010940345
48	0x3bb6f7fe	0.005583762
49	0xbdfee2e9	-0.124456234
50	0xbe4354ce	-0.19075319
51	0x3cf7346d	0.030176366
52	0xbd184642	-0.037176378
53	0x3e504483	0.20338635
54	0x3def1edf	0.1167581
55	0xbe340d26	-0.1758314
56	0xbe1be21e	-0.15222976
57	0xbecaa9b0	-0.39582586
58	0xbe2a123a	-0.16608515
59	0xbd2c74a4	-0.042103425
60	0x3eb10c85	0.34579864
61	0x3da97324	0.082739145
62	0x3d865890	0.06559861
63	0xbf083e05	-0.53219634
64	0x3e602b28	0.21891463
65	0xbe9bb91f	-0.30414674
66	0xbe41d6d6	-0.1892961
67	0xbdab50f3	-0.08365049
68	0xbd211199	-0.039323423
69	0xbea96357	-0.33083603
70	0x3dcc69a8	0.0998109
71	0x3f126ba6	0.5719551
72	0xbea4ed17	-0.32212135
73	0xbe9b3355	-0.303126
74	0xbc16bde2	-0.009200545
75	0x3c7284c9	0.014802166
76	0x3eac3889	0.33636883
77	0xbe1a8ab3	-0.15091972
78	0x3e7453fc	0.23860162
79	0xbdd154f2	-0.1022128
80	0x3cab5e3b	0.020918956
81	0xbec437f5	-0.38323942
82	0xbdb4b79d	-0.08824084
83	0x3e15b506	0.14619836
84	0x3e21e8a8	0.15811408
85	0xbe148a03	-0.14505772
86	0xbe8b77a7	-0.27239725
87	0x3e16326f	0.14667676
88	0xbc5ce310	-0.01348187
89	0xbee5d67d	-0.44890204
90	0x3eed4c81	0.4634743
91	0x3c1dc61a	0.009629751
92	0xbcca4b6d	-0.024694169
93	0x3dc8fe69	0.0981415
94	0x3ed65b40	0.41866493
95	0xbebb956b	-0.36637434
96	0xbe11ba73	-0.14231281
97	0x3d3efbcd	0.046626855
98	0x3e137dea	0.14403501
99	0xbf0040a9	-0.50098664
100	0xbc7b92c7	-0.015354819
101	0x3ea945b8	0.33061004
102	0xbe1c11d9	-0.15241183
103	0xbe628f3b	-0.2212495
104	0xbdae6349	-0.08515031
105	0xbc69d817	-0.014272711
106	0xbe982240	-0.2971363
107	0xbc52ab55	-0.012858232
108	0x3f1e65b3	0.6187393
109	0x3ca7a4ce	0.020464327
110	0xbdc415db	-0.09574481
111	0xbf40e34c	-0.7534683
112	0x3e5796d7	0.21053635
113	0x3e0197a2	0.126555
114	0x3c429b89	0.011877903
115	0xbca1fb0b	-0.019773027
116	0xbedcfd5b	-0.43162045
117	0xbeb4655f	-0.3523359
118	0xbe96d095	-0.2945601
119	0xbeb0c0fd	-0.34522238
120	0xbe98bf91	-0.29833654
121	0xbe3c1d19	-0.18370475
122	0xbeac3e9c	-0.33641517
123	0x3e9d83c7	0.307646
124	0x3f082e72	0.5319587
125	0xbe08b2bf	-0.13349436
126	0xbe92a1c5	-0.28639045
127	0x39a542d5	0.00031521046
128	0xbddc5c20	-0.10759759
129	0xbebe63ea	-0.37185603
130	0xbd53494e	-0.05158358
131	0xbf0c4686	-0.5479511
132	0xbd142c33	-0.036174964
133	0xbe12dd09	-0.1434213
134	0x3e8d6f4d	0.27623978
135	0x3ea04b4e	0.31307453
136	0xbefe1511	-0.49625447
137	0x3c30219a	0.010750199
138	0x3e6e1c62	0.23253015
139	0x3d186009	0.03720096
140	0xbd6a97a2	-0.057273515
141	0xbe8198a1	-0.2531176
142	0xbe73e9a8	-0.23819602
143	0x3dc3716d	0.095431186
144	0x3ef300cf	0.47461554
145	0x3f22698d	0.6344231
146	0x3d9aafd2	0.07553066
147	0x3de65b37	0.112478666
148	0xbdec5c4c	-0.11541042
149	0x3e689c22	0.2271581
150	0xbe9cdee0	-0.3063879
151	0xbee960d2	-0.4558168
152	0x3d69ae1c	0.05705081
153	0x3f03cc03	0.5148317
154	0x3eda051a	0.42582017
155	0xbd134ce1	-0.03596199
156	0x3e82f014	0.2557379
157	0x3e1e4467	0.15455781
158	0x3eb9de36	0.36302346
159	0x3eca6d91	0.39536718
160	0x3d95b75b	0.07310363
161	0x3d0b259a	0.033971407
162	0x3f0006e1	0.50010496
163	0x3d7c1a92	0.061548777
164	0x3d8cf25b	0.06882163
165	0x3e88087b	0.2656897
166	0xbdffcd2e	-0.12490307
167	0xbdc2a017	-0.09503191
168	0xbe0b2c54	-0.13591129
169	0x3d4d584d	0.05013304
170	0x3e5aecc5	0.21379383
171	0xbf39a0ed	-0.7251118
172	0x3e9a9d73	0.3019825
173	0xbe62be9b	-0.22143023
174	0x3e3f906b	0.18707435
175	0xbdd9afc4	-0.10629228
176	0xbdadcd69	-0.084864445
177	0xbe066d98	-0.13127744
178	0x3ea6dfe8	0.32592702
179	0xbe383979	-0.17990674
180	0x3ee4cb08	0.4468615
181	0xbcf4f76d	-0.029903138
182	0x3e6b54d3	0.22981577
183	0xbba3654c	-0.0049864408
184	0xbe53c657	-0.2068113
185	0x3eefb5b2	0.4681831
186	0x3e388d33	0.18022613
187	0xbe88addd	-0.26695147
188	0xbc0ce109	-0.008598574
189	0x3e3c745c	0.18403763
190	0xbecd09d6	-0.40046567
191	0x3cfccaac	0.03085836
192	0xbd9f3e77	-0.07775586
193	0xbede60e0	-0.43433285
194	0xbec63697	-0.38713524
195	0xbe93af5e	-0.28844732
196	0x3deb41a5	0.1148713
197	0x3ed2a42a	0.41140872
198	0x3e29f442	0.16597083
199	0xbc5ed3ad	-0.013600272
200	0xbdff3144	-0.124605685
201	0xbd132112	-0.03592021
202	0x3e4e458c	0.20143718
203	0x3ba4a3bf	0.005024403
204	0x3e196f15	0.1498378
205	0xbdb23eb6	-0.087033674
206	0xbe82cc29	-0.25546387
207	0xbeb36d9b	-0.3504456
208	0x3df1b5c1	0.11802245
209	0x3e7d96c8	0.2476455
210	0x3d9b21cb	0.07574805
211	0x3d948dc0	0.07253599
212	0xbe7df807	-0.24801646
213	0x3d2ca506	0.042149566
214	0x3e0205f9	0.12697591
215	0xbdd343fb	-0.103157006
216	0x3d1cfe7e	0.03832864
217	0xbe75a0f5	-0.23987181
218	0x3cfa4371	0.030549737
219	0xbcf8a80e	-0.030353572
220	0x3e57c411	0.21070887
221	0xbee176f7	-0.44036075
222	0x3c0328f9	0.008005374
223	0xbd64cb7c	-0.05585812
224	0x3e02c533	0.12770538
225	0xbce8355a	-0.028345753
226	0x3cd4c137	0.025971038
227	0x3e7fe8f3	0.24991207
228	0x3bd64b61	0.0065397476
229	0x3e9202e8	0.28517842
230	0x3dfc14b0	0.12308633
231	0x3e931a7a	0.28731138
232	0xbe959609	-0.2921603
233	0xbe1c52fb	-0.1526603
234	0x3e1a479b	0.15066378
235	0x3e1d6e0d	0.15374012
236	0xbdf6a1ca	-0.120425776
237	0x3e2c83ba	0.16847125
238	0x3cad6553	0.02116648
239	0x3e919512	0.28434044
240	0x3dc6f4c3	0.09714653
241	0x3e16f3b1	0.14741398
242	0xbde9212a	-0.11383279
243	0x3ccb42c2	0.024812106
244	0x3daae248	0.08343941
245	0x3e23aa09	0.15982832
246	0xbd9a63e4	-0.07538584
247	0x3d3d919a	0.046281435
248	0xbe18338b	-0.14863412
249	0xbdfe5569	-0.124186344
250	0xbd96b486	-0.07358651
251	0x3db2c188	0.087283194
252	0xbde2da39	-0.11076779
253	0xbe48d875	-0.19613822
254	0x3d52d7a9	0.0514752
255	0xbe77a7c0	-0.24185085

layers.4.bias f4 [30]
0	0xbd07f82f	-0.03319567
1	0xbcf35dc0	-0.02970779
2	0x3dffb095	0.12484852
3	0x3eb3cb41	0.35116008
4	0x3d1d0dd1	0.038343254
5	0x3e00e8d6	0.1258882
6	0xbd23eab8	-0.040018767
7	0xbe194a8d	-0.14969845
8	0xbdc88f83	-0.09792998
9	0x3e289e37	0.16466604
10	0x3e885290	0.2662549
11	0xbd8329db	-0.06404468
12	0xbe0aec27	-0.13566647
13	0x3d671064	0.056412116
14	0x3d5fbeb6	0.054625235
15	0x3e9d8aca	0.3076995
16	0x3e84b0a8	0.25916028
17	0x3d8dbc88	0.06920725
18	0x3e3b7d30	0.18309474
19	0x3da2c255	0.07947222
20	0x3d300c0d	0.042980243
21	0x3c87cf92	0.01657847
22	0x3dda5ebf	0.10662603
23	0x3e90e99f	0.2830324
24	0x3eabe9d5	0.33576837
25	0xbe17d6bd	-0.1482801
26	0xbde76157	-0.11297863
27	0x3e2f0cf5	0.17094786
28	0x3dda8760	0.10670352
29	0x3d2a1c96	0.041531168

layers.6.weight f4 [30, 30]
0	0x3da9bfe6	0.08288555
1	0xbe86b25e	-0.26307958
2	0xbdc4c5fb	-0.09608074
3	0x3e7a84a6	0.24464664
4	0xbda55414	-0.08072677
5	0x3eb1445f	0.34622476
6	0xbe7d145c	-0.24714798
7	0xbe0a2038	-0.13488853
8	0xbe5ad983	-0.21372037
9	0xbeb1d832	-0.34735256
10	0xbd833cf3	-0.064081095
11	0xbf05c366	-0.5225128
12	0x3dcccc25	0.09999875
13	0x3ea51960	0.32245922
14	0xbdedfac0	-0.116200924
15	0xbde953ee	-0.113929614
16	0x3d9649f2	0.07338323
17	0x3cb21880	0.021740198
18	0x3ea8dbb4	0.3298012
19	0xbcb14d86	-0.021643411
20	0xbd9f91dd	-0.07791493
21	0x3e16ec38	0.14738548
22	0xbe0bef85	-0.13665588
23	0x3e2d1e12	0.16906002
24	0x3ece2b8d	0.40267602
25	0xbe963d1d	-0.293435
26	0x3d1e799c	0.038690194
27	0x3dcac6b5	0.099011816
28	0x3e594080	0.21216011
29	0xbeab27cd	-0.33428803
30	0x3e2b052c	0.16701192
31	0xbe16ce68	-0.14727175
32	0xbeb933d6	-0.3617236
33	0xbf1c2b83	-0.61003894
34	0x3f0e076f	0.5548009
35	0x3d6a1230	0.05714625
36	0xbc976ec5	-0.018485436
37	0x3ecb1d27	0.3967068
38	0x3d9e9ebf	0.07745122
39	0x3e95b17a	0.29236966
40	0xbe1111bd	-0.14166923
41	0x3e8e4e8d	0.27794304
42	0x3f1f5e35	0.62253124
43	0xbe85ee06	-0.2615816
44	0xbe573cd9	-0.21019305
45	0x3cc8fc4f	0.024534373
46	0xbe1c0b8c	-0.1523878
47	0x3e8e1819	0.2775276
48	0x3e5b4e9b	0.21416704
49	0xbea9b668	-0.33146977
50	0x3e2ea040	0.17053318
51	0xbd85915d	-0.065218665
52	0x3ebb1ba9	0.3654454
53	0xbe71b5dd	-0.23604532
54	0xbed90e1a	-0.4239357
55	0xbe95e768	-0.2927811
56	0x3cd2773c	0.025691621
57	0x3b46b2b7	0.0030318925
58	0xbe0a929a	-0.13532487
59	0x3becadcc	0.0072228666
60	0xbe719d44	-0.23595148
61	0x3da5a76e	0.08088575
62	0xbe6ed945	-0.23325069
63	0xbe96754f	-0.29386374
64	0xbe8f0d29	-0.27939728
65	0x3eb84ce4	0.35996163
66	0xbeb21771	-0.3478351
67	0xbdfaba57	-0.12242573
68	0xbe1812ed	-0.1485097
69	0xbcd34b77	-0.02579282
70	0x3c88deec	0.01670786
71	0xbeb9121e	-0.36146635
72	0xbe4a5183	-0.19757657
73	0x3e643355	0.22285207
74	0xbe4428e2	-0.1915622
75	0x3e4f7df5	0.20262893
76	0x3d927b0a	0.07152374
77	0xbe5a9843	-0.21347146
78	0x3e391df9	0.1807784
79	0xbdc8f71e	-0.09812759
80	0x3ea15445	0.31509605
81	0xbe3cd10d	-0.18439122
82	0xbe0643a2	-0.13111737
83	0x3e791e94	0.24328071
84	0x3d856a91	0.065144666
85	0xbe7fcfa6	-0.24981555
86	0x3eb713e8	0.35757375
87	0xbe298ad1	-0.1655686
88	0xbe841236	-0.25795144
89	0xbe89649d	-0.26834574
90	0xbd954333	-0.07288208
91	0x3a941013	0.0011296294
92	0xbe1128b2	-0.1417568
93	0x3e27f997	0.16403805
94	0xbcaa93df	-0.020822464
95	0x3db8a91c	0.0901663
96	0x3e3d0d48	0.18462098
97	0xbe8f7085	-0.28015533
98	0x3e15bd0b	0.14622895
99	0x3d1ec368	0.038760573
100	0x3daa21e8	0.08307248
101	0xbe581b49	-0.21104158
102	0x3c826506	0.015917312
103	0x3d5d872f	0.054084
104	0xbe00d52f	-0.12581323
105	0xbe1bbde0	-0.1520915
106	0x3dbc2a45	0.0918775
107	0x3d07693b	0.03305934
108	0x3e35db72	0.17759493
109	0x3e268b57	0.16264091
110	0xbe54ccd6	-0.20781264
111	0x3e39c638	0.1814202
112	0x3d9964fa	0.07489963
113	0x3de6b65b	0.1126525
114	0x3cb7f336	0.02245484
115	0xbc9a3eb3	-0.018828725
116	0xbe4fd090	-0.20294404
117	0x3d606f75	0.054793794
118	0xbc6ea973	-0.014566767
119	0x3e059294	0.13044196
120	0x3db7b56d	0.08970151
121	0xbe076881	-0.13223459
122	0x3d30eff2	0.04319758
123	0x3e106979	0.14102735
124	0x3e4cb15d	0.19989534
125	0xbeae5c71	-0.34054902
126	0xbd461b96	-0.04836615
127	0x3e25965a	0.16170636
128	0x3e607362	0.21919015
129	0x3da8b924	0.08238438
130	0xbd9e3311	-0.07724584
131	0x3e24c494	0.16090614
132	0x3d8657bf	0.06559705
133	0xbe612774	-0.21987706
134	0x3dda247a	0.106514886
135	0xbd44f011	-0.048080508
136	0xbe3704ad	-0.17872877
137	0x3cba4a1f	0.022740422
138	0xbdc19487	-0.094521575
139	0x3e4c550a	0.19954315
140	0xbd3177ac	-0.04332702
141	0xbcf90b22	-0.030400816
142	0x3e8bf24c	0.27333295
143	0xbb2a03c7	-0.0025942193
144	0x3c716b60	0.014735073
145	0xbe00f5fe	-0.12593839
146	0xbdb27e0b	-0.08715447
147	0x3da02424	0.07819393
148	0xbdd9e34c	-0.106390566
149	0x3e41132f	0.18854974
150	0xbdaeda10	-0.08537686
151	0xbe4f9502	-0.20271686
152	0xbe32ff5c	-0.17480224
153	0x3e765f62	0.24059823
154	0x3e9a9776	0.3019368
155	0x3e14e970	0.14542174
156	0xbcc9f0c0	-0.024650931
157	0xbe99071f	-0.29888245
158	0x3e11f8bc	0.14255041
159	0xbee9e98e	-0.45686
160	0xbebeabdf	-0.37240502
161	0xbd9020ca	-0.07037504
162	0xbdad6ad8	-0.084676445
163	0x3c90730f	0.01763299
164	0x3e6cce85	0.23125656
165	0xbd4b788c	-0.04967551
166	0x3e6c643a	0.23085108
167	0x3e187b99	0.14890899
168	0x3ea419e3	0.32051
169	0x3ddf08a0	0.10890317
170	0xbe9a9a36	-0.3019578
171	0x3e1a313d	0.15057845
172	0x3e1af42a	0.15132204
173	0xbd9aa2db	-0.075505935
174	0x3eac7f77	0.33690998
175	0xbec387f5	-0.38189664
176	0xbe09f58e	-0.13472578
177	0x3e25e151	0.16199233
178	0x3dfa9c18	0.12236804
179	0xbe1de692	-0.15419987
180	0xbd59bf32	-0.053160854
181	0x3de5406c	0.11193928
182	0xbad8893b	-0.001652039
183	0xbe27b1be	-0.16376397
184	0xbd4eb99d	-0.050469983
185	0x3e6edec3	0.23327164
186	0xbda854d9	-0.082193084
187	0x3df8a500	0.12140846
188	0x3d0fb784	0.035087124
189	0xbdfedcb7	-0.12444442
190	0xbdd4f076	-0.10397427
191	0xbd140e21	-0.036146287
192	0xbd131923	-0.035912644
193	0xbe1030ca	-0.14081112
194	0xbdebd158	-0.115145385
195	0x3ddb8cb8	0.10720199
196	0xbe481909	-0.195408
197	0x3e6fd790	0.23422074
198	0xbde3b5ac	-0.111186355
199	0xbe3b93b2	-0.1831806
200	0x3d3724f7	0.044712987
201	0xbdbb5a4d	-0.09148083
202	0xbe388768	-0.18020403
203	0x3cbb5661	0.022868337
204	0x3d8e29f8	0.06941599
205	0x3e173330	0.1476562
206	0x3d3c6530	0.045994937
207	0xbb320b3b	-0.0027167338
208	0x3ddd5bce	0.10808526
209	0xbdd0f7f8	-0.10203546
210	0xbd8dd6d3	-0.0692574
211	0x3dff4629	0.12464554
212	0xbed198c2	-0.40936857
213	0xbea804b5	-0.3281609
214	0xbd4fa5eb	-0.05069534
215	0x3f3bd0e9	0.73365647
216	0x3e4d0f3d	0.20025344
217	0xbe15a903	-0.14615254
218	0xbe9aea64	-0.3025695
219	0x3e370979	0.17874707
220	0xbeac8340	-0.33693886
221	0xbe023323	-0.1271482
222	0x3df0faa5	0.11766557
223	0xbe162e97	-0.1466621
224	0xbedf0ba9	-0.43563583
225	0x3d3d984e	0.046287827
226	0x3e98a0c4	0.29810154
227	0xbcd675ba	-0.026179183
228	0x3e1c4180	0.15259361
229	0xbe47c61f	-0.19509171
230	0x3ed82ef6	0.42223328
231	0xbe272994	-0.16324455
232	0x3dd4d39e	0.10391925
233	0x3e5692be	0.20954415
234	0xbe07ccf8	-0.13261783
235	0xbe16465b	-0.14675276
236	0xbea24a3d	-0.31697264
237	0xbdf7d5aa	-0.121013
238	0x3e1ff261	0.15619804
239	0xbe9e9ef0	-0.30980635
240	0xbdb00183	-0.08594038
241	0xbe79135a	-0.24323788
242	0x3eba44ca	0.36380607
243	0x3edfd053	0.43713626
244	0x3cc01b7a	0.023450602
245	0xbe2ff22e	-0.17182228
246	0xbd92d31e	-0.07169174
247	0x3d6c0532	0.057622142
248	0x3e76d0df	0.24103115
249	0x3c030968	0.007997848
250	0x3e0b1759	0.13583125
251	0xbe85d567	-0.26139376
252	0xbe2c8f13	-0.16851453
253	0x3e83c58a	0.25736648
254	0x3e5e1ce5	0.2169071
255	0xbe6df4e9	-0.23237957

layers.6.bias f4 [30]
0	0x3e28d45b	0.16487257
1	0xbe1c9e8d	-0.15294857
2	0xbe02ea0b	-0.12784593
3	0x3e48561d	0.195641
4	0xbd80568d	-0.06266508
5	0xbacacdae	-0.0015472674
6	0xbdd4b14e	-0.10385381
7	0xbd9a60d7	-0.07538002
8	0x3e212770	0.157377
9	0x3d1a4c39	0.037670348
10	0x3deb23bb	0.114814244
11	0xbe384c79	-0.17997922
12	0x3cde2208	0.027115837
13	0x3e2f819a	0.17139283
14	0x3d12873d	0.035773505
15	0x3d4189fe	0.04725074
16	0x3de2b811	0.11070264
17	0x3e60f7d5	0.2196954
18	0x3e7b7944	0.24557978
19	0xbe4655cb	-0.19368665
20	0xbcdc55d8	-0.026896402
21	0x3c67af23	0.014140877
22	0x3d2070f0	0.039170206
23	0x3e139e0f	0.14415763
24	0x3df7faa0	0.1210835
25	0x3e7ccf3a	0.24688426
26	0x3d3f2705	0.04666807
27	0xbe0de8fd	-0.13858409
28	0x3e445965	0.19174726
29	0xbde7ad6d	-0.11312375

layers.8.weight f4 [30, 30]
0	0x3d0d8ffd	0.034561146
1	0xbdb756a0	-0.08952069
2	0x3f20d6fb	0.62828034
3	0xbd3795bc	-0.044820532
4	0xbe441fbd	-0.19152732
5	0xbde461a1	-0.11151434
6	0x3dea021e	0.11426185
7	0x3f41157d	0.75423414
8	0xbe585898	-0.21127546
9	0xbe96dca8	-0.29465222
10	0xbdd3f7ad	-0.10349975
11	0x3e5cd132	0.21564177
12	0xbe88eed9	-0.26744726
13	0x3e0ad1a2	0.13556531
14	0x3e2ec4cb	0.17067258
15	0x3e697e4a	0.22802082
16	0x3e9e6c25	0.30941883
17	0x3cfa143e	0.03052723
18	0xbd5cc0d2	-0.053894825
19	0x3e0629cf	0.13101886
20	0x3d09a9e0	0.03360927
21	0xbe9f13af	-0.31069705
22	0xbe1121e4	-0.14173084
23	0x3da1af2f	0.07894742
24	0x3e3f77f4	0.18698102
25	0xbdbda41d	-0.09259818
26	0x3e00bfdd	0.1257319
27	0x3ec20ce6	0.37900466
28	0x3e060134	0.13086396
29	0x3e592b26	0.21207866
30	0x3e3d7121	0.18500187
31	0xbed93df0	-0.42430067
32	0x3e3b4a38	0.18290031
33	0xbd9027bb	-0.07038828
34	0xbda9266f	-0.08259284
35	0x3dd836d9	0.10557336
36	0x3df5339b	0.119727336
37	0xbe94aab2	-0.2903648
38	0x3c146f8b	0.009059797
39	0xbe335e7c	-0.17516512
40	0xbe342392	-0.17591694
41	0xbe7b3e93	-0.24535589
42	0xbc4d1d00	-0.012519121
43	0xbd8015f2	-0.06254186
44	0x3e5d0a30	0.21585917
45	0x3e34af63	0.1764503
46	0x3ea834ed	0.3285288
47	0x3e5fbe59	0.21849956
48	0x3e581022	0.21099904
49	0xbcb892eb	-0.022530993
50	0xbd497db6	-0.049192153
51	0x3cdee232	0.027207468
52	0xbe0a1894	-0.13485938
53	0xbe28cdbb	-0.1648473
54	0xbd861c09	-0.06548316
55	0xbd7783a9	-0.060428295
56	0x3c809122	0.015694205
57	0x3e1b76a9	0.15181984
58	0x3d838e19	0.06423587
59	0x3c45d065	0.012073611
60	0x3ea9eec4	0.33189976
61	0xbf15a53f	-0.5845527
62	0x3deca6d1	0.11555255
63	0x3d808108	0.06274611
64	0xbe5a9081	-0.21344186
65	0x3e0fc358	0.14039361
66	0xbd551e8a	-0.052031077
67	0xbee82322	-0.45339304
68	0x3eb3e40c	0.35134923
69	0xbc00ffd8	-0.007873498
70	0x3db25484	0.08707526
71	0xbe02cd98	-0.1277374
72	0x3d73eac2	0.059550054
73	0xbd9f0f5b	-0.07766601
74	0x3cd2ed68	0.02574797
75	0xbdf8cb56	-0.12148158
76	0x3e726dd5	0.2367471
77	0x3e31d634	0.17366868
78	0x3ee05a56	0.4381892
79	0xbe6ae5db	-0.22939245
80	0x3de21307	0.110387854
81	0xbe24d743	-0.16097741
82	0x3e153cf6	0.14574036
83	0x3ccdd1c3	0.025124436
84	0xbc8d1b9e	-0.017225083
85	0x3e07afef	0.13250707
86	0x3d5df7c3	0.054191362
87	0x3e8509e2	0.25984102
88	0xbe022808	-0.12710583
89	0x3e21c932	0.15799406
90	0x3e9a31b1	0.30116037
91	0xbebcd178	-0.36878562
92	0x3ec4938b	0.38393816
93	0x3d082a74	0.03324361
94	0xbe0ce2b2	-0.13758352
95	0x3eb4a25e	0.35280126
96	0x3dd43072	0.10360803
97	0x3d89fb16	0.06737344
98	0x3e05bca9	0.1306025
99	0xbe913a79	-0.28364924
100	0xbe22702b	-0.15863101
101	0xbe96eba1	-0.29476646
102	0x3df0fb2d	0.11766658
103	0xbcb10132	-0.021607015
104	0xbacc4759	-0.0015585228
105	0x3e448fd0	0.19195485
106	0x3e4e6619	0.20156135
107	0x3ea4a09e	0.3215379
108	0x3e7a3270	0.24433303
109	0x3ca9c3d6	0.020723265
110	0xbd0f9c29	-0.035061035
111	0x3d757515	0.05992611
112	0x3d12cb2b	0.035838287
113	0x3e528ebf	0.20562266
114	0xbd68a162	-0.05679453
115	0xbe2b375c	-0.16720337
116	0xbd9c48ae	-0.0763105
117	0x3e142f75	0.14471228
118	0x3df01a42	0.11723758
119	0x3e1b8cf0	0.15190482
120	0xbebc35f5	-0.36759916
121	0x3e894f2f	0.26818225
122	0xbec9be86	-0.3940317
123	0xbdee64c8	-0.11640316
124	0x3e37fc7b	0.17967407
125	0xbcaf8fe5	-0.021430919
126	0xbe0c7608	-0.137169
127	0xbea0c607	-0.31401083
128	0x3e9b96ce	0.30388492
129	0x3e894040	0.2680683
130	0xbde8f89d	-0.11375544
131	0x3dbb8749	0.09156663
132	0x3e2ebe94	0.17064887
133	0x3e2337b5	0.1593922
134	0x3d6612bb	0.056170207
135	0xbe995b69	-0.29952553
136	0xbe2627a8	-0.16226065
137	0xbb5d3cbf	-0.0033758131
138	0xbd7ce281	-0.06173945
139	0x3e55277a	0.2081584
140	0xbe40f090	-0.18841767
141	0x3e543f49	0.20727266
142	0xbd0db7a7	-0.034598973
143	0xbd94cb52	-0.07265343
144	0x3d766067	0.06015053
145	0x3e324ab9	0.17411317
146	0x3c2b8ebe	0.010471044
147	0xbe48faca	-0.19626918
148	0xbe0fe0ba	-0.1405057
149	0xbdd38e29	-0.10329849
150	0x3e8d6550	0.27616358
151	0xbe00671d	-0.12539335
152	0x3d618161	0.055055026
153	0xbdb74fae	-0.089507446
154	0xbe47b7a8	-0.19503653
155	0x3e5bcbc0	0.21464443
156	0x3d95283a	0.07283063
157	0xbd0f3800	-0.034965515
158	0xbdc54754	-0.096327454
159	0xbd97d910	-0.07414448
160	0x3d8c0bb8	0.06838173
161	0x3cf9c037	0.030487163
162	0xbd9ec260	-0.07751918
163	0xbe0858a2	-0.1331506
164	0xbc91642d	-0.017747963
165	0xbe0f9318	-0.14020956
166	0x3da451d5	0.08023421
167	0x3d305ec2	0.043059118
168	0xbd01cf73	-0.03169198
169	0x3d26e351	0.04074413
170	0x3e82d93f	0.2555637
171	0xbe48c599	-0.19606628
172	0xbca7d967	-0.020489408
173	0x3d9efcb3	0.07763042
174	0x3dfb848b	0.1228114
175	0x3e0dec14	0.13859588
176	0xbd0a6b9c	-0.03379403
177	0xbe33ab26	-0.17545757
178	0x3d3519da	0.044214107
179	0x3e0030ff	0.1251869
180	0x3b097de4	0.0020979578
181	0xbdbdc88b	-0.09266766
182	0x3ea4da05	0.32197586
183	0xbd3045c5	-0.043035287
184	0x3c357d0c	0.011077177
185	0xbd80f214	-0.06296173
186	0xbe0307c1	-0.12795927
187	0x3ed07225	0.40712085
188	0xbe9c3bc7	-0.30514356
189	0xbcdfff95	-0.02734355
190	0xbd34ac76	-0.044109784
191	0xbe05bf8b	-0.13061349
192	0xbeb20c0b	-0.34774813
193	0x3da91dd0	0.082576394
194	0xbe2d66d2	-0.16933754
195	0x3e0158b2	0.12631491
196	0x3d1e7c63	0.038692843
197	0x3d4030bc	0.046921477
198	0x3e087dc1	0.13329221
199	0x3c23a447	0.009987897
200	0xbcd57c54	-0.02606026
201	0xbdc1a0d2	-0.09454502
202	0xbe720ffd	-0.23638912
203	0xbe5cdc5d	-0.21568437
204	0x3d146c87	0.036236312
205	0x3e26cf9f	0.16290139
206	0x3e5363cc	0.20643538
207	0x3e2fa0b4	0.17151147
208	0xbe1f5aaf	-0.15561937
209	0xbd033bf6	-0.032039605
210	0x3e82571f	0.25457093
211	0xbd11f0c5	-0.035630006
212	0xbe192ef5	-0.14959319
213	0xbe22a9d8	-0.15885103
214	0xbdf426ce	-0.11921464
215	0x3d800afd	0.06252096
216	0x3d240420	0.040042996
217	0xbe4b5821	-0.19857837
218	0x3e2eb1c5	0.17060001
219	0x3dbc632f	0.09198605
220	0x3dd6668b	0.10468777
221	0x3dc24215	0.094852604
222	0x3e3d4d42	0.18486503
223	0x3bd47ef1	0.006484859
224	0x3e4a4ae0	0.19755125
225	0xbe145aa4	-0.14487702
226	0xbe62dc74	-0.22154409
227	0x3e1ad0ca	0.15118709
228	0x3d55cad2	0.052195378
229	0x3e52b247	0.2057582
230	0xbd9314ed	-0.07181726
231	0x3d802284	0.06256583
232	0x3d8d558c	0.069010824
233	0x3de32cda	0.11092539
234	0x3ddbce9d	0.10732768
235	0xbc0a65bd	-0.008447108
236	0xbdb2a891	-0.08723558
237	0xbcbf8ff0	-0.023384064
238	0x3e4058e3	0.18783908
239	0x3e039db4	0.12853128
240	0xbd7011ad	-0.058610607
241	0xbd6e7755	-0.058219273
242	0x3da82c56	0.082115814
243	0xbde6c017	-0.11267107
244	0x3e0553ab	0.13020198
245	0x3bc3051e	0.0059515378
246	0xbdb56fda	-0.088592246
247	0xbe1239f7	-0.14279924
248	0x3ccc4644	0.024935849
249	0x3c1a1990	0.009405509
250	0xbe0e14a4	-0.13875061
251	0xbe2a8033	-0.16650467
252	0xbdb8ba10	-0.090198636
253	0x3d8cf6d3	0.068830155
254	0x378c2a8f	1.6709118e-05
255	0x3e39d6d2	0.18148354

layers.8.bias f4 [30]
0	0xbd1ad5a7	-0.03780141
1	0xbdd451b9	-0.1036715
2	0x3eaeb62f	0.3412337
3	0x3e19c9f7	0.1501845
4	0x3e585bcf	0.21128772
5	0x3e370c01	0.17875673
6	0xbe1c93b5	-0.15290721
7	0x3dc969fd	0.09834669
8	0x3d0ca573	0.034337472
9	0xbe4d22e0	-0.20032835
10	0xbe93fbc2	-0.28903013
11	0x3e78dfed	0.24304171
12	0x3c21f5f3	0.009885299
13	0x3e8efd76	0.2792775
14	0xbe861e3d	-0.26194945
15	0xbd50bb52	-0.050959893
16	0x3e4d83cf	0.20069812
17	0xbd148d60	-0.03626764
18	0x3c6ad67b	0.014333363
19	0x3dbc0f93	0.09182658
20	0x3d8859e3	0.066577695
21	0xbd1a5ba7	-0.037685063
22	0x3e622d0f	0.22087501
23	0x3ce7c3ee	0.028291669
24	0x3b5e59ce	0.003392804
25	0x3e860a60	0.2617979
26	0x3d9623e2	0.07331063
27	0xbdef08cf	-0.11671602
28	0xbe8ec919	-0.278878
29	0x3dce4af3	0.10072889

layers.10.weight f4 [30, 30]
0	0x3b2f63b1	0.0026762302
1	0x3e1fd975	0.15610297
2	0x3ecf5bdd	0.40499774
3	0x3e4a1bce	0.19737169
4	0xbe3b9906	-0.18320093
5	0x3d9258c8	0.0714584
6	0x3cce51e8	0.02518554
7	0x3e202c21	0.15641834
8	0x3cd0910f	0.025459794
9	0x3efea8e3	0.49738225
10	0x3d9a1c29	0.075249024
11	0xbe6bfab6	-0.23044857
12	0x3d15f6fb	0.036612492
13	0x3ec997a3	0.39373502
14	0x3deadc07	0.11467748
15	0xbd751fbe	-0.059844725
16	0x3db6b06f	0.08920371
17	0xbe83680e	-0.25665325
18	0x3cb5f7a0	0.022212803
19	0x3d82fe91	0.06396211
20	0xbd2105ed	-0.039312292
21	0x3ee6bdc0	0.45066643
22	0x3d7a6247	0.06112888
23	0xbe08c114	-0.13354903
24	0xbd8ed6d8	-0.06974572
25	0x3e217c78	0.15770137
26	0x3c2fa019	0.010719323
27	0x3db49773	0.08817949
28	0xbdab86a6	-0.083752915
29	0xbe676595	-0.22597344
30	0x3be0cecc	0.0068605896
31	0x3e45a2c8	0.19300377
32	0x3dbd06c6	0.092298076
33	0xbd94116f	-0.07229888
34	0xbdda0d12	-0.10647024
35	0xbd231139	-0.039811347
36	0x3d64984f	0.055809315
37	0xbe226704	-0.1585961
38	0xbcedd1a6	-0.029030632
39	0x3ea9c277	0.33156177
40	0xbd8a7de7	-0.06762295
41	0xbebd3654	-0.36955512
42	0xbd543fe7	-0.051818755
43	0x3e154de8	0.145805
44	0x3d767422	0.060169347
45	0x3e71623f	0.23572634
46	0xbc90d909	-0.017681615
47	0x3da66ef7	0.081266336
48	0xbaabe4e2	-0.0013114477
49	0x3ae66ecd	0.0017580629
50	0xbd56839e	-0.052371614
51	0x3e6e66e0	0.23281431
52	0x3c89bab2	0.016812656
53	0x3dedc1a9	0.11609203
54	0x3e5b3f55	0.21410878
55	0x3ddc37ef	0.10752856
56	0xbd69692f	-0.056985077
57	0x3d2a72d3	0.04161341
58	0x3dc79297	0.09744757
59	0xbcb87a06	-0.022519123
60	0xbec2e24a	-0.3806327
61	0xbdf64c78	-0.12026304
62	0x3ce649c4	0.028111346
63	0xbe656b24	-0.22404152
64	0x3ee7a422	0.4524241
65	0xbd267e3a	-0.040647723
66	0xbe2ae560	-0.16689062
67	0x3e07df14	0.13268691
68	0xbdd3b7bf	-0.10337781
69	0xbe9e3a25	-0.30903736
70	0xbe88410f	-0.26612136
71	0x3eaee6d5	0.34160486
72	0x3e26818d	0.16260357
73	0x3de1cd58	0.11025494
74	0x3e82ef39	0.25573137
75	0xbe6e2522	-0.23256353
76	0x3e3ed401	0.1863556
77	0xbd4657bf	-0.048423525
78	0xbc6ca1c0	-0.014442861
79	0x3db9c6b5	0.090711035
80	0x3e82ac40	0.2552204
81	0xbe327f16	-0.17431292
82	0xbd280565	-0.04102077
83	0x3e51217f	0.20422934
84	0xbcea6626	-0.028613161
85	0x3dd6a186	0.10480027
86	0x3e18ad0d	0.14909764
87	0x3e53bf77	0.20678507
88	0x3e1ba320	0.15198946
89	0x3cea38a3	0.02859146
90	0xbdd29f18	-0.10284251
91	0x3e1dffc6	0.15429601
92	0x3d87d34c	0.066320986
93	0x3e0ce561	0.13759376
94	0x3ce21c38	0.027601346
95	0xbd887d89	-0.06664569
96	0xbd7257dd	-0.059165824
97	0xbbb50d5e	-0.005525275
98	0x3e08a7ba	0.13345233
99	0x3e0c8037	0.13720785
100	0xbe3238ba	-0.17404452
101	0xbd86aabd	-0.065755345
102	0xbd744865	-0.059639353
103	0xbd817e2c	-0.063228935
104	0xbdc95db5	-0.09832326
105	0xbe54d5b5	-0.20784648
106	0xbdac41ce	-0.08410989
107	0xbb614af8	-0.003437696
108	0xbc1667e0	-0.009180039
109	0xbd82ea1f	-0.06392311
110	0xbd30b770	-0.04314369
111	0x3cbf63ab	0.023362955
112	0xbd4a58df	-0.04940116
113	0xbd7085f4	-0.058721498
114	0xbe50c252	-0.20386627
115	0x3e2b010a	0.16699615
116	0xbe00a00d	-0.12561055
117	0x3db48b47	0.088156275
118	0xbe3b8ccc	-0.18315428
119	0xbe2af444	-0.16694742
120	0x3e83fefb	0.25780472
121	0x3ea0cfb8	0.31408477
122	0x3ec57e4c	0.3857292
123	0x3e9ed061	0.31018355
124	0xbed67e30	-0.41893148
125	0x3df22b13	0.11824622
126	0xbd376a3a	-0.04477904
127	0x3cc81543	0.0244242
128	0xbcc9cd9d	-0.024634177
129	0x3ee601b7	0.44923183
130	0xbe133de0	-0.14379072
131	0xbeb23d18	-0.34812236
132	0x3e722aef	0.2364919
133	0x3ee03875	0.43793073
134	0xbd574979	-0.052560303
135	0xba614200	-0.00085929036
136	0x3ea53eb9	0.32274416
137	0xbe852f7a	-0.26012784
138	0xbdadfa0f	-0.084949605
139	0x3de71848	0.11283928
140	0x3e665339	0.22492684
141	0x3e86785d	0.26263705
142	0xbe08a70a	-0.1334497
143	0xbeaafc89	-0.33395794
144	0xbcbbaf72	-0.022910807
145	0x3e3159fd	0.17319484
146	0x3caf6d4d	0.021414423
147	0xbdcbbeab	-0.099484764
148	0xbecc8593	-0.3994566
149	0xbe4ffed1	-0.20312048
150	0xbd91b2e3	-0.07114198
151	0xbd9d7dfe	-0.07690047
152	0xbcd44dea	-0.025916059
153	0xbe0d98f4	-0.13827878
154	0x3d34ab98	0.044108957
155	0x3dcd34f7	0.10019868
156	0xbc6246af	-0.013810798
157	0x3e25beca	0.16186062
158	0xbcadae6e	-0.021201339
159	0x3d85185b	0.06498786
160	0xbe84ef7c	-0.25963962
161	0xbda89d8a	-0.08233173
162	0x3dd3192f	0.10307538
163	0x3e70ce19	0.2351612
164	0x3dbf7af3	0.093496226
165	0xbdafd6b5	-0.08585874
166	0xbe0dcbdb	-0.13847296
167	0x3dad617c	0.08465859
168	0xbde31657	-0.11088245
169	0x3d6ba318	0.057528585
170	0x3e8aff95	0.2714812
171	0xbd9e500c	-0.077301115
172	0x3ce09473	0.027414536
173	0xbc9df042	-0.019279603
174	0xbdd1efbb	-0.10250803
175	0xbd084e7c	-0.033277974
176	0xbceb995e	-0.028759655
177	0x3e1b1321	0.15144016
178	0x3e3a0fa9	0.18170036
179	0xbe038279	-0.1284274
180	0x3eb2de4a	0.34935218
181	0x3df56de8	0.119838536
182	0xbdc1b8f8	-0.09459108
183	0x3d42a1d0	0.047517598
184	0xbebe0e99	-0.37120512
185	0xbe75dd77	-0.24010263
186	0x3dc5ffe0	0.09667945
187	0x3c72a0fd	0.01480889
188	0x3e377bb0	0.17918277
189	0x3eaa1ffb	0.33227524
190	0x3e87dcfa	0.2653578
191	0xbea5797f	-0.32319257
192	0xbe41caa3	-0.18924956
193	0xbda53f02	-0.080686584
194	0x3e19a5dc	0.15004677
195	0x3e73c5c8	0.23805916
196	0xbe1fe015	-0.15612824
197	0x3dfadecb	0.12249526
198	0xbd3ff506	-0.046864532
199	0xbda310d1	-0.07962192
200	0xbd86dfb0	-0.06585634
201	0x3ed5c7d0	0.41754007
202	0xbda6de1a	-0.08147831
203	0x3d3c7ebc	0.0460193
204	0x3df443d6	0.11927001
205	0x3e08f1fa	0.13373557
206	0xbe22ce71	-0.15899064
207	0xbd93f7df	-0.07225012
208	0xbdb06b34	-0.086141974
209	0xbe623833	-0.22091751
210	0xbeae893b	-0.34089074
211	0xbe0412e3	-0.1289783
212	0xbe49e547	-0.19716369
213	0xbe97a44c	-0.29617536
214	0x3e94c6f6	0.29058045
215	0xbe86b521	-0.26310065
216	0xbd5e700f	-0.054306086
217	0xbe64fb30	-0.22361445
218	0x3b02b461	0.001994394
219	0xbeb5c9c9	-0.35505512
220	0x3e571e0d	0.21007557
221	0x3ebcd101	0.36878207
222	0x3da221ee	0.07916628
223	0xbea6f83c	-0.32611263
224	0x3e2ad3ca	0.16682354
225	0xbd016f96	-0.031600557
226	0xbe8b70b1	-0.27234414
227	0x3d9f30ac	0.07772955
228	0x3eaf20d2	0.34204727
229	0x3d4899d4	0.048974827
230	0xbe5be38a	-0.21473518
231	0xbeb23dc2	-0.34812742
232	0x3cf1bae9	0.029508071
233	0x3d919ea5	0.07110337
234	0x3e4a5457	0.19758736
235	0xbe86940b	-0.26284823
236	0xbdd28b14	-0.10280433
237	0xbe0f4338	-0.13990486
238	0x3e45318f	0.19257186
239	0x3e7eca57	0.24881874
240	0xbe289e1f	-0.16466568
241	0xbe9e784e	-0.3095116
242	0xbe30ed33	-0.17277984
243	0xbe5a58d0	-0.21322942
244	0x3eaa3ce4	0.3324958
245	0xbe5475fa	-0.2074813
246	0xbdb5b683	-0.08872702
247	0xbe1a2313	-0.15052442
248	0x3c8a51b5	0.016884664
249	0xbe101ba8	-0.1407305
250	0x3dc5ff1e	0.096678
251	0xbd825d1d	-0.06365416
252	0xbe0f3761	-0.13985969
253	0xbeb825b7	-0.35966274
254	0xbdb73042	-0.08944751
255	0x3dd4c3e5	0.103889264

layers.10.bias f4 [30]
0	0x3e2bc900	0.16775894
1	0xbd777800	-0.060417175
2	0x3ed6b76f	0.41936824
3	0x3dc7efcf	0.09762537
4	0x3edf7e7b	0.43651184
5	0xbd02f059	-0.031967495
6	0xbe0b19b8	-0.1358403
7	0xbe896f6c	-0.2684282
8	0xbe24e7dd	-0.16104074
9	0x3dca6d1e	0.09884094
10	0xbd8a4b4f	-0.06752645
11	0x3d2d377e	0.04228925
12	0xbd0279c3	-0.031854402
13	0xbe0c27da	-0.13687077
14	0xbd8a62ff	-0.06757163
15	0x3bccf2bc	0.006254522
16	0x3d619e78	0.05508277
17	0xbe71ba88	-0.23606312
18	0x3e8ba7aa	0.27276355
19	0xbdcf955a	-0.101359084
20	0xbd92b211	-0.0716287
21	0xbe2bdc09	-0.16783156
22	0xbe28f8ca	-0.16501155
23	0xbec6c18b	-0.38819537
24	0xbe50fd18	-0.20409048
25	0xbd84bcdb	-0.06481334
26	0x3de153ae	0.11002289
27	0xbdccc717	-0.09998911
28	0xbd48282f	-0.048866447
29	0xbd006296	-0.03134402

layers.12.weight f4 [3, 30]
0	0x3e9a7004	0.30163586
1	0xbe7f1148	-0.24908936
2	0x3f3a4844	0.7276652
3	0x3e36ac99	0.17839278
4	0x3f3d3ccc	0.73920894
5	0x3d9e1ddf	0.07720541
6	0xbf018303	-0.50590533
7	0xbf0bdffc	-0.5463865
8	0xbf0f8843	-0.56067294
9	0x3f5b1984	0.8558581
10	0xbdfafa30	-0.12254751
11	0x3e73e46f	0.23817609
12	0xbeef832d	-0.46779767
13	0xbe8d9581	-0.27653125
14	0x3e9472d3	0.28993854
15	0xbe7477d8	-0.23873842
16	0xbd3f8316	-0.046755873
17	0xbec8054b	-0.39066538
18	0x3e8ab46c	0.27090776
19	0xbec5bb26	-0.38619345
20	0xbf44a001	-0.76806647
21	0xbf15b32f	-0.5847654
22	0xbe0c5783	-0.13705258
23	0xbf0ae905	-0.5426181
24	0xbf1d41de	-0.6142863
25	0xbf106d30	-0.56416607
26	0x3edaa9bd	0.42707625
27	0x3e1ce95b	0.15323393
28	0x3f3df4f9	0.74201924
29	0xbf001b78	-0.50041914
30	0x3e6a5080	0.22882271
31	0x3e272de3	0.16326098
32	0x3db48a45	0.08815435
33	0xbe8c9225	-0.2745525
34	0xbf6c53bf	-0.92315286
35	0x3e87237b	0.26394257
36	0x3f0bebc4	0.54656625
37	0xbe6a95c0	-0.22908688
38	0xbd8865e4	-0.06660059
39	0xbf378aac	-0.7169597
40	0x3eb262e1	0.34841064
41	0x3f11332d	0.56718713
42	0xbf339ad4	-0.70158124
43	0x3f4feeaf	0.8122358
44	0x3e15cc4d	0.14628716
45	0x3f89df7b	1.0771326
46	0xbf063534	-0.5242493
47	0x3e9b2300	0.3030014
48	0xbe2248e1	-0.15848114
49	0xbd86b11e	-0.06576751
50	0xbef6bcc2	-0.48190886
51	0x3eb95d44	0.3620397
52	0xbf2d06cd	-0.675885
53	0x3e5ed269	0.21759953
54	0x3f0b449d	0.5440157
55	0x3e030d43	0.12798028
56	0x3e991353	0.29897556
57	0xbeb1656d	-0.34647694
58	0x3f3be240	0.73392105
59	0x3edb3c12	0.42819268
60	0x3f4970c8	0.78687716
61	0x3f0d9d25	0.5531791
62	0xbfa286ec	-1.2697425
63	0x3e4ffa99	0.20310439
64	0x3fb0dbfb	1.3817133
65	0xbef0dcf7	-0.47043583
66	0x3f820f32	1.0160887
67	0xbfb572da	-1.4175675
68	0xbf33ce79	-0.7023693
69	0xbf1daba9	-0.6159006
70	0x3ec12e72	0.37730747
71	0xbf06bbfc	-0.5263059
72	0xbecabd36	-0.3959748
73	0xbf20decf	-0.6283998
74	0x3ddf7f2a	0.109129265
75	0xbe710d04	-0.23540121
76	0xbfaa050b	-1.3282789
77	0x3ccbcef1	0.02487895
78	0xbfb3efa5	-1.4057509
79	0x3f42c017	0.76074356
80	0x3e43050d	0.19044895
81	0x3f64b604	0.89340234
82	0xbeb1c66f	-0.34721705
83	0xbf911103	-1.1333317
84	0xbf07267a	-0.52793086
85	0xbb08f636	-0.0020898706
86	0x3ebbcdae	0.3668036
87	0xbe8fdbce	-0.28097385
88	0xbee61fec	-0.4494623
89	0x3e7327bb	0.23745625

layers.12.bias f4 [3]
0	0x3f7a7b7e	0.97844684
1	0x3d8cc563	0.06873586
2	0x3d4f4fbc	0.05061315
