PINN's/CAVITY NS/Models/NSCavityRe10.pth (torch, 15988 bytes, 10 tensors)

layers.0.weight f4 [30, 2]
00000000: 4382 df3d 772f 723e 3283 d5be f776 50be
00000010: ac32 99be ab24 7a3e 7b79 2dbc 840a 543e
00000020: 4643 4abe be1e 9b3e d23e 123e ac1e f6be
00000030: fd3b fdbe 5888 22bf 65d6 d73d 8596 8fbe
00000040: bd41 d83e 38a4 433e 9e5d c13c e78b 06bf
00000050: 7be5 cb3e 2a53 ecbd 811a 95be 97bf 2f3f
00000060: 9dc8 c23c 26a7 83be 467c cd3e 1f96 e2be
00000070: 9639 9dbd 6d36 993d d675 67be 2085 0b3f
00000080: 9c3c 3cbf 3be3 52be a1df abbd 8389 88be
00000090: c176 ccbe 8e2a 1d3f f94a e3bd 8dd3 6d3c
000000a0: 41b8 cfbe 3c76 903d fa29 ebbe 8eb2 a53e
000000b0: fefa 76be ca33 41be 1a8f ef3e c50b ba3e
000000c0: e473 00be d3fc 1a3e 3468 34be 1a68 1c3f
000000d0: e1e2 bb3e 7ce9 04be 0d0f 0c3f 3f8e eebe
000000e0: 613b 7c3e beaf f2be 21f1 b9bd fbc2 2cbf
0.10913517 0.23650919 -0.41701657 -0.20357881 -0.29921472 0.2442805 -0.010588045 0.20707136
-0.19752225 0.30296892 0.14281777 -0.48070276 -0.4945983 -0.63489294 0.105389394 -0.28044525
0.42237654 0.19105613 0.02360421 -0.52557224 0.39823517 -0.115393 -0.29121783 0.6865172
0.0237773 -0.25713462 0.40133876 -0.44255158 -0.07676999 0.07481084 -0.22603545 0.5450001
-0.7352998 -0.20594494 -0.08392263 -0.26667413 -0.39934352 0.6139306 -0.11098284 0.01451577
-0.40570262 0.070538014 -0.45930463 0.3236279 -0.24119183 -0.18867412 0.46788865 0.36337104
-0.12544209 0.15135507 -0.17617875 0.61096346 0.36696532 -0.12979692 0.54710466 -0.465929
0.24632026 -0.47399706 -0.09079195 -0.67485017

layers.0.bias f4 [30]
00000000: 6905 693e ec03 b83e c7d8 b3be 3522 a43e
00000010: 8a48 603e 28a6 96bd 9588 9d3e 14e0 55be
00000020: d1d8 be3e f7f0 783f a1c3 fcbc a393 00bf
00000030: b81b 923e 5278 753f 7d7d 103e 891b 8e3e
00000040: 7d81 893e 2633 49bf c613 febe 4d9f e3bd
00000050: d65c 49bf df63 bc3e 2814 d13e bd03 86bf
00000060: c5f3 68be 8e58 9cbe a0d3 813e 7837 df3c
00000070: 0112 943e a0a7 1a39
0.2275597 0.35940492 -0.35126325 0.32057348 0.21902671 -0.073559105 0.30768266 -0.2088626
0.37274793 0.97242683 -0.030855002 -0.50225276 0.28536773 0.9588672 0.1411037 0.27755383
0.26856604 -0.7859367 -0.4962446 -0.111143686 -0.7865728 0.36794946 0.4083569 -1.0469891
-0.2274924 -0.30536312 0.2535677 0.02724813 0.28919986 0.0001474903

layers.2.weight f4 [30, 30]
00000000: a608 573d 529e b5be 0316 5ebe e16d 8d3e
00000010: 4c56 51bf 5600 82be 50eb 42be 4341 243e
00000020: 5f51 a6bd 8967 fdbe 065d 9e3d a01e cf3e
00000030: 8532 bfbe 077a 1cbc 5b28 43be 9f6e 2bbf
00000040: 4a24 aebe 803d f4be 4f75 e93d 50ed 29bd
00000050: 3475 11be 3e6e fc3e a16c 60be 726a 9ebd
00000060: fbc0 4d3e 354f 14be 0454 2fbf 114f 0a3e
00000070: ad64 e23d e1bc c83e 92ba 5b3e bba4 bcbe
00000080: 70fa 5cbe 6802 07be f569 15bf 5a58 04bf
00000090: cdce 263e de6f 863e 2333 3abe aae8 63be
000000a0: d9e4 a43c eecb 053f 6362 67bd d512 1ebc
000000b0: 48b2 b93e 3625 883d 1549 57be 1169 623d
000000c0: fd01 dfbd 84ec 61be d781 c33d 28f7 e73d
000000d0: 0243 083f a1e4 00bf 7e3c 3abe e062 a8be
000000e0: e805 d4bc 9d30 083d c275 f9be 5817 cf3c
000000f0: 52fc 0b3f 35f5 4cbf f860 41bb 72be 193f
00000100: 3042 de3e dbdd 62bf 4d0a 9b3f 4642 4abe
00000110: 309d 46be c058 edbe 2b9c 7cbe 904a 1d3f
00000120: 17c0 b23e 3c1f 443e ba89 243f 4931 25bf
00000130: 8e63 49bf dd9e a43d aad6 893f 7b7e 15bf
00000140: 4c15 453f a00f 01bd 42e2 d63e d14c 2dbf
00000150: 131e e1be b97b 59be af45 b93e b2ff c7bd
00000160: 9416 d13e dd53 2bbf 539b 49be a7bb 8bbc
00000170: 2c2a 703e d8f6 e13d 27c7 9b3e 0135 ab3d
00000180: 81ca 7ebc 0846 bebd 1bac 873e ed54 cd3e
00000190: 3fe3 b53e fd95 3ebe 6f9f 09bf a844 34be
000001a0: e6e4 1abf 8ba1 0abd db16 c33d c675 8c3e
000001b0: f777 6ebf 4ae3 e93c f0bd 42be 1104 d1be
000001c0: ea39 4cbf 5211 453d e554 953e 8eae 603d
000001d0: bc05 53be ca1d 8f3e ec67 813e 20fd 38be
000001e0: 3e83 3fbe 89e9 c33c 11a1 923e 1513 7d3d
000001f0: 9b16 433e b873 0a3f 77f9 75be 8e5a 26bf
00000200: 7677 b9be 3dae d2bd b0fa 8bbc 2db7 953e
00000210: 5663 193e be37 9f3d 6f40 03be 0af0 b23d
00000220: 3600 d53c 1378 62bf e60c b7be 7cf6 cc3e
00000230: 38a9 26bd 48ab 833e 6187 83bc b9d6 4d3b
00000240: 1018 71be 2c65 6bbe 5bb0 c03e 6def c5be
00000250: 0dcb d43d 13ef 953e 1efb cb3d 2606 e33e
00000260: 9c7c 303d 5b18 8c3e 68cd 803e 173d 0cbf
00000270: 5b56 5fbe 1c9a 46be 743e d73e 3fde d4be
00000280: ce4f 413d d519 ba3e 55bb 0d3e 1c4b f0be
00000290: 3895 04bf 37fd 6abe a0c6 233e 38cd b93e
000002a0: e411 543e 64bb debe ec3c 023d 76ca 423e
000002b0: 4257 95be 6db6 913e 8163 c33e 622a 4c3e
000002c0: b98c 06bf d265 babe 1172 f93e e2c5 8c3e
000002d0: 00e9 a6be 5591 353e 59be 17bf e406 9cbd
000002e0: 889d 03bf 0cef 44be 45fb 98be 4e82 9e3d
000002f0: d6c6 49bd c6d3 0fbe c622 283e bf3b c73d
00000300: 3cf2 93be 4cb3 d63d 35dc 6d3e 7d5c f23d
00000310: 86b6 ca3e 3ec3 ed3e ef12 4abe ef3c 5e3e
00000320: 67d1 e3be 7c72 3c3d 050c 833e 7196 b8bc
00000330: 9ca6 d7bd 71cc a0bd 4de1 af3e a34c 36be
00000340: 034f 3bbd 949b 0d3e f317 f63d 2fb7 f03d
00000350: 3271 8d3e 8615 3f3e 77f9 d53e f5c2 2abe
00000360: dceb a43d 4099 d5bd fb2a bebd 4356 263e
00000370: 439b 68be 0a0c b8be 39ed 5a3e f64b 363e
00000380: 9fa5 4b3d de51 913e 3f2d 42be a5c4 f33c
00000390: 51c6 a33e 2f24 12be 8fd6 8a3e 5404 003e
000003a0: e678 dbbc 3676 bebd e5e4 0abd 1f0e e0bd
000003b0: 0085 833e 829d 6dbe 8c56 883e ef5a e3bd
000003c0: f46d 87be af21 413d a80e 6f3e 205c b13d
000003d0: 71bf 89be 0b55 153e b088 bebe a3fe 263e
000003e0: 7e2d 903e 65bd 553e 052f 2abd 5a5c 383d
000003f0: ab1e 6fbe 9b76 d13e 059e 02bf 62ce 813d
0.052498482 -0.3547235 -0.21688084 0.27622893 -0.81772304 -0.2539088 -0.19035077 0.1604052
-0.08120989 -0.49493054 0.077325866 0.40453053 -0.3734323 -0.009550578 -0.19058363 -0.6696567
-0.3401206 -0.4770317 0.11399328 -0.041486084 -0.14204866 0.49302858 -0.21916439 -0.077351466
0.20093147 -0.1448334 -0.6848757 0.13506724 0.11054359 0.39206603 0.2145789 -0.3684443
-0.2157991 -0.13184512 -0.583648 -0.51697314 0.16289826 0.26257223 -0.1818357 -0.22256723
0.020128654 0.52264297 -0.056490313 -0.009648045 0.3626883 0.066477224 -0.21023972 0.05527598
-0.10889051 -0.2206288 0.09546249 0.11326438 0.53227246 -0.5034886 -0.18187138 -0.32887936
-0.025881723 0.033249486 -0.48722655 0.025279686 0.54681885 -0.80061656 -0.002950726 0.6005622
0.43409872 -0.88619775 1.2112519 -0.19751844 -0.193959 -0.46356773 -0.24668948 0.614419
0.34912178 0.1915254 0.64272654 -0.6452833 -0.78667533 0.08038113 1.0768635 -0.5839612
0.7698562 -0.03150904 0.41969496 -0.6769534 -0.43968257 -0.21238603 0.36185977 -0.09765567
0.40837538 -0.6692484 -0.19688158 -0.017057253 0.23453587 0.1103341 0.3042538 0.08359719
-0.01555121 -0.09290701 0.26498494 0.40103856 0.35524938 -0.18611903 -0.537589 -0.17604315
-0.6050552 -0.033845466 0.09525844 0.27433604 -0.931518 0.028550763 -0.19017768 -0.40823415
-0.7977587 0.04811222 0.29166332 0.05485397 -0.20607656 0.27952415 0.252746 -0.1806531
-0.18702409 0.02391507 0.2863851 0.061785776 0.19051592 0.5408282 -0.24020945 -0.64981925
-0.36223954 -0.102871396 -0.01708731 0.29241315 0.149793 0.07774304 -0.12817548 0.0873719
0.026001077 -0.8846447 -0.35752028 0.40031803 -0.040688723 0.25716615 -0.016055765 0.0031408502
-0.23544335 -0.22987813 0.3763455 -0.3865923 0.10390291 0.29283962 0.09960006 0.44340628
0.043087587 0.27362332 0.25156713 -0.54780716 -0.21810286 -0.19394726 0.42039835 -0.4157581
0.04719525 0.36347833 0.13840993 -0.46932304 -0.5179019 -0.22948156 0.15993738 0.36289382
0.2070995 -0.43502343 0.03179638 0.19022545 -0.29168135 0.28459492 0.38161853 0.19938043
-0.52558476 -0.36405808 0.48719838 0.27494723 -0.3259964 0.17731221 -0.5927482 -0.07618502
-0.5141225 -0.19231814 -0.29879203 0.077396974 -0.04926189 -0.14045629 0.16419515 0.097281925
-0.28895748 0.10483417 0.23228534 0.11834047 0.3959238 0.4643802 -0.19733785 0.21702932
-0.444957 0.04600762 0.25595108 -0.022532674 -0.10529825 -0.07851494 0.34351578 -0.17802672
-0.04572965 0.1382888 0.12016287 0.117536895 0.27625424 0.18660554 0.4179189 -0.16675933
0.08052799 -0.10429621 -0.092855416 0.16243844 -0.22715478 -0.35946685 0.21379556 0.17802414
0.049718495 0.28382772 -0.18962573 0.029756853 0.3198724 -0.14271615 0.2711682 0.12501651
-0.026791047 -0.09299891 -0.033909697 -0.109401934 0.25687408 -0.23204616 0.2662853 -0.111013286
-0.26451075 0.047151264 0.23345435 0.086601496 -0.2690387 0.14583223 -0.3721366 0.16308074
0.28159708 0.2087303 -0.041548748 0.04500995 -0.23351543 0.409108 -0.5102237 0.063381925

layers.2.bias f4 [30]
00000000: 7217 d2bd 3e40 883e c55f ea3e c583 1dbf
00000010: 5cc8 593e 5a11 9a3d cd30 a6bd 1370 833d
00000020: 913f 92be 0af0 84be f791 d5be f0d5 93bd
00000030: 620a 9c3d 2694 4abd e727 e7bc eadd 60bc
00000040: d996 3bbe 43c3 323e ef85 37bd 9818 813d
00000050: 8d56 153b a982 863d 0d28 003d 4252 953d
00000060: 95af fd3c 08be fd3e 7530 353d 140d 6a3e
00000070: f029 273d f373 2fbe
-0.10258378 0.26611513 0.4577619 -0.6152919 0.21267837 0.07522841 -0.08114777 0.06417861
-0.28564122 -0.25964385 -0.41712925 -0.0721854 0.07619168 -0.04945769 -0.02821727 -0.013724783
-0.18319263 0.17457299 -0.044805463 0.06303519 0.0022787184 0.0656789 0.031288195 0.0729108
0.030967513 0.49559045 0.044235665 0.22856551 0.04081148 -0.17134075

layers.4.weight f4 [30, 30]
00000000: 59d8 5d3d 98fd 0dbe 1692 033e ca79 f33d
00000010: f467 4cbe e4b7 e0bd 0c7f bebd 1644 ce3d
00000020: 38e9 ebbd d88c 803d 6d6b ab3c c2ba 5e3d
00000030: b138 8d3d 9f8c 3cbd 70ed a9bd 9a64 383e
00000040: 938c 1cbe 6bbd 703d bffa 1abd 0f0b 373e
00000050: 2fbb 1dbd 1c29 993e 8125 c63d 4c0b 0fbe
00000060: 0bae 893d e0a7 543e 0a61 0a3e 3463 943e
00000070: 5326 973c eec3 25bd edf1 0dbc ea31 2cbc
00000080: 15aa e33c f8ba 563e 8b63 2bbe 9d7c 1dbe
00000090: 8598 353e afb0 d23d 4af9 9b3e d7d6 72bc
000000a0: 7a29 9c3d 53d8 613d b7e7 4c3c 8f47 5a3e
000000b0: 9c6d c2bc cc3d 99bb 4650 3fbd 8892 d7bd
000000c0: 7c36 b5bd 51b9 f83d 319a 583d 7424 823a
000000d0: 284d 3cbd 45bc c6bd d4a7 5e3e 6932 aabe
000000e0: 52b0 31bd 43b6 acbe c7bb 43bc e633 243d
000000f0: eb67 743e 9d40 a43e fef2 b43e 1c31 86be
00000100: 1723 c13d 0d30 043f db08 32bd 95b3 5a3d
00000110: 5fd0 f7bc d904 82be e206 4fbe 40a6 fc3d
00000120: 2afb d83e bf91 343e f4bf 7cbd d404 b9be
00000130: d478 b3be 5191 34bf b25b adbc baa7 8cbc
00000140: 9378 923e a3bb 5ebe 31f1 6e3e 35e1 743e
00000150: 7f23 58be f894 cd3e ef49 863d 8f1e 0dbe
00000160: d91c e93d 6f76 48be 0067 9abe a011 6cbe
00000170: 852d 7ebd 92e7 0e3e b13e 0fbe c6f7 ccbe
00000180: e926 2a3e caea 64be eb73 05be 7a62 27bd
00000190: d884 863e 914d 8abe 5abc bdbe 46d0 863e
000001a0: a0d8 73be f423 163e f9bc 06be b699 6c3e
000001b0: cded 253e 45bf 98be 37e2 cdbe 3226 063d
000001c0: cdf1 9cbc 6671 743d 1f25 733e 6f79 adbe
000001d0: 9c5a 83be 3661 88ba 6a14 c33d 5b8d 2c3d
000001e0: 9236 b83c 901f 2ebd 764b 683c 97b2 91bd
000001f0: dccd 87bd 8bc2 85be 6661 0d3e cd3f 22be
00000200: 9c18 0e3e b71c 8fbd ed57 463e d723 83be
00000210: 0656 9bbd 9f41 963e 8175 ef3d b79c b73d
00000220: b5a2 5c3e a190 ed3e 4e0c e5bd c5bd 963d
00000230: 5aa9 c2be 3a27 b1bd 2f9f cbbd 6411 333d
00000240: 652b 853d 31a0 67be 8976 de3d 9e84 b6be
00000250: 7685 0fbd f88f 9ebc 5130 35bd 724b 423d
00000260: f00d 403e e90e eebe 5dfd 29be b26f 23be
00000270: d97a 323d ed00 2e3e e585 503c b414 d4bc
00000280: 3652 47be a851 44be 3dad bebc 78d4 bbbd
00000290: ffdc 02be 33b1 04be 24e8 5b3c 1cbc a43e
000002a0: fc36 0b3b fff9 93bd 54b6 4cbd 102d 093e
000002b0: b063 63bd 7926 ff3d bdca d43b 0b7b a2be
000002c0: f251 3d3d 5d4e 5ebe 1e72 7cbc d0ac 1d3e
000002d0: cbc2 4f3e 0e67 003f cfa3 65bc 52fc dabe
000002e0: 91ca da3d f73d 133f 861e 24be de72 3ebd
000002f0: ba3e 213d ba23 ecbe 0472 43be ee54 ffbd
00000300: ae8a 003f 139d e6bd 6eb6 72be 2c9f 42bf
00000310: 5937 c1be b9b4 7cbe e35f 0dbd 5176 da3d
00000320: 7924 b93e 4042 7fbe 3a19 3c3e f842 393e
00000330: 4dba 76be 329e 113f 6984 cdbe 6a35 b83d
00000340: a8fb 0fbe fedc a0be a610 1e3d f436 d13e
00000350: 2082 d23e e824 04bf 095f 21bc 404e a83d
00000360: 74f5 0a3e 257c cb3c 0115 dabd ea7f bcbe
00000370: e872 80be d412 16bd 8b7f 693e b4ea e53c
00000380: 729d 1fbb 1217 3bbd 1367 63be 4f7f acbc
00000390: 8f5d a73d 0522 903e d69d 523e 429a 0abe
000003a0: 556e 413c b383 fd3d 5e43 57bd ff61 bb3d
000003b0: 5455 d03d 811f 64be cd1f 05be 7bcf 993e
000003c0: f10e 99be 947e 01be 6f94 c7bc 887b c4bd
000003d0: b919 ad3e 118c 44bd a878 19be d62b f63d
000003e0: 0dba b2be 79f8 473e 67d2 fbbd 229f 6e3e
000003f0: 7aad bfbe 8cc3 38be 1dea 913d 2337 743e
0.054161403 -0.1386627 0.12848696 0.11888464 -0.1996153 -0.10972574 -0.09301576 0.1007158
-0.11519092 0.06276864 0.020925248 0.054377325 0.06895579 -0.046032544 -0.08297241 0.18007126
-0.15288 0.058774393 -0.037836786 0.17875312 -0.03850859 0.29914176 0.09675122 -0.13969153
0.06722649 0.20767164 0.1351358 0.28981936 0.018450892 -0.040470056 -0.008663637 -0.010509947
0.027791062 0.2096976 -0.16737191 -0.15379567 0.17733963 0.10287606 0.3046363 -0.01482173
0.076250985 0.055137943 0.012506417 0.2131636 -0.023733906 -0.004676556 -0.046707414 -0.105259955
-0.08848283 0.12144721 0.052881423 0.0009929077 -0.04597202 -0.09703878 0.21743709 -0.33241585
-0.043381043 -0.33732805 -0.011946625 0.040088557 0.23867767 0.32080546 0.35341638 -0.26209342
0.09430521 0.5163582 -0.043465476 0.05339392 -0.030250726 -0.25394323 -0.2021747 0.12336397
0.42379123 0.17633723 -0.0617065 -0.36136496 -0.35053122 -0.70534235 -0.021161888 -0.017169822
0.28607616 -0.21751265 0.23334195 0.23914035 -0.2110729 0.40152717 0.065570705 -0.13781188
0.113824554 -0.19576429 -0.30156708 -0.23053598 -0.06205513 0.13955525 -0.13988759 -0.40032786
0.16616406 -0.2235519 -0.130325 -0.0408654 0.26273227 -0.27012303 -0.37057763 0.26330775
-0.23813105 0.14662153 -0.13158025 0.23105511 0.16203995 -0.29833427 -0.4021165 0.03275127
-0.019158268 0.059678458 0.2374463 -0.3388171 -0.25655067 -0.0010404948 0.09525378 0.042126995
0.022486959 -0.04251057 0.014178148 -0.071141414 -0.066310614 -0.26124987 0.13806686 -0.1584465
0.13876575 -0.06987899 0.19369479 -0.2561328 -0.07584767 0.2934694 0.11692334 0.08965438
0.21546443 0.46399406 -0.111839876 0.073604144 -0.3801983 -0.0865006 -0.09942471 0.043717757
0.065024175 -0.22619702 0.108624525 -0.35648054 -0.035039388 -0.019355759 -0.04423553 0.04743523
0.18755317 -0.4649575 -0.16600557 -0.15960577 0.043574188 0.1699254 0.012727235 -0.025888778
-0.19464955 -0.19171774 -0.023275966 -0.091713846 -0.12779616 -0.12958221 0.013422046 0.32174766
0.002124249 -0.07225417 -0.04997857 0.13396096 -0.05551499 0.1245851 0.006493895 -0.317345
0.046220727 -0.2170958 -0.015408067 0.15397954 0.20289151 0.5015725 -0.014016106 -0.4277063
0.10683168 0.57516426 -0.16027269 -0.046496265 0.03936646 -0.46121007 -0.19086462 -0.12467371
0.5021161 -0.11260428 -0.23702404 -0.76024127 -0.3773754 -0.24678315 -0.034515273 0.10667098
0.3616064 -0.24927616 0.18368998 0.18091953 -0.24094506 0.5688201 -0.40140083 0.08994563
-0.14060843 -0.31418604 0.038590096 0.40862238 0.41114902 -0.51618814 -0.009849318 0.0821805
0.13570195 0.02483947 -0.106485374 -0.3681634 -0.25087667 -0.03663905 0.2280256 0.028066017
-0.002435532 -0.0456763 -0.22207288 -0.0210568 0.08172142 0.28150955 0.20568022 -0.13535407
0.01180609 0.12378635 -0.05255448 0.09149551 0.10172525 -0.22277643 -0.13000412 0.30041108
-0.29894212 -0.12645942 -0.02436277 -0.09593874 0.33808687 -0.04798514 -0.14987433 0.1202008
-0.3490757 0.19528379 -0.122959904 0.23302892 -0.3743704 -0.18043345 0.07124732 0.23849158

layers.4.bias f4 [30]
00000000: 38b5 00be ebdf b9bd 6c9a 803c f589 833e
00000010: 9fcd 7cbe 8bfa a13d 7671 543e 55d5 243d
00000020: bc67 6e3e bf23 cbbd 6881 bcbe 420a 2fbe
00000030: 51a0 bd3d 52de 82be 6cc6 6e3e acf6 dabd
00000040: 7ed7 bd3e da76 013e 60b5 24be da0d 5ebe
00000050: 391f a6be 8e14 0bbd b649 833d a79c d0bd
00000060: 0eaf 86bc 20e4 833d 51a0 95bd 07d7 bb3d
00000070: 08cb a2bd 5a0a afbd
-0.1256913 -0.09075912 0.015698634 0.2569119 -0.24687813 0.079091154 0.20746407 0.04024251
0.23281759 -0.099189274 -0.3681748 -0.17093757 0.092590936 -0.25560242 0.2331788 -0.1069158
0.3707847 0.12642995 -0.16084814 -0.21684971 -0.32445696 -0.03395515 0.064105436 -0.10186129
-0.016440894 0.06439996 -0.073059686 0.091718726 -0.079488814 -0.08546896

layers.6.weight f4 [30, 30]
00000000: 6a72 40bd 5e8e 70bd a1ee 883e 1784 cebd
00000010: 1860 45be 37bd 9cbd 97e5 b33e 4cf0 233d
00000020: 8441 ebbd d882 553e fded a43e d282 aabc
00000030: 8fe4 22bd e554 adbd 6a74 9a3d a4ee 80be
00000040: a5bd c4bd 1f75 82bb c230 90bd 7618 173c
00000050: be72 bcbe ef12 ae3d 6193 ec3d 604f 97be
00000060: 3c63 763c 5f44 f8bc 878b c23d 43ab d83d
00000070: 0004 4abd a884 16bd d624 6ebe 867a 133d
00000080: 0c18 b03d 03b7 823d b5f8 3b3e a76b e4bb
00000090: 66ce 2a3e 1ee1 65bd c176 cbbd ab00 c83e
000000a0: a0a0 9cbd 227a cebd 9792 9ebd b85b 723e
000000b0: 0eae 2fbe d08d db3e 809f 6ebc 7bd3 e83d
000000c0: 41ae 86be c67e 6cbd 1087 ad3e d243 0abd
000000d0: 7aaa 32bd 6821 993e bed9 a63d fce5 48be
000000e0: d1d6 6bbe 6a82 563c d48f 9e3e 263c c53e
000000f0: 7e03 82bc 791a 3fbc 5bff 84be abb7 2b3e
00000100: dbe3 9a3e 6a7d 583c a3eb 85be faeb a6bd
00000110: da56 ed3c 2975 a5be c339 81be d304 96bd
00000120: 2e15 833c 3a20 61bc 0e9a d6bc 4100 88be
00000130: 315f 6b3d 9abf 00be 6c06 d2ba 3522 fd3d
00000140: f04b 46be 3eea 543e 5c7c 313e f34f 07bc
00000150: 0579 c0bd afad 003e db14 5b3e c413 05bd
00000160: 8457 0abd e4aa 7cbe d42b 0dbe c43e c53d
00000170: 5dc0 473e c0dd 073e e39c 8e3d edc0 d23d
00000180: 0565 ae3e 072f 253e 44f6 8cbe 2e65 3d3e
00000190: 1a2e fb3c 1843 693c d851 09be db17 813d
000001a0: 0bd6 28bd 5ad2 393e af66 7f3e 5ee7 9a3e
000001b0: 3068 a3be 16a9 90bd 9e16 2f3e aff8 ab3d
000001c0: f1d8 83be c1c4 163e 60cd d83c 60f4 733c
000001d0: 9b75 d5be affd efbd 8cc2 0e3e d2ff 2e3e
000001e0: b9ec fe3d f841 3a3e 6bbf bebe 16db c63e
000001f0: 7c18 363e 8428 d2bd 1ebb 7bbe cf6e 2fbe
00000200: 299c ee3e d740 c4be 038e f2be af75 39be
00000210: b989 30bf b779 9f3e 5146 3dbd 0cf0 de3d
00000220: d829 2bbe 5f6f 153c c26d ebbe 7fe9 0bbf
00000230: 3d23 39be eb56 8fbe 8564 473e ad1a 92bd
00000240: 7527 3c3d 3b3b aebe 7b69 01bd bd6c 903e
00000250: 8768 12be f43c aa3d 4da7 b13d 6c12 3fbd
00000260: 6335 70be c6f9 da3d f4d0 b93e fcbd 1a3e
00000270: dcf8 a1be 9222 3ebe 4f3d d73e ed7d bcbd
00000280: e558 12bd 49cc d2bd 2aeb 48be 07b5 1c3e
00000290: fe31 743d 3978 9cbe 29d3 90be 4bbf 18be
000002a0: 1ee6 463e de11 07be b1a5 dcbe 2a84 f93d
000002b0: 14e0 dd3e d522 a63a 8551 4cbd f13c 87bd
000002c0: a680 443e 9c05 ad3e 3980 efbb b3b7 d8be
000002d0: 59c6 19be 69e6 333e 646a 2c3c 39cf e33c
000002e0: a670 99be 7bb8 fc3c 9f23 703e b496 8ebc
000002f0: 2cfe 443e 8d68 833d 60c1 8fbe 153b 403d
00000300: 756b dbbe d7ef 943c 4d35 0ebe 718d b73e
00000310: ded1 683e 2f1f a1bd ac34 94be 74c4 8dbe
00000320: f37e a53e e26f 63bd 0f74 8ebe 772a ff3d
00000330: 2a47 aa3d 71ef 79be b38f 26be cf36 8dbd
00000340: 7887 dc3c b549 5d3e bda4 973e e65c fdbc
00000350: 2ee5 96be db28 3e3e d558 793d 4ae4 bfbd
00000360: 814e e6be 21fe 94be 5742 543e a1f5 30be
00000370: f490 cfbe eeb4 b2bb 81ea 2f3e 1ee6 633e
00000380: 0f83 3dbe 8810 deba 10e9 5cbd 6855 55be
00000390: 5c48 56bd 1684 c73b 5535 803e 6181 6ebd
000003a0: bbf1 a93e 747d febc 4ac4 0cbe eb15 413e
000003b0: d9ae 4e3e 78be 013e 844a 06be c502 d9be
000003c0: 2c53 b03d de70 b33d b051 7ebe fcda 54bd
000003d0: 9a1c 733e 7a8f 0a3d 021c bdbe ba31 c4bd
000003e0: 8891 25be e4fe e93c f8f3 353e 597f 56be
000003f0: 8ba0 eebc 9b64 a03e 8bd9 e5bd ed33 063e
-0.046984114 -0.058729522 0.2674456 -0.10083788 -0.19274938 -0.07653277 0.351361 0.040024087
-0.114871055 0.20850694 0.3221282 -0.020814333 -0.03976875 -0.08463458 0.075417355 -0.25182068
-0.09606484 -0.003981247 -0.0704055 0.009222141 -0.3680629 0.08499705 0.11551548 -0.29552746
0.015038308 -0.03030604 0.09499269 0.105795406 -0.04932022 -0.036747605 -0.2325624 0.03600552
0.085983366 0.06382563 0.18356593 -0.006970841 0.16680297 -0.05612289 -0.0993476 0.3906301
-0.07647824 -0.10081889 -0.077428035 0.236678 -0.1715624 0.42881632 -0.014564395 0.11368462
-0.2630482 -0.057738088 0.33892107 -0.033756085 -0.04361961 0.299083 0.08147 -0.19618982
-0.23031165 0.013092617 0.30969107 0.38522452 -0.015870806 -0.011664026 -0.2597607 0.16769283
0.30251965 0.013213495 -0.2615634 -0.08150478 0.028972078 -0.3231595 -0.2523938 -0.07325139
0.01600131 -0.013740594 -0.026196506 -0.26562694 0.05746383 -0.1257309 -0.0016023642 0.1236004
-0.19364905 0.20792481 0.17332596 -0.0082588075 -0.09398083 0.12566255 0.21394674 -0.032489553
-0.033774868 -0.24674565 -0.1378625 0.09631112 0.19506975 0.13268185 0.069635175 0.10290704
0.34061447 0.16131221 -0.27531636 0.18495628 0.030661631 0.014237188 -0.13410127 0.06303378
-0.041219752 0.18146649 0.24941514 0.30254644 -0.31915426 -0.070635006 0.17098472 0.08397042
-0.2575145 0.14723493 0.026465118 0.0148898065 -0.41691288 -0.11718308 0.13941401 0.17089775
0.12447495 0.18189228 -0.37255415 0.38839024 0.17782778 -0.10261634 -0.24583098 -0.17132114
0.46603516 -0.3833072 -0.4737397 -0.18111299 -0.6896015 0.3114755 -0.046209637 0.10885629
-0.16715181 0.009120791 -0.45982176 -0.5465316 -0.18079849 -0.27996 0.19471939 -0.07133994
0.045936067 -0.34029564 -0.031594735 0.2820796 -0.14297687 0.08312407 0.08674488 -0.046648428
-0.23457865 0.10692172 0.3629223 0.15111536 -0.31635177 -0.18567875 0.42038962 -0.09203706
-0.035729308 -0.102928706 -0.19620958 0.15303431 0.05961799 -0.30560473 -0.28286102 -0.14916722
0.1942372 -0.1319041 -0.43095163 0.121834114 0.4333502 0.0012675176 -0.04988243 -0.066034205
0.191897 0.33793342 -0.0073089865 -0.4232765 -0.1501707 0.17568363 0.010523412 0.027808772
-0.29968756 0.030849686 0.23451088 -0.017405845 0.19237584 0.06416426 -0.2807722 0.046931345
-0.4285542 0.01818077 -0.1388752 0.358501 0.22736308 -0.07867276 -0.28946435 -0.27688944
0.32323417 -0.05552662 -0.2782292 0.124592714 0.08314355 -0.24407746 -0.16265754 -0.068952195
0.026920065 0.21610148 0.29617873 -0.030928086 -0.29471725 0.18570273 0.060875732 -0.093697146
-0.4498177 -0.29100135 0.20728432 -0.172812 -0.40540278 -0.0054536974 0.171793 0.22255751
-0.18507026 -0.0016942183 -0.053933203 -0.20833361 -0.0523151 0.006088744 0.2504069 -0.058228854
0.33192238 -0.03106568 -0.13746753 0.18856017 0.20183887 0.12670314 -0.13114363 -0.42384925
0.08609614 0.08761762 -0.24835849 -0.051966652 0.2374138 0.033828236 -0.3693543 -0.09579797
-0.16168797 0.028563924 0.17768848 -0.20947017 -0.029129287 0.31326756 -0.11223134 0.13105746

layers.6.bias f4 [30]
00000000: 3923 8bbd f83e 693d cef4 f8bc 8925 f53d
00000010: 1436 523e 5316 483e 806f 2c3d 54e2 0cbe
00000020: 265a 423e 6010 0b3e d23a 9fbc fbb6 403e
00000030: 4019 0bbe aeaa ae3e 19c5 fb3c 08c1 4f3e
00000040: b94d b03d fce3 2dbe d9a2 7f3d 9067 75ba
00000050: dcfd 95bd 808a c03d ec82 053d e136 053e
00000060: 7efb 9abd 9869 45bc b7c4 783d 2dc0 cbbd
00000070: fe16 ec3c 6167 17be
-0.067938276 0.056944817 -0.03039017 0.1197005 0.20528442 0.19539766 0.042098522 -0.13758212
0.18979701 0.13580465 -0.019437227 0.18819802 -0.13583851 0.34114593 0.030733632 0.2028848
0.086085744 -0.169815 0.062411163 -0.00093614403 -0.073238105 0.09401417 0.03259556 0.13009216
-0.075674996 -0.012049101 0.060734477 -0.09948764 0.028819557 -0.1478553

layers.8.weight f4 [3, 30]
00000000: a403 a23e 98aa 91be 67d4 e8bc e73e f4be
00000010: d167 bb3f dd7b 3e3f da76 373e d9f0 b0bd
00000020: ca74 273f ad3a afbf 8ebb 1b3d 2a72 683f
00000030: 916b f8be 723f d33e d9ae c9be 0c06 bf3e
00000040: 1796 e73e 7cb4 a8be 6e26 563f 42b4 973e
00000050: 5159 af3f a3bd 95bf e9a7 d2be 7dad 89be
00000060: ae77 e9be ab48 4c3e 2102 f3be a310 0dbf
00000070: 86b8 483e 35bb 403d b57b f3be 7be8 95be
00000080: 2613 5c3e 5565 a1be 9fb6 013f 749c f13e
00000090: 4338 263e 1255 393f 872f 1b3f 1d9f 7d3f
000000a0: 451f 30bf 3837 15bf ad8d 833f 7263 ec3e
000000b0: 2fd6 b13e 43a8 fa3e aaa2 9dbf 5cd2 d5be
000000c0: a9b0 33bf d38f 8abd 66e2 033f e371 6dbf
000000d0: f924 943f 17a8 603e 2a41 ffbe 9615 16bf
000000e0: e30b 973f 5282 cbbe b21f 163e 3813 3f3e
000000f0: 4fbc fbbe 5f80 493f fe36 b4be f01e b53e
00000100: 5cc4 703f 4ab3 e8be 7129 553f 269e 263e
00000110: d333 083e 6326 3c3f 3a12 12bf 5540 913e
00000120: 757c 583e 89f5 99bf d52c a83e e472 293f
00000130: a84e 4d3f ad31 98bf 557a 92be d207 13bf
00000140: 7194 183f 7a60 5f3e c364 1e3e 9f5e fabf
00000150: c960 a93f 9cbe 613f a078 e7bd 2eff f43c
00000160: 0911 203f 217a 9c3f
0.31643403 -0.28450465 -0.028421594 -0.4770424 1.4641057 0.7440775 0.17916432 -0.08639688
0.6541258 -1.3689781 0.038020663 0.907992 -0.48519567 0.41259342 -0.3939121 0.373093
0.45231697 -0.329502 0.8365239 0.29629713 1.3699132 -1.1698498 -0.4114373 -0.26890174
-0.4559912 0.19949596 -0.47462562 -0.5510351 0.1960164 0.047053535 -0.47555318 -0.2927893
0.2149168 -0.31522623 0.5066928 0.47189677 0.162324 0.7239543 0.60619396 0.9907091
-0.68797714 -0.5828738 1.0277611 0.4616962 0.34733722 0.48956499 -1.2315266 -0.41762054
-0.70191437 -0.067657135 0.5151733 -0.927519 1.1573783 0.21939121 -0.49854404 -0.5862669
1.1800503 -0.39747864 0.14660528 0.18659675 -0.49167106 0.78711504 -0.35198206 0.35375166
0.9404962 -0.45449287 0.8326636 0.16271266 0.1330102 0.73496073 -0.5705906 0.28369394
0.21141227 -1.2028056 0.32846704 0.66190934 0.80198145 -1.189016 -0.28608957 -0.5743381
0.59601504 0.21814147 0.15468125 -1.9560126 1.3232661 0.8818147 -0.11302304 0.029906835
0.62525994 1.2224771

layers.8.bias f4 [3]
00000000: c440 c63f 056b b6be b292 23be
1.5488515 -0.35628524 -0.15973929
