PINN's/BURGERS/Burgers_Collocation/Models/100_25.pth (torch, 17546 bytes, 17 tensors)

layers.0.weight f4 [20, 2]
0.41479123 -0.2842824 1.0549558 0.08381805 0.0821076 0.21873054 -0.56390697 -0.10469512
0.05577986 -0.09911059 0.428699 0.21841012 0.7929972 0.38623655 0.31346634 -0.07722148
-0.18950069 0.45500666 -0.9521822 0.22356604 0.030641448 0.09271799 -0.52896297 0.11207361
0.44102275 0.19813028 -0.4132083 -0.6471018 0.50759137 -0.26409003 0.59666246 -0.30228564
0.40352485 0.17616265 0.2305664 -0.09535838 -0.52405506 0.6208465 -0.59122026 0.15757145
00000000: 845f d43e 768d 91be cb08 873f cca8 ab3d
00000010: 0828 a83d e6fa 5f3e 355c 10bf 656a d6bd
00000020: 6c79 643d 7efa cabd 6f7e db3e e7a6 5f3e
00000030: dd01 4b3f ccc0 c53e a97e a03e 4c26 9ebd
00000040: 780c 42be a2f6 e83e 36c2 73bf 7fee 643e
00000050: c603 fb3c eee2 bd3d 1e6a 07bf d986 e53d
00000060: bccd e13e aae2 4a3e 0a90 d3be 77a8 25bf
00000070: 82f1 013f cf36 87be dfbe 183f 2fc5 9abe
00000080: cf9a ce3e fb63 343e 9919 6c3e 414b c3bd
00000090: 7928 06bf ccef 1e3f 365a 17bf 695a 213e

layers.0.bias f4 [20]
0.0082796095 -0.09608359 0.34866884 -0.53959614 -0.26741782 0.07426545 -0.10764655 -0.3968713
-0.6790973 0.7131318 0.32813546 0.47851503 -0.040073838 -0.4969475 0.0107776215 -0.39639667
-0.58448166 0.6040242 -0.4851397 0.53777176
00000000: 33a7 073c 79c7 c4bd b984 b23e f922 0abf
00000010: fdea 88be 7c18 983d cb75 dcbd b732 cbbe
00000020: 52d9 2dbf ce8f 363f 5f01 a83e ecff f43e
00000030: 7724 24bd e76f febe 9f94 303c 81f4 cabe
00000040: 97a0 15bf 54a1 1a3f 3b64 f8be 69ab 093f

layers.2.weight f4 [20, 20]
-0.13780586 0.2732933 -0.30787674 0.093867764 0.11955039 0.1386818 0.22967266 0.21301168
0.17926814 -0.2601255 -0.47211796 0.08392987 0.31487325 0.21816623 -0.19156967 0.1363027
-0.07949576 -0.20459987 -0.042974427 0.10226978 0.25803596 -0.049095757 0.022121388 -0.094689935
0.3403755 0.017192874 -0.0154587785 0.17476007 0.045924224 0.1907185 -0.30360144 -0.52074254
-0.10552118 -0.104624145 0.20978045 0.023162086 0.43308133 -0.18577564 0.11206232 -0.15360354
0.277423 0.049349867 0.1376464 0.087299705 0.13444577 0.015982278 0.019094946 0.12548643
0.03261653 0.04119226 -0.023358054 0.15334117 0.2698775 0.037195727 -0.30759546 -0.2934366
0.31408757 -0.23585224 0.1913358 0.23383129 0.16073051 -0.23249981 0.06281541 -0.2268892
0.060988337 -0.26481023 -0.053340707 0.0013392874 0.52435124 -0.124403894 0.016153079 0.006179334
-0.22204544 -0.24427447 0.022391452 -0.0259231 0.113688946 0.05330588 -0.14345439 0.08628171
-0.12655365 0.27967006 -0.16282862 -0.006998472 0.03724527 0.13768515 0.049824193 -0.12797166
0.09126304 -0.21027693 -0.063398 0.15055671 -0.051452994 0.05374363 -0.11849238 -0.05474996
0.15627131 -0.09639137 0.115949295 0.22901417 -0.43354735 0.25209162 0.23414536 -0.042125054
-0.43833026 -0.040480834 -0.2690735 -0.12494928 -0.0018749499 -0.026926536 0.18800028 0.07446233
-0.15656632 -0.059221793 0.03312818 -0.22030167 -0.042456675 -0.15514727 0.10567252 0.108844616
0.11365156 0.11664381 0.0304735 0.09776778 0.08444925 0.17522275 0.0539429 0.48157287
0.19360521 -0.32734174 0.111972675 0.11830489 -0.07472271 0.30883124 -0.11207856 -0.105941236
0.32471022 0.33685294 0.1056301 0.13233347 -0.17638078 -0.0033315273 -0.071091436 0.49723938
0.058684897 -0.14673145 0.008273982 -0.27101955 -0.044447936 -0.14195977 -0.49326035 0.10762326
-0.14969236 -0.20076388 -0.2048554 0.43997204 -0.2913073 0.20505609 -0.46142688 -0.03789804
0.17090908 0.3120149 0.03428928 -0.33769858 -0.21782564 0.28018507 0.12088511 0.05902849
0.25038248 -0.24355394 0.12728837 0.44362858 0.48242944 -0.13072546 -0.1861654 -0.30302638
-0.2078629 0.01589953 0.3161778 0.51610863 -0.07579723 -0.13487613 -0.19810356 -0.17123052
-0.064347796 -0.32649842 -0.2831348 -0.17358126 0.53498334 -0.1441501 0.2716678 -0.07608745
-0.3591858 -0.33008844 0.21353886 -0.2267966 0.23102319 0.22112858 0.17057495 -0.18667318
-0.37956262 0.13311812 -0.16037261 0.24533784 0.30344918 0.21377158 0.27130166 0.0522618
-0.25779593 -0.00055858097 -0.06664022 -0.16976042 -0.054623332 0.11087459 0.10213103 -0.016283762
-0.12916037 -0.046323538 -0.28458652 -0.014212267 0.18897855 0.36877328 0.1474609 0.44362733
-0.15268949 -0.015853645 0.2506125 -0.15168603 0.13790196 0.18348983 -0.07777675 0.33398813
0.3300027 0.35292205 0.080364846 -0.037037674 -0.43040854 -0.11827352 -0.070839904 0.25288895
-0.074594095 0.10615938 -0.07712358 -0.19660252 -0.29478765 -0.2717411 -0.5858271 -0.5166932
-0.22359021 0.049965914 0.35111412 0.18319903 0.1599905 -0.6374183 0.23387071 -0.002853292
00000000: fb1c 0dbe 19ed 8b3e 05a2 9dbe be3d c03d
00000010: d6d6 f43d 9a02 0e3e 4f2f 6b3e bc1f 5a3e
00000020: 1192 373e 2b2f 85be 72b9 f1be 6ce3 ab3d
00000030: 1137 a13e f866 5f3e d72a 44be ef92 0b3e
00000040: acce a2bd a182 51be f405 30bd d272 d13d
00000050: 4a1d 843e a218 49bd ea37 b53c ccec c1bd
00000060: b345 ae3e 12d8 8c3c d146 7dbc 4ef4 323e
00000070: 0a1b 3c3d b64b 433e a671 9bbe 624f 05bf
00000080: 7d1b d8bd 2f45 d6bd b0d0 563e 6abe bd3c
00000090: d6bc dd3e f83b 3ebe ee80 e53d 3f4a 1dbe
000000a0: 630a 8e3e 1623 4a3d 2ef3 0c3e 30ca b23d
000000b0: 27ac 093e 44ed 823c 016d 9c3c 847f 003e
000000c0: e998 053d 37b9 283d 6459 bfbc 7805 1d3e
000000d0: 622d 8a3e 8c5a 183d 277d 9dbe 523d 96be
000000e0: 16d0 a03e 4083 71be 88ed 433e 7871 6f3e
000000f0: 8a96 243e 6e14 6ebe 5ea5 803d a455 68be
00000100: e8ce 793d 3595 87be c97b 5abd 078b af3a
00000110: e23b 063f 78c7 febd 7653 843c 037c ca3b
00000120: e15f 63be 1623 7abe 476e b73c ae5c d4bc
00000130: c0d5 e83d 4457 5a3d b5e5 12be 77b4 b03d
00000140: 4897 01be ea30 8f3e 8cbc 26be 7053 e5bb
00000150: 7f8e 183d 56fd 0c3e 7414 4c3d 010b 03be
00000160: 1ee8 ba3d d652 57be d0d6 81bd 8a2b 1a3e
00000170: 60c0 52bd 4822 5c3d 22ac f2bd 7e41 60bd
00000180: 9605 203e d768 c5bd d376 ed3d b182 6a3e
00000190: ebf9 ddbe 2712 813e cdc3 6f3e 528b 2cbd
000001a0: d36c e0be 3bcf 25bd 00c4 89be 68e5 ffbd
000001b0: e1c0 f5ba 0a95 dcbc 2583 403e b57f 983d
000001c0: ec52 20be 8d92 72bd 6ab1 073d c396 61be
000001d0: 0de7 2dbd edde 1ebe d66a d83d ede9 de3d
000001e0: 26c2 e83d f3e2 ee3d 90a3 f93c 793a c83d
000001f0: baf3 ac3d 986d 333e 3bf3 5c3d b890 f63e
00000200: 7240 463e 5699 a7be ee51 e53d d649 f23d
00000210: 3808 99bd 211f 9e3e 7289 e5bd b8f7 d8bd
00000220: 6b40 a63e fd77 ac3e 9854 d83d 6d82 073e
00000230: 2a9d 34be c155 5abb 6398 91bd 2996 fe3e
00000240: 935f 703d c540 16be 998f 073c 13c3 8abe
00000250: 0a0f 36bd e75d 11be 9f8c fcbe 9569 dc3d
00000260: f448 19be 0c95 4dbe 9dc5 51be 0444 e13e
00000270: 3b26 95be 39fa 513e 2540 ecbe fa3a 1bbd
00000280: ca02 2f3e 6bc0 9f3e eb72 0c3d d4e6 acbe
00000290: af0d 5fbe 6b74 8f3e 9d92 f73d dcc7 713d
000002a0: 2232 803e 3466 79be e257 023e 4923 e33e
000002b0: fe00 f73e e5dc 05be 25a2 3ebe 4626 9bbe
000002c0: 03da 54be bb3f 823c 0ee2 a13e b21f 043f
000002d0: 943b 9bbd f81c 0abe a9db 4abe 0e57 2fbe
000002e0: c7c8 83bd cd2a a7be 0bf7 90be 49bf 31be
000002f0: abf4 083f 159c 13be 0b18 8b3e bdd3 9bbd
00000300: 34e7 b7be 5a01 a9be eea9 5a3e 5e3d 68be
00000310: 5891 6c3e 886f 623e 33ab 2e3e 4127 3fbe
00000320: 0856 c2be 1e50 083e b838 24be d839 7b3e
00000330: b15d 9b3e f0e6 5a3e 0de8 8a3e 7810 563d
00000340: d4fd 83be bc6d 12ba ab7a 88bd add5 2dbe
00000350: b7bc 5fbd 3812 e33d 132a d13d 8665 85bc
00000360: 9e42 04be c0bd 3dbd 53b5 91be 91da 68bc
00000370: 9883 413e dacf bc3e fdff 163e 1f23 e33e
00000380: a25a 1cbe 81df 81bc 4850 803e 9553 1bbe
00000390: 2c36 0d3e c2e4 3b3e 6b49 9fbd 7e00 ab3e
000003a0: 1df6 a83e 33b2 b43e 5396 a43d d1b4 17bd
000003b0: 825e dcbe 6339 f2bd 8314 91bd a97a 813e
000003c0: cac4 98bd 176a d93d f8f2 9dbd 2c52 49be
000003d0: 68ee 96be a621 8bbe c4f8 15bf 0146 04bf
000003e0: d5f4 64be 0fa9 4c3d 3bc5 b33e 8798 3b3e
000003f0: 8dd4 233e d92d 23bf ce7b 6f3e 4cfe 3abb

layers.2.bias f4 [20]
-0.5778145 -0.15536328 0.08627919 0.121936575 0.16162759 0.030933604 0.0855756 -0.39456356
0.48528615 0.29269922 0.14750361 -0.0690911 0.36343852 -0.30258343 0.4619125 0.114576675
-0.38018054 0.3809259 -0.31445342 -0.5462119
00000000: a7eb 13bf 8d17 1fbe 25b3 b03d e2b9 f93d
00000010: b481 253e 7868 fd3c 4342 af3d 3c04 cabe
00000020: 6d77 f83e acdc 953e 300b 173e a27f 8dbd
00000030: 9d14 ba3e 37ec 9abe cc7f ec3e 2da7 ea3d
00000040: 06a7 c2be b808 c33e 0a00 a1be 8bd4 0bbf

layers.4.weight f4 [20, 20]
-0.16130273 0.19866258 0.18730736 -0.22045381 0.12380645 -0.23634937 -0.043174498 -0.087619625
-0.023106521 -0.2072533 -0.07187407 -0.11960171 -0.2041799 -0.000505825 0.18399775 0.00044779057
-0.074881546 0.21571696 0.03074975 -0.15764269 0.09436365 0.055378433 0.15550125 -0.019457953
-0.30912015 -0.36341405 0.035962638 -0.24525575 0.012544559 -0.10701723 -0.07737286 -0.079566896
-0.18121716 0.16785288 0.06251161 -0.018595569 0.025027225 0.5641673 -0.016230648 -0.107932016
0.088945895 -0.24024148 -0.17942514 -0.068318024 0.21882665 0.020321736 -0.06688452 0.1700968
0.0020268594 -0.25705326 0.17225921 0.060115438 -0.080487095 0.4988426 -0.4448258 -0.13256069
0.14824562 -0.5829773 0.4479221 0.1819761 0.16005428 0.021547081 0.06891741 0.07389159
0.18697602 0.1377635 0.03783888 -0.6351082 0.7199169 0.25924125 -0.067173794 -0.21863954
-0.2498789 -0.22733212 -0.16622004 0.35831872 -0.14540033 -0.57385033 -0.3801937 -0.37778923
-0.11492521 -0.18995015 -0.062053125 -0.16767922 0.05011114 0.25950873 -0.16359018 -0.21963072
0.20779553 0.18019463 0.03089544 -0.091412365 0.30415642 -0.15010646 0.38439128 -0.032887205
-0.2746182 0.20396413 -0.08579151 -0.0754357 -0.2647694 -0.10567072 -0.113399975 -0.22947998
0.049138445 0.061491437 0.01909916 0.05924582 -0.02744213 -0.0992248 -0.07866436 0.14820077
0.088563375 0.14595884 0.21820931 -0.04880623 0.05966037 0.23660727 -0.016939433 -0.05502016
0.12010526 -0.21916959 -0.22046031 -0.3599374 -0.08435621 -0.031118296 0.00043530847 0.18367462
-0.19672142 -0.07127171 0.19831133 -0.0063723093 -0.20013137 0.02951062 -0.16183823 -0.32425216
-0.019131005 0.062468138 0.08569943 0.21564893 -0.034756593 0.13107744 -0.30176297 -0.26225513
-0.28684622 -0.104602404 -0.21639816 0.13247934 -0.41829473 -0.12745725 0.19209395 -0.28291595
0.0017333629 0.354889 -0.0428346 -0.16619676 -0.08996022 0.44655776 0.081333525 0.38705707
-0.301125 -0.09099501 -0.209517 0.07540534 -0.1385323 -0.054996025 -0.17967051 -0.022471536
0.02982195 0.138302 -0.038203016 -0.16215575 0.24322754 -0.23487106 0.20570464 -0.034795348
0.14306444 0.50616926 -0.1444201 -0.28962862 -0.05946149 0.13389017 0.07221958 0.09772787
-0.07386312 -0.015523012 -0.21172808 0.21478003 -0.23570369 -0.09306945 0.15895373 -0.13606562
-0.091871396 0.14943355 -0.018060124 -0.16342257 0.12305231 0.5306303 -0.13284947 0.033801533
0.1615122 -0.09299208 -0.08132001 -0.20458879 0.2524871 0.053433165 0.2888836 0.085463345
-0.24576703 -0.066983745 0.0884545 0.20512569 -0.14226551 0.5097663 -0.27887532 -0.13823052
0.052784517 -0.3518148 0.14184226 0.013496258 -0.06000397 -0.21822825 0.36458644 0.025994426
0.010187978 -0.006560986 -0.14678612 0.071186505 0.31158057 -0.18531881 -0.066983506 0.19053113
0.04089115 -0.063704506 0.087359555 0.03383163 0.13372011 -0.02816162 0.21157514 -0.09137397
-0.23634924 0.11057756 0.22856756 0.24466443 0.11578187 -0.02385912 0.28414452 -0.004317635
0.16454674 0.12188163 0.07814959 -0.03486167 -0.35442123 -0.0034029651 -0.17069644 -0.04859062
00000000: 8b2c 25be 346e 4b3e 80cd 3f3e a5be 61be
00000010: 3c8e fd3d 9205 72be bed7 30bd eb71 b3bd
00000020: e349 bdbc 363a 54be b632 93bd bef1 f4bd
00000030: 8914 51be 5799 04ba e869 3c3e 6fc5 ea39
00000040: 7f5b 99bd e8e4 5c3e e6e6 fb3c 166d 21be
00000050: bb41 c13d 7fd4 623d b83b 1f3e 4966 9fbc
00000060: ff44 9ebe 6811 babe 8f4d 133d 5324 7bbe
00000070: b287 4d3c d92b dbbd a975 9ebd f8f3 a2bd
00000080: fe90 39be a0e1 2b3e 1606 803d bc55 98bc
00000090: e505 cd3c 456d 103f 23f6 84bc 760b ddbd
000000a0: 4429 b63d dd01 76be 39bb 37be 52ea 8bbd
000000b0: 1814 603e c579 a63c c0fa 88bd db2d 2e3e
000000c0: 0fd5 043b 7c9c 83be b864 303e 9b3b 763d
000000d0: 6bd6 a4bd 4c68 ff3e 35c0 e3be fdbd 07be
000000e0: b3cd 173e 003e 15bf 0c56 e53e f157 3a3e
000000f0: 45e5 233e 8183 b03c 9224 8d3d 7954 973d
00000100: a476 3f3e e011 0d3e f1fc 1a3d 7396 22bf
00000110: 794c 383f 45bb 843e 6a92 89bd 0be3 5fbe
00000120: 41e0 7fbe c0c9 68be 9635 2abe 8d75 b73e
00000130: d3e3 14be dbe7 12bf c0a8 c2be 976d c1be
00000140: e95d ebbd 4b82 42be 6b2b 7ebd 1ab4 2bbe
00000150: 5741 4d3d 54de 843e 2f84 27be e0e6 60be
00000160: 5ac8 543e f184 383e 6f18 fd3c 6836 bbbd
00000170: 64ba 9b3e 82b5 19be efce c43e bcb4 06bd
00000180: c29a 8cbe f9db 503e 76b3 afbd 087e 9abd
00000190: db8f 87be e469 d8bd 3f3e e8bd cdfc 6abe
000001a0: 6545 493d 72de 7b3d d775 9c3c bfab 723d
000001b0: 51ce e0bc 5f36 cbbd c81a a1bd f1c1 173e
000001c0: b760 b53d 3c76 153e 4372 5f3e 0be9 47bd
000001d0: 6f5e 743d 2d49 723e 91c4 8abc d25c 61bd
000001e0: bff9 f53d fe6d 60be 59c0 61be b749 b8be
000001f0: f3c2 acbd cceb febc 1d3a e439 3315 3c3e
00000200: 5771 49be e7f6 91bd 2012 4b3e cece d0bb
00000210: 3def 4cbe 41c0 f13c ecb8 25be 6104 a6be
00000220: a0b8 9cbc 97de 7f3d 2f83 af3d 13d3 5c3e
00000230: ee5c 0ebd 2a39 063e ad80 9abe 4e46 86be
00000240: 82dd 92be c939 d6bd 7b97 5dbe aaa8 073e
00000250: ba2a d6be 2784 02be 47b4 443e 5cda 90be
00000260: 0232 e33a 03b4 b53e 5573 2fbd 7c2f 2abe
00000270: 103d b8bd 38a3 e43e 3192 a63d 582c c63e
00000280: 0e2d 9abe 985b babd a08b 56be 1d6e 9a3d
00000290: 69db 0dbe 8343 61bd 8cfb 37be 3a16 b8bc
000002a0: 294d f43c 0a9f 0d3e c47a 1cbd 280c 26be
000002b0: a410 793e 0a82 70be 3da4 523e 9185 0ebd
000002c0: 7c7f 123e 4f94 013f dde2 13be 344a 94be
000002d0: e48d 73bd 811a 093e dce7 933d 8d25 c83d
000002e0: 8c45 97bd 3b54 7ebc 3fcf 58be 4cef 5b3e
000002f0: 4f5c 71be 329b bebd c4c4 223e c954 0bbe
00000300: 1227 bcbd 1c05 193e d3f2 93bc 3f58 27be
00000310: d902 fc3d 63d7 073f b109 08be 7a73 0a3d
00000320: 7463 253e a272 bebd 1b8b a6bd b97f 51be
00000330: fd45 813e bcdc 5a3d 8de8 933e 6807 af3d
00000340: 5aaa 7bbe c62e 89bd a227 b53d 780c 523e
00000350: 0dae 11be 0b80 023f bfc8 8ebe 4d8c 0dbe
00000360: 9434 583d 1221 b4be 193f 113e 691f 5d3c
00000370: b9c6 75bd 3a77 5fbe 13ab ba3e 43f2 d43c
00000380: 7aeb 263c 8afd d6bb 1a4f 16be 3bca 913d
00000390: 7d87 9f3e 37c4 3dbe a62e 89bd 981a 433e
000003a0: 7a7d 273d 8277 82bd 91e9 b23d 0993 0a3d
000003b0: eded 083e 33b3 e6bc 27a7 583e 4722 bbbd
000003c0: 8905 72be 7d76 e23d 9d0d 6a3e 5089 7a3e
000003d0: 0c1f ed3d 3474 c3bc 647b 913e f37a 8dbb
000003e0: f17e 283e 139d f93d e40c a03d 1ccb 0ebd
000003f0: b376 b5be 4804 5fbb 0ccb 2ebe f506 47bd

layers.4.bias f4 [20]
-0.03508487 -0.05076891 -0.29143003 0.6763147 0.2861831 0.13390586 0.050530452 -0.26253158
0.1991004 -0.08345797 -0.27295306 0.2253403 -0.1397274 -0.18589443 -0.57802284 0.07166514
-0.036293447 0.29089034 -0.2592876 -0.017718485
00000000: 27b5 0fbd 10f3 4fbd 5136 95be f622 2d3f
00000010: 9786 923e 9e1e 093e 05f9 4e3d 8a6a 86be
00000020: fae0 4b3e 03ec aabd 81c0 8bbe 9cbf 663e
00000030: b314 0fbe 1c5b 3ebe 4ef9 13bf 2cc5 923d
00000040: 70a8 14bd 94ef 943e 58c1 84be 5b26 91bc

layers.6.weight f4 [20, 20]
0.025040753 0.2796298 0.23190156 0.13502596 -0.18017754 0.11257716 0.2054789 -0.17482503
-0.25974464 -0.0163202 0.18106906 0.13637935 -0.04172147 -0.24440977 0.29917994 -0.1614992
-0.031709343 -0.23060703 -0.024981916 -0.30906823 -0.0609546 0.031769793 0.0074267136 -0.0057549346
0.04815859 -0.07972181 0.023359494 0.021856407 0.17167665 -0.12943871 0.15036976 0.17573231
-0.10875006 -0.14991301 0.18613152 -0.15374532 -0.100229494 0.006949666 0.025003316 0.17675652
0.11039384 0.17901947 -0.20363747 0.014501321 0.023859536 -0.16687326 0.3190716 0.1667188
0.1605137 -0.024264975 -0.17477745 -0.15168688 0.06671613 0.08820083 0.11372299 -0.086614475
0.051667567 -0.18832651 -0.060617726 -0.01601189 0.08719855 -0.07698682 0.17017105 -0.100765556
-0.023174163 -0.010379605 0.07483369 0.10426933 -0.010440224 0.21883987 0.24470274 -0.09716469
0.036537908 -0.19677301 0.16740878 -0.093301594 0.009087699 -0.32324973 -0.3030648 -0.15934703
-0.117674515 -0.214909 0.5540173 0.49581632 -0.38029096 -0.32351366 0.09676004 -0.39691213
-0.37103257 -0.08497399 0.3540614 -0.16229089 -0.1854105 0.11019957 0.25142658 0.22678871
-0.18080305 0.15897885 -0.05720241 -0.4927901 -0.019159071 -0.28193805 -0.051992558 -0.10279166
0.1345928 0.16043378 0.14179651 -0.11406277 -0.12476251 0.00073590974 -0.089813374 0.015343744
-0.24224016 0.18604992 0.12653029 0.06697865 -0.07442026 -0.07685643 -0.14883585 0.0054910327
-0.12397425 -0.007936296 -0.11011473 0.17079899 0.082471125 -0.21996364 -0.045467 -0.12049117
0.0005132073 -0.19689949 0.05816737 0.22873259 0.1282455 0.11761226 0.15656117 0.096364655
0.016526312 0.24742481 -0.09471363 -0.26930836 0.049809694 0.13874866 0.1596442 0.24104391
0.14139019 -0.080443345 -0.1347001 -0.15277493 -0.013270592 0.07831069 0.1851991 -0.095225796
0.20337698 -0.024094442 -0.13651252 -0.075777255 0.10516148 0.1117738 -0.182254 -0.048388023
0.11363552 0.16783015 0.044227473 -0.3040588 -0.070837855 0.17156547 0.23555833 0.16424668
0.10911492 0.15204234 0.18798403 -0.24262208 0.13443615 -0.010459009 -0.22124189 -0.17052792
0.21115099 -0.027595175 -0.052353792 -0.021567289 0.013542247 0.10653134 -0.1842461 -0.02722753
-0.16312763 0.08494279 -0.30123904 -0.2963547 0.121005096 -0.22291787 -0.15478684 0.0013413627
0.027150761 0.15846443 0.065023705 0.24215966 0.1780234 0.014755173 0.22145776 -0.06761797
0.16967791 0.07904414 0.118460074 0.14377901 0.0056622196 0.12654452 0.18016672 0.1370385
0.056618407 0.08622402 0.30604038 -0.1504641 0.21861768 0.14856851 0.32467085 -0.28434923
0.06041572 -0.27722204 -0.21052311 0.17361493 0.20870747 0.14358848 -0.2647447 0.39420208
-0.2210979 0.11814681 -0.3301818 -0.23446777 0.04569021 0.20356387 -0.27803674 0.04007377
0.2879116 -0.071961194 0.21730465 0.18877156 0.2237425 -0.019434286 -0.12278699 -0.118309654
-0.048108973 0.22189291 0.057457067 -0.06523597 -0.13346101 0.13403262 0.056893505 -0.08285032
0.010947986 -0.09054105 -0.12815793 -0.04876148 0.18554215 0.037975103 -0.14737293 -0.0034562373
00000000: 4422 cd3c a32b 8f3e 9a77 6d3e 3f44 0a3e
00000010: 7680 38be db8e e63d 1069 523e 5505 33be
00000020: 40fd 84be f1b1 85bc 2b6a 393e 07a7 0b3e
00000030: 22e4 2abd 8e46 7abe 1d2e 993e 0c60 25be
00000040: a8e1 01bd 4024 6cbe e0a6 ccbc 313e 9ebe
00000050: 88ab 79bd 0b21 023d ca5b f33b e493 bcbb
00000060: f141 453d 3045 a3bd 695c bf3c 350c b33c
00000070: 01cc 2f3e 958b 04be 88fa 193e 2cf3 333e
00000080: 5ab8 debd cc82 19be 4399 3e3e 6a6f 1dbe
00000090: 1f45 cdbd 06ba e33b c1d3 cc3c a9ff 343e
000000a0: 2a16 e23d e150 373e 5786 50be f396 6d3c
000000b0: 1375 c33c d3e0 2abe 5a5d a33e 55b8 2a3e
000000c0: b45d 243e 57c7 c6bc dcf8 32be ce53 1bbe
000000d0: 77a2 883d a3a2 b43d 99e7 e83d ee62 b1bd
000000e0: 5fa1 533d aad8 40be 4b4a 78bd 5e2b 83bc
000000f0: 2795 b23d 44ab 9dbd 5241 2e3e 2c5e cebd
00000100: bed7 bdbc 380f 2abc 6842 993d 298b d53d
00000110: 790d 2bbc 8f17 603e 5b93 7a3e 48fe c6bd
00000120: c6a8 153d dd7e 49be 356d 2b3e e814 bfbd
00000130: 93e4 143c fd80 a5be 4f2b 9bbe de2b 23be
00000140: 56ff f0bd 1b11 5cbe 14d4 0d3f a3db fd3e
00000150: 7fb5 c2be 95a3 a5be 212a c63d 1138 cbbe
00000160: fbf7 bdbe d806 aebd 8947 b53e 952f 26be
00000170: 40dc 3dbe 50b0 e13d fcba 803e 4d3b 683e
00000180: 6f24 39be 5acb 223e 134d 6abd fc4e fcbe
00000190: 7cf3 9cbc 2f5a 90be 26f6 54bd 6f84 d2bd
000001a0: b2d2 093e c148 243e 1b33 113e be99 e9bd
000001b0: 7d83 ffbd 11ea 403a 13f0 b7bd 5464 7b3c
000001c0: ce0d 78be df83 3e3e 2891 013e 1a2c 893d
000001d0: a669 98bd e766 9dbd 6d68 18be 1fee b33b
000001e0: 36e6 fdbd 3d07 02bc d583 e1bd eee5 2e3e
000001f0: 9fe6 a83d 263e 61be 9b3b 3abd 13c4 f6bd
00000200: c288 063a 05a0 49be e840 6e3d e038 6a3e
00000210: ca52 033e b2de f03d 9251 203e d55a c53d
00000220: 3062 873c ee5c 7d3e 38f9 c1bd c9e2 89be
00000230: 4005 4c3d 2114 0e3e c579 233e 37d4 763e
00000240: 97c8 103e 7bbf a4bd d3ee 09be 0871 1cbe
00000250: e66c 59bc 5b61 a03d d5a4 3d3e be05 c3bd
00000260: 0e42 503e b561 c5bc f0c9 0bbe 1b31 9bbd
00000270: e75e d73d a9e9 e43d cba0 3abe 8532 46bd
00000280: bdb9 e83d abdb 2b3e de27 353d 98ad 9bbe
00000290: 7013 91bd dcae 2f3e 3436 713e 4830 283e
000002a0: a577 df3d fdb0 1b3e e37e 403e ec71 78be
000002b0: a1a9 093e 435c 2bbc 3c8d 62be df9e 2ebe
000002c0: f737 583e 470f e2bc ee70 56bd e2ad b0bc
000002d0: 4de0 5d3c 1a2d da3d 02ab 3cbe 450c dfbc
000002e0: ee0a 27be 7cf6 ad3d 013c 9abe cebb 97be
000002f0: 85d1 f73d 9544 64be 7180 1ebe aad0 af3a
00000300: 466b de3c 8044 223e 262b 853d b4f8 773e
00000310: c44b 363e aebf 713c d3c5 623e 4a7b 8abd
00000320: 0cc0 2d3e e5e1 a13d 329b f23d ce3a 133e
00000330: 248a b93b e394 013e a07d 383e d253 0c3e
00000340: b4e8 673d 3896 b03d 53b1 9c3e 4313 1abe
00000350: 50dd 5f3e 5822 183e 423b a63e 3996 91be
00000360: 7976 773d 0cf0 8dbe 5f93 57be 1dc8 313e
00000370: 69b7 553e dc08 133e 9e8c 87be dbd4 c93e
00000380: 7d67 62be f4f6 f13d 970d a9be 5218 70be
00000390: a825 3b3d 0c73 503e d55a 8ebe 6524 243d
000003a0: 2669 933e 6460 93bd 1c85 5e3e 554d 413e
000003b0: c11c 653e a734 9fbc bf77 fbbd 554c f2bd
000003c0: ea0d 45bd e537 633e 1a58 6b3d 709a 85bd
000003d0: 01aa 08be d93f 093e 2a09 693d 6ead a9bd
000003e0: 2e5f 333c 966d b9bd d53b 03be 1eba 47bd
000003f0: c3fe 3d3e c88b 1b3d eee8 16be 0a82 62bb

layers.6.bias f4 [20]
-0.061990384 -0.17498648 -0.10560492 0.22751737 -0.36467683 -0.17309889 -0.0036424943 0.14791802
0.17600001 0.14739835 -0.1956043 0.15409067 -0.087761626 0.019234711 0.062914975 -0.048596196
0.065935835 -0.098875605 0.18860996 0.17696477
00000000: a1e9 7dbd a82f 33be 6447 d8bd 50fa 683e
00000010: ecb6 babe d640 31be eab6 6ebb d277 173e
00000020: 5939 343e 98ef 163e 7e4c 48be f2c9 1d3e
00000030: 5ebc b3bd 1d92 9d3c 91d9 803d ce0c 47bd
00000040: 5e09 873d 4b7f cabd f822 413e 4136 353e

layers.8.weight f4 [20, 20]
-0.106675394 0.013936086 0.20696476 -0.045798454 -0.41945037 -0.045036394 -0.164355 0.012454906
0.11779235 -0.15255372 0.052465323 -0.22239539 -0.057744224 0.1726611 -0.019208701 0.17122726
0.26305965 -0.015551481 0.022036666 0.17456439 -0.10553765 -0.041086767 0.08380835 -0.2141072
-0.08913709 -0.0897503 -0.12807702 -0.047251843 -0.056946468 0.19288468 -0.14231853 0.120836206
-0.118771605 0.2065988 -0.0152045125 0.11134041 0.24362086 -0.051713154 0.028332544 -0.01395986
0.06796784 0.021955285 -0.2171841 -0.12602516 0.20318788 -0.062549055 0.14960243 0.12134148
0.08300727 0.20548953 -0.17320868 0.13872716 0.09050644 0.05662327 -0.13182159 -0.068681665
-0.014243487 -0.09244835 0.24332999 0.1812765 0.023032203 -0.058849018 0.080126874 0.120721124
0.08412486 -0.019779276 0.15577848 0.058945492 0.07635706 -0.17105618 -0.19089316 -0.0840679
0.061868165 -0.060174473 0.058401596 -0.06832602 0.1342112 0.0457496 -0.033558697 0.0029000368
0.30332455 0.09519141 0.032900997 0.006729177 0.094584204 -0.19316985 -0.20554635 -0.1269521
0.2652201 -0.22426653 0.17844443 -0.035297714 -0.2702082 -0.108790755 -0.0004809807 -0.22382724
-0.2050797 0.061793666 0.04437975 0.11485265 0.14113082 -0.19524889 0.13180493 0.11056057
0.3131739 -0.16992067 0.20209827 0.12579894 -0.15135963 -0.014533516 -0.1594731 0.17968138
0.17781228 -0.18731503 -0.18868667 -0.21227768 -0.14491285 0.04170999 -0.13451241 -0.033113852
0.03269004 -0.11636862 0.13742267 0.06550158 -0.3616843 -0.12372616 -0.24921478 0.02112044
0.15768334 -0.2919513 -0.10202191 -0.22289927 -0.13130884 0.033372547 -0.07676454 0.114544146
0.026230715 0.08977219 0.16203858 -0.19677989 0.17087324 0.14153816 -0.18198599 -0.13272522
-0.22276512 -0.08798748 -0.15637074 0.16655073 -0.1329655 0.20433734 -0.08449059 -0.13943645
0.04288282 -0.12349162 -0.1083271 0.25256413 -0.14620684 0.11127268 0.055967923 -0.17904446
-0.23790383 0.16222997 -0.15053022 0.11031114 -0.040375233 -0.0009423347 -0.07704011 -0.1045356
0.26535565 -0.23284128 -0.06505497 -0.22570437 0.21785803 0.09826088 0.18409452 0.24680522
-0.17578869 -0.22547267 -0.20926592 -0.17153254 -0.0072711194 0.11396702 0.10632742 0.07441851
0.28472272 -0.16906808 0.1447083 0.091880515 0.115472645 -0.108401194 -0.14308943 0.13643001
-0.16286424 0.067014344 0.14958347 -0.22030021 -0.23914093 -0.18033186 -0.18921374 -0.19789924
-0.01019949 0.03862024 -0.22715855 0.042840555 0.18759775 -0.08940159 0.16485871 0.06503439
0.17950255 0.078363076 -0.2820673 -0.28526056 0.095880054 -0.1099279 -0.073566176 0.07275746
0.123391874 -0.13699958 -0.13323909 -0.25287855 -0.07918046 0.071481936 -0.01342521 0.1742002
-0.061588906 -0.068848684 0.17347881 -0.103736475 -0.10265924 -0.11245185 -0.18941961 -0.17244329
-0.11493439 -0.102368504 0.17590468 -0.11838519 -0.23324521 0.110245325 0.062473122 -0.069196686
0.18137583 0.08196021 -0.055541046 0.2351143 -0.2794038 -0.2538077 0.0018403947 0.08110023
0.14790191 0.07818026 0.3557991 0.15254286 0.09238075 -0.10005569 -0.063803196 0.05311156
00000000: a178 dabd 2e54 643c 92ee 533e 2997 3bbd
00000010: 33c2 d6be 1578 38bd ad4c 28be a90f 4c3c
00000020: 1e3d f13d 0b37 1cbe e1e5 563d 9ebb 63be
00000030: 3585 6cbd 12ce 303e 915b 9dbc 3356 2f3e
00000040: c1af 863e a4cb 7ebc 3d86 b43c 02c1 323e
00000050: 2024 d8bd 994a 28bd b6a3 ab3d eb3e 5bbe
00000060: 828d b6bd 01cf b7bd 9f26 03be 268b 41bd
00000070: b340 69bd 9083 453e f3bb 11be f978 f73d
00000080: 873e f3bd a38e 533e 591c 79bc 7106 e43d
00000090: bf77 793e 2cd1 53bd a719 e83c e6b7 64bc
000000a0: b932 8b3d 92db b33c 8265 5ebe bd0c 01be
000000b0: 7c10 503e b819 80bd 6131 193e e281 f83d
000000c0: b7ff a93d d96b 523e 9e5d 31be 7e0e 0e3e
000000d0: 715b b93d cded 673d 3dfc 06be f9a8 8cbd
000000e0: 845d 69bc 8f55 bdbd 7f2b 793e 8ca0 393e
000000f0: 08ae bc3c ab0b 71bd 8f19 a43d a33c f73d
00000100: a849 ac3d 2608 a2bc 6584 1f3e d470 713d
00000110: 1761 9c3d 5a29 2fbe 7f79 43be cb2b acbd
00000120: 7969 7d3d 8279 76bd 8336 6f3d 83ee 8bbd
00000130: a96e 093e ef63 3b3d d874 09bd 8b0e 3e3b
00000140: 5b4d 9b3e b7f3 c23d 32c3 063d 6e80 dc3b
00000150: 5db5 c13d 51ce 45be be7a 52be bbff 01be
00000160: eeca 873e 20a6 65be 23ba 363e 5694 10bd
00000170: bb58 8abe b0cd debd 232c fcb9 f832 65be
00000180: 6a00 52be 5b1b 7d3d 8ac7 353d de37 eb3d
00000190: 9984 103e 53ef 47be dff7 063e 956d e23d
000001a0: 5458 a03e afff 2dbe d9f2 4e3e 70d1 003e
000001b0: 05fe 1abe fc1d 6ebc eb4c 23be 65fe 373e
000001c0: 6c14 363e 83cf 3fbe 1437 41be 525f 59be
000001d0: 0964 14be 18d8 2a3d 9fbd 09be 64a2 07bd
000001e0: fee5 053d ac52 eebd 87b8 0c3e b125 863d
000001f0: af2e b9be 2464 fdbd 2932 7fbe c604 ad3c
00000200: be77 213e a47a 95be ddf0 d0bd b53f 64be
00000210: d375 06be a7b1 083d ba36 9dbd 1f96 ea3d
00000220: cce1 d63c 7bda b73d 71ed 253e ab80 49be
00000230: 65f9 2e3e 61ef 103e 895a 3abe 1fe9 07be
00000240: 8a1c 64be c832 b4bd a71f 20be 468c 2a3e
00000250: 1c28 08be cf3d 513e 6709 adbd 6ec8 0ebe
00000260: e5a5 2f3d 2de9 fcbd 99da ddbd 1650 813e
00000270: 3fb7 15be eee2 e33d 9f3e 653d 6e57 37be
00000280: 109d 73be 9d1f 263e 9824 1abe cfea e13d
00000290: 8060 25bd 0307 77ba 35c7 9dbd c316 d6bd
000002a0: b2dc 873e f26d 6ebe 8a3b 85bd 0c1f 67be
000002b0: 2d16 5f3e 003d c93d 4683 3c3e 82ba 7c3e
000002c0: f301 34be 4fe2 66be ce49 56be 3aa6 2fbe
000002d0: 9242 eebb 8a67 e93d 31c2 d93d bb68 983d
000002e0: 2dc7 913e 2f20 2dbe 6a2e 143e da2b bc3d
000002f0: ec7c ec3d 7201 debd 0986 12be 4fb4 0b3e
00000300: e2c5 26be d13e 893d 692c 193e 6196 61be
00000310: 5ce1 74be eaa8 38be 3fc1 41be 19a6 4abe
00000320: c31b 27bc 4230 1e3d 409c 68be 9479 2f3d
00000330: a019 403e 2e18 b7bd b9d0 283e c030 853d
00000340: 84cf 373e d27c a03d 206b 90be ac0d 92be
00000350: c35c c43d e121 e1bd dda9 96bd dd01 953d
00000360: e1b4 fc3d 9e49 0cbe d46f 08be 4c79 81be
00000370: 5d29 a2bd 1f65 923d 69f5 5bbc 8a61 323e
00000380: a644 7cbd 8a00 8dbd 6ea4 313e ca73 d4bd
00000390: 023f d2bd 284d e6bd 37f7 41be f994 30be
000003a0: b962 ebbd 94a6 d1bd 5b20 343e ef73 f2bd
000003b0: d5d7 6ebe 4dc8 e13d d1e3 7f3d feb6 8dbd
000003c0: 96ba 393e c1da a73d 027f 63bd cec1 703e
000003d0: 040e 8fbe 15f3 81be 6639 f13a e117 a63d
000003e0: 9973 173e f91c a03d 4d2b b63e 3234 1c3e
000003f0: 1e32 bd3d ffe9 ccbd 40ab 82bd 828b 593d

layers.8.bias f4 [20]
0.018408118 0.25182924 -0.09721353 0.20306268 0.023784986 0.094298035 -0.15631789 -0.019632805
-0.24196503 0.006733635 0.1639744 -0.053440604 0.0017036375 0.048784416 -0.16114505 -0.24951772
0.09090515 0.12712826 0.027924534 -0.1690438
00000000: 9fcc 963c c3ef 803e e317 c7bd aaef 4f3e
00000010: bbd8 c23c 541f c13d cc11 20be fad4 a0bc
00000020: aec5 77be d3a5 dc3b e8e8 273e 89e4 5abd
00000030: 974c df3a 2bd2 473d 3503 25be 9381 7fbe
00000040: 7b2c ba3d e92d 023e fec1 e43c d119 2dbe

layers.10.weight f4 [20, 20]
0.34116912 0.22095174 -0.2512165 0.0051061013 -0.059742775 -0.18507016 0.28712645 0.2333687
0.242027 -0.069770366 0.05812623 0.1942619 0.0461513 0.16280468 0.24557558 0.14904834
0.017628014 0.023009194 -0.17619954 -0.016042149 0.19714725 -0.09946323 -0.18017396 -0.0848065
-0.16319244 -0.017150445 0.22413117 0.18213913 -0.07257339 0.039707616 0.11357725 0.089731276
0.18989553 0.16292162 -0.09157037 0.04373765 -0.0143476 0.08433094 0.0545607 -0.106329694
-0.17936578 -0.0650581 0.18391429 -0.12467753 0.16445237 0.09692479 -0.03150571 0.13367651
-0.1784041 -0.18400972 -0.18225694 -0.14322829 -0.1119326 0.1769546 -0.1061529 0.047588438
0.15170257 -0.13470899 0.14849862 -0.14660071 -0.11246017 -0.04632461 -0.03129371 0.084453456
-0.14007476 0.092363834 0.007780468 0.031119443 0.1255564 0.04573965 0.17057623 -0.15324405
-0.013873767 -0.019544218 -0.1497599 -0.12259194 -0.27349567 -0.15733638 -0.15113102 -0.056242187
-0.27453542 -0.1477336 -0.11668751 0.027148237 0.24555606 0.19581641 -0.04875421 -0.1954724
-0.04183867 0.24920045 -0.1281857 -0.019955957 0.04929526 0.09525218 0.15070708 -0.29316923
-0.33177122 -0.11673586 0.112025134 -0.02329642 0.23760772 0.0038208272 -0.22557195 -0.18722558
-0.25297585 -0.17095532 0.2208569 0.22098027 0.28504142 -0.21751156 -0.14498834 -0.21455956
0.078808874 0.07691474 0.18402359 0.13558097 0.013053818 0.08244849 -0.12764211 -0.14827853
-0.17823587 -0.17231384 -0.052414097 -0.17284057 -0.14289384 -0.020674588 0.10230056 -0.20074278
-0.0040151044 0.11055952 0.16241744 0.09305518 -0.07218958 -0.20257762 -0.24471866 0.024561971
-0.12306685 -0.064510696 0.25157732 -0.15004551 0.029717725 0.17750372 0.117619 0.1919275
0.12522498 0.075238995 0.01847971 -0.0033294898 -0.21793808 0.22819959 -0.13751142 -0.17831968
-0.09448162 0.05696692 -0.03781708 -0.121371835 -0.15199663 0.065179124 -0.03969031 -0.11409755
-0.14199919 -0.06783743 0.013741809 -0.012099076 -0.06466082 0.098745205 0.13954751 -0.18837458
0.25449446 0.22801445 0.26474032 0.13834327 -0.073153794 -0.13253255 -0.31457633 0.03780904
-0.07595205 0.005003768 0.250893 -0.13238454 0.08803152 0.21441332 0.06559946 0.050214216
0.046865493 0.0022400655 -0.11454174 -0.1803692 0.23205526 0.04001245 -0.0563661 -0.08193418
0.15012014 -0.07328647 -0.02703116 0.13077335 0.15746026 0.027574245 0.052429944 -0.15143047
-0.055830233 -0.17864436 0.11751083 0.08778795 -0.029872729 0.18626098 -0.17090976 0.27434975
0.25958213 0.12551895 -0.10827654 0.14523047 -0.13009818 -0.1496055 -0.18518475 0.102013305
0.1554591 -0.170881 0.15255344 0.1610004 -0.20148033 -0.077932395 -0.019078806 0.0107721435
-0.019879993 -0.09748382 0.19043139 0.099342085 0.2064776 -0.097963594 0.20048457 -0.1555022
-0.25026104 -0.021404585 -0.2942028 -0.16379753 0.18335576 0.012672116 0.19531964 0.120695345
0.07299161 -0.16050707 -0.16036126 -0.100866646 0.037470534 0.19481008 -0.22062506 0.13438907
0.107880645 -0.06814141 0.115711994 -0.07142398 -0.25677988 -0.06709046 -0.0790183 -0.13639207
00000000: b8ad ae3e 2c41 623e 739f 80be 1551 a73b
00000010: d7b4 74bd 0883 3dbe 3d02 933e 34f8 6e3e
00000020: edd5 773e c4e3 8ebd c515 6e3d 97ec 463e
00000030: 2509 3d3d 45b6 263e 2a78 7b3e 21a0 183e
00000040: a068 903c c77d bc3c a76d 34be d36a 83bc
00000050: f8e0 493e 61b3 cbbd 867f 38be 08af adbd
00000060: eb1b 27be 177f 8cbc a482 653e ae82 3a3e
00000070: 5ca1 94bd 74a4 223d 309b e83d 08c5 b73d
00000080: f973 423e edd4 263e 3f89 bbbd 4026 333d
00000090: 3212 6bbc b3b5 ac3d 0a7b 5f3d 62c3 d9bd
000000a0: aaab 37be 2e3d 85bd 0754 3c3e ef56 ffbd
000000b0: 3466 283e 8180 c63d 220c 01bd 7fe2 083e
000000c0: 90af 36be 0b6d 3cbe 90a1 3abe 70aa 12be
000000d0: eb3c e5bd 9633 353e b166 d9bd 18ec 423d
000000e0: eb57 1b3e 27f1 09be 0610 183e 7f1e 16be
000000f0: 8551 e6bd e0be 3dbd d52d 00bd eff5 ac3d
00000100: c26f 0fbe 4029 bd3d 4cf3 fe3b 34ee fe3c
00000110: db91 003e 8059 3b3d 89ab 2e3e 02ec 1cbe
00000120: cc4e 63bc 321b a0bc a95a 19be 7c11 fbbd
00000130: a007 8cbe ca1c 21be 17c2 1abe 355e 66bd
00000140: e88f 8cbe 7a47 17be dcf9 eebd fb65 de3c
00000150: 0c73 7b3e 1984 483e 7fb2 47bd eb29 48be
00000160: 065f 2bbd 672e 7f3e 1d43 03be ad7a a3bc
00000170: d4e9 493d 9313 c33d f552 1a3e 471a 96be
00000180: ebdd a9be 3613 efbd 6f6d e53d 22d8 bebc
00000190: 704f 733e d866 7a3b 55fc 66be 10b8 3fbe
000001a0: 0d86 81be e90e 2fbe 5028 623e a748 623e
000001b0: f3f0 913e 5abb 5ebe d377 14be 80b5 5bbe
000001c0: 8c66 a13d 7a85 9d3d ae70 3c3e bdd5 0a3e
000001d0: aedf 553c c1da a83d 9db4 02be 54d6 17be
000001e0: 7783 36be 0a73 30be 2ab0 56bd 1efd 30be
000001f0: c352 12be c15d a9bc f582 d13d 848f 4dbe
00000200: 2391 83bb 086d e23d c250 263e b793 be3d
00000210: 21d8 93bd 8270 4fbe 8797 7abe 3036 c93c
00000220: 790a fcbd 2f1e 84bd bece 803e 88a5 19be
00000230: 9672 f33c 89c3 353e 3be2 f03d a488 443e
00000240: fa3a 003e e716 9a3d c362 973c 9233 5abb
00000250: 292b 5fbe 27ad 693e cbcf 0cbe 6f99 36be
00000260: 947f c1bd 2556 693d 15e6 1abd cc91 f8bd
00000270: 01a5 1bbe a27c 853d 4e92 22bd faab e9bd
00000280: 3c68 11be 5aee 8abd 5325 613c 343b 46bc
00000290: e46c 84bd ed3a ca3d 8be5 0e3e 44e5 40be
000002a0: 194d 823e 9f7c 693e 0b8c 873e dca9 0d3e
000002b0: a8d1 95bd 9db6 07be 2610 a1be a7dd 1a3d
000002c0: c08c 9bbd a6f6 a33b 0c75 803e d08f 07be
000002d0: df49 b43d 2a8f 5b3e 0259 863d 6cad 4d3d
000002e0: 08f6 3f3d 10ce 123b dc94 eabd b4b2 38be
000002f0: e59f 6d3e 18e4 233d 24e0 66bd 1bcd a7bd
00000300: 18b9 193e 3717 96bd 7470 ddbc 73e9 053e
00000310: 433d 213e 62e3 e13c c8c0 563d 9710 1bbe
00000320: 3eae 64bd 8cee 36be 85a9 f03d 2bca b33d
00000330: a7b7 f4bc 33bb 3e3e f802 2fbe 9277 8c3e
00000340: f3e7 843e 0a88 003e 17c0 ddbd 4cb7 143e
00000350: 7538 05be 2f32 19be 12a1 3dbe 5aec d03d
00000360: ac30 1f3e 6efb 2ebe f836 1c3e 4add 243e
00000370: dc50 4ebe 059b 9fbd 284b 9cbc a57d 303c
00000380: 5edb a2bc 99a5 c7bd 7200 433e dd73 cb3d
00000390: dd6e 533e 23a1 c8bd d44b 4d3e f83b 1fbe
000003a0: 3722 80be ab58 afbc c0a1 96be 8aba 27be
000003b0: 9dc1 3b3e b59e 4f3c df01 483e 1f2f f73d
000003c0: a07c 953d f75b 24be be35 24be 2c93 cebd
000003d0: b47a 193d 4b7c 473e 89eb 61be 4a9d 093e
000003e0: 87f0 dc3d b98d 8bbd 69fa ec3d bc46 92bd
000003f0: a778 83be b966 89bd 59d4 a1bd 5daa 0bbe

layers.10.bias f4 [20]
-0.117567 -0.14631902 -0.16285747 -0.14950563 -0.20901302 -0.05143526 -0.16579348 -0.03358186
0.06310731 0.099725045 0.15255861 -0.09691301 0.07221919 -0.010884681 -0.15559709 0.14357632
0.0965367 0.12265702 -0.083138734 -0.17463975
00000000: f8c6 f0bd a7d4 15be 1cc4 26be 0118 19be
00000010: 8207 56be c7ad 52bd c4c5 29be 228d 09bd
00000020: 683e 813d a53c cc3d 5338 1c3e 547a c6bd
00000030: a8e7 933d a955 32bc d854 1fbe ac05 133e
00000040: 09b5 c53d 9b33 fb3d a444 aabd c3d4 32be

layers.12.weight f4 [20, 20]
0.18330523 0.17927709 0.07574083 -0.121173196 -0.1365925 -0.21240099 -0.15515172 -0.20783746
-0.060065053 0.20741355 -0.104836605 -0.09556622 0.15231358 0.13517787 -0.13038367 0.012535811
0.071278825 0.047283992 -0.03603799 0.088511825 -0.110448375 -0.10474523 0.13406809 0.14491338
0.17247896 -0.018907506 -0.17298427 0.024630865 0.09188256 -0.09293032 0.17936699 0.08741913
0.20162453 -0.005175857 0.025287265 -0.07441635 0.019510975 0.1005707 0.0448957 -0.12030933
0.025064025 0.09112374 0.17438142 0.024269776 0.015932987 0.2868507 -0.12197387 0.100647144
0.13083588 0.09045649 -0.07812633 -0.15814418 0.14743352 0.008147112 -0.022922017 0.13111867
-0.04658388 -0.18652779 0.16429359 -0.084346294 0.016381592 -0.09887711 -0.092273496 -0.04206706
0.14693946 0.0121539505 -0.018361378 -0.107635975 0.04367833 -0.17498302 0.20264491 0.03499879
-0.20358287 -0.011646306 0.07188592 0.185408 0.07753979 0.11882312 0.054914087 -0.06579454
0.040177114 -0.16233063 0.20623416 -0.065611325 -0.12960815 0.21882968 0.22890341 0.20421164
0.20296046 0.08417255 0.046728395 0.0067065875 -0.08792157 -0.15684229 0.16271275 -0.12382803
0.038694877 -0.012000671 0.1225801 0.1779549 0.018953355 0.16116221 -0.22754659 -0.18529405
0.16611177 -0.08565814 0.03544325 -0.1667527 0.037712496 -0.195407 -0.23714513 -0.0751776
-0.10801977 0.06478375 -0.19087328 0.1378672 0.0064328546 -0.016216328 -0.15929677 0.03989636
-0.17644283 -0.17524745 -0.008814996 0.19098608 -0.19907196 -0.026705362 0.025689447 0.089416735
0.14044671 0.21708891 0.016667819 0.13131645 -0.05865158 -0.21678315 0.08483217 -0.017854217
-0.2103563 -0.010697107 -0.15847892 -0.1168221 0.11802423 0.010400229 0.11553507 0.008985871
-0.07917205 0.24304149 0.16985147 -0.14267103 -0.05337455 0.18358105 -0.19854324 0.007921878
0.14328513 0.024013624 0.07146907 0.06822316 -0.19133471 0.110257484 -0.14002378 -0.08665283
-0.019379102 0.08793068 -0.035713293 0.014262762 -0.034853008 -0.09206512 0.0060115107 0.06958633
0.23532687 0.14290658 0.08899531 0.084603 0.19656838 -0.037823066 0.006465524 -0.13431348
0.19599608 -0.204453 0.18950582 0.008567358 0.30807123 -0.0911189 0.14062236 -0.16880548
-0.18660717 0.24088225 -0.22928646 -0.008254458 -0.21036248 0.14715992 -0.07280368 -0.12475436
0.002516849 -0.18071613 0.2599867 0.12672018 0.31704786 -0.17406529 -0.01453029 0.0550099
-0.07472261 0.075703524 -0.21733193 0.09114886 -0.15628223 0.14565639 -0.19647205 -0.23284604
-0.020126639 -0.19328372 0.19291706 0.18547155 -0.023944201 -0.098124 0.19954856 0.14498004
0.099472836 -0.06490257 -0.0006119806 -0.138742 0.12163487 -0.028038682 0.021207523 0.26760155
-0.25051937 0.17500447 0.07915807 0.03984256 -0.009377629 -0.1926878 0.14142177 -0.022062212
0.11332431 -0.014063657 -0.08734205 0.11387007 0.076859646 0.045025438 0.15610304 0.19784656
-0.3156658 -0.103922695 0.04527193 -0.10957295 0.07140018 -0.3814123 -0.1365635 0.12597206
-0.14490183 -0.11976906 0.068583235 -0.19121584 -0.3277933 -0.1524613 0.109105736 0.13460717
00000000: 5eb4 3b3e 6a94 373e 021e 9b3d a729 f8bd
00000010: e8de 0bbe a57f 59be 18e0 1ebe 58d3 54be
00000020: c606 76bd 3864 543e 93b4 d6bd 39b8 c3bd
00000030: 17f8 1b3e 116c 0a3e 4c83 05be 0163 4d3c
00000040: a2fa 913d dcac 413d 929c 13bd b045 b53d
00000050: c232 e2bd ab84 d6bd 2549 093e 2c64 143e
00000060: 539e 303e eae3 9abc ca22 31be abc6 c93c
00000070: ec2c bc3d 4052 bebd fbab 373e cd08 b33d
00000080: a976 4e3e 3c9a a9bb 3d27 cf3c 9967 98bd
00000090: 7bd5 9f3c 03f8 cd3d 8ee4 373d bd64 f6bd
000000a0: 1253 cd3c 159f ba3d 0b91 323e 69d1 c63c
000000b0: e585 823c 18de 923e 70cd f9bd 1720 ce3d
000000c0: d7f9 053e 4141 b93d b300 a0bd 8cf0 21be
000000d0: d0f8 163e 777b 053c f4c6 bbbc f943 063e
000000e0: bdce 3ebd 2401 3fbe 943c 283e c0bd acbd
000000f0: b032 863c 1580 cabd e3f9 bcbd 824e 2cbd
00000100: 4c77 163e 5d21 473c 9a6a 96bc 4070 dcbd
00000110: 0ce8 323d c02e 33be 2682 4f3e e45a 0f3d
00000120: 0778 50be 26d0 3ebc ed38 933d 98db 3d3e
00000130: 2ecd 9e3d 8959 f33d 98ed 603d 4abf 86bd
00000140: c290 243d 003a 26be 0c2f 533e 3b5f 86bd
00000150: 00b8 04be e314 603e a865 6a3e db1c 513e
00000160: ded4 4f3e a862 ac3d 4666 3f3d efc2 db3b
00000170: 3910 b4bd 449b 20be 2c9e 263e 8d99 fdbd
00000180: 857e 1e3d 769e 44bc 470b fb3d cf39 363e
00000190: 1144 9b3c b507 253e f901 69be b9bd 3dbe
000001a0: 3419 2a3e 896d afbd f12c 113d 38c1 2abe
000001b0: 6b78 1a3d c618 48be 2cd6 72be b7f6 99bd
000001c0: 7839 ddbd 58ad 843d 4974 43be 0f2d 0d3e
000001d0: b2ca d23b 1bd8 84bc b11e 23be 5e6a 233d
000001e0: 6ead 34be 1174 33be c66c 10bc db91 433e
000001f0: 85d9 4bbe 34c5 dabc ad72 d23c 1f20 b73d
00000200: 43d1 0f3e 8e4c 5e3e f38a 883c d277 063e
00000210: a43c 70bd 67fc 5dbe 7dbc ad3d 0243 92bc
00000220: a467 57be eb42 2fbc 4c48 22be 6d40 efbd
00000230: b0b6 f13d b965 2a3c a79d ec3d 7a39 133c
00000240: f524 a2bd dedf 783e 8bed 2d3e 5b18 12be
00000250: 469f 5abd acfc 3b3e eb4e 4bbe c4ca 013c
00000260: 56b9 123e 38b8 c43c 605e 923d 96b8 8b3d
00000270: 3fed 43be adce e13d 6562 0fbe 0a77 b1bd
00000280: ecc0 9ebc 0015 b43d 1a48 12bd 5cae 693c
00000290: 07c2 0ebd a38c bcbd 35fc c43b 4783 8e3d
000002a0: 87f9 703e 1a56 123e 2c43 b63d 5644 ad3d
000002b0: 3949 493e 5cec 1abd bfdc d33b 7989 09be
000002c0: 32b3 483e 215c 51be d00d 423e 1b5e 0c3c
000002d0: 83bb 9d3e 8c9c babd 4fff 0f3e 58db 2cbe
000002e0: f315 3fbe d6a9 763e 12ca 6abe b53d 07bc
000002f0: 4369 57be 17b1 163e 191a 95bd 377f ffbd
00000300: b8f1 243b a60d 39be fa1c 853e efc2 013e
00000310: 1954 a23e 2c3e 32be 7410 6ebc 1052 613d
00000320: 2b08 99bd 730a 9b3d 438c 5ebe 41ac ba3d
00000330: 7308 20be f326 153e f82f 49be 316f 6ebe
00000340: 9fe0 a4bc 2bec 45be 0d8c 453e 41ec 3d3e
00000350: a126 c4bc 3cf5 c8bd 7556 4c3e a675 143e
00000360: 6ab8 cb3d a3eb 84bd 536d 20ba 6212 0ebe
00000370: b41b f93d 61b1 e5bc 66bb ad3c 1203 893e
00000380: 1344 80be 5f34 333e a01d a23d f431 233d
00000390: a0a4 19bc f34f 45be ded0 103e d0bb b4bc
000003a0: 9316 e83d 416b 66bc 64e0 b2bd b634 e93d
000003b0: 9768 9d3d 986c 383d 7ad9 1f3e 4a98 4a3e
000003c0: f39e a1be 6cd5 d4bd 0f6f 393d c867 e0bd
000003d0: 423a 923d 7948 c3be 4dd7 0bbe d2fe 003e
000003e0: 2561 14be 7b49 f5bd 5e75 8c3d 16ce 43be
000003f0: 86d4 a7be d11e 1cbe d472 df3d 76d6 093e

layers.12.bias f4 [20]
-0.0102697015 0.21202186 0.17988239 0.039031003 0.16229533 -0.017899223 -0.17494537 0.016209783
0.14916547 0.13476655 0.08162202 -0.01660009 0.061236754 0.1373841 -0.12609848 0.05242745
-0.273385 -0.11873971 0.16591153 0.013290153
00000000: 4042 28bc 421c 593e 1733 383e f9de 1f3d
00000010: bf30 263e 64a1 92bc e124 33be 61ca 843c
00000020: d5be 183e 3e00 0a3e 7229 a73d e9fc 87bc
00000030: 64d3 7a3d 6bae 0c3e f61f 01be 2abe 563d
00000040: 1ef9 8bbe ce2d f3bd b6e4 293e f1be 593c

layers.14.weight f4 [20, 20]
0.20659272 0.18428096 0.08467667 0.13626519 0.08153583 0.16099988 0.068740554 0.20911445
-0.1813229 -0.22083971 -0.0035038583 0.18687707 0.025614908 -0.097842395 -0.130151 -0.017120812
0.027915576 0.011473297 0.028106276 0.2262102 0.11055227 -0.091286 0.09011199 0.00871143
0.24637932 -0.16209905 0.18111509 0.24908379 0.12932128 0.24660714 -0.057693046 0.11141287
-0.23811863 -0.13246696 -0.033423297 -0.15339051 0.0069946116 -0.03872802 -0.19750875 -0.16428602
-0.016133344 -0.12915806 -0.1191311 -0.118171915 0.027072692 0.14090131 0.07580221 -0.16210821
-0.066160716 -0.08846646 -0.14827202 0.14453422 -0.06649742 -0.20541966 -0.007183608 0.17021182
0.13207528 0.09000466 -0.04504479 0.10468258 0.24211277 0.1547989 -0.09266851 -0.11928332
-0.19333707 0.13970774 -0.118883476 0.18995202 -0.07351267 -0.19555107 0.01092081 -0.20972261
0.16723856 0.07837232 -0.13503948 -0.08502246 -0.07645982 0.18100816 0.092925385 0.2041969
0.06934845 0.024648067 0.01833122 -0.18369205 -0.1901282 0.19772515 -0.009414814 0.13110007
-0.06427867 -0.2748102 -0.08191756 -0.15954041 0.15474898 -0.07667167 0.081771046 -0.0607086
-0.29962498 0.19969289 -0.050039425 0.21139637 0.048983663 -0.061104067 -0.2077501 0.012608913
-0.030216776 -0.023944505 -0.08121359 -0.06455255 -0.19411793 -0.21646748 -0.10937335 -0.038010884
-0.06397804 0.013263815 0.19460595 0.08282507 -0.1654129 0.23336285 0.119542494 0.19110185
-0.13105834 0.003461618 0.16711277 -0.18776877 0.14795184 0.06281565 0.18852268 0.12289649
-0.16457142 -0.30954972 0.1044253 -0.12532723 0.0024892532 0.11833744 0.11728689 -0.102370895
0.003758584 0.17758352 0.2655057 0.22179382 -0.17191471 -0.09654944 -0.014541083 -0.19884336
0.054298412 0.06683868 -0.024372494 0.031634044 -0.08715117 0.13547865 0.17023449 0.09216452
0.17740007 -0.034395136 -0.07160189 0.034025952 0.073415205 -0.021519 -0.17057192 -0.10320505
0.02262013 -0.14280279 -0.057209402 0.13689004 -0.10532235 0.198946 0.19821848 -0.20144041
0.02793522 -0.06481855 0.1705771 0.03342628 -0.11488013 -0.057597607 -0.03823289 0.14232172
-0.05567066 0.19785143 0.14460625 0.07235612 -0.11011308 0.013266661 -0.0365249 -0.08750524
-0.24374673 0.015285939 -0.016685367 -0.16837268 0.20557097 -0.18777551 -0.19778907 -0.14705789
0.0014232371 -0.15690646 -0.022113202 0.13070726 0.1409076 0.042853788 0.105088584 -0.025876598
-0.033679288 0.051733807 0.008263596 -0.2133889 0.19627507 0.14905174 -0.029076932 -0.09605644
0.21053742 -0.046287242 -0.20267557 0.15902531 -0.123396575 0.1664275 -0.0336835 0.0078536775
-0.22112583 -0.20834042 0.094152115 0.017848417 0.15682422 -0.023085821 0.0023992814 0.06812641
0.103804514 -0.092335336 0.037995484 -0.2757305 -0.12213777 -0.039344106 0.16825947 0.01626696
0.24363793 0.059962373 0.17155665 -0.17566976 -0.25203094 -0.15847391 0.28219244 0.1328163
0.03720241 0.1139777 0.05060436 -0.19402306 0.14305396 -0.13786146 -0.076064765 0.13163947
0.14128844 0.2802779 -0.15761623 -0.037115388 -0.12661669 -0.23424457 -0.22157262 -0.13123432
00000000: 0b8d 533e 26b4 3c3e f66a ad3d 1a89 0b3e
00000010: 42fc a63d 27dd 243e d9c7 8c3d 1922 563e
00000020: b6ac 39be ce23 62be fda0 65bb b45c 3f3e
00000030: 5bd6 d13c 9861 c8bd 4e46 05be f240 8cbc
00000040: 35af e43c 7ffa 3b3c 223f e63c a6a3 673e
00000050: 3b69 e23d 28f4 babd a38c b83d 63ba 0e3c
00000060: dc4a 7c3e 4bfd 25be 3c76 393e d20f 7f3e
00000070: cc6c 043e 9586 7c3e 8b4f 6cbd 6e2c e43d
00000080: 5fd5 73be 6ba5 07be dee6 08bd 6712 1dbe
00000090: 0e33 e53b 46a1 1ebd bc3f 4abe 983a 28be
000000a0: 132a 84bc 0342 04be 02fb f3bd 1e04 f2bd
000000b0: 8dc7 dd3c 6f48 103e 303e 9b3d b2ff 25be
000000c0: 457f 87bd e72d b5bd 9fd4 17be c700 143e
000000d0: cd2f 88bd 8859 52be 7964 ebbb 024c 2e3e
000000e0: be3e 073e 5d54 b83d e380 38bd d263 d63d
000000f0: 69ec 773e 9a83 1e3e fdc8 bdbd d04a f4bd
00000100: 27fa 45be 8c0f 0f3e 2e79 f3bd c882 423e
00000110: d08d 96bd 8a3e 48be 32ed 323c 86c1 56be
00000120: 9640 2b3e ab81 a03d ca47 0abe 4120 aebd
00000130: f796 9cbd 345a 393e aa4f be3d fe18 513e
00000140: 8f06 8e3d beea c93c 5b2b 963c c519 3cbe
00000150: f8b0 42be 7678 4a3e 9840 1abc 193f 063e
00000160: 89a4 83bd ecb3 8cbe 65c4 a7bd 905e 23be
00000170: 8476 1e3e 0906 9dbd 9477 a73d 95a9 78bd
00000180: 7268 99be 4b7c 4c3e 24f6 4cbd 4a78 583e
00000190: 18a3 483d 4248 7abd 71bc 54be 9d95 4e3c
000001a0: 2c89 f7bc 4427 c4bc 5053 a6bd 2134 84bd
000001b0: dac6 46be a7a9 5dbe 23ff dfbd 4db1 1bbd
000001c0: eb06 83bd 7950 593c c846 473e 31a0 a93d
000001d0: 0062 29be acf6 6e3e b2d2 f43d 34b0 433e
000001e0: 2834 06be 50dc 623b 9c1f 2b3e 7546 40be
000001f0: b080 173e 7ea5 803d 170c 413e 28b1 fb3d
00000200: 6985 28be 4d7d 9ebe efdc d53d c855 00be
00000210: bd22 233b e65a f23d 1c34 f03d d5a7 d1bd
00000220: 9352 763b 74d8 353e 5df0 873e eb1d 633e
00000230: 690a 30be b6bb c5bd b93d 6ebc 989d 4bbe
00000240: 0368 5e3d b8e2 883d d3a8 c7bc b392 013d
00000250: 507c b2bd eaba 0a3e f351 2e3e c0c0 bc3d
00000260: 5da8 353e eae1 0cbd 03a4 92bd cc5e 0b3d
00000270: b65a 963d 9d48 b0bc 68aa 2ebe 2b5d d3bd
00000280: da4d b93c e53a 12be 6854 6abd e72c 0c3e
00000290: 3fb3 d7bd 80b8 4b3e c9f9 4a3e 6546 4ebe
000002a0: 67d8 e43c 97bf 84bd c3ab 2e3e ffe9 083d
000002b0: 4646 ebbd 78eb 6bbd 179a 1cbd c9bc 113e
000002c0: eb06 64bd 9199 4a3e a913 143e 722f 943d
000002d0: f782 e1bd 695c 593c 229b 15bd f335 b3bd
000002e0: be98 79be e071 7a3c c0af 88bc e369 2cbe
000002f0: 3281 523e 3948 40be 3889 4abe 5896 16be
00000300: ea8b ba3a 16ac 20be bf26 b5bc 20d8 053e
00000310: 154a 103e 7487 2f3d af38 d73d 29fb d3bc
00000320: 4bf3 09bd d4e6 533d 0964 073c 9f82 5abe
00000330: 55fc 483e 05a1 183e bf32 eebc 3db9 c4bd
00000340: 1f97 573e b197 3dbd 2f8a 4fbe 88d7 223e
00000350: 58b7 fcbd f86b 2a3e b6f7 09bd b6ac 003c
00000360: cf6e 62be 3157 55be d3d2 c03d d836 923c
00000370: 8796 203e 7a1e bdbc 433d 1d3b dc85 8b3d
00000380: 7697 d43d 4f1a bdbd 27a1 1b3d 8c2c 8dbe
00000390: 5e23 fabd 4927 21bd 364c 2c3e 4a42 853c
000003a0: 397c 793e 1b9b 753d 8cac 2f3e c6e2 33be
000003b0: 330a 81be fc46 22be 877b 903e ff00 083e
000003c0: 8e61 183d 246d e93d 8446 4f3d fbad 46be
000003d0: bd7c 123e 8e2b 0dbe d8c7 9bbd 7fcc 063e
000003e0: ebad 103e 9680 8f3e 2666 21be 4e06 18bd
000003f0: cea7 01be cfdd 6fbe efe3 62be 4a62 06be

layers.14.bias f4 [20]
-0.1064848 0.1877671 0.11463032 0.0654457 -0.17729296 0.18143661 -0.1821658 0.021911625
0.13595404 0.12921643 -0.062267117 -0.00022819577 0.10960367 0.04032537 -0.06403808 0.0020164973
0.112880014 0.20627525 -0.00051188574 0.083110474
00000000: b414 dabd 0546 403e 4dc3 ea3d 6508 863d
00000010: 498c 35be 85ca 393e ac89 3abe 0280 b33c
00000020: 8937 0b3e 5051 043e ce0b 7fbd d647 6fb9
00000030: e477 e03d 372c 253d 6626 83bd 3627 043b
00000040: a32d e73d d239 533e 1230 06ba d335 aa3d

layers.16.weight f4 [1, 20]
-0.100541405 0.6136836 -0.026564697 -0.39969876 -0.43404427 -0.39184982 -0.29782286 0.1814135
-0.20387691 -0.20981742 -0.036179557 -0.34018221 0.48367727 0.2891538 -0.45956552 -0.4246218
0.46156693 0.20329492 0.2410479 -0.13482149
00000000: a7e8 cdbd 5e1a 1d3f 359e d9bc 51a5 ccbe
00000010: 0d3b debe 8aa0 c8be 3d7c 98be 76c4 393e
00000020: 1cc5 50be 61da 56be 0431 14bd 5d2c aebe
00000030: 8ca4 f73e f80b 943e 2c4c ebbe 0768 d9be
00000040: 8052 ec3e 8b2c 503e 43d5 763e a50e 0abe
