Models_Data_Figures/BURGERS/Burgers_Architecture/Models/10_3.pth (torch, 3114 bytes, 5 tensors)

layers.0.weight f4 [10, 2]
00000000: 90dc bfbc 9005 02be 32a3 293b 7d77 51be
00000010: 2bf4 80bf 9a5d 23be ae75 a0be f7c3 643c
00000020: 2920 f6be 11a5 ec3d fa84 c2be 2c41 f63b
00000030: b87e 1c3f 1171 30be 3600 1a3f 96eb 0a3e
00000040: ff58 613f 05fb 2ebe 7f7c afbc e0ad e9bc
-0.023420602 -0.12697434 0.0025884626 -0.20455737 -1.0074514 -0.15953675 -0.31339782 0.013962737
-0.4807141 0.115549214 -0.37992078 0.0075150933 0.6113086 -0.17230631 0.6015657 0.13566431
0.8802642 -0.17087944 -0.021421669 -0.028525293

layers.0.bias f4 [10]
00000000: c653 0fbf 119d e3be c1f6 6ebf e7b6 c2be
00000010: 190c cc3e a46e 033b da2c 343d 241a 1dbf
00000020: 3837 87bf 1efd d9be
-0.55987203 -0.4445577 -0.93345267 -0.38030168 0.3985298 0.002005496 0.043988086 -0.6136801
-1.0563726 -0.42575926

layers.2.weight f4 [10, 10]
00000000: ffd0 9040 c894 d1bf c66c ae3f 85d3 c8bd
00000010: 2dd3 87bd 4450 9040 97b5 a03f 35b9 a940
00000020: ade3 bebf 7b69 683f b56d 1fbf 8a00 f9bc
00000030: 22ff 8cbf 06d7 273f baa4 aa3f 49d1 1ebe
00000040: d0f0 eabe 791c 5ec0 4977 033d 083d 8b3f
00000050: 5b83 19bf c884 e23e 7ede 95bf 22c8 a03f
00000060: c49b cabf 165b 08c0 77b7 683f 1e07 36c0
00000070: 9d50 0c3e 4a11 c1be dbeb 49bf 1867 e0bf
00000080: a12f 1f40 8abb 4cc0 7386 2340 b890 f03f
00000090: ce5d 00bf ad7d ef40 ee71 34be 435c a6c0
000000a0: 15c7 7abf eba8 9a40 5424 bb3f 9fe9 6dc0
000000b0: 3ccd 28c1 ae6e 8d40 3c3e 0fc0 abc7 d0be
000000c0: f8f2 bfc0 a2d9 9440 8e19 2440 b706 d5bf
000000d0: ddbd aa3f 1273 77bf 9e41 1fbf b5ee a73f
000000e0: 74be b63e be08 3340 1661 f2bd 53ed 2a40
000000f0: 3469 e6bf 5351 9b3f dab1 70bd 52e9 b33e
00000100: 38da 243e 317d 04bf 5300 c7be c4c6 a63e
00000110: b5f9 7d3e 4906 3ebf 172b 913f 5757 acbf
00000120: bd79 e53d 9987 5e3f 71f0 483f f6df 86be
00000130: 7c7d 0fbf c168 bebf db2c 8a3e 830e 413f
00000140: 0e88 6240 8012 a4bf 3a89 d5bd 5401 ec3f
00000150: b22a b7bf b4ed 07c0 51f0 abbd e9db 443f
00000160: bbb8 293f c574 a23f d179 8fbe bcf6 43c0
00000170: fce0 4a40 9f3b 99c0 12a7 2e40 b3d2 fd3f
00000180: 5bf8 15be 61b9 d140 0f01 51bf 0755 14c0
4.525512 -1.637353 1.3626945 -0.09805969 -0.066320755 4.509798 1.2555417 5.3038583
-1.4913231 0.9078595 -0.62276775 -0.030395765 -1.101536 0.65562475 1.333152 -0.15509523
-0.4588685 -3.4704878 0.03209618 1.0878 -0.5996606 0.4424193 -1.1708524 1.2561076
-1.5828786 -2.1305594 0.90904945 -2.8441844 0.13702627 -0.37708503 -0.7887551 -1.7531462
2.487282 -3.1989465 2.5550811 1.8794165 -0.50143135 7.4840913 -0.17621586 -5.1987624
-0.97960025 4.83312 1.4620461 -3.717384 -10.550106 4.4197607 -2.2381735 -0.40777335
-5.9984093 4.6515665 2.5640597 -1.6642674 1.3339192 -0.9665996 -0.622095 1.3119723
0.3569218 2.7974086 -0.11834924 2.6707351 -1.8000855 1.2134193 -0.058763362 0.35138947
0.16098869 -0.51753527 -0.38867435 0.3257352 0.24802287 -0.7422834 1.1341275 -1.3464154
0.1120486 0.86925656 0.78491884 -0.26342744 -0.5605085 -1.4875718 0.26987347 0.7541277
3.539554 -1.2818146 -0.104265645 1.8437905 -1.4309905 -2.1238832 -0.08395446 0.76898056
0.662975 1.2691885 -0.28022626 -3.0619345 3.169982 -4.788528 2.7289472 1.9829925
-0.14645521 6.5538793 -0.8164224 -2.3176897

layers.2.bias f4 [10]
00000000: bb62 2c40 c6b3 b0bf c96f cbbf acd1 8b40
00000010: ab88 bac0 3c2f d13f 7084 d63f e613 453f
00000020: bdc0 513e d99d 9640
2.693526 -1.3804862 -1.5893489 4.3693447 -5.829183 1.634254 1.6759167 0.7698349
0.2048368 4.7067685

layers.4.weight f4 [1, 10]
00000000: 8dc6 8c3d abdf 1140 392c be3e 908b 1d3f
00000010: 82b1 fb3e 222f 1640 2a1f 1b40 7b4a ba3d
00000020: 2989 fdbe 7afb 9fbe
0.06873808 2.2792766 0.37143114 0.6154108 0.49158865 2.3466268 2.423777 0.09096237
-0.49518707 -0.3124655
