Models_Data_Figures/BURGERS/Burgers_Architecture/Models/10_7.pth (torch, 6902 bytes, 13 tensors)

layers.0.weight f4 [10, 2]
0	0x3ee970d4	0.45593894
1	0x3e7ec277	0.2487887
2	0x3d6319bf	0.055444475
3	0xbd3116ce	-0.04323464
4	0xbee9f211	-0.45692495
5	0xbf235c16	-0.63812387
6	0xbe835836	-0.25653237
7	0x3e54b610	0.20772576
8	0xbf165937	-0.5872988
9	0xbdbdea3f	-0.092731945
10	0x3f187d19	0.59565884
11	0x3dad57b6	0.08463995
12	0xbf7233a6	-0.9461006
13	0xbdfea929	-0.124346085
14	0xbf15e0db	-0.5854623
15	0x3e1500b0	0.14551044
16	0xbebd4ac6	-0.3697111
17	0xbe1aa93e	-0.15103623
18	0x3f45ab43	0.7721445
19	0x3eeaa03b	0.4582537

layers.0.bias f4 [10]
0	0x3ef3e5dd	0.4763631
1	0xbedeead7	-0.43538544
2	0xbd29a543	-0.04141737
3	0xbddc7e03	-0.10766222
4	0xbefaa457	-0.48953506
5	0xbd229a4b	-0.039697926
6	0x3f48f0ab	0.7849223
7	0x3f0170b7	0.50562614
8	0xbef5a629	-0.47978333
9	0x3ea4af16	0.3216483

layers.2.weight f4 [10, 10]
0	0x3e21cc6a	0.15800634
1	0x3ee79a5e	0.4523496
2	0x3e251184	0.16119963
3	0x3e5b3217	0.21405827
4	0xbdf6eeb1	-0.120572455
5	0xbd2f6b90	-0.04282719
6	0x3e5fe282	0.2186375
7	0xbf03ba89	-0.51456505
8	0xbf06a624	-0.5259726
9	0x3e8ab03c	0.2708758
10	0x3f3badf3	0.733123
11	0xbeab6cf0	-0.3348155
12	0x3e9e909a	0.30969697
13	0xbe06fa59	-0.13181438
14	0xbf025758	-0.50914526
15	0x3f0e793d	0.55653745
16	0xbe156111	-0.14587809
17	0xbd0acaf6	-0.033884965
18	0x3ea95f9e	0.33080763
19	0xbdfd7f32	-0.12377776
20	0x3ef6d03e	0.4820575
21	0xbf36daa3	-0.71427363
22	0x3ed9919a	0.42493898
23	0x3db842f4	0.08997145
24	0xbf68974c	-0.9085586
25	0xbf8227f9	-1.0168449
26	0x3ebbf61b	0.367112
27	0xbec5506c	-0.3853792
28	0xbf3c7ea8	-0.7363076
29	0x3f29b099	0.6628509
30	0xbf8270bf	-1.0190657
31	0xbe888a21	-0.26667884
32	0xbddea37b	-0.10871025
33	0x3fb985d5	1.4493967
34	0xbfbda522	-1.481602
35	0xbeda185b	-0.42596707
36	0xbf799817	-0.97497696
37	0xbf2a499b	-0.66518563
38	0xbfbb795b	-1.464641
39	0x3f27ad6d	0.65499
40	0x3f4279e8	0.75967264
41	0xbf1bcd4d	-0.6086014
42	0xbe0db2cc	-0.13837737
43	0xbd3a7a02	-0.045526512
44	0xbe4f60d7	-0.20251785
45	0x3e38b7dd	0.18038888
46	0xbf00f45b	-0.50372857
47	0x3f7a1729	0.9769159
48	0x3e072f14	0.13201553
49	0x3e162abe	0.14664742
50	0xbe3ecc21	-0.18632556
51	0xbdd63b8b	-0.10460576
52	0xbead5352	-0.3385263
53	0x3f11d972	0.5697242
54	0x3ea4c64a	0.32182533
55	0xbe69e4a4	-0.22841126
56	0x3ddbeed5	0.10738913
57	0x3e65945e	0.22419879
58	0xbed3c660	-0.41362286
59	0x3e53061e	0.20607802
60	0xbf2273bc	-0.63457847
61	0x3e1870b4	0.14886743
62	0x3c9c93f3	0.019113516
63	0xbe9f8a57	-0.31160232
64	0x3e8e58c1	0.2780209
65	0xbdecf6ff	-0.11570548
66	0xbdd81313	-0.10550513
67	0x3f027e82	0.50974286
68	0x3e38239b	0.17982332
69	0xbd1e1639	-0.038595412
70	0x3e97a546	0.2961828
71	0xbe0473b2	-0.1293476
72	0xbecfd89d	-0.4059495
73	0xbec1eb56	-0.3787486
74	0x3d423d8a	0.04742197
75	0x3f1f3e01	0.62203985
76	0xbf12d6da	-0.5735909
77	0xbfb94f30	-1.4477291
78	0xbe9a0537	-0.30082104
79	0xbf5728c7	-0.84046596
80	0x3e859d8a	0.26096755
81	0xbf2e3e31	-0.68063647
82	0xbe9e6960	-0.3093977
83	0xbe8b8d2d	-0.27256146
84	0xbd91788f	-0.07103073
85	0x3d9822ab	0.074284874
86	0x3c317c80	0.010832906
87	0x3f7bbb03	0.9833223
88	0xbe20a40d	-0.1568758
89	0xbe65b22b	-0.22431247
90	0xbf5f94ed	-0.8733662
91	0x3f6b7e86	0.91989934
92	0xbf416485	-0.75544006
93	0x3ef632be	0.48085588
94	0xbe4b582d	-0.19857855
95	0xbf03c2f7	-0.5146937
96	0x3e138f3a	0.14410105
97	0xbf15c093	-0.5849697
98	0xbe9000c0	-0.28125572
99	0xbefc930a	-0.49330932

layers.2.bias f4 [10]
0	0x3d928298	0.07153815
1	0x3f0d8df9	0.5529476
2	0x3f530d28	0.8244195
3	0xbf2ecde6	-0.68282926
4	0x3f93212b	1.1494497
5	0xbe058eab	-0.13042705
6	0xbec6934a	-0.38784248
7	0xbf6b7b33	-0.9198486
8	0x3f6c8d4c	0.924031
9	0xbed4bc25	-0.41549793

layers.4.weight f4 [10, 10]
0	0xbc6eea44	-0.01458222
1	0xbea42ae4	-0.32063973
2	0xbc8e47a5	-0.017368147
3	0x3edf578b	0.43621477
4	0x3ce42ad5	0.027852455
5	0x3ed1ffe9	0.41015556
6	0x3c852592	0.016253266
7	0xbe62706c	-0.22113198
8	0x3ea31c85	0.31857696
9	0x3ee36089	0.44409588
10	0xbed392d4	-0.41322958
11	0xbe5112c1	-0.2041731
12	0xbf195434	-0.5989411
13	0xbfdd07d6	-1.7268016
14	0x3e1ecd0e	0.1550791
15	0xbe3d96d6	-0.1851457
16	0x3ef8bcf8	0.48581672
17	0xbe8c3ba3	-0.2738925
18	0x3f0db03e	0.5534705
19	0x3f141d3d	0.57857114
20	0x3f0ca280	0.54935455
21	0xbf11b674	-0.56919026
22	0xbe252967	-0.16129075
23	0x3fa17a67	1.2615479
24	0xbdc5d3be	-0.09659527
25	0x3eff0e07	0.4981539
26	0xbd781621	-0.06056798
27	0x3f1fe611	0.6246043
28	0xbef9e51f	-0.48807618
29	0x3eacd856	0.337588
30	0x3f0bf98f	0.5467767
31	0x3d1fc3b3	0.039004993
32	0x3d8a0b36	0.067404196
33	0x3f738f2e	0.9514035
34	0xbe9a6bfe	-0.30160517
35	0xbd99fd98	-0.07519072
36	0x3dac28e5	0.084062375
37	0x3f1fabfa	0.6237179
38	0xbea22eb6	-0.31676263
39	0x3e70b534	0.23506624
40	0xbea14216	-0.31495732
41	0x3f439cd7	0.76411194
42	0x3f600fcf	0.8752412
43	0xbfc44fd5	-1.5336863
44	0x3f2766cf	0.6539125
45	0xbc8d93cf	-0.017282395
46	0xbe599e87	-0.2125188
47	0xbf83ff4a	-1.0312283
48	0x3ef75689	0.4830821
49	0xbef22852	-0.47296387
50	0x3ed0fae7	0.40816423
51	0xbf01328a	-0.5046774
52	0x3dcd8f3c	0.100370854
53	0x3ee43b38	0.4457643
54	0xbea0e1ad	-0.31422177
55	0xbd608b1c	-0.054820165
56	0x3e8a5b27	0.2702267
57	0x3d9bc175	0.076052584
58	0xbea03292	-0.31288582
59	0x3f00f62c	0.5037563
60	0xbe05ad32	-0.1305435
61	0x3e9603bd	0.29299727
62	0xbe6b52c4	-0.22980791
63	0x3e226fe1	0.15862991
64	0x3f3c52d3	0.7356388
65	0xbe60f69a	-0.21969071
66	0xbed885e9	-0.42289665
67	0x3d24149c	0.040058717
68	0xbe44ec6b	-0.19230811
69	0xbe0fd722	-0.1404691
70	0x3e70ffaf	0.23535036
71	0xbcfc441a	-0.030794192
72	0x3dce7de9	0.10082609
73	0xbe9c7efe	-0.30565637
74	0xbed77351	-0.42080167
75	0xbdfa84ef	-0.12232386
76	0xbdcb818e	-0.0993682
77	0xbea6809b	-0.32519993
78	0x3e14e6bb	0.14541142
79	0x3e7cc0ba	0.24682894
80	0xbeae9f5b	-0.34105954
81	0xbf3535f5	-0.70785457
82	0xbe9f9120	-0.3116541
83	0x3e28ace9	0.1647221
84	0xbe717301	-0.23579027
85	0x3d7a74a2	0.061146386
86	0x3f1fe46c	0.6245792
87	0x3dd75373	0.105139636
88	0xbd484a19	-0.04889879
89	0x3eecee85	0.46275726
90	0x3e1203eb	0.14259307
91	0x3ed7f24a	0.4217704
92	0x3ea445c5	0.3208448
93	0x3f30eba2	0.6910955
94	0x3ec489ac	0.38386285
95	0x3cc2f266	0.023797225
96	0xbf219211	-0.63113505
97	0x3e815901	0.25263217
98	0x3d75bea5	0.059996266
99	0x3bdcf4d0	0.006743051

layers.4.bias f4 [10]
0	0x3de288ba	0.11061235
1	0xbe9ae2bd	-0.30251113
2	0xbda60c7a	-0.081078485
3	0x3e092fbd	0.13397117
4	0x3ec22e0e	0.37925762
5	0xbeba7ae2	-0.36421877
6	0xbd573515	-0.052540857
7	0x3e866a9f	0.2625322
8	0x3e1e8860	0.1548171
9	0xb9d0292f	-0.00039703536

layers.6.weight f4 [10, 10]
0	0x3e023bcc	0.12718123
1	0x3f032a5b	0.51236504
2	0x3d7ca80c	0.0616837
3	0xbe455262	-0.19269708
4	0x3ec79b9f	0.38985917
5	0xbe968608	-0.29399133
6	0xbe46b764	-0.19405895
7	0x3e140632	0.14455488
8	0x3c4d4649	0.012528964
9	0x3db90f13	0.09036078
10	0x3e78ba37	0.24289785
11	0x3eb89ad2	0.3605562
12	0x3ea8acb5	0.32944265
13	0xbc13b2c1	-0.009014786
14	0xbe8ffe2e	-0.2812361
15	0xbc85f4b5	-0.016352037
16	0x3e7f65b9	0.24941148
17	0xbd0463cd	-0.03232174
18	0x3e04c0f4	0.12964231
19	0x3e4b5b19	0.1985897
20	0xbe1f7179	-0.1557063
21	0x3ede5539	0.43424395
22	0x3e34080e	0.17581198
23	0x3e4c67a3	0.1996141
24	0xbe8d2fa7	-0.27575418
25	0xbd994504	-0.07483867
26	0x3e533b01	0.20627977
27	0x3c1c190d	0.009527457
28	0xbe3d84ad	-0.18507643
29	0x3f0b5c9d	0.5443819
30	0x3e9c17a1	0.30486777
31	0xbf304074	-0.6884835
32	0x3ee50243	0.44728288
33	0x3f174207	0.59085125
34	0xbf7b7fb0	-0.9824171
35	0xbe460a73	-0.19339924
36	0x3d3eee8e	0.046614222
37	0xbef63b18	-0.4809196
38	0x3f09245d	0.5357111
39	0x3c125bd2	0.0089330245
40	0x3ec23c53	0.3793665
41	0x3f5daca1	0.86591536
42	0xbf852c3e	-1.0404127
43	0xbf069933	-0.52577513
44	0x3fdb7cd2	1.7147467
45	0xbe6a13ef	-0.22859167
46	0xbf075019	-0.52856594
47	0x3e95d0f1	0.29260972
48	0xbf3ce7ab	-0.73791
49	0xbf40a71a	-0.75254977
50	0x3df483ed	0.11939225
51	0xbdda3a06	-0.10655598
52	0xbdcbe1eb	-0.099552
53	0xbde4ad9f	-0.11165928
54	0x3e4b63d5	0.19862302
55	0x3d018147	0.03161743
56	0x3cb81f39	0.022475826
57	0xbe3be9d6	-0.1835092
58	0x3ddbadae	0.10726486
59	0x3dc8d20f	0.098056905
60	0x3dbd117c	0.092318505
61	0x3e0a584f	0.1351025
62	0x3e0279b9	0.12741746
63	0xbea840a5	-0.3286182
64	0x3dd3bb17	0.10338419
65	0x3e05eb5f	0.13078068
66	0xbee9b706	-0.45647448
67	0x3c46f1f5	0.012142648
68	0x3e2d4bd4	0.16923457
69	0xbd836117	-0.06415003
70	0x3bb197ec	0.005419722
71	0x3e5ce374	0.21571141
72	0xbd8d50d4	-0.06900182
73	0xbd970e7c	-0.073758096
74	0x3ecd1f4a	0.40062934
75	0xbf13023b	-0.5742528
76	0x3eba427f	0.36378857
77	0xbece0034	-0.4023453
78	0xbd1d2932	-0.038369365
79	0x3f134bb9	0.5753742
80	0xbf0b4872	-0.5440742
81	0xbf34015e	-0.70314586
82	0xbf4a1e47	-0.7895245
83	0xbe4069cf	-0.18790363
84	0x3e688d75	0.22710212
85	0xbe0ba0b2	-0.13635519
86	0x3ebb0afb	0.36531815
87	0xbe4d9f83	-0.2008038
88	0xbf1c3431	-0.6101714
89	0xbdacf421	-0.084450014
90	0xbe4a71d3	-0.19769983
91	0x3cf56198	0.029953763
92	0x3e5a3b3d	0.2131166
93	0x3e739c13	0.23790006
94	0xbe8e715e	-0.27820867
95	0x3f264f9b	0.6496522
96	0xbe99267e	-0.2991218
97	0x3e73cb66	0.23808059
98	0x3ecb5747	0.39715025
99	0xbedbbaf9	-0.42916086

layers.6.bias f4 [10]
0	0xbe51c6a2	-0.20485929
1	0xbd905a0e	-0.070484266
2	0x3e871247	0.26381132
3	0x3e01cb09	0.12675108
4	0x3eac0ea2	0.33604914
5	0x3caec216	0.021332782
6	0xbe54e5a5	-0.20790727
7	0x3eeb86c5	0.46001258
8	0xbd7958f7	-0.06087586
9	0xbf229822	-0.63513386

layers.8.weight f4 [10, 10]
0	0x3d58a9f0	0.05289644
1	0x3c1b81da	0.009491408
2	0x3e52c16b	0.20581596
3	0xbed270e0	-0.41101742
4	0x3f31e146	0.69484365
5	0xbdfced09	-0.12349898
6	0x3ef08b77	0.46981403
7	0xbe1e31ff	-0.1544876
8	0xbec02153	-0.37525424
9	0xbad61fac	-0.0016336343
10	0x3eecf16b	0.46277937
11	0x3e1beff1	0.15228249
12	0x3e8e3d79	0.27781275
13	0xbf87fc43	-1.0623859
14	0x3e59edd1	0.21282126
15	0xbe22393b	-0.15842144
16	0x3e803bf3	0.25045738
17	0x3ed9f644	0.42570698
18	0x3d9c3fce	0.07629357
19	0xbed6b839	-0.41937426
20	0x3ea3db3f	0.3200321
21	0xbec66c84	-0.38754666
22	0xbeba87d4	-0.36431754
23	0x3e8103ab	0.2519811
24	0x3ebc3ee8	0.36766744
25	0x3e268a26	0.16263637
26	0x3df965c1	0.12177611
27	0xbdd12afb	-0.10213276
28	0x3e294bfc	0.16532892
29	0xbd456ab9	-0.04819748
30	0x3dda6050	0.106629014
31	0x3e03883c	0.12844938
32	0x3d09b316	0.033618055
33	0xbeaa6121	-0.33277228
34	0x3d8b20fa	0.06793399
35	0x3e41296c	0.18863457
36	0xbe2dfb4b	-0.16990392
37	0x3e3a59f1	0.18198372
38	0xbe9546d2	-0.29155594
39	0xbe90862e	-0.2822737
40	0xbc894c55	-0.01676003
41	0xbeb19fed	-0.34692326
42	0x3e1f39bb	0.15549366
43	0x3ed7f919	0.42182234
44	0xbf95e35b	-1.1710008
45	0xbe69a5f7	-0.22817217
46	0xbe5fcffa	-0.2185668
47	0x3bae53f8	0.0053200684
48	0x3f534dbe	0.825405
49	0xbf106564	-0.5640471
50	0xbe94c25a	-0.29054528
51	0xbd98d475	-0.07462398
52	0x3ec07353	0.37587985
53	0xbe14a495	-0.14515908
54	0xbf057db3	-0.52144927
55	0x3e1602be	0.14649484
56	0xbe034249	-0.12818255
57	0x3e0d561f	0.13802384
58	0x3f003d32	0.50093377
59	0xbe236523	-0.1595655
60	0xbd9e9349	-0.07742936
61	0x3db2dc3b	0.08733412
62	0xbe799c3a	-0.24376002
63	0xbe914c91	-0.28378728
64	0x3ee36a83	0.444172
65	0x3e26be96	0.1628364
66	0xbdc9eb20	-0.098593
67	0x3da98c5d	0.08278725
68	0xbea6e981	-0.32600024
69	0x3e4f86ab	0.20266216
70	0xbd028f81	-0.031875137
71	0x3ba72424	0.005100744
72	0xbe735f89	-0.23766913
73	0x3ecd65da	0.4011677
74	0x3d90f016	0.07077043
75	0x3e19fbe6	0.15037498
76	0x3dc6f307	0.097143225
77	0x3ddc4a10	0.10756314
78	0x3d9416fc	0.072309464
79	0xbd08dafe	-0.033411972
80	0x3c522b4c	0.012827706
81	0x3ccbafe9	0.024864154
82	0x3d5d0ab3	0.05396528
83	0xbe314214	-0.17310363
84	0x3e238938	0.15970314
85	0x3dbe851a	0.09302731
86	0x3e5ca601	0.215477
87	0xbe0aa5c0	-0.13539791
88	0x3e36784b	0.17819326
89	0xbda5111f	-0.08059906
90	0x3eb2ee0e	0.34947246
91	0x3eb7f6b2	0.359304
92	0xbd39750f	-0.04527765
93	0xbe1129c3	-0.14176087
94	0x3ccaaa7d	0.024739498
95	0xbcdd4855	-0.02701203
96	0x3ee254a6	0.44205207
97	0xbe36c079	-0.1784686
98	0xbdf16aaa	-0.11787923
99	0x3ec64cf8	0.38730597

layers.8.bias f4 [10]
0	0x3e9bf6ee	0.3046183
1	0xbe5f83b5	-0.21827586
2	0x3ec0f74e	0.37688679
3	0xbe1a5097	-0.15069805
4	0x3e5dc771	0.21658112
5	0xbd2c47bc	-0.0420606
6	0xbba38866	-0.004990625
7	0xbebd7b0a	-0.37007934
8	0x3e8a7f0d	0.27050057
9	0xbe89514a	-0.2681983

layers.10.weight f4 [10, 10]
0	0x3e389910	0.18027139
1	0x3c902407	0.017595304
2	0x3cf4c135	0.029877285
3	0x3e94454b	0.28959116
4	0x3e60fd65	0.21971662
5	0x3ea34cfd	0.31894675
6	0xbdfc78ff	-0.12327766
7	0x3de9bd45	0.114130534
8	0x3de11b61	0.1099155
9	0xbe85d9d2	-0.26142746
10	0xbc15ab4a	-0.009135077
11	0xbeb7dda9	-0.359113
12	0x3e9b611a	0.3034752
13	0xbe208e65	-0.15679319
14	0xbf386273	-0.7202522
15	0xbeebee05	-0.46080032
16	0x3dcd31d0	0.100192666
17	0x3f06ec19	0.52704006
18	0x3e08b37d	0.1334972
19	0xbc5b5302	-0.01338649
20	0x3ea4f48c	0.32217824
21	0xbe1c0edc	-0.15240043
22	0x3e6b2b55	0.22965749
23	0x3e172bf6	0.14762864
24	0xbe68feb2	-0.22753409
25	0x3d00784c	0.031364724
26	0x3dc4e96d	0.09614835
27	0x3e16b18c	0.14716166
28	0xbe255d00	-0.16148758
29	0x3d1540e9	0.036438856
30	0xbe71c0be	-0.23608682
31	0x3d82103f	0.06350755
32	0x3c543e74	0.012954343
33	0xbdf63c93	-0.12023272
34	0x3e8fdceb	0.28098235
35	0x3dbb1422	0.091346994
36	0xbc15e6a3	-0.009149226
37	0x3e22c114	0.15893966
38	0x3e38036f	0.1797006
39	0x3d9ddc4a	0.077080324
40	0xbee6dcc5	-0.4509031
41	0x3e4fe28b	0.20301263
42	0xbd0ba8c0	-0.03409648
43	0x3d60f066	0.05491676
44	0x3ea0a9ef	0.3137965
45	0x3e4cf8d3	0.20016794
46	0xbb8ca8bc	-0.0042925756
47	0x3e5422b4	0.20716363
48	0xbe5a7d3e	-0.21336839
49	0x3e6594ed	0.22420092
50	0x3e43c7a7	0.1911913
51	0xbe08a361	-0.13343574
52	0x3ea35894	0.31903517
53	0x3dd73820	0.10508752
54	0xbdb8c8c5	-0.09022669
55	0xbbdd4d0f	-0.006753571
56	0x3e0943c4	0.13404757
57	0x3e9acf88	0.3023646
58	0x3d10e1c4	0.035371557
59	0xbe8100c5	-0.251959
60	0x3e31cfc1	0.17364408
61	0x3e85077f	0.25982282
62	0xbe32861c	-0.17433971
63	0x3eaca265	0.33717647
64	0x3de8b7f7	0.113632135
65	0xbac6ad22	-0.0015157799
66	0xbd4f9a67	-0.05068436
67	0x3e09bf85	0.13451965
68	0xbbc8937e	-0.006121098
69	0xbe08fdff	-0.13378142
70	0x3cfd6319	0.030931043
71	0x3eef8e7d	0.46788397
72	0xbea8afd3	-0.32946643
73	0x3dbec01d	0.093139865
74	0x3e850834	0.2598282
75	0x3e95b55e	0.29239935
76	0x3e73b427	0.23799191
77	0xbe0f5c29	-0.14
78	0x3ea99fab	0.3312963
79	0x3df34cb2	0.11879863
80	0xbe564fdb	-0.209289
81	0xbe8bb653	-0.2728754
82	0x3d3bce41	0.045850996
83	0xbe864d0b	-0.26230654
84	0xbce6de8d	-0.028182292
85	0xbe786257	-0.24256264
86	0xbcfac612	-0.030612025
87	0x3e287bf8	0.1645354
88	0x3e5d1ea4	0.2159372
89	0xbdd70717	-0.10499399
90	0xbf123c3d	-0.57123166
91	0x3e9f39e2	0.3109885
92	0xbef0b652	-0.470141
93	0x3e82e038	0.2556169
94	0xbcb6b9f4	-0.022305466
95	0x3eff2526	0.4983303
96	0xbe959221	-0.2921305
97	0x3c653cd7	0.013991556
98	0xbe4977bb	-0.1967458
99	0x3d697acc	0.057001874

layers.10.bias f4 [10]
0	0x3e37b319	0.17939414
1	0xbec932cc	-0.39296567
2	0x3e28be16	0.16478762
3	0x3e0fa4cd	0.1402771
4	0x3bfb3a3e	0.007666855
5	0xbdca4553	-0.09876504
6	0x3d41ac41	0.047283415
7	0x3daedcb3	0.08538189
8	0xbe0fa281	-0.14026834
9	0xbecbbd14	-0.39792693

layers.12.weight f4 [1, 10]
0	0xbda302f2	-0.07959546
1	0xbf0b1745	-0.5433238
2	0xbf0418d3	-0.5160038
3	0x3e16976f	0.14706205
4	0x3ec036be	0.37541765
5	0xbead8a2a	-0.33894473
6	0x3e115541	0.14192678
7	0x3f187d34	0.59566045
8	0xbe5cf9f2	-0.21579722
9	0x3f52174b	0.8206679
