Models_Data_Figures/BURGERS/Burgers_Architecture/Models/10_9.pth (torch, 8798 bytes, 17 tensors)

layers.0.weight f4 [10, 2]
0	0xbea56832	-0.32306057
1	0xbecf0eb8	-0.40440917
2	0x3ef87dab	0.48533377
3	0x3ea69644	0.3253652
4	0x3e9b43fd	0.30325308
5	0x3eac0813	0.3359991
6	0xbe136a1e	-0.14395949
7	0xbe9b5a14	-0.30342162
8	0x3ee1bfc8	0.4409163
9	0xbef934b3	-0.4867302
10	0xbec7b81e	-0.39007658
11	0xbe04896d	-0.12943049
12	0xbf3f1756	-0.7464498
13	0xbe152eed	-0.14568682
14	0xbf22808b	-0.6347739
15	0x3ea46115	0.32105318
16	0xbeffec15	-0.49984804
17	0x3db02d72	0.08602418
18	0xbe75376d	-0.23946925
19	0x3e8375b7	0.25675747

layers.0.bias f4 [10]
0	0xbf172391	-0.59038645
1	0xbc37a819	-0.011209511
2	0xbf444c53	-0.7667896
3	0xbef3d417	-0.4762275
4	0xbf0cd60e	-0.5501412
5	0xbedd8bbe	-0.43270677
6	0x3f331db2	0.69967186
7	0xbe3be3d2	-0.18348625
8	0xbf0defd9	-0.55444103
9	0xbf2315ee	-0.6370534

layers.2.weight f4 [10, 10]
0	0x3efb009f	0.4902391
1	0xbe68e036	-0.2274178
2	0x3e9e47ed	0.3091425
3	0xbd98690e	-0.074419126
4	0xbd1e6010	-0.03866583
5	0xbca29e40	-0.01985085
6	0xbde7109e	-0.11282466
7	0xbdf9c826	-0.121963784
8	0xbec1a96d	-0.37824574
9	0xbe9f8e76	-0.31163377
10	0xbebe91fb	-0.3722075
11	0x3e1c0238	0.15235221
12	0x3e27407c	0.16333193
13	0xbdb7fb8d	-0.089835264
14	0xbe304c19	-0.17216529
15	0x3e9410ad	0.28918973
16	0x3e4b15ef	0.19832586
17	0xbf29a770	-0.66271114
18	0x3f1697d6	0.58825433
19	0x3f1f95c4	0.623379
20	0x3dbda2b8	0.09259552
21	0x3d956a93	0.07295718
22	0xbeaaae86	-0.33336276
23	0x3ed5fa41	0.4179249
24	0x3e0ed487	0.1394826
25	0x3dc72ad0	0.09724963
26	0xbd032cad	-0.032025028
27	0xbe28350d	-0.16426487
28	0x3ec1f636	0.37883157
29	0x3eb829d9	0.35969427
30	0xbd5146ef	-0.05109304
31	0xbe8777c8	-0.26458573
32	0xbe2e2b48	-0.17008698
33	0xbe546b94	-0.20744163
34	0x3eca5e65	0.39525142
35	0x3e28e7d4	0.16494685
36	0xbe9e64f2	-0.3093639
37	0x3eb76863	0.35821828
38	0xbebdee49	-0.3709586
39	0x3ceee5e1	0.02916235
40	0x3e0ab0b9	0.13543977
41	0x3e9fc246	0.31202906
42	0x3ea184a6	0.31546515
43	0xbeb18106	-0.3466875
44	0xbe92a6c4	-0.28642857
45	0xbed9941f	-0.4249582
46	0xbe0514a7	-0.1299616
47	0x3d1eae38	0.038740367
48	0x3d566202	0.05233956
49	0xbeeec141	-0.46631816
50	0x3e78e883	0.24307446
51	0x3dea444b	0.11438807
52	0xbea3bb2f	-0.31978747
53	0x3f562fd6	0.8366674
54	0x3f4e0c36	0.8048738
55	0x3e251b81	0.16123773
56	0x3eb67e37	0.3564317
57	0x3f125385	0.5715869
58	0x3df3091f	0.11866974
59	0xbcc940b8	-0.024566993
60	0xbe6f95a3	-0.23396926
61	0xbf24d90a	-0.64393675
62	0x3e4b4d85	0.1985379
63	0x3dd41eaa	0.10357411
64	0xbc0ab8ab	-0.00846688
65	0x3e7349c5	0.2375861
66	0xbf0a17ab	-0.53942364
67	0x3e063686	0.13106737
68	0x3dc341e2	0.095340505
69	0x3daf9e7a	0.08575149
70	0x3f037a8d	0.5135887
71	0x3eef1d0a	0.46701843
72	0xbe903a53	-0.28169498
73	0x3ed722b0	0.42018652
74	0x3d68ba8d	0.056818534
75	0xbed00fda	-0.40637094
76	0x3f01776b	0.5057284
77	0xbb80465a	-0.0039146366
78	0xbf057374	-0.5212929
79	0xbf332171	-0.699729
80	0x3f212d8e	0.62960136
81	0x3e0b9fc0	0.13635159
82	0x3f541d99	0.8285766
83	0xbf693371	-0.9109412
84	0xbf1bb0cd	-0.6081665
85	0xbf65bd2b	-0.8974177
86	0xbebdf01f	-0.3709726
87	0x3e6867b1	0.22695805
88	0xbf1bc2f5	-0.60844356
89	0xbf4adca1	-0.79242903
90	0xbe813794	-0.25237715
91	0x3e6133b5	0.21992381
92	0x3e413d03	0.1887093
93	0xbf07daae	-0.53068054
94	0xbec52546	-0.38505
95	0xbea8752e	-0.329019
96	0x3db1c397	0.08679884
97	0xbf098093	-0.53711814
98	0xbdcf7766	-0.10130195
99	0x3c596659	0.0132690305

layers.2.bias f4 [10]
0	0x3e370f65	0.17876966
1	0x3f00cc40	0.5031166
2	0xbe89b1fe	-0.2689361
3	0xbe41679d	-0.18887182
4	0x3dad7d7e	0.08471201
5	0xbf093653	-0.5359852
6	0x3dfa61dc	0.122256964
7	0xbd37f94c	-0.044915482
8	0x3d598213	0.053102564
9	0x3e4714e1	0.19441558

layers.4.weight f4 [10, 10]
0	0xbec942ce	-0.3930878
1	0xbdfe9996	-0.12431638
2	0x3ddfb680	0.10923481
3	0x3e802f35	0.25036016
4	0xbf0a5652	-0.54037964
5	0x3e620407	0.22071849
6	0x3ebfeffd	0.37487784
7	0xbee6eb39	-0.45101336
8	0xbea94ec7	-0.33067915
9	0xbe781be9	-0.24229397
10	0xbc357c42	-0.011076989
11	0x3c8b5d2e	0.017012205
12	0xbed30cca	-0.41220695
13	0xbeea8468	-0.45804143
14	0x3d680a9d	0.056650747
15	0xbf054176	-0.5205301
16	0xbe1fd7fc	-0.15609735
17	0x3e70da2a	0.23520723
18	0x3eb3eb05	0.35140243
19	0xbcb9da98	-0.022687241
20	0xbde08266	-0.109623715
21	0xbddd87ea	-0.10816939
22	0xbe37715c	-0.17914337
23	0xbe0b3c62	-0.13597253
24	0xbdb8d287	-0.0902453
25	0xbedf8396	-0.4365508
26	0x3eb871d8	0.36024356
27	0x3d756bf8	0.05991742
28	0x3e52ad3d	0.20573898
29	0xbe77083b	-0.24124233
30	0xbe28b478	-0.16475093
31	0x3f0f443a	0.5596348
32	0x3cdbe990	0.02684477
33	0xbe0bc23c	-0.13648313
34	0x3cda38f5	0.026638487
35	0xbf095778	-0.5364909
36	0xbcc58f40	-0.024116158
37	0xbe1398cb	-0.14413755
38	0xbeab8ccb	-0.33505854
39	0x3f35fe04	0.7109072
40	0x3e1b3094	0.1515525
41	0xbe73217e	-0.23743245
42	0xbe59de41	-0.2127619
43	0xbd012782	-0.03153182
44	0x3d57eda0	0.05271685
45	0xbee5b318	-0.448632
46	0x3ea5d05e	0.32385534
47	0xbee08c55	-0.43857065
48	0x3f1cb728	0.61216974
49	0xbe34868f	-0.17629455
50	0x3e920bd0	0.28524637
51	0xbf1abe3b	-0.6044652
52	0xbd92455e	-0.07142137
53	0xbd00bb64	-0.03142871
54	0x3e48596b	0.1956536
55	0x3f301bea	0.68792593
56	0xbeada517	-0.33915016
57	0x3f3d9861	0.74060637
58	0x3f0bb5a6	0.5457405
59	0xbdcbba72	-0.09947671
60	0xbcd60ba5	-0.0261286
61	0x3f144c73	0.5792915
62	0x3dc394fd	0.09549902
63	0x3e9d5ba2	0.30733973
64	0xbe22c52c	-0.15895528
65	0x3e0e8b80	0.13920403
66	0x3e12ef95	0.14349206
67	0xbec77b79	-0.3896139
68	0xbf175b2c	-0.5912349
69	0xbe722024	-0.23645073
70	0xbe97eb11	-0.2967153
71	0x3e85651a	0.26053697
72	0xbd19fa7f	-0.037592407
73	0xbee35f63	-0.44408712
74	0xbbe2f057	-0.0069256234
75	0x3e27b173	0.16376285
76	0xbe97d3fa	-0.29653913
77	0x3e55503c	0.20831388
78	0xbf3055d8	-0.6888099
79	0x3d38f2b1	0.045153324
80	0xbee58eb6	-0.44835442
81	0x3e7cc4cd	0.24684449
82	0x3e9451db	0.289687
83	0x3e633155	0.22186787
84	0x3cdc7427	0.026910855
85	0xbd192b12	-0.03739459
86	0xbe656159	-0.22400416
87	0x3e1d55ce	0.15364763
88	0xbf50f5ee	-0.8162526
89	0x3dd8cb63	0.10585668
90	0x3a0fa5b5	0.00054797094
91	0x3f57f3a1	0.84356123
92	0x3edc4551	0.43021634
93	0xbd6f066a	-0.058355726
94	0xbee8f7b3	-0.4550148
95	0x3e1ae4d0	0.15126348
96	0x3a5e533d	0.00084810314
97	0xbe41f8c2	-0.1894255
98	0xbf6574fd	-0.89631635
99	0x3e547af9	0.20750035

layers.4.bias f4 [10]
0	0x3e39f25e	0.18158862
1	0xbd8c38e9	-0.06846792
2	0xba93f16e	-0.0011287162
3	0x3e9ee21d	0.31031886
4	0x3e55c614	0.20876342
5	0xbe812e2c	-0.2523054
6	0x3ef45eab	0.47728476
7	0x3e08b8a0	0.13351679
8	0xbe8e191a	-0.27753526
9	0x3ddc5ec0	0.1076026

layers.6.weight f4 [10, 10]
0	0xbea2fd0f	-0.31833693
1	0x3d82c98e	0.063861
2	0xbdf94456	-0.12171237
3	0xbe957960	-0.29194164
4	0xbe3ddb73	-0.18540744
5	0xbd47a84b	-0.04874448
6	0xbe69c05c	-0.22827286
7	0xbe73f3af	-0.23823427
8	0x3e863ad7	0.26216766
9	0xbe6876d2	-0.22701576
10	0x3eeeedb6	0.46665734
11	0x3e075e13	0.1321948
12	0x3ec6c16a	0.38819438
13	0xbe2f6d30	-0.17131495
14	0x3f145051	0.57935053
15	0xbec0ad37	-0.37632152
16	0xbe47056c	-0.19435662
17	0xbe07cf53	-0.13262682
18	0x3c212194	0.009834666
19	0xbeb17674	-0.34660685
20	0x3f035b4a	0.5131117
21	0xbed2db3e	-0.41182894
22	0xbe59a077	-0.21252619
23	0xbe414156	-0.1887258
24	0x3e0f6d4b	0.14006536
25	0x3e10f372	0.14155367
26	0xbe508248	-0.20362198
27	0xbf15c6ff	-0.5850677
28	0x3d479684	0.048727527
29	0xbdfffb39	-0.12499089
30	0x3cf598b5	0.029980043
31	0xbecbfd61	-0.3984175
32	0xbe99c112	-0.30030113
33	0xbe0d6726	-0.1380888
34	0xbf209a6a	-0.6273562
35	0x3d598192	0.053102084
36	0x3e32644b	0.17421071
37	0x3f2c6ea8	0.6735635
38	0x3f22a454	0.63531995
39	0x3f413955	0.75478107
40	0x3d85479e	0.065078005
41	0xbd741b44	-0.059596315
42	0x3d8a257b	0.0674543
43	0x3efd98b1	0.49530557
44	0xbefa1b9e	-0.48849195
45	0xbcc43289	-0.023949878
46	0x3edc7552	0.43058258
47	0x3e8120b0	0.2522025
48	0x3ea029d8	0.31281924
49	0x3eeea82e	0.46612686
50	0xbd327f3a	-0.043578364
51	0x3ea4dee2	0.32201296
52	0x3e47b03d	0.19500823
53	0xbf23babf	-0.63956827
54	0x3df05c6d	0.11736379
55	0x3ea9c602	0.3315888
56	0xbedd3803	-0.43206796
57	0x3e1d6ea9	0.15374245
58	0xbec0d7dd	-0.3766469
59	0xbf13f9bf	-0.5780296
60	0x3e0ab017	0.13543735
61	0x3f056e99	0.52121884
62	0x3e37fc5c	0.17967361
63	0x3d40374b	0.04692773
64	0x3e9115bd	0.28336897
65	0xbe55809a	-0.20849839
66	0xbedb4ae3	-0.42830572
67	0x3e0d2720	0.13784456
68	0xbf347ec7	-0.70505947
69	0xbef22c8b	-0.4729961
70	0xbf04cecf	-0.51878065
71	0x3debb795	0.11509625
72	0xbcdafadd	-0.026730949
73	0x3ea448ab	0.3208669
74	0x3d87002a	0.06591828
75	0x3e5a22ab	0.21302287
76	0xbf00e8e8	-0.50355387
77	0x3ec33027	0.38122675
78	0x3d94d29e	0.072667345
79	0xbdd81de0	-0.10552573
80	0xbe172f57	-0.14764152
81	0x3e094ae1	0.1340747
82	0xbee90f20	-0.45519352
83	0xbdcc100d	-0.09963999
84	0x3e9a0b53	0.30086765
85	0x3ee546ec	0.44780672
86	0xbf1be175	-0.60890895
87	0xbe85d3cb	-0.26138148
88	0xbecd343f	-0.40078923
89	0xbecc2fe7	-0.39880297
90	0x3ed164c2	0.40897185
91	0xbedd7626	-0.43254203
92	0xbe12507f	-0.1428852
93	0xbec98489	-0.3935893
94	0xbeb6edf1	-0.3572841
95	0x3ef2ee7b	0.4744757
96	0x3ecd902c	0.40149057
97	0x3de25f65	0.11053351
98	0xbe469f71	-0.1939676
99	0xbb7d0b78	-0.0038611572

layers.6.bias f4 [10]
0	0x3d94ecab	0.07271703
1	0x3f12dedb	0.573713
2	0xbeddaba5	-0.43295017
3	0x3d88fd22	0.06688906
4	0x3e798560	0.24367285
5	0xbe7fe085	-0.24987991
6	0xbca7c9c8	-0.020481959
7	0xbd3c16a9	-0.045920048
8	0xbdc29593	-0.09501185
9	0xbe22c109	-0.1589395

layers.8.weight f4 [10, 10]
0	0xbe025f29	-0.12731613
1	0x3ef40818	0.47662425
2	0x3ee731a5	0.45155063
3	0xbe0c2b81	-0.1368847
4	0xbd953aba	-0.07286592
5	0x3dff86da	0.12476893
6	0xbe9295de	-0.28629965
7	0xbe60eddb	-0.21965735
8	0xbe7d8a12	-0.24759701
9	0x3d85a7e2	0.06526162
10	0x3d67e460	0.05661428
11	0x3d3fbe9e	0.046812646
12	0x3bc4aad8	0.0060018115
13	0x3d4d2ffa	0.050094582
14	0xbe898347	-0.2685797
15	0x3d69cf32	0.057082362
16	0x3e026656	0.1273435
17	0xbe4604bf	-0.19337748
18	0xbe9996be	-0.2999782
19	0x3dfe53cd	0.124183275
20	0x3eaf9fba	0.3430155
21	0x3f3f56ad	0.7474163
22	0x3f1b2765	0.60606986
23	0xbf088e17	-0.5334181
24	0xbe65ac42	-0.22428992
25	0x3f5f1d47	0.8715405
26	0x3e8cd510	0.27506304
27	0xbe58f0c7	-0.211856
28	0x3f15f3e9	0.585753
29	0x3eebc83c	0.46051204
30	0x3d630fc2	0.05543495
31	0xbe8fc0c2	-0.2807675
32	0x3d56144e	0.052265458
33	0xbd00feb4	-0.031492904
34	0xbe28f2a6	-0.16498813
35	0x3e53a1e0	0.20667219
36	0x3d033f7d	0.03204297
37	0x3ea09b2f	0.31368396
38	0xbe6b5faa	-0.22985712
39	0xbecec51c	-0.40384758
40	0x3ee60814	0.44928038
41	0x3ecf7cf4	0.4052502
42	0x3e1f58cb	0.15561216
43	0xbed14992	-0.40876442
44	0xbe391988	-0.18076146
45	0x3ea489df	0.32136437
46	0x3ebb640e	0.36599773
47	0xbe92c283	-0.28664026
48	0x3ea304c3	0.3183957
49	0x3ce12616	0.027483981
50	0x3e9f45c4	0.31107914
51	0x3de55415	0.11197678
52	0xbe827952	-0.25483185
53	0xbd28a89c	-0.041176423
54	0xbe368013	-0.17822294
55	0xbd905553	-0.07047524
56	0x3eb54312	0.35402733
57	0x3e2f7da5	0.17137773
58	0x3d609144	0.054826036
59	0xbeb20dae	-0.34776062
60	0xbe9dbd4e	-0.3080849
61	0x3f472900	0.77796936
62	0x3e218146	0.1577197
63	0xbeb29e0f	-0.34886214
64	0x3eaaac8f	0.33334777
65	0xbdc615b5	-0.09672109
66	0x3e39124d	0.18073387
67	0xbe8ccf00	-0.27501678
68	0xbe806063	-0.25073537
69	0xbe8e344c	-0.27774274
70	0x3c9e21c9	0.01930322
71	0x3e29c5c6	0.16579351
72	0xbe818b9d	-0.2530183
73	0x3eb5676e	0.35430473
74	0x3e6eb3b8	0.23310745
75	0xbd73f087	-0.059555557
76	0x3ee552fe	0.4478988
77	0x3e0b78d2	0.13620308
78	0xbe0593e1	-0.13044693
79	0xbd3bdb7c	-0.045863613
80	0x3dcb33e9	0.099220105
81	0xbf254649	-0.6456037
82	0x3e2ad2d0	0.16681981
83	0x3ec91e4d	0.3928093
84	0x3ea0ea5d	0.31428805
85	0xbf33e7e8	-0.70275736
86	0xbe29fd5c	-0.16600555
87	0x3e620bbc	0.22074789
88	0xbe9099ac	-0.28242242
89	0x3e375b00	0.17905807
90	0xbdde1b1a	-0.10845013
91	0xbf4df581	-0.80452734
92	0x3d112baf	0.03544205
93	0x3d8abf61	0.06774784
94	0x3db38943	0.08766415
95	0x3dba10fa	0.09085269
96	0xbe32c4c6	-0.17457876
97	0xbe65e6b4	-0.22451288
98	0xbd8c096e	-0.06837736
99	0x3e90dca9	0.2829335

layers.8.bias f4 [10]
0	0x3e9afc7c	0.30270755
1	0x3e84c740	0.25933266
2	0xbe0920d1	-0.13391425
3	0xbcc07148	-0.023491517
4	0x3e76e24b	0.24109761
5	0xbe922aec	-0.28548372
6	0xbe7dbe84	-0.24779707
7	0x3de3d6e5	0.11124972
8	0x3da10117	0.07861536
9	0xbdd787fc	-0.10523984

layers.10.weight f4 [10, 10]
0	0x3ed04101	0.40674594
1	0x3dcbe3c0	0.09955549
2	0x3ef178e0	0.47162533
3	0xbe781426	-0.24226436
4	0xbd0e9d34	-0.03481789
5	0xbf24b1d8	-0.6433387
6	0xbc28e13d	-0.010307607
7	0xbeb3a872	-0.3508945
8	0xbd74d7b2	-0.059776016
9	0x3ce1776d	0.027522767
10	0xbf437371	-0.76348025
11	0xbe945cca	-0.28977042
12	0xbea63615	-0.32463136
13	0x3ed92f13	0.42418727
14	0x3ddbd3f8	0.10733789
15	0x3dfc0a18	0.12306613
16	0xbf11934c	-0.5686538
17	0x3e20f6f9	0.15719213
18	0xbe987167	-0.2977402
19	0x3ea9198e	0.3302731
20	0x3ef9f165	0.48816982
21	0x3d22be90	0.039732516
22	0xbdc17b66	-0.094473645
23	0xbc81f72d	-0.015864933
24	0xbea9b41e	-0.3314523
25	0xbdc46efe	-0.095914826
26	0x3ef2d3c9	0.47427204
27	0xbe86516b	-0.26233992
28	0xbe7135d2	-0.23555687
29	0xbddafeca	-0.106931284
30	0x3d96ce30	0.07363546
31	0xbe3c592c	-0.18393391
32	0xbecf9d8a	-0.4054988
33	0x3e08ee83	0.13372235
34	0x3ddceb1e	0.107870325
35	0xbe63930f	-0.22224067
36	0xbe799b43	-0.24375634
37	0x3ced8793	0.02899531
38	0x3e99c001	0.300293
39	0x3d2a1ae7	0.041529562
40	0x3efbbbd9	0.49166754
41	0x3f0356ff	0.5130462
42	0x3ec4c716	0.3843314
43	0xbcf2b10a	-0.029625434
44	0x3edcbfe8	0.43115163
45	0xbda7d1a7	-0.08194285
46	0xbee044b9	-0.4380243
47	0xbe2f20b1	-0.17102315
48	0xbe99a7b8	-0.30010772
49	0x3eae3d11	0.34030965
50	0x3e6d28bb	0.23160069
51	0xbd6d586a	-0.057945646
52	0xbea51181	-0.32239917
53	0xbeb1c9c2	-0.34724241
54	0xbc1b1c07	-0.009467131
55	0xbec24653	-0.37944278
56	0xbc84ada9	-0.016196089
57	0xbe6a1897	-0.22860943
58	0x3e371936	0.17880711
59	0x3e9a4233	0.3012863
60	0xbea04c3b	-0.3130816
61	0xbd0514ea	-0.03249065
62	0xbf26b5b5	-0.6512101
63	0xbce6705f	-0.028129755
64	0xbe7c579e	-0.24642798
65	0x3c91708e	0.017753866
66	0xbe9786d4	-0.29595053
67	0x3ed7a01f	0.4211435
68	0x3e478308	0.19483578
69	0x3e85bebf	0.2612209
70	0xbcb4ae81	-0.022055866
71	0xbef44b1f	-0.47713563
72	0xbd3d16b6	-0.046164237
73	0xbcfb2881	-0.030658962
74	0x3de539f4	0.11192694
75	0x3ebe0250	0.3711114
76	0xbed5b194	-0.41737044
77	0x3e2d9e39	0.16954888
78	0x3dd9504a	0.10611017
79	0x3eb007dd	0.34381
80	0xbe81437e	-0.25246805
81	0x3ea2cd18	0.317971
82	0x3eba5b1b	0.36397633
83	0xbd8dab83	-0.06917479
84	0x3e3531c4	0.17694765
85	0x3dcb42a1	0.09924818
86	0xbb18c225	-0.0023309079
87	0xbc944b8b	-0.018102428
88	0xbe9aad32	-0.30210263
89	0xbe8b6521	-0.27225593
90	0x3e760f99	0.24029388
91	0xbea1595e	-0.31513494
92	0x3e239fe1	0.15978958
93	0xbd3b7edd	-0.045775283
94	0x3e4152b5	0.18879206
95	0x3eaa0051	0.33203366
96	0xbd54a4b2	-0.05191488
97	0x3e6910d6	0.22760329
98	0xbeb797e9	-0.35858086
99	0x3e870efc	0.2637862

layers.10.bias f4 [10]
0	0x3ec6c058	0.38818622
1	0xbea9f08a	-0.3319133
2	0xbdd159a1	-0.102221735
3	0xbe8e075f	-0.2774
4	0xbe88e526	-0.26737326
5	0xbe8d5d97	-0.27610466
6	0xbe9ffb04	-0.31246197
7	0xbea9ae6a	-0.3314088
8	0x3c5681d4	0.013092477
9	0x3e1ec8e4	0.15506321

layers.12.weight f4 [10, 10]
0	0x3d8556cd	0.065106966
1	0x3e3e7298	0.18598402
2	0xbe5c11f8	-0.2149123
3	0xbe77c6a7	-0.24196874
4	0xbd6c25aa	-0.057653107
5	0xbf03d277	-0.5149302
6	0x3eb37dcd	0.35056916
7	0x3ee0cf3d	0.4390811
8	0xbd6f84ef	-0.058476385
9	0x3ef301b1	0.47462228
10	0x3de77841	0.113022335
11	0xbd1b8ced	-0.037976194
12	0xbbd22ac4	-0.0064137895
13	0x3d995ca4	0.07488373
14	0xbec33f41	-0.38134196
15	0xbf07960e	-0.5296334
16	0x3f1741ad	0.5908459
17	0xbe5a7a52	-0.21335724
18	0x3d56b065	0.052414317
19	0xbe5b8db4	-0.21440774
20	0x3e32747a	0.17427245
21	0x3d42b1b2	0.047532745
22	0xbe333a57	-0.17502724
23	0xbe278070	-0.16357589
24	0xbef11639	-0.47087267
25	0xbe69df15	-0.22839005
26	0x3eccfab4	0.4003502
27	0x3e678525	0.22609384
28	0x3d710cd7	0.058850136
29	0xbe13648d	-0.14393826
30	0xbe93e0c7	-0.2888243
31	0x3d51c3f9	0.051212285
32	0x3e0717d7	0.13192688
33	0x3e1e63c0	0.15467739
34	0x3edb6e5c	0.42857635
35	0x3d91c769	0.071181126
36	0xbeef8e6b	-0.46788344
37	0xbea1d2da	-0.3160618
38	0x3e893185	0.26795593
39	0x3df7dbf5	0.121025
40	0xbd82e8f0	-0.063920856
41	0x3ecba639	0.39775255
42	0xbd6ce49d	-0.05783521
43	0xbddbd35b	-0.10733672
44	0xbdd0cfbf	-0.101958744
45	0xbe8edb37	-0.27901623
46	0x3ab1599c	0.0013530734
47	0x3ec10d32	0.3770538
48	0xbd13f2c8	-0.036120206
49	0x3d92225b	0.07135459
50	0x3e4bffdd	0.19921823
51	0x3e5f77b1	0.21823002
52	0x3dea258b	0.11432942
53	0xbd925f0c	-0.07147035
54	0xbe0e1425	-0.13874872
55	0xbf57b5f5	-0.8426202
56	0x3f12dff9	0.57373005
57	0x3dceca83	0.1009722
58	0xbdde4718	-0.10853404
59	0x3eee13f0	0.46499586
60	0xbd92419f	-0.071414225
61	0x3e9782e5	0.29592052
62	0xbe84b3a9	-0.2591832
63	0x3e62cbc6	0.22148046
64	0xbe5db96e	-0.21652767
65	0xbea72041	-0.32641795
66	0xbe21f80e	-0.15817282
67	0x3eae6e31	0.34068444
68	0xbe4bd3fb	-0.19905083
69	0xbe2123c9	-0.15736307
70	0x3ee37f95	0.44433275
71	0x3dfca743	0.1233659
72	0xbea49f65	-0.32152858
73	0xbb2fc500	-0.0026820302
74	0x3eb31965	0.34980312
75	0x3bab5b8c	0.005229419
76	0x3d9bdb43	0.0761018
77	0x3e0a4324	0.13502175
78	0x3e60a4b6	0.21937832
79	0xbd3d3fe1	-0.046203498
80	0xbe2ff6bb	-0.17183964
81	0xbe8600ff	-0.26172635
82	0x3ecd10d1	0.40051892
83	0x3e190191	0.14942004
84	0x3e19b4e7	0.15010415
85	0x3eaddebc	0.33958995
86	0x3d815541	0.06315089
87	0xbe8a23c2	-0.26980406
88	0xbf07ecb6	-0.5309557
89	0xbea388ab	-0.31940207
90	0x3ede1a15	0.43379274
91	0x3e8a387c	0.2699622
92	0xbebb8bd0	-0.36630106
93	0xbd62fa70	-0.055414617
94	0x3ead0bfd	0.3379821
95	0xbe9174a5	-0.28409305
96	0x3d8188f4	0.0632495
97	0x3de2deb6	0.11077635
98	0xbc565d17	-0.013083718
99	0x3e141756	0.14462027

layers.12.bias f4 [10]
0	0x3e68314c	0.22675055
1	0x3cced8b2	0.025249813
2	0xbc67dd34	-0.01415186
3	0xbd86af63	-0.06576421
4	0xbd342efe	-0.043990128
5	0x3e97dc2e	0.2966017
6	0x3e92ea7f	0.2869453
7	0x3e08554c	0.13313788
8	0x3cfa9b39	0.030591594
9	0xbe866ee5	-0.2625648

layers.14.weight f4 [10, 10]
0	0xbeaf7bc1	-0.34274104
1	0xbefeb073	-0.49743995
2	0xbeab7c34	-0.33493197
3	0x3ee8b2bc	0.45448864
4	0x3eb73c3c	0.35788143
5	0xbcc39511	-0.023874791
6	0x3e68aa10	0.22721124
7	0xbea277ac	-0.31731927
8	0x3eed67f6	0.46368378
9	0xbe079a74	-0.13242513
10	0x3dffcf1b	0.12490674
11	0x3d5344db	0.051579338
12	0x3f2771d1	0.65408045
13	0xbf05aafb	-0.5221402
14	0xbeb0b7a7	-0.34515116
15	0x3ea36452	0.31912476
16	0xbe7063ac	-0.23475522
17	0x3ce98ae9	0.02850862
18	0xbdc073f7	-0.093971185
19	0x3dbb41cc	0.09143409
20	0x3e96d094	0.29456007
21	0x3e800595	0.2500426
22	0xbe084a06	-0.13309488
23	0x3e0b031e	0.13575408
24	0xbdb72107	-0.08941846
25	0xbc17d3d0	-0.009266809
26	0xbdb5d24b	-0.08878001
27	0xbe20bc36	-0.15696797
28	0x3da85798	0.08219832
29	0x3ddbaf5a	0.10726805
30	0x3ea20a59	0.3164852
31	0x3ef0fa60	0.4706602
32	0x3ef31730	0.47478628
33	0xbee97bf6	-0.45602387
34	0xbdae38a7	-0.08506899
35	0x3de3593a	0.11101003
36	0x3e43888b	0.19095056
37	0x3dcfba16	0.10142915
38	0xbefc7cce	-0.49313968
39	0xbe9e97a1	-0.3097506
40	0x3eae4af5	0.34041563
41	0xbe3a8888	-0.18216145
42	0x3e3e3909	0.18576445
43	0xbe47188d	-0.19442959
44	0xbe8f06a5	-0.27934757
45	0x3e239698	0.15975416
46	0x3e9c357b	0.30509552
47	0x3e4f0fb5	0.20220836
48	0xbdadc815	-0.08485428
49	0xbde5cb79	-0.1122045
50	0x3e0cf459	0.13765086
51	0x3d51d036	0.051223956
52	0xbf0e4f22	-0.555895
53	0x3ec722c2	0.38893706
54	0xbd650246	-0.05591037
55	0x3d158984	0.0365081
56	0xbdb7bf60	-0.08972049
57	0xbcb7c1d7	-0.022431297
58	0x3eb9d864	0.36297905
59	0x3eb64ae7	0.3560402
60	0xbf12623e	-0.57181156
61	0x3d2dce9e	0.042433374
62	0xbeff90b6	-0.49915093
63	0x3d8291a5	0.06375436
64	0x3de69a83	0.112599395
65	0xbe31b68e	-0.17354795
66	0xbdb3b5bb	-0.08774897
67	0xbede7145	-0.43445793
68	0x3f3a50e8	0.72779703
69	0xbe0ed82a	-0.13949648
70	0x3eae76cf	0.3407502
71	0x3f0cf173	0.5505592
72	0x3f411958	0.75429296
73	0xbdc8f9d0	-0.09813273
74	0xbcb602de	-0.022218164
75	0x3ec73741	0.38909343
76	0xbe84f7aa	-0.25970203
77	0xbe8be03e	-0.2731952
78	0xbdbd5c85	-0.09246162
79	0xbee21e23	-0.44163617
80	0xbedff853	-0.43744144
81	0xbef66300	-0.48122406
82	0xbeaf4016	-0.3422858
83	0xbd72bd80	-0.059262753
84	0x3eb433f5	0.3519589
85	0xbecd4286	-0.40089816
86	0xbdd2e716	-0.102979824
87	0x3e0cfe9a	0.13768998
88	0x3eae0486	0.33987826
89	0x3d87277a	0.065993264
90	0xbdcab0e5	-0.09897021
91	0x3ea86fc5	0.32897773
92	0x3d86118d	0.06546316
93	0xbe8e0081	-0.2773476
94	0xbe9cf3a7	-0.30654642
95	0xbdcec5c1	-0.10096312
96	0xbd5ffdb1	-0.0546853
97	0x3e5487db	0.2075495
98	0xbeca2d8f	-0.39487883
99	0x3eb71be0	0.35763454

layers.14.bias f4 [10]
0	0x3e78b5e3	0.24288134
1	0x3ce6e13c	0.028183572
2	0xbe62b66e	-0.22139904
3	0xbe8ca913	-0.27472743
4	0x3eca65a0	0.3953066
5	0xbdc43e1e	-0.095821604
6	0x3ea3120b	0.31849703
7	0x3e36f7b7	0.17867933
8	0x3d57e6a6	0.052710198
9	0xbdd26089	-0.10272319

layers.16.weight f4 [1, 10]
0	0x3f228dee	0.6349782
1	0xbeac0829	-0.33599976
2	0x3eb7b871	0.35882905
3	0xbf37ee3a	-0.7184788
4	0x3f60f82b	0.87878674
5	0x3ee1ed09	0.44126156
6	0x3f1201df	0.57034105
7	0xbf7012eb	-0.93778867
8	0x3e6b39c6	0.22971258
9	0xbf5ca434	-0.86188054
