Models_Data_Figures/BURGERS/Burgers_Architecture/Models/20_3.pth (torch, 4522 bytes, 5 tensors)

layers.0.weight f4 [20, 2]
0.5220519 0.08709818 0.35349882 -0.30680943 -1.4397241 -0.107876346 -0.75602067 -0.44856393
1.0696568 -0.34655273 -0.34378114 -0.03413523 0.52212524 -0.19010845 -0.46278614 -0.08710901
-0.49957293 0.05222055 0.66705406 1.1949035 0.09990199 -0.22800036 -1.0562297 0.54024357
0.44828087 -0.41836756 0.21012793 0.49147713 0.16553096 -0.16122513 -0.23329633 0.13244481
0.7066708 0.05813794 -0.28455213 -0.15548714 -0.9179956 -0.118291624 0.9180846 0.45404923
00000000: 31a5 053f 8860 b23d ccfd b43e 2016 9dbe
00000010: e148 b8bf 46ee dcbd 928a 41bf 2caa e5be
00000020: 84ea 883f 5c6f b1be 1504 b0be 62d1 0bbd
00000030: 00aa 053f caab 42be 4ef2 ecbe 3566 b2bd
00000040: 06c8 ffbe 37e5 553d 0ec4 2a3f 99f2 983f
00000050: 6a99 cc3d ed78 69be 8932 87bf 674d 0a3f
00000060: 1285 e53e 4634 d6be c72b 573e e4a2 fb3e
00000070: f380 293e 3318 25be 3ce5 6ebe 9d9f 073e
00000080: 61e8 343f 0c22 6e3d d1b0 91be 0538 1fbe
00000090: c201 6bbf e142 f2bd 9807 6b3f 2479 e83e

layers.0.bias f4 [20]
-0.1644386 -0.26563182 -0.0058337008 -0.37325242 -0.26057896 -0.51452655 -0.96520656 0.11104437
-0.476829 -0.21020752 0.01018653 0.54692644 -0.063139744 -0.38489333 0.16175075 -0.0069651706
-0.8508314 -0.4072812 0.6227271 0.58055604
00000000: 9862 28be e500 88be a128 bfbb f11a bfbe
00000010: 9b6a 85be 03b8 03bf c717 77bf 3b6b e33d
00000020: ee22 f4be a440 57be 67e5 263c 5f03 0c3f
00000030: 694f 81bd bd10 c5be fda1 253e 163c e4bb
00000040: 16d0 59bf 2987 d0be 0b6b 1f3f 529f 143f

layers.2.weight f4 [20, 20]
1.1631868 -0.28106463 -0.47253254 0.471287 -0.3278594 -0.17500164 0.46882936 0.9513553
-0.599075 -0.0047907066 -0.618104 0.21289386 0.023080256 -0.41167125 0.12489592 0.66999394
-0.32348672 0.81353766 0.13846156 -0.68071616 -0.3843897 0.35760415 -0.4807392 -0.12733305
-0.13478115 0.12968837 0.2027571 0.16832457 -0.750617 0.057503644 -0.34018898 0.17796743
0.60960037 0.06162507 -0.394427 0.37393567 0.54582113 -0.0024225796 -0.104552895 0.6404989
-0.046072938 -0.4578583 -0.49420092 0.13767591 -0.45278254 -0.34165165 0.51547754 0.46997464
0.50351316 -0.04326073 0.22871651 0.43412992 -0.1793923 0.6068478 -0.024854356 0.4465661
0.40533948 -0.6217881 -0.24612078 -0.39645034 3.0443742 -0.57150364 -0.45257843 3.4997177
0.25700352 -0.31721124 -1.5051634 -2.7870343 1.6723908 0.6381418 -2.1280427 -0.7217083
-0.92187107 -0.55887866 -0.86944497 -2.3170593 -3.037271 2.028208 -1.7122322 2.8119097
0.16871877 -0.029324332 0.032720547 -0.06547038 0.28121337 0.08580869 0.15195537 0.12613866
0.07921612 -0.1583327 0.14351442 -0.014622335 -0.22370158 0.10174921 0.06820311 -0.17488514
-0.32170197 0.11669475 -0.2702002 0.051365376 -0.043149155 -0.21516083 0.06511223 -0.6717737
0.3908484 0.1668208 0.5594582 0.005103387 0.31031647 -0.09025308 0.74834055 -0.5248245
-0.28409353 0.35011142 0.4054637 -0.6590984 -0.0009175923 0.47231337 -0.11518471 -0.32972604
-0.442967 -0.008851305 -0.86713547 0.3750918 0.12061479 0.28477436 -0.28859994 -0.10224052
0.3464375 0.09164349 -0.2847306 -0.04471476 0.59457797 -0.28605333 -0.056099314 0.4586822
-0.013256038 -0.5494843 0.30160478 -0.6823214 0.16574161 -0.1780406 -0.543739 -0.33662343
-0.1741234 -0.26278627 -0.14464587 0.54180974 0.09012355 0.1425377 0.47800428 0.18107282
-0.10335895 0.23251896 -0.3244014 -0.56148404 0.8277443 -0.0378494 0.5417252 -0.5054573
-0.9955202 1.1588165 1.6264111 -1.0310589 0.85648584 -0.03776469 -1.7906457 0.9788874
-1.7762572 -0.49273568 0.52300787 -0.23082644 -0.7028917 -0.0064956266 -1.3824751 0.95893604
1.1219422 -0.5219545 -0.73919034 0.25513312 -0.5031077 -0.3538251 0.2020124 -0.01269613
-0.45859617 0.73751545 0.8097229 -0.33004183 0.08804375 0.008790037 0.07993102 0.32416257
0.3295731 0.033168692 0.64795023 0.7523405 -0.0790898 -0.63096184 0.22265531 0.14543901
-0.019782629 0.03663992 0.2421893 -0.013210254 -0.39959425 0.39558834 0.25564083 0.104870446
-0.35088322 -0.0049160463 -0.43092236 -0.07170857 0.12924497 -0.5141013 -0.08873847 0.08148606
-0.08568176 0.017237414 -0.19744432 0.066046335 0.79903084 -0.98899806 -1.0171998 0.35456803
-0.6588986 0.29963815 0.52402145 -1.1610645 0.41498545 0.39438504 0.25946432 -0.93551517
-0.6741913 -0.43804666 -0.42921188 -0.4375624 0.34629115 0.43583554 0.7969532 0.894946
-0.4982567 0.2350111 0.9611756 -0.6722084 0.30414662 0.13175552 -0.56340814 0.32717386
-0.930241 0.04205061 -0.49303526 0.42499056 -0.055999395 -1.2646639 0.80377924 0.88176715
00000000: 4ee3 943f b4e7 8fbe c9ef f1be 884c f13e
00000010: 30dd a7be a133 33be 670a f03e 058c 733f
00000020: fb5c 19bf 5cfb 9cbb 103c 1ebf d900 5a3e
00000030: ce12 bd3c 93c6 d2be 6fc9 ff3d b984 2b3f
00000040: 0da0 a5be 0144 503f dec8 0d3e 6a43 2ebf
00000050: bace c4be e417 b73e 7323 f6be 9863 02be
00000060: 1204 0abe 07cd 043e 8f9f 4f3e 475d 2c3e
00000070: 7028 40bf f188 6b3d 402d aebe 183d 363e
00000080: c50e 1c3f 926a 7c3d 56f2 c9be 7f74 bf3e
00000090: efba 0b3f 24c4 1ebb d41f d6bd bcf7 233f
000000a0: fab6 3cbd 676c eabe e707 fdbe eafa 0c3e
000000b0: 1dd3 e7be f7ec aebe 56f6 033f 84a0 f03e
000000c0: 3de6 003f 2a32 31bd a934 6a3e 4746 de3e
000000d0: 9db2 37be 615a 1b3f 5d9b cbbc 50a4 e43e
000000e0: a888 cf3e 812d 1fbf 1607 7cbe 8afb cabe
000000f0: 07d7 4240 104e 12bf 5cb8 e7be 60fb 5f40
00000100: f795 833e 8369 a2be 32a9 c0bf c55e 32c0
00000110: e710 d63f 435d 233f da31 08c0 e0c1 38bf
00000120: beff 6bbf ac12 0fbf f293 5ebf b34a 14c0
00000130: a662 42c0 29ce 0140 6d2a dbbf 54f6 3340
00000140: 9dc4 2c3e 9539 f0bc fb05 063d 5615 86bd
00000150: 33fb 8f3e 77bc af3d 309a 1b3e 7e2a 013e
00000160: 103c a23d f821 22be 72f5 123e 8592 6fbc
00000170: 0712 65be e461 d03d 12ae 8b3d 1715 33be
00000180: 1fb6 a4be a8fd ee3d ae57 8abe 8064 523d
00000190: 2bbd 30bd 1f53 5cbe 9059 853d 5cf9 2bbf
000001a0: 481d c83e 12d3 2a3e a738 0f3f 503a a73b
000001b0: cde1 9e3e 9bd6 b8bd 3f93 3f3f e65a 06bf
000001c0: b574 91be ce41 b33e f098 cf3e acba 28bf
000001d0: 948a 70ba 0fd3 f13e f6e5 ebbd dad1 a8be
000001e0: 92cc e2be 1005 11bc 97fc 5dbf 080c c03e
000001f0: e304 f73d f2cd 913e 5fc3 93be 7a63 d1bd
00000200: 4260 b13e 95af bb3d 36c8 91be d326 37bd
00000210: 4336 183f 9575 92be 65c8 65bd 65d8 ea3e
00000220: da2f 59bc 01ab 0cbf f16b 9a3e 9eac 2ebf
00000230: 2bb8 293e 4650 36be 7b32 0bbf e859 acbe
00000240: 684d 32be ec8b 86be 0c1e 14be 0bb4 0a3f
00000250: b292 b83d 67f5 113e fabc f43e 276b 393e
00000260: dbad d3bd 7319 6e3e f117 a6be 6bbd 0fbf
00000270: 0de7 533f f907 1bbd 81ae 0a3f a665 01bf
00000280: 69da 7ebf 1954 943f 3d2e d03f bdf9 83bf
00000290: a842 5b3f 26af 1abd e133 e5bf 5d98 7a3f
000002a0: 655c e3bf da47 fcbe d8e3 053f c45d 6cbe
000002b0: b6f0 33bf 44d9 d4bb f2f4 b0bf d57c 753f
000002c0: cd9b 8f3f cf9e 05bf 943b 3dbf cfa0 823e
000002d0: abcb 00bf 9028 b5be 57dc 4e3e 6e03 50bc
000002e0: 1ecd eabe d0cd 3c3f 004a 4f3f 3efb a8be
000002f0: 4850 b43d 1604 103c e0b2 a33d a3f8 a53e
00000300: cebd a83e e5db 073d 11e0 253f 6399 403f
00000310: d5f9 a1bd b786 21bf c1ff 633e f7ed 143e
00000320: 2e0f a2bc be13 163d 7900 783e d26f 58bc
00000330: 9e97 ccbe 8e8a ca3e 5be3 823e 51c6 d63d
00000340: f7a6 b3be c916 a1bb dba1 dcbe f1db 92bd
00000350: cb58 043e 259c 03bf 84bc b5bd 2ae2 a63d
00000360: eb79 afbd 7a35 8d3c d82e 4abe 4d43 873d
00000370: 498d 4c3f fa2e 7dbf 9a33 82bf f189 b53e
00000380: 94ad 28bf 2c6a 993e 4526 063f c39d 94bf
00000390: f978 d43e d6ec c93e 82d8 843e ec7d 6fbf
000003a0: cd97 2cbf a747 e0be a9c1 dbbe 2e08 e0be
000003b0: 134d b13e d625 df3e 2005 4c3f 2e1b 653f
000003c0: 811b ffbe c0a6 703e 9b0f 763f da15 2cbf
000003d0: 1bb9 9b3e ebea 063e 843b 10bf 5583 a73e
000003e0: 4624 6ebf 433d 2c3d 1e6f fcbe 5d98 d93e
000003f0: 9f5f 65bd 82e0 a1bf 7ac4 4d3f 7ebb 613f

layers.2.bias f4 [20]
-0.69259703 -0.10101449 -0.8136621 -0.29570976 0.19696212 -0.1047747 -0.42569205 -0.24154422
-0.69317794 0.8372639 -0.46010274 -1.1932954 0.12484677 0.8498877 -0.28163725 0.25605237
-0.26256403 -0.09442624 1.0143487 -0.8100236
00000000: 0a4e 31bf afe0 cebd 294c 50bf 4567 97be
00000010: 70b0 493e 1e94 d6bd 4ff4 d9be 5e57 77be
00000020: 1c74 31bf ed56 563f 9692 ebbe e7bd 98bf
00000030: aaaf ff3d 3e92 593f c232 90be 4c19 833e
00000040: cb6e 86be 8b62 c1bd 2ed6 813f b55d 4fbf

layers.4.weight f4 [1, 20]
1.0752102 0.085967176 -0.3957657 -0.35975116 0.047108036 0.49887627 -0.1792327 0.56858367
-0.340325 -1.2640129 -0.092749566 -0.27612367 -0.287195 0.38390052 0.73606896 -0.06188255
0.2297309 -0.70100486 0.041284587 -0.09965358
00000000: 7da0 893f 8f0f b03d cda1 cabe 4e31 b8be
00000010: 5bf4 403d b66c ff3e c788 37be b38e 113f
00000020: 143f aebe 2dcb a1bf 7cf3 bdbd 1560 8dbe
00000030: 390b 93be 9c8e c43e 046f 3c3f 8f78 7dbd
00000040: 943e 6b3e 0e75 33bf 071a 293d 2d17 ccbd
