Models_Data_Figures/BURGERS/Burgers_Architecture/Models/20_5.pth (torch, 8846 bytes, 9 tensors)

layers.0.weight f4 [20, 2]
000000 e4 0c 1a be 5a bf 69 3e 24 77 ee 3c f7 fb d0 be
       -0.1504398 0.22826901 0.029109545 -0.40817234
000010 8a 3d 24 bf 5b 62 e1 be 97 de d9 3e 0e 33 ee 3d
       -0.641564 -0.44020352 0.42552635 0.11630832
000020 fb 94 74 3e 92 4a bf 3e f2 8e 0b 3f e6 17 be bc
       0.23884957 0.3736158 0.5451499 -0.023204755
000030 49 5c d5 be 66 82 81 bc 90 8c fc 3e aa 98 83 be
       -0.4167197 -0.01580925 0.4932599 -0.2570241
000040 9d 5d 58 3f f3 d1 91 3d 2c a2 8e 3e 28 a9 14 3e
       0.8451784 0.07120123 0.27858102 0.14517653
000050 94 b3 0f bf bb ea 15 bf 48 8c d2 be cc f8 3a be
       -0.5613339 -0.58561295 -0.4112265 -0.18258971
000060 3c c9 e2 bd 91 31 7a be 08 d0 af 3e 7f 4c 04 be
       -0.11073539 -0.2443297 0.34338403 -0.12919806
000070 6d b7 91 bd 94 24 a1 be 7d 7d a4 be 43 e1 57 3e
       -0.07115064 -0.3147322 -0.3212699 0.21082024
000080 6c a4 79 bf 9b 63 b8 3e 97 06 20 3f c7 96 01 3f
       -0.9751651 0.36013493 0.62510055 0.5062069
000090 e4 73 04 bf d1 a7 e6 3e da 09 80 3e b7 0e f2 be
       -0.51739335 0.4504991 0.25007516 -0.47276852

layers.0.bias f4 [20]
000000 33 ca dc 3e 31 46 06 3f 21 42 78 3e d5 ea 94 bd
       0.43123016 0.52450854 0.24243976 -0.07271353
000010 a1 47 35 bd f1 88 0d bf 4a ab ef be ee d1 81 be
       -0.044257764 -0.5528708 -0.4681037 -0.25355476
000020 04 0b 99 bc 60 38 8a bf 7f f8 1e be 90 fe 23 3e
       -0.01868201 -1.0798454 -0.15524481 0.16015077
000030 0d 84 92 be cb 40 ee be ff 0f 22 bf 1e 85 87 3e
       -0.28616372 -0.46533808 -0.6330566 0.26468748
000040 12 36 53 bf 96 a0 a5 3e c0 20 d1 3e fb 0c 97 be
       -0.8250438 0.3234908 0.408453 -0.2950209

layers.2.weight f4 [20, 20]
000000 e2 49 a9 bd 75 6f 02 3e c7 7e a0 39 0a 68 cb be
       -0.08266045 0.1273783 0.00030612035 -0.39727813
000010 89 69 8b 3e ec 08 3e be a8 6e 9b bd a1 43 bc bd
       0.27228954 -0.18558091 -0.075894654 -0.09192587
000020 a4 ac 22 be 86 4c b4 3d 71 56 b6 be 02 e6 02 3e
       -0.1588617 0.08803658 -0.35612825 0.12783054
000030 7a 22 cf be 4e 93 99 bd 08 16 59 3b 9b 87 87 3e
       -0.4045599 -0.07498799 0.0033124704 0.26470646
000040 31 4a 96 3d 8a d5 d6 be 95 5f e0 3e 27 f9 c1 3e
       0.0733837 -0.41959792 0.43822923 0.378854
000050 7e d7 2f be 90 71 0b ba c7 24 b3 3d 06 35 bf be
       -0.17172047 -0.00053193513 0.08747249 -0.3734514
000060 aa d4 b2 3e 29 3a 0f 3e e4 71 89 be fd 83 d1 3d
       0.34927875 0.1398703 -0.26844704 0.10230253
000070 90 da 17 3d 0f 7b f6 bd 45 22 fc bc dd 26 44 bd
       0.03707367 -0.1203519 -0.03077806 -0.047888625
000080 c6 1a ec be b3 61 23 3c 6a bf 84 3e cb 6e 99 be
       -0.46114177 0.009972024 0.25927287 -0.2996734
000090 93 12 1a be b6 c5 7b bb d3 1f ee bc 1d fe 1a 3f
       -0.15046148 -0.0038417405 -0.02906791 0.60543996
0000a0 96 36 8b be f1 ed a4 3e 89 0d 1f 3e c3 e1 81 3e
       -0.27190083 0.32212785 0.15532507 0.25367555
0000b0 9e 38 7a 3e a7 9b 9d bd 96 ab 85 bd a3 86 4f be
       0.2443566 -0.07695704 -0.06526868 -0.20266204
0000c0 49 03 af bc 05 60 28 3d 78 e0 d4 3b 0a c5 02 3e
       -0.021363871 0.041107196 0.0064964853 0.12770477
0000d0 0f 9c c9 3d 78 41 18 3e 91 31 69 be fb ea 80 bb
       0.09844219 0.14868724 -0.22772814 -0.003934262
0000e0 59 9c 0a 3c 04 b8 06 bd 10 70 af be b1 d1 a2 be
       0.008460128 -0.032890335 -0.34265184 -0.31800607
0000f0 63 ee 4e be 65 20 a8 bd 70 90 bb bd 7a 1e ac be
       -0.20208125 -0.08209304 -0.09158409 -0.33617002
000100 88 e1 fb bd 4b 15 cf bc d5 92 47 be d4 64 bd 3d
       -0.12298876 -0.025278708 -0.19489606 0.09247747
000110 09 cd da 3d c3 9a bf 3d 95 50 64 be e9 74 85 bd
       0.106836386 0.0935569 -0.22296365 -0.065164395
000120 ce 99 93 bd a0 f7 dc bd 58 63 15 3d a0 83 23 be
       -0.0720707 -0.10789418 0.036471695 -0.1596818
000130 a6 bd a8 bb 33 c8 2f bd f2 58 b7 3e c9 3a 4f 3e
       -0.005149561 -0.042915534 0.35810047 0.20237269
000140 6b 61 af 3e 90 b9 ff 3d 17 df 97 3e 42 0b ba 3d
       0.34254012 0.12486565 0.29662392 0.090841785
000150 b7 f2 b2 bd 61 aa 98 3d 88 e6 0a 3e 8f 03 48 be
       -0.087377004 0.07454372 0.13564503 -0.19532607
000160 4e cd 1f be 2b 47 db 3e a8 cd dd 3e af cc c6 3c
       -0.15605661 0.42827734 0.43320966 0.024267523
000170 68 ff 8d 3e 2b ab 4a be 51 74 fe 3b 7a 4c aa 3e
       0.27733922 -0.19791858 0.007765331 0.33261472
000180 91 08 d3 3c 0a 29 97 3e 9b 68 b6 be 1d f6 31 be
       0.02576092 0.29523498 -0.35626683 -0.17379041
000190 52 12 f2 bd 8b b6 f4 3e 8e d4 7f be f6 c9 1e 3f
       -0.118199006 0.4779552 -0.24983427 0.6202692
0001a0 83 0d b4 3e 79 34 9d be e1 0a d3 3e 63 4a 25 bf
       0.3516656 -0.30704096 0.41219237 -0.6456663
0001b0 1a f5 ab 3e 33 7a 35 bd f9 e0 08 be a7 22 c0 be
       0.33585435 -0.04430599 -0.1336707 -0.37526438
0001c0 7a 0d 1a 3f 33 42 d9 bd 0a 2e c6 3d 96 dd de bb
       0.60176814 -0.106083296 0.0967675 -0.0068013174
0001d0 57 e9 93 3e 4e 80 d7 bd 20 52 91 3d 52 e6 4e 3b
       0.28888962 -0.10522519 0.07095742 0.0031570387
0001e0 59 8b 87 3e d1 22 d3 3e ae 73 b7 3d c4 f9 01 be
       0.264735 0.412375 0.08957611 -0.12692934
0001f0 e1 46 05 3e 56 98 71 3e 3f 6c 22 be 72 20 c9 3d
       0.1301532 0.23593268 -0.15861605 0.098206416
000200 df c4 f0 3d ef 93 97 bd 1e d0 7e 3d 60 d7 44 be
       0.117563 -0.07401263 0.062210195 -0.19222784
000210 c4 29 b9 3e 68 6b fd bd 97 76 cf be 35 b4 8e 3e
       0.36164677 -0.12374002 -0.40520164 0.27871862
000220 90 9e 0b 3e c3 12 84 3e a4 f8 33 bd b6 be 65 3c
       0.13634706 0.25795564 -0.043938294 0.01402252
000230 82 f6 a7 bc 8a 0a b8 3e cb f8 3e 3d 28 68 98 be
       -0.020503286 0.3594554 0.046623986 -0.29766965
000240 ff a9 d7 3d 8f e1 1d 3f 58 ff 36 bd ce 27 45 3e
       0.10530471 0.616723 -0.04467711 0.19253466
000250 eb 02 ff bd da 33 c3 3d b8 ef b2 bd 46 8a 5e 3e
       -0.124517284 0.09531374 -0.08737129 0.21732435
000260 fe 92 c7 bc 5f ef 76 3d a8 74 bf 3e 7f 91 80 be
       -0.024362084 0.060286876 0.3739369 -0.25111005
000270 cb c5 11 be d1 de 66 be 64 ba a8 3d b8 30 b2 3e
       -0.14235608 -0.22545935 0.08238676 0.34802794
000280 1b b7 de 3e d2 20 1b 3d d7 2d ce 3e 04 fc a8 3d
       0.43499073 0.037873097 0.40269348 0.08251193
000290 66 45 43 bc 51 4c 06 3c 1e 8b 90 3d 24 c8 22 3c
       -0.011918401 0.008196906 0.070577845 0.009935413
0002a0 73 3a 0b 3e bd 50 b4 3e 99 e9 00 3f eb 86 8f 3d
       0.13596515 0.35217848 0.5035644 0.070081554
0002b0 6f 2a 92 3e 66 df 00 be d5 7d 13 be 59 40 05 3e
       0.28548 -0.1258522 -0.1440347 0.13012828
0002c0 66 ae c9 bd bb 4b 9c 3e 1b 78 52 be 1d b1 a5 be
       -0.09847717 0.30526528 -0.20553629 -0.3236169
0002d0 a5 63 9e bd 42 39 28 3f 3a 4a ad 3d 7a 6a 5a 3e
       -0.077338494 0.6571237 0.08461423 0.2132968
0002e0 c6 6a b6 3e 82 7f ec 3e 06 f0 61 3d 0a eb 9b 3e
       0.35628337 0.4619103 0.055160545 0.30452758
0002f0 fb 3d 66 bd f3 a4 d0 3c e8 22 3f be a1 11 5a bd
       -0.056211453 0.025469279 -0.1866566 -0.05323947
000300 dc d6 66 3e 66 cb 9d bd 3d ef da 3d fe cc 97 be
       0.225429 -0.07704811 0.10690162 -0.29648584
000310 9d 82 a1 be c2 c1 8f be 1d 3c 3d bf 5f 52 17 3d
       -0.31544963 -0.28077513 -0.7391985 0.03694379
000320 3b 81 b4 3d 41 1e 07 3e 0e fd f6 be 9d 88 39 3d
       0.08813711 0.13195135 -0.4823994 0.0452963
000330 f0 91 bf bd 42 d4 ce 3d e8 e7 bf bc de bb 03 3e
       -0.09354007 0.10099079 -0.023426011 0.12864634
000340 10 32 8c 3e dc c0 e5 3d f3 61 c1 3c c3 5d a5 bd
       0.27381945 0.11218426 0.023606276 -0.08074524
000350 8a 51 0b 3f 5d 43 a9 3e 5f 70 3f bd 53 78 99 3d
       0.54421294 0.33059207 -0.046738025 0.07493653
000360 73 5b 81 3e f2 5b e3 3d 30 58 92 3d be e3 f2 be
       0.25265083 0.111015216 0.07145727 -0.47439378
000370 71 8c 79 3f 95 79 63 be 15 2f dd bf ee 49 e8 3f
       0.9747992 -0.22214349 -1.7279993 1.8147562
000380 93 58 13 3f a6 b9 c7 bf 19 83 db 3f 29 3f 98 bf
       0.5755703 -1.560353 1.7149383 -1.1894275
000390 26 d2 9a 3f fa 57 8a 3f 4c 05 e2 3e 36 4f 8f bf
       1.2095382 1.0808098 0.44144666 -1.1196048
0003a0 3b 81 9e 3f 8c f8 64 bf 3b 27 b3 bd 06 2d c0 3f
       1.2383188 -0.8944175 -0.08747717 1.501374
0003b0 89 33 f0 3f 69 ea 09 3f 7f e2 05 3f b0 e6 56 bf
       1.8765727 0.53873307 0.5229873 -0.8394575
0003c0 2c b4 5b be b9 2b 51 3f 9f dc d7 be c3 c9 46 3e
       -0.21455449 0.8170734 -0.42160508 0.19412903
0003d0 19 c5 b7 3e 78 ac c3 bb 09 c6 5e be fc 16 1b 3e
       0.3589256 -0.0059714876 -0.21755232 0.15145487
0003e0 c7 2f 89 3d 9a 53 d2 3d 7b 01 6a bd ca ac 93 be
       0.06698566 0.10269852 -0.057130318 -0.28842765
0003f0 13 d7 5b 3d 6c 22 64 3e 22 17 dd 3e a6 cc 61 bd
       0.053671908 0.22278756 0.4318171 -0.05512681

layers.2.bias f4 [20]
000000 07 ab bf 3e 57 c5 e6 bd b7 66 19 be 91 c2 37 be
       0.3743517 -0.11268108 -0.14980589 -0.17945315
000010 df 4c 12 3f dd 75 1c be 86 f2 5d 3e f7 65 37 be
       0.57148546 -0.15279336 0.21674547 -0.1790999
000020 d2 ab 49 3e 94 b1 1f be 6c 64 d2 3d d4 f5 ab 3e
       0.1969445 -0.15595084 0.1027306 0.3358599
000030 08 1e 65 be 8f e1 7f 3c 99 ed cd 3c f5 52 08 bf
       -0.22374737 0.015617742 0.02513771 -0.5325158
000040 9b 63 67 be 1e bc 04 be 82 42 01 bf ba e6 43 3e
       -0.2259659 -0.12962386 -0.5049211 0.19130984

layers.4.weight f4 [20, 20]
000000 89 2e 81 3e fc cf 11 bc f6 2c fc bd 1d 8d 6e 3d
       0.25230816 -0.008899685 -0.12313263 0.058240045
000010 0c d2 ba be 2d 58 93 3d 9f df 6a 3c 3e 6b 71 be
       -0.36488378 0.071945526 0.014335542 -0.23576066
000020 91 9e e9 be b8 4a 03 be ac 26 47 be 8a e9 a9 3e
       -0.4562879 -0.12821472 -0.19448346 0.3318599
000030 11 c6 32 3d 5f e3 34 3e 23 49 dd bb 18 04 59 be
       0.043645922 0.1766486 -0.0067531033 -0.21192968
000040 d4 c8 af 3c 63 7b 56 bd 4c 02 a7 3e 83 9d a7 be
       0.021458067 -0.052363764 0.3261894 -0.3273736
000050 3e c0 22 3d 5b 6c 0d 3e c7 7d 36 3e 85 d9 2f 3e
       0.039734118 0.13810866 0.17821418 0.17172821
000060 b3 1c 90 be a3 c2 83 be 33 04 53 be fa 7a 2e 3e
       -0.28146896 -0.25734434 -0.2060707 0.170391
000070 e1 7f ad 3d c2 65 44 be 40 99 44 bd 95 9c b9 be
       0.084716566 -0.19179443 -0.047997713 -0.36252275
000080 79 62 3a bd 54 11 1d be f4 95 40 bd 44 fe b0 bd
       -0.045504067 -0.15338641 -0.047018006 -0.08642247
000090 0a a6 51 3e 2a d1 f9 3d cf 1e 58 3e 69 cc ba bd
       0.20473495 0.12198098 0.21105503 -0.091210194
0000a0 92 51 74 3e 70 1e 0b bf 35 84 62 3e 46 2d cf be
       0.23859242 -0.5434332 0.22120745 -0.40464228
0000b0 b0 bb b4 3d c6 15 58 be c5 22 3e 3c f5 7a db be
       0.08824861 -0.21102056 0.011604969 -0.42867246
0000c0 af 04 94 3d a6 b8 d4 be 67 67 82 3e 81 65 03 3f
       0.07227456 -0.41547126 0.25469515 0.5132676
0000d0 6b 65 fd be 3d d1 fa 3d 8d a7 a3 3e 09 41 08 bf
       -0.49491438 0.1224694 0.3196377 -0.53224236
0000e0 22 98 95 be 12 cd c8 be 69 fd 85 3e 01 9d ae bd
       -0.2921763 -0.39218956 0.261699 -0.0852604
0000f0 55 7f 5c 3c 53 a2 a9 bc 58 3b f9 bd 15 aa 26 bd
       0.013458093 -0.020707285 -0.12169522 -0.040689547
000100 29 6f 9f 3e 21 ef d0 bd da fb 0f be 11 ce 27 3e
       0.31139496 -0.1020186 -0.14060917 0.16387202
000110 a6 f6 82 3e 24 f9 34 3e 56 31 57 be a2 f3 f5 3b
       0.25578803 0.17673165 -0.21014914 0.00750585
000120 b0 8e 14 3e a2 e5 50 3e 62 35 58 3d c6 ad 27 3e
       0.14507556 0.20400098 0.052785285 0.16374883
000130 73 8a 86 3c d8 03 84 3d 2c 63 27 be 1d 41 60 3e
       0.01642344 0.06446046 -0.16346425 0.21899839
000140 21 b9 37 be db cb a4 bb c7 02 0e be 6b ab 85 bd
       -0.17941715 -0.0050291843 -0.13868247 -0.06526836
000150 61 97 64 3e 80 b1 1d 3e bc 4f 38 3d 65 cd dd bd
       0.22323371 0.15399742 0.044997916 -0.108301915
000160 79 10 05 bc 09 3e c1 bd 5b a9 62 bd 00 d7 26 be
       -0.008121603 -0.094356604 -0.05533729 -0.16292953
000170 78 85 e2 bd 4a f9 e2 3d df bb 22 bd 18 87 1f 3c
       -0.110606134 0.11082704 -0.03972995 0.009736799
000180 3b 80 93 bd e3 32 cc bd d7 f2 bc 3d 7e 75 ac be
       -0.072021924 -0.09970643 0.092260055 -0.3368339
000190 18 9a e2 be 06 86 2e bd fa 9d 29 3e a2 64 83 be
       -0.4425819 -0.042608283 0.1656417 -0.25662714
0001a0 8a 25 b3 3e 51 ce 93 bb 5a 38 50 3d 16 3c 0f be
       0.34989578 -0.004510679 0.05083499 -0.13987765
0001b0 fa e8 c3 3e 98 3f 60 3e 30 9e 83 3e f4 c1 89 3e
       0.38263685 0.21899259 0.25706625 0.26905787
0001c0 4e 94 c7 3e 38 36 1f 3e 64 ad e0 3e fd 0d 53 3e
       0.38980335 0.15548027 0.43882287 0.20610805
0001d0 98 ce b2 3e 97 29 f5 bd 7a 68 c8 be 21 7a f7 3e
       0.34923244 -0.11970823 -0.3914221 0.48335364
0001e0 2b 27 c5 bd f8 80 d0 bd e8 f0 10 3d 67 93 d6 3c
       -0.09626611 -0.10180849 0.035385996 0.026193334
0001f0 57 92 da 3d b8 88 ed 3d 14 4c 3b 3d 22 c4 86 be
       0.10672443 0.11598343 0.04572685 -0.26321512
000200 77 d2 23 be c1 04 47 be 23 dd 5f bd 93 4e d5 3e
       -0.15998255 -0.19435407 -0.05465425 0.4166151
000210 7c ba f9 3d b7 6b a9 bc 5f af 45 3e b1 cd c3 be
       0.12193772 -0.020681245 0.1930518 -0.38242868
000220 69 24 13 be d8 f1 95 be b6 92 05 3e e2 c6 63 be
       -0.14369358 -0.29286075 0.13044247 -0.22243837
000230 68 f4 0a be bf 39 4c be fd 7a cd 3e c2 62 1a be
       -0.13569796 -0.19943903 0.40132895 -0.15076736
000240 39 37 db be 7b 0a 41 3f 7a 37 8c 3d d1 2a 90 bd
       -0.4281557 0.75406617 0.06846519 -0.070394166
000250 e4 ce c2 be 3f f0 22 3f 51 cd 81 3e ca 9f 06 3f
       -0.3804847 0.63647836 0.25351956 0.5258757
000260 65 15 6c 3e 91 a1 18 be 9a 28 f1 3e a2 91 8d bd
       0.23055036 -0.14905383 0.4710129 -0.06912543
000270 20 ed a4 3e b6 b5 eb be 2b b6 fb 3e af 84 1d be
       0.32212162 -0.46037072 0.4916242 -0.15382646
000280 cd 0b 61 3e 1d c4 90 be 7b 93 53 3e 6c be aa be
       0.21977158 -0.28274623 0.20661728 -0.33348405
000290 f9 55 ce 3e e2 e4 96 3d e2 13 80 3c 60 c8 2f bd
       0.40299967 0.07367875 0.01563448 -0.042915702
0002a0 cb 4d 9d 3e d9 1c 7c 3d 74 7d af bd 0d 83 b6 3e
       0.30723414 0.06155095 -0.0856885 0.3564686
0002b0 ff 08 0c be 0f de 8d 3d df 00 49 3e a3 e2 a0 be
       -0.13675307 0.0692712 0.19629239 -0.3142291
0002c0 fb 0e e6 bd f5 4e 93 be 91 3e 34 bc 4d 89 fa 3b
       -0.11233326 -0.28771177 -0.011001245 0.007645762
0002d0 00 a1 91 be 6f 27 a4 3e fa 14 32 bd d8 3a c9 3d
       -0.28443146 0.32061335 -0.043477036 0.09825677
0002e0 f9 32 ab bc 0b b3 f3 bd 3f 47 d1 3d 5d 5a bf 3e
       -0.02089833 -0.11899384 0.10218667 0.3737363
0002f0 1f 00 4d be 34 e0 86 3e 15 8b 87 3e 77 f8 30 be
       -0.20019577 0.26342928 0.264733 -0.17282282
000300 81 c7 fc 3d 11 c2 86 be 2c 61 04 3e 47 a4 ca 3e
       0.1234274 -0.26319936 0.12927693 0.3957846
000310 72 fd 96 bd 12 89 67 3d b6 c6 3d 3e b0 b1 4b 3e
       -0.073725596 0.056527205 0.18532833 0.19892001
000320 37 04 87 b8 e6 62 b8 3d 41 96 8a be b3 a5 d1 bd
       -6.438087e-05 0.090032384 -0.2706776 -0.10236683
000330 3d 04 b2 3d 3b f1 e6 3e 7f 7d 57 be 1a 16 5d 3e
       0.08692215 0.4510592 -0.21043967 0.21590462
000340 55 d1 8d 3c 0f 45 66 3e 21 33 07 3e f4 f6 b0 3d
       0.017311731 0.22487281 0.13203098 0.086408526
000350 bc e0 70 3d 15 1e 8b be 19 41 e4 bd 70 a0 2d 3d
       0.058808073 -0.27171388 -0.11145229 0.042389333
000360 05 0c e0 3e bf 1b 52 bc c6 4c df bd 19 bb a8 bd
       0.4375917 -0.012823998 -0.10903315 -0.08238811
000370 4c 41 99 3d 07 71 09 3e 34 c7 e5 bd 52 60 72 3c
       0.074831575 0.13422023 -0.112196356 0.014793472
000380 79 95 56 bd d4 0d 3a 3e ea cc 23 be 7f 78 37 3d
       -0.052388642 0.18169338 -0.15996137 0.04479265
000390 0a dc 3d bd b4 fe 63 bc 76 6d 30 3e 57 8e 59 3e
       -0.046352424 -0.013915706 0.17229256 0.21245705
0003a0 92 16 ca bd 60 e9 85 bd 56 23 4b 3e 41 1f 2a bc
       -0.09867586 -0.065386534 0.19837698 -0.010383428
0003b0 43 e9 db bc 9a 0b 1a bd 47 1e 29 3e a4 d7 db b9
       -0.026844626 -0.03760872 0.16515456 -0.000419316
0003c0 9d 96 0b bd fb f0 3b be f9 ba 35 3e 95 7f 26 3e
       -0.034079183 -0.18353646 0.17747106 0.16259606
0003d0 5e 9e 7c be a2 21 f2 3e 87 5c 03 3d 92 e3 73 be
       -0.24669787 0.47291285 0.032070663 -0.2381728
0003e0 98 02 92 bc 6c 5a 84 3e 29 e8 ba 3d 8d d1 31 3f
       -0.017823502 0.25850236 0.09126312 0.69460374
0003f0 ec 6e c9 3b f1 2f 2f be cf 3d 70 bd 55 2c 01 3e
       0.006147256 -0.17108132 -0.058652695 0.12614568

layers.4.bias f4 [20]
000000 2f fc fa bb 0b 92 8a bc d7 2d 11 3f 0e bb 2a 3e
       -0.007659457 -0.016915342 0.5671057 0.16672918
000010 f7 f4 34 3e 1c 99 6e be 7d 9d 87 3c f5 3a 36 bf
       0.17671572 -0.23300594 0.016554588 -0.7118371
000020 6e 43 d8 3d 00 5b 7e be 27 c0 a1 3d 83 2c a2 3d
       0.10559736 -0.24839401 0.07897978 0.07918646
000030 65 a2 b5 be 16 59 32 be 53 73 a8 3d 4b 0c 4b 3e
       -0.3547546 -0.17416796 0.08225121 0.19828908
000040 af d1 44 3e 33 8f 0d be 36 c4 ef bd 19 d2 52 3e
       0.19220613 -0.13824157 -0.11707346 0.20587958

layers.6.weight f4 [20, 20]
000000 c9 76 d5 bd 3a 7c db bd 22 af 35 be 7d 65 e7 3d
       -0.10423047 -0.10717054 -0.17742589 0.11298654
000010 f1 a9 d3 3d 23 30 58 3e 84 25 f9 bd 70 17 29 be
       0.10335148 0.21112113 -0.12165359 -0.16512847
000020 4a 89 e4 3d 66 f0 f7 3c 56 d6 ce 3c 36 bd 48 3d
       0.11158998 0.030265998 0.025248688 0.04900857
000030 82 a2 3f 3d c2 6a e7 bd 57 f1 bd bd c3 e4 dd 3d
       0.04678584 -0.11299659 -0.092745475 0.108346485
000040 12 68 6b 3c 73 2b 25 be b7 c9 1c bd 93 a1 9f 3c
       0.014368074 -0.16129856 -0.038278308 0.019486224
000050 9d a8 a9 be 1d 6c d0 bd 8f 83 36 be 5f 48 f9 3c
       -0.33136454 -0.10176871 -0.17823623 0.030430017
000060 33 75 ea bd b4 65 aa 3e e3 05 85 3e 57 d8 68 be
       -0.11448135 0.33280718 0.25981054 -0.22738777
000070 a7 c0 d2 3e 87 56 83 3d df 0b 2c bd 30 46 4e 3d
       0.41162607 0.06412988 -0.04200351 0.050359905
000080 2f 20 b3 3e b8 58 71 be 85 52 c4 3e 80 d4 37 3d
       0.34985492 -0.23569 0.38344207 0.04488039
000090 1e f0 2e be 6c a6 df 3d b2 e1 ee bd ca bf 21 be
       -0.17083785 0.10920414 -0.11664142 -0.15795818
0000a0 4a 3d 06 3c 66 95 37 be aa 23 a9 3d ce 5f 33 3c
       0.008193323 -0.17928085 0.082587555 0.010948135
0000b0 7e 80 d2 3d c6 44 64 be a9 88 9e 3d 66 0f 2c 3e
       0.10278414 -0.2229186 0.077409096 0.16802749
0000c0 e8 e0 0c 3e 55 e6 4a bd 4f 5f 08 be 2d ca 25 3e
       0.1375767 -0.049536068 -0.13317607 0.16190405
0000d0 33 5d 56 3e 8d 6f 40 3e ff b1 38 bd 3f 20 f0 bd
       0.2093399 0.18792553 -0.045091625 -0.117249005
0000e0 6f 06 23 3d ce fb ad 3d 8c fa 78 3d 43 d1 1b 3e
       0.039801057 0.084952936 0.060785815 0.15216546
0000f0 a7 09 56 3c 46 69 2b be 30 52 26 be 9f 82 5f 3c
       0.013063825 -0.16739377 -0.1624229 0.013641982
000100 a7 83 bc bd a0 d3 61 3e e1 32 58 3c af e9 6f be
       -0.09204798 0.22053385 0.013195724 -0.23428987
000110 6d 2c 84 bd 80 32 10 be 4b b5 11 3c 33 07 87 3b
       -0.06453786 -0.14081764 0.008893321 0.0041207313
000120 40 9a 0c be 67 14 4b bd c6 c4 5a 3e 7e ed cc 3b
       -0.13730717 -0.049580004 0.21364126 0.006253897
000130 7e b0 e7 3d 8c 18 0b be a6 8d 87 be 5d 92 1f 3e
       0.1131296 -0.13583583 -0.26475257 0.15583177
000140 95 af 50 3e bf 31 18 be 24 c6 a4 3d bb e0 db bd
       0.20379479 -0.14862727 0.08045605 -0.10736223
000150 32 02 30 be 58 9f 1b 3e 40 6d 3b 3d e4 15 0d 3e
       -0.17188337 0.15197504 0.045758486 0.13777882
000160 75 23 34 be 5e ea f1 bd 6f 57 3b 3e cb d4 2f be
       -0.17591651 -0.1181228 0.18295072 -0.17171018
000170 05 ac fa bd 71 2c 6c 3d 91 d1 2b 3e b3 6f f2 bc
       -0.12239841 0.05765957 0.16779162 -0.029594278
000180 25 10 4a bb 89 65 9f bd 59 e8 f9 bc b6 e0 50 3e
       -0.0030832377 -0.07783038 -0.0305063 0.2039822
000190 66 c3 15 3d 60 d6 67 3c 6f 5c d5 be 89 12 58 3e
       0.0365633 0.014150232 -0.41672084 0.2110082
0001a0 1b 46 0c be 38 90 d6 3e 7a 11 7f be 6a 42 30 3e
       -0.13698618 0.41906905 -0.2490901 0.17212835
0001b0 f3 05 4d 3d e4 c0 22 3d 12 ca cf 3d 69 20 8c bc
       0.0500545 0.039734736 0.10145964 -0.017105298
0001c0 e1 85 41 be c5 c9 81 bd a7 9b c9 3e bd d5 fc bd
       -0.18898727 -0.063373126 0.39376566 -0.12345455
0001d0 32 f4 57 3e be 3f e9 3d fb b3 d1 bd 73 7f 48 be
       0.21089247 0.11389111 -0.10239407 -0.19579868
0001e0 c0 d6 ac ba 1d 72 8b bc 1c c6 c1 bd 16 0d be 3c
       -0.0013186559 -0.017022187 -0.094616145 0.0231996
0001f0 f0 bd 21 be 17 eb 0a 3e 1d d3 0f be fc 1e 52 3e
       -0.15795112 0.13566242 -0.14045377 0.20519632
000200 a8 41 39 3d 1a 5d 42 3d 1f a3 0a 3e f1 09 18 3d
       0.04522863 0.04745207 0.13538788 0.037118856
000210 2a 55 e9 3d eb 4d e1 3d 6d 87 7d be fb 08 69 3e
       0.11393197 0.1100119 -0.24758692 0.22757332
000220 58 63 62 3e df ac b0 bd ae 6c 69 3d 61 a6 c5 bd
       0.22108209 -0.086267225 0.05698841 -0.09650875
000230 d3 73 53 be f2 d8 53 be ab 44 e2 be c4 ca 86 3e
       -0.20649652 -0.20688227 -0.44193015 0.26326573
000240 cb 1c ab 3e 4d 33 3a 3e 06 1e 64 3b cb 21 28 bf
       0.33420405 0.18183632 0.0034807934 -0.65676564
000250 43 46 b4 bd db cc 3f 3e 96 ac b5 bd 2d 94 6a bd
       -0.08802464 0.1873049 -0.08870809 -0.057270218
000260 47 41 74 be ee 64 c5 be da 62 5e 3d d4 df af 3d
       -0.23853026 -0.38553566 0.05429349 0.08587614
000270 93 5f 7c 3e 11 7f 13 be a5 70 08 3e 46 ad a3 bd
       0.24645834 -0.1440394 0.1332422 -0.07992034
000280 a5 e7 37 3c 33 b7 2b be c3 3c 98 bd 2d e8 d4 3d
       0.011224662 -0.16769104 -0.074334644 0.103958465
000290 66 d5 96 be 76 4e 3f 3d 91 61 87 3e 49 99 15 3e
       -0.29459685 0.046705686 0.26441625 0.14609255
0002a0 46 9e 8c 3e 3c a0 78 be 53 10 24 3e f6 0a 23 3e
       0.27464503 -0.24279875 0.16021852 0.1592215
0002b0 5d 1d b4 3e e5 d6 5a bd 94 07 46 3e 29 f6 34 be
       0.35178652 -0.053427596 0.19338828 -0.17672028
0002c0 be 5e c8 bd 36 8a 9e 3d 46 e0 5b 3c 17 41 f5 bd
       -0.09783696 0.077412054 0.01342017 -0.119753055
0002d0 fa 48 c4 3c f5 11 a9 3d 60 d3 e1 bd ac e8 91 3d
       0.02396058 0.08255378 -0.11026645 0.07124457
0002e0 98 68 1b 3e f3 b7 75 bd 69 73 18 be 69 cd 9e bd
       0.15176618 -0.05998988 -0.14887775 -0.07754023
0002f0 3c 53 c9 bd 18 ac 2e be 18 54 97 3b ff b4 d8 bd
       -0.09830329 -0.17057836 0.004618179 -0.10581397
000300 7f b9 34 3d 08 36 30 3d 82 c2 87 be 96 f0 10 be
       0.044122215 0.04302028 -0.26515585 -0.14154276
000310 60 d4 eb 3d d2 4e 2a bd d9 63 05 3e 1b de 9c 3d
       0.11515117 -0.041579075 0.1302637 0.07659551
000320 12 30 21 be 6f 45 e0 bd 16 1e 3c 3c 0e 5b 35 bd
       -0.15740994 -0.109507434 0.011481782 -0.04427629
000330 00 c0 3c be ee b3 47 3e 58 36 5f 3e db 6e 88 3e
       -0.18432617 0.19502231 0.21798074 0.26647076
000340 13 25 8a 3c 56 0f d0 bd b5 ca 63 3d 6a 74 56 be
       0.016863381 -0.10159175 0.05561324 -0.20942846
000350 04 c9 36 bd cd f9 d2 3c f7 b1 3a 3e 2b 24 f0 3d
       -0.044625297 0.02575388 0.1823195 0.117256485
000360 42 91 d8 b9 c0 8c 3f 3c 55 92 3f be 14 87 2a 3e
       -0.00041306956 0.011691272 -0.18708165 0.1665309
000370 d3 2f 28 be 77 2b c5 3c 30 e4 4d 3d 85 de 97 bd
       -0.16424493 0.024068577 0.050266445 -0.07415489
000380 c2 84 c3 3d 3c 35 ff 3d 61 2f 3a be 52 fe 5e be
       0.09546806 0.124613255 -0.18182136 -0.21776703
000390 30 47 4e 3e 6a 70 88 bd 9a 9e 1b be c0 9d 4b be
       0.20144343 -0.06662066 -0.1519722 -0.19884396
0003a0 92 90 e5 bc a7 67 9e be 99 01 cf 3e 3a 7d 56 be
       -0.028023038 -0.30938455 0.40430906 -0.20946208
0003b0 20 c3 4a 3e 55 f8 21 bd fd 32 fe 3c 3c 43 66 bd
       0.19800997 -0.03954347 0.031030172 -0.056216463
0003c0 ba 06 64 3c 92 e4 8b 3d 51 77 99 3f 73 ea a5 bd
       0.013917619 0.06830706 1.1989537 -0.08101358
0003d0 ac 40 28 3e 51 9d 1d be eb 51 57 3e 74 39 b7 3f
       0.1643092 -0.15392043 0.21027343 1.4314408
0003e0 6b 05 bc 3e 6a e1 0f bf 24 f5 8f 3e ec 1d 96 bd
       0.36722884 -0.5620333 0.28116715 -0.07329926
0003f0 14 c7 3e 3e 82 5f 11 3d e8 4a db 3d e5 2a f7 3c
       0.1863063 0.035491474 0.107076466 0.03017182

layers.6.bias f4 [20]
000000 75 b4 2f 3e eb 9d 88 be 58 7b 46 bb b5 38 f1 3d
       0.17158683 -0.26682982 -0.003028592 0.11778394
000010 1e b5 cb bd b2 68 e3 bd 4d 55 11 3e 8d 9f 09 3f
       -0.09946655 -0.111039534 0.14192696 0.5375908
000020 c0 e7 bf bc 63 b4 77 3e 86 d4 39 3e 83 ff 8e be
       -0.023425937 0.24189906 0.18147478 -0.27929315
000030 30 b9 50 be 6f 8d 0d bc a8 40 f9 bd 7a 9b 7a 3d
       -0.20383143 -0.008639677 -0.12170535 0.06118343
000040 de 02 61 3e 59 e9 76 bd af 6c ec 3c d2 7e b9 bd
       0.2197375 -0.06028113 0.028860418 -0.09057392

layers.8.weight f4 [1, 20]
000000 c2 7d 88 bc 8a 06 04 3f cd 21 22 3d 35 e7 09 be
       -0.016661528 0.5157248 0.039583016 -0.13467105
000010 87 b0 d1 bd e1 26 b5 3e 46 ce 8b bd 2b 0c 87 3e
       -0.10238748 0.35381225 -0.06826453 0.2637647
000020 c2 0e 9c 3e 36 27 a8 bc bb 4b da 3d 75 95 93 3e
       0.3048001 -0.02052651 0.10658976 0.28824964
000030 f7 88 9b bf 63 4a 92 3e fd cc 64 bd bd c2 b7 bd
       -1.2151173 0.28572378 -0.055859555 -0.0897269
000040 f0 56 15 bf 6a 94 5a bd 1a ae a2 3e cd d8 35 3e
       -0.5833578 -0.053364195 0.31773454 0.17758484
