Models_Data_Figures/BURGERS/Burgers_Architecture/Models/40_7.pth (torch, 37750 bytes, 13 tensors)

layers.0.weight f4 [40, 2]
00000000: 6b38 02bf 2099 3dbe 524a ba3e b230 4dbe
00000010: 653d 32be d6e4 f3be 4518 aa3e a252 1c3f
00000020: 8038 13bf 241d 29be 6fa0 283f a8fc b93e
00000030: e241 f73e 1065 33be 57c4 ea3e ac9b 4c3e
00000040: 33a8 15bf 22e5 873d eadd 3bbf 1ba9 21bf
00000050: eb42 9abe 5b9e 813e a8c7 5d3f 1292 0e3d
00000060: d9b7 1b3f 61df 793e 4036 b4be c0df ddbe
00000070: 77d9 033f 0f4f 763e 55e3 b23e cefe db3e
00000080: 9191 7d3f 3d49 923e 33fb 633f 58be 6bbe
00000090: 5866 d0be 3500 4c3e 1dcc 95be 1639 fe3d
000000a0: d5fe 983e f6cc 873d e2bd e13d 3f9f cd3e
000000b0: fcfb 4ebf 83a7 71bf c4dd bdbe fe67 b1be
000000c0: c106 973e 19fb 44be f62d 81bd fba1 c73e
000000d0: 69d2 e83e 74ad fcbd b2c8 f3be 18c1 ba3e
000000e0: a41c a53e 9d48 acbe 0989 20bc 6ccf f9be
000000f0: 227a 0f3f 8db7 b8be a3a2 70be 41e1 6abe
00000100: f38b d23e 7e00 af3e ef99 6ebe aa68 8f3e
00000110: b54c b3be 7209 7ebd 6a5c 8c3d 1c13 063f
00000120: 88e5 4b3e eecd 30bf c283 0bbd 6d37 c3be
00000130: f94c 6abe 6118 003e 3b87 edbc 44f5 623e
-0.50867337 -0.18515444 0.36384827 -0.20038107 -0.17406233 -0.47635525 0.3322164 0.6106359
-0.5750809 -0.16515023 0.658698 0.36325574 0.48292452 -0.17519021 0.4585292 0.19981259
-0.58459777 0.066355005 -0.7338549 -0.6314866 -0.3012918 0.25316128 0.86632776 0.034807272
0.60827404 0.24401619 -0.3519764 -0.4333477 0.515037 0.24053596 0.34939066 0.42967838
0.9905024 0.285715 0.89055175 -0.23021829 -0.40703082 0.19921954 -0.2925729 0.12413232
0.2988192 0.0663089 0.110225454 0.40160558 -0.8085325 -0.9439623 -0.37083256 -0.34649652
0.2949734 -0.19236411 -0.063075945 0.3899077 0.4547303 -0.12337771 -0.47614056 0.36475444
0.32248414 -0.3364915 -0.009798297 -0.48791063 0.56045735 -0.36077538 -0.23499541 -0.2293749
0.41122398 0.34180063 -0.23300909 0.2800954 -0.3501946 -0.062020727 0.06853564 0.5237291
0.19911778 -0.69064224 -0.0340612 -0.38128224 -0.22880925 0.125093 -0.028995147 0.22163874

layers.0.bias f4 [40]
00000000: 2797 babe 7f5d 3d3f 88d0 71bf 517e 3d3f
00000010: 8804 60bf 2725 38be d1e8 debe a37a c43e
00000020: 12c6 33bd 4797 c4be 9307 1cbe 5ae0 1bbf
00000030: 41c5 c33e a3dd fcbe ac3e eb3d 733f fe3e
00000040: ed8d 6ebe 8d6a 5a3e 784a db3d 42da 0bbe
00000050: 6616 0fbe fa57 eebe aac1 48bf e75a 90be
00000060: aafe 8a3d cb8d 97bd a2e6 c13d 2395 a23e
00000070: a3ef 46bf 57d4 eabe 24c7 063f 43a4 2b3e
00000080: d6ee b23e 3782 583f 47d6 123f 0b1a 45bd
00000090: 441f 6a3e 696a 163e 5b62 0dbe 5e8c 20be
-0.36443445 0.7397079 -0.9445882 0.7402087 -0.87506914 -0.17982922 -0.43537 0.38374814
-0.043890066 -0.38396665 -0.15237264 -0.6088921 0.3823643 -0.49387845 0.11486563 0.49657783
-0.23296328 0.21329708 0.10707563 -0.13657477 -0.13973388 -0.46551496 -0.7842051 -0.28194353
0.067868546 -0.07400092 0.09467818 0.31754407 -0.77709407 -0.45865127 0.52647614 0.1676188
0.34947842 0.8457369 0.5735821 -0.04812054 0.2286349 0.1468903 -0.13807051 -0.15678546

layers.2.weight f4 [40, 40]
00000000: 3377 2fbe 8026 d5bc 881f 513c dbe1 ebbc
00000010: 8b76 203e fab4 39be 2e66 bfbb 5242 213d
00000020: 342e 263e c95e 923d 26b0 07be 2a89 523e
00000030: 32bc 833e ad14 4c3c 9b2e 0dbe d351 1a3e
00000040: b820 1dbb 7833 1dbd 1f45 383e 74f0 9bbd
00000050: 99d6 7a3b 29a3 ae3d 6d0a 3b3d 26af 8cbc
00000060: 6e1a 923d 0b25 ea3d 8cd8 8fbe 9b69 2ebe
00000070: 3c22 82bb 9a28 e6bc b0c6 ac3d 9d32 c63d
00000080: 59b9 463e 2712 76bd 9ec7 7fbe 3007 b23d
00000090: 0d92 98bb 5fff 0f3e 0669 a3bd 1121 003b
000000a0: 4a96 53be 85b6 85bc 88ba 603e cfab b2bd
000000b0: fc10 133e 847a 35be e629 ac3d 303a 81bd
000000c0: 22c7 93bc c1fe 4b3e 4f65 97bd 9b13 773e
000000d0: 691b 983d 1699 efbd 9f6f c63d 5194 28be
000000e0: 362d aebd eaaa ea3d b19f 81bd 2c49 5f3e
000000f0: 4f9d 20be e620 eabd 2446 bf3d b728 283d
00000100: 4195 67bd b1d0 20be 449b 01be aa0b 613b
00000110: 6930 f3bc 90e6 0dbe 5004 6fbd fac9 bf3c
00000120: 4b91 bf3d 9913 c63c 8014 86bd 47f4 563d
00000130: a2d9 be3d b042 c83d 23dc d23c 5145 d5bc
00000140: 9729 b8bd 8743 d73d 61ec 233e a9b1 67be
00000150: 0ca6 e63c fdab bb3c a067 efba 545c 2dbd
00000160: edca adbd 4c1c 203e 3249 4e3e 0943 913d
00000170: 48ea 073d bb98 debc 4103 033e ed4c a7bd
00000180: 32f6 bbbd edbe 063e 14c7 3dbe 9470 7d3e
00000190: fd78 e3bd f392 8bbd 6140 f23d 67ff 41be
000001a0: 9630 7abd 26c6 10be 7db9 9abc 6710 603c
000001b0: 8984 2f3d ffcb 57be d47d 91be 1502 843e
000001c0: 346e a43d 0898 3a3d ced8 15be dcbb 4f3d
000001d0: fa68 413d 9a38 7f3d 0085 113e 8462 763d
000001e0: a32a aabd 3383 133e 59e7 703d 2317 c7bd
000001f0: 47be 053e 464f e4bd e355 e43c 48c4 493e
00000200: 60a1 b9bc 747c c1bb 587d d63d 4bfd 823c
00000210: 1635 d73d 02af 823d 9afd 2f3d 5e9f 3bbe
00000220: dc04 373d 1618 fbbd da9a df3c dfda 463e
00000230: 1bf2 57be 55b0 283e f704 cabd 3fc8 51be
00000240: 79c2 cd3c e127 53be e39a dd3d 389d 9f3d
00000250: 3120 6a3d 72f3 b5bd 8702 15bd d63d 1f3e
00000260: 710e 4ebd eb80 0c3d 86a8 5dbe bcdd f5bb
00000270: ddd2 d73d 2a44 e6bc 7854 373d 82bb e93d
00000280: ecc9 c63d e1cf 3abe ac53 48bc ee19 bdbc
00000290: 3b18 75bd b047 dbbd b26c d5bd ff82 243e
000002a0: 1130 38bd 0c52 a7bd 2800 55be c945 25be
000002b0: df9e bebd b55b 35bd 55ed 0b3b 5266 183e
000002c0: 1c85 043d 28b1 15bd 0d25 50bd 41a9 44bd
000002d0: 8d7b c1bd 0123 713d 6667 0b3e e285 1c3d
000002e0: 1361 0c3e 074e 4dbe 2a12 913e 14ef 113e
000002f0: a68e 863e 84de 78bd eefc cd3d 609f eebd
00000300: 57c5 1b3e cb69 bdbc 9dd7 483d f67f 04be
00000310: d669 b43d 699f 1b3d 2160 0bbe ce67 28be
00000320: f256 a0be 48b7 b33e ac6b 4a3d 6b6e 9ebe
00000330: 6c30 a93e d4ab a13d 22fe a13e 1b2b c53e
00000340: 4968 ec3e 280d 403e e0e0 6a3e e2e5 d03e
00000350: c5da 0d3f 401f 253e 3f17 043e 6abe 2fbd
00000360: e142 2abf 0648 a8be 0c75 50bb 3c21 b43e
00000370: be5d febd 95c4 953d 0d43 1a3e 6004 c5be
00000380: 0f5c c4bc 93c1 a33d f0a6 e3bd cccf 48be
00000390: 7d11 7ebe fda8 3b3e 9a2f 83be f90e b23c
000003a0: 3f4d 203e 8414 dc3d 3706 06be 63f1 87be
000003b0: 44f6 8f3e 97e4 663e f3a7 113d e539 28be
000003c0: 9e70 523e 69c2 45be 365c a03d 94d6 3d3e
000003d0: c3ea a73d 155b dcbc 01b0 0fbe 6be8 babd
000003e0: 74f0 e93d 4312 25be 0f02 60bd d9bf ef3c
000003f0: afa5 29be 921e 65be ccf4 7fbd 8ab0 3f3e
-0.17135315 -0.026019335 0.012763865 -0.02879422 0.1567022 -0.18135443 -0.005841038 0.03936989
0.16228563 0.07146985 -0.13250789 0.20560136 0.2572952 0.012456101 -0.1378731 0.15070276
-0.00239758 -0.038379163 0.17995118 -0.07614222 0.0038274883 0.08527214 0.04566424 -0.017173361
0.07133947 0.11432847 -0.280949 -0.17032473 -0.003971366 -0.028095532 0.08436334 0.096776225
0.19406642 -0.060075905 -0.24978492 0.08692777 -0.0046560825 0.1406226 -0.07979016 0.001955096
-0.206628 -0.016322384 0.21946156 -0.08724176 0.14361948 -0.17722517 0.08406429 -0.063099265
-0.01803929 0.199214 -0.0739237 0.24128573 0.07427103 -0.11699121 0.09689259 -0.16462828
-0.08504717 0.114583805 -0.06329287 0.21805257 -0.15685008 -0.11432056 0.0933955 0.041054454
-0.056538824 -0.1570461 -0.12656885 0.0034339228 -0.02968617 -0.13857484 -0.058353722 0.02341174
0.09353884 0.024179267 -0.06546879 0.052479055 0.09318854 0.09778345 0.025739735 -0.02603403
-0.08992308 0.10510927 0.1600814 -0.22626366 0.02815535 0.022909159 -0.0018265136 -0.04232438
-0.08485971 0.15635794 0.2014511 0.07092864 0.033182412 -0.027172437 0.1279421 -0.08168969
-0.091778174 0.1315877 -0.18532974 0.24749976 -0.11107061 -0.06815138 0.118286856 -0.18945085
-0.06108149 -0.14138088 -0.018887276 0.013675786 0.042851005 -0.21073912 -0.28416312 0.25782838
0.08028832 0.045555145 -0.14633486 0.050716266 0.047219254 0.06230984 0.14210892 0.060152546
-0.083089136 0.14405517 0.05881438 -0.0972121 0.13060866 -0.11147933 0.027872985 0.19703782
-0.022659957 -0.0059047285 0.10473126 0.01598992 0.10508172 0.06381036 0.042966463 -0.18322513
0.04468237 -0.122604534 0.027295519 0.1941943 -0.2108845 0.16473515 -0.09864228 -0.20486544
0.025117146 -0.20620681 0.10820558 0.07793659 0.057159606 -0.08884324 -0.036379363 0.15550932
-0.05030674 0.034302633 -0.21646318 -0.0075032394 0.10538266 -0.028108675 0.04475829 0.114127174
0.09706482 -0.18243362 -0.01222698 -0.023083653 -0.05983756 -0.10707033 -0.104211226 0.16065596
-0.044967715 -0.08169946 -0.20800841 -0.16139902 -0.09307646 -0.04427691 0.0021351178 0.14882782
0.032353505 -0.036545902 -0.050816584 -0.048012976 -0.094473936 0.058871273 0.13613662 0.038213618
0.13708906 -0.20049296 0.2833417 0.14251357 0.26280707 -0.060759082 0.10058008 -0.11651492
0.15211998 -0.023121735 0.04903375 -0.12939438 0.08809249 0.037993822 -0.13610889 -0.16445848
-0.31316334 0.3510077 0.04941909 -0.30943617 0.33044755 0.07894102 0.316392 0.3850945
0.46173313 0.18755019 0.22937346 0.40800387 0.5541194 0.16125202 0.12899493 -0.042906202
-0.665083 -0.3286745 -0.0031808047 0.35181606 -0.12420224 0.07312886 0.1506464 -0.384799
-0.023969678 0.07995906 -0.11115825 -0.19610518 -0.24811359 0.18326183 -0.25622255 0.021735655
0.15654467 0.107461005 -0.13088308 -0.2655135 0.28117573 0.22548138 0.03556056 -0.16428335
0.20550773 -0.19312443 0.07830088 0.18538886 0.08199074 -0.0268989 -0.14031984 -0.091263615
0.11422816 -0.16120248 -0.054689463 0.029266285 -0.1656711 -0.22374943 -0.062489316 0.18719688

layers.2.bias f4 [40]
00000000: 45d5 033e 8d44 923c b3ac b8bd 3ca1 69bd
00000010: a3ad 063d 7e64 c03d 69db f13d 1740 cfbd
00000020: 3617 803e 9749 13be 423d f7bb cabf c83d
00000030: 7aa8 ae3d 3b79 f93d e808 56bd 20b1 8fbd
00000040: db79 19be 90f8 95be 70a4 e2bc 7811 aa3d
00000050: a3dc 26bd 1b32 86be 9227 3939 abc9 21be
00000060: 5d5d ac3c a8a9 a2be 56f4 77bd e187 2c3d
00000070: ae59 ff3d 1fe0 78bd 4267 47bd 4333 dd3c
00000080: 987c 9f3d 02ed 393e 6630 debd 4c49 013d
00000090: 6542 51be 67c0 303e a3c8 ea3d 3e40 5fbd
0.12874325 0.017854953 -0.09017315 -0.05703853 0.032880437 0.09394167 0.11809427 -0.10119646
0.2501771 -0.14383541 -0.0075451443 0.09802206 0.08528228 0.12181326 -0.052254587 -0.07016206
-0.1498789 -0.292912 -0.0276663 0.08304113 -0.04073776 -0.26210102 0.00017657716 -0.15799586
0.021040613 -0.31770062 -0.06053575 0.04212177 0.12468277 -0.060760614 -0.04868246 0.027001983
0.07787436 0.18156818 -0.10849075 0.031564042 -0.20435484 0.17260896 0.1146405 -0.054504625

layers.4.weight f4 [40, 40]
00000000: 3fac 9f3d b962 793d b92e e23d 5927 1e3e
00000010: 42ef 803d 0c19 1cbe 17b1 df3d 387f cbbd
00000020: ef3e a53d a546 0a3a 429a 4e3e 6476 073d
00000030: 4544 91bc 802e b53c f8db 66bd 3e93 283e
00000040: 8952 fd3c 9aae 983d 7229 593c 8445 863c
00000050: de45 0abe 7562 fcbc 3415 0ebe 17dd 3c3e
00000060: ba3a 94bd 145f 8e3d 2ecb 123e bc9d 09bd
00000070: 8bc8 0a3d 7b17 ab3c 1252 0e3e efcf 043e
00000080: c8d3 b03d f58f 983d e879 dc3d e717 313e
00000090: e535 a63d a1fc 353c 0b2d 99bc 0775 cf3d
000000a0: 419f 6cbc ad77 eb3d ab77 083e 72e0 af3d
000000b0: d759 0b3e 3523 05bd 6383 0abd 9e0b d13d
000000c0: ad0b 253d d617 f13d fd46 943d 0ff1 efbd
000000d0: 880a c93d e49a 75bd 0312 a83d 0f7d a03d
000000e0: cdcc a53d ddd4 223e 0c78 6ebd c307 da3d
000000f0: 3551 503d 9180 01be 3851 ad3d ddc1 febc
00000100: 2c13 583d becf 103e 4129 8a3d 1430 383e
00000110: 66b8 fe3d 6120 0cbd 9ca0 4e3d bbc6 763c
00000120: 1a5f 5cbe b053 abbc dee5 f0bd 7d85 95bc
00000130: 5317 81bd 4cf9 6d3d dbaa fbbb a721 963d
00000140: a30d d63d dcd1 24bd ee81 b13d 1c0c c5bd
00000150: c224 1d3e 04fb 9dbd cf57 74bb 464a 043d
00000160: c36f 543e 2b83 6d3d b1b5 09bd 0b29 bd3d
00000170: f57a 053e eb70 ea3d cd1a d9bd ed55 4bbd
00000180: 55ab b33d e5eb 25be 983c a63d 9fea 033e
00000190: abab f2bd d1de 45bd 9a51 38be ce8a 383e
000001a0: e4a6 7e3d c750 23be 19ed 533d 6e81 2bbe
000001b0: 86ee 37bd 0412 a03d 9614 21be fb6a 943d
000001c0: 13c0 f7bc a25c 333e 9d8d b13d 5d63 fe3d
000001d0: b439 eebd fdfe cc3c 5f32 003c dc5c 55bd
000001e0: 468c 45bd 9f65 05be 98fa 08be cfc1 08be
000001f0: 9a09 c6bd 0491 77bd c98e 343e e2cd f1bd
00000200: d976 b93d 1421 173d c2d5 26be c35b 50bd
00000210: e58d aabd 0b53 6bbd d92b cdbd ea76 1c3d
00000220: 9a07 333e 69a7 843d 78c2 623e 92cf fe3d
00000230: 45ef 65bb 5308 113e 6bd7 edbd c9fd 0cbc
00000240: 0ba1 f63b c313 0b3d 879a d83d e25b 2b3d
00000250: e4a1 9f3d d5ed 833d 2426 ec3d e322 de3d
00000260: aa5a 163e ef1c f5bd ffe2 c1bd 882d 823d
00000270: 4253 ed3d c753 1b3e 406d 97bd 81be f9bd
00000280: 242f 413d d433 fd3d 7435 fdbd 1902 c7bd
00000290: c6bf 23be fdc4 e2bd 4515 0d3e 90e6 2dbd
000002a0: c20a 80bd 0b1b 22bc 2d88 2b3a e5cf a1bd
000002b0: 649c 153c 2106 213e e5fc a13d a240 4cbd
000002c0: 7899 cb3d 1ff6 703c 2f4f 183e 57ad 15bd
000002d0: b889 cdbc 810d e53c cfe3 41bb 4a39 1abc
000002e0: 31e9 efbd 9d20 18bd e06f 21be 73ba 5bbd
000002f0: 140a 0a3e 5399 0ebe 84fc c53d 63e5 eebd
00000300: e187 0dbd eadf 0f3e 604d 27be 76ec 08bd
00000310: e1b9 883d 9644 cd3c 4aa7 a7bd 9947 333d
00000320: b3ba 7fbd 1c44 0abe e46a 80bd a88e b1bd
00000330: f761 563e 8b24 51be 16a0 093e 3cb8 38be
00000340: 36c0 173e 6c89 503c da34 86bd b166 bf3d
00000350: bfd4 5c3e f941 b7bd 0d42 dcbd f28f 24be
00000360: bdf1 c23d ecda 2ebc 4abc 35bd 50e8 f43d
00000370: 2367 8bbe 49a5 1e3e 0cf7 26bc f6e4 64be
00000380: 8353 13bd dfaf 04be 73df 59be 9044 563c
00000390: 86e4 593e 3e5f a7bd 6722 c2bc 7281 9e3d
000003a0: ca44 a33e c4c2 35bb ac85 403d b87c eb3c
000003b0: bb58 b73d a66b b9be 20d6 c9bd 3620 b93d
000003c0: b9cc 82be 56a7 18be e972 923d 5494 98be
000003d0: 7afd 4dbd 9e27 52be 8049 36be 7953 143e
000003e0: 02bd 4fbd 9dc4 94be 1453 84bd 48dd d5bb
000003f0: 6116 34bd 7f49 57be bbc6 0fbe 0dea babe
0.07796525 0.060885165 0.11044068 0.15444697 0.06295635 -0.1524393 0.10922449 -0.099363744
0.08068644 0.0005274809 0.20176032 0.03307189 -0.017732749 0.0221169 -0.056362122 0.16462418
0.030923145 0.074551776 0.01325451 0.01639057 -0.13503215 -0.030808667 -0.13875276 0.18443714
-0.07237764 0.069517285 0.1433532 -0.033597693 0.03388266 0.02088522 0.13898495 0.12969945
0.08634144 0.074493326 0.10765439 0.17294274 0.08115748 0.011107595 -0.018698236 0.10129743
-0.014442266 0.11497436 0.133269 0.085877314 0.1360849 -0.03250428 -0.033816706 0.10207294
0.040294338 0.117721245 0.072401024 -0.117159 0.09816462 -0.05996217 0.082065605 0.07836353
0.08095703 0.15901513 -0.058219954 0.10646012 0.050858695 -0.126467 0.08462757 -0.0310983
0.05275266 0.14141747 0.0674615 0.1798709 0.12437515 -0.034210566 0.050446138 0.0150620295
-0.21520653 -0.020913929 -0.11762594 -0.018252129 -0.06303277 0.058099076 -0.0076802797 0.073306374
0.1045182 -0.0402392 0.0866736 -0.0962145 0.15346053 -0.07713893 -0.0037283783 0.032297395
0.20745759 0.05798642 -0.03362054 0.09236344 0.13035186 0.11447319 -0.10600815 -0.049642492
0.08772913 -0.16203268 0.08117026 0.1288247 -0.11849149 -0.048308197 -0.17999879 0.180217
0.062170878 -0.15948783 0.051739786 -0.16748592 -0.044905208 0.07815936 -0.15730509 0.072469674
-0.030242955 0.17515805 0.08669589 0.12421296 -0.116321 0.025023932 0.007824509 -0.05209051
-0.04822948 -0.13027047 -0.13376844 -0.13355182 -0.096698 -0.060441032 0.17632593 -0.11806847
0.090558715 0.03689678 -0.1629248 -0.05086876 -0.083278455 -0.057452243 -0.10018129 0.038199343
0.17483369 0.064772435 0.22144496 0.12441935 -0.0035085243 0.14163332 -0.11613353 -0.008605429
0.007526522 0.033954393 0.10576349 0.041835673 0.0779455 0.06441847 0.11530712 0.10846498
0.14683023 -0.11968409 -0.09467124 0.06356341 0.11588146 0.15168677 -0.07393885 -0.12194539
0.047164097 0.12363401 -0.12363711 -0.09717197 -0.15991125 -0.11072729 0.13777645 -0.04245621
-0.06252052 -0.009894143 0.0006543424 -0.07900981 0.009131525 0.15724994 0.07909564 -0.049866326
0.09941381 0.014707117 0.14873956 -0.036542263 -0.025090083 0.02796054 -0.0029585247 -0.009413073
-0.117143996 -0.037140477 -0.15765333 -0.05364461 0.13480407 -0.13925676 0.09667304 -0.11664846
-0.034553412 0.1405026 -0.1633811 -0.03342863 0.066760786 0.025057118 -0.08186205 0.043769453
-0.06243391 -0.13502544 -0.06270388 -0.08669788 0.20935808 -0.20424096 0.13439974 -0.1803903
0.14819416 0.012728076 -0.065530494 0.09345759 0.21565531 -0.0894813 -0.10754786 -0.16070536
0.09518764 -0.010672312 -0.04436902 0.119583726 -0.27227125 0.15492739 -0.0101907365 -0.22352967
-0.035968315 -0.12957714 -0.21276645 0.01307787 0.21278581 -0.08172463 -0.023698045 0.077395335
0.3188842 -0.0027734498 0.04700248 0.028745994 0.08952471 -0.36214942 -0.09855294 0.09039347
-0.25546816 -0.14907584 0.071508236 -0.29800665 -0.050290562 -0.20522925 -0.17801476 0.14484967
-0.05071736 -0.29056254 -0.064611584 -0.006526623 -0.043966655 -0.2102413 -0.14040653 -0.36506692

layers.4.bias f4 [40]
00000000: 46a9 03be 7811 053d fea0 6a3d 9442 53bd
00000010: d874 c03d 0aa8 a33d 2441 ad3e 58ae 953d
00000020: 3593 abbe dad2 a9bc 60a0 25be c04b 303d
00000030: 9e82 20be 595f 2a3c ac56 cdbd da24 92be
00000040: 641e 2a3d b502 edbc 6000 08bc 5404 fbbc
00000050: 3784 84bd d4dc f9bd b6f2 98bd 06e2 94bd
00000060: bc8d dabd a95d 883e a4e2 e9bd 187f c3bb
00000070: bc50 2e3e 0af5 39bd c703 4f3d 5083 0fbc
00000080: ce5f 22be 665a 65bc e6b7 05bd ab91 663e
00000090: 7cf0 233e bee7 473e b2e6 a63d c407 6bbc
-0.12857541 0.032487363 0.05728244 -0.051577166 0.09397286 0.07991035 0.3383876 0.07308644
-0.33510748 -0.020730425 -0.1617446 0.04304099 -0.15674827 0.010398709 -0.10026297 -0.2854374
0.04153289 -0.028931955 -0.008300871 -0.030641712 -0.064705305 -0.12200323 -0.074681684 -0.07269673
-0.10671565 0.26633957 -0.114201814 -0.0059660785 0.17022985 -0.045399703 0.05054071 -0.008759335
-0.15856859 -0.013998603 -0.032646082 0.22516505 0.16009706 0.19521996 0.081494704 -0.014345113

layers.6.weight f4 [40, 40]
00000000: 21a5 e9bc 4b02 01bd e32b 0f3d 76ec 6f3e
00000010: a47e f9bd 9b13 8dbd fde1 453d a62a 953d
00000020: 1e40 e4bd 2a4e ff3d 38b9 b3bc 3e3e f4bd
00000030: cf5d 043d 95c9 243e eedb fcbd 3569 1c3e
00000040: 2525 0c3e a197 e5bd ce3d 2ebe fcea 463e
00000050: d4fd c83c 90ff 103e fa34 863d f997 b93d
00000060: 174a be3d 8f22 28bd 7243 333e 941b 32be
00000070: 5450 953d 326b 823d da38 7fbe 3437 39bd
00000080: 615c 573e 16b7 333e c7ae 5abb 9862 df3d
00000090: bba9 143e bb33 3a3d eb01 17be f023 7fbd
000000a0: a16e c73d 6f77 07be afa7 27be 2d16 f3bd
000000b0: 68a9 19be 110e d6bd d2f6 0b3e f55a 313c
000000c0: 217b 133d 0052 f63d ecda 1e3e deb3 0a3d
000000d0: 7f78 56bd 92ed 75bd c9bb d93d 0f88 a3bd
000000e0: add5 cebd 75f7 b33d 7751 b03d d185 7dbd
000000f0: 6e24 1b3e 025b 63bd 7f98 b2bb 8177 593c
00000100: a5ac 13be 3838 773d d975 123e 32dc 153d
00000110: be4d 8fbb 4066 d2bd 3700 dfbc c2a5 01be
00000120: 9044 ffbd d7fd 12be f4c5 1ebd e172 4a3d
00000130: b206 e1bc 6a62 23be 25e2 a5bc 9a25 be3d
00000140: 0089 da3d 8d54 fb3c 66ca 383e 7781 0c3e
00000150: 80b4 45bd fbae febd d45d 413d 3b53 73bd
00000160: 32f9 bdbd 9e77 8f3d cdd2 38bd 027e e7bd
00000170: 8566 12be 1612 ed3d 306e e33d 645d 91bc
00000180: 6926 b0bd 1ec0 3abe 5ad2 b23c d6d5 8a3d
00000190: 5c97 0cbe 9976 50bc 6958 8fbd 92a1 523d
000001a0: 1dd4 333e 138e 7cbb b777 e43d e948 363e
000001b0: d43a cf3d 91a0 ae3d b17f 083e fa43 bb3d
000001c0: a09f 1bbd 38c5 d6bd 508d 11be 86da 153e
000001d0: d541 4f3d e520 0d3d 569c 2f3d 07ad 093d
000001e0: 86d8 803d f6cb 85bc 10e0 2ebd 9332 ff3d
000001f0: 7e17 0bbc a175 95be de97 b8be c972 ba3c
00000200: 90d0 713e 3d06 0d3e ce27 eb3d 4e41 80bc
00000210: acc8 b63d bd0e 2ebd c1a8 d43c 5896 62bd
00000220: fd9e 1bbc 98b3 17be 94a3 87be e3ab 003d
00000230: f40c 04be caeb 403e d72e c3bd b92f 88bd
00000240: 9b23 c8bd c37e 19bc 7aff 1a3c f4f8 243e
00000250: 44d4 6abe 7fb9 8f3c e7d3 893e 9dce 01be
00000260: 0758 86bc bd20 153d 7c5c 7d3d 7d97 2ebe
00000270: 175e ad3d a078 633d ab65 79bd 533d e1bd
00000280: 158d 833c 7f64 e53d f723 c9bd 1e09 4c3d
00000290: e335 3fbd 1a40 52be 1f3b b7bd 68f0 773c
000002a0: 5c38 d93d 34b5 a63c a759 373d 4a55 27bd
000002b0: d4e2 7abc 70db b63d c16a 993d d861 7ebd
000002c0: 6c74 86bc d83d 513d 12fe 1bbe 97b7 363d
000002d0: 82b4 12bd 77b8 37bd aaaa 50bc b145 2cbd
000002e0: 2ad8 a93d 2204 38be 358f f83d 8826 373e
000002f0: 35d7 bcbc 5774 e8bd 82b2 843e d26c 13bc
00000300: 2850 8ebd 835b 003e 9416 b4bd ae12 a8bd
00000310: 49a2 edbd e742 34bd b282 863c 95cf 173e
00000320: da4d eabd f126 213e 1321 023d cbd0 f53d
00000330: 5e63 19be 11ee 2dbe 812b 01be 80e3 ff3d
00000340: 6a41 cf3d 751c d63d 742e 52bc bd45 863d
00000350: c2e4 9fb8 2554 9ebd 153d 4cbd 0168 b1bd
00000360: 2a16 243d c245 15bc fb9f 30bd b3bd e5bc
00000370: 9a62 763d 437c 0d3e 6e9f 903c 2926 e8bd
00000380: 55e1 dfbd 18c2 e7bc 27b5 03be bbcc 64bc
00000390: de52 3ebe f2a7 2bbd 3eed 91bd b0cc 93bd
000003a0: c31a 8cbd 78ad 083e dee1 013e 75bf c8bd
000003b0: 9af2 f9bd 70f7 8abd abbd 103e 48f3 463c
000003c0: f820 f43c 555b 9ebd 5fba c7bc 481a 163b
000003d0: 6fa9 49bd d468 163c d17a d3bd 004d c93d
000003e0: ce9d a03c 2621 cbbc ea34 4cbd 3da7 b33c
000003f0: bc70 82bb 4b84 f23d d985 fdbd ecdb a2bd
-0.028521122 -0.031496327 0.034953963 0.23430046 -0.12182358 -0.06888505 0.048311222 0.07283525
-0.11145042 0.124660805 -0.021938905 -0.11925934 0.032316025 0.16092522 -0.12346636 0.15274508
0.13686045 -0.112105615 -0.17015764 0.19425577 0.024535097 0.1415999 0.06553073 0.090621896
0.09291475 -0.041048583 0.17506197 -0.17393333 0.07290712 0.06368102 -0.24924031 -0.04521866
0.21031334 0.1755031 -0.0033368336 0.10907477 0.14517872 0.04545949 -0.14746825 -0.062290132
0.09737898 -0.13229154 -0.1637256 -0.11869464 -0.1500603 -0.10451902 0.13668373 0.0108249085
0.036006097 0.12027359 0.155132 0.03386294 -0.052361008 -0.060041018 0.1063152 -0.079849355
-0.10099349 0.08787433 0.08609288 -0.061895195 0.15150616 -0.055506714 -0.005450308 0.013273121
-0.14421327 0.06035635 0.14302768 0.036586948 -0.0043732813 -0.10273409 -0.027221782 -0.12660888
-0.12464249 -0.14354645 -0.038763 0.049425963 -0.027469013 -0.1595551 -0.020249436 0.09284516
0.10670662 0.030679965 0.18045959 0.13721262 -0.04826784 -0.124357186 0.047208622 -0.059405547
-0.09276046 0.07005237 -0.04512291 -0.11303331 -0.1429692 0.11575715 0.11105001 -0.017744727
-0.08601076 -0.1823735 0.021828819 0.06779067 -0.13729614 -0.012723588 -0.06999285 0.051423617
0.17561384 -0.0038536831 0.11155646 0.1780125 0.101186424 0.08526719 0.1332996 0.09143825
-0.037994027 -0.10486835 -0.14214063 0.14634141 0.05059989 0.0344552 0.042873703 0.033612277
0.062912986 -0.016332608 -0.04269415 0.12460818 -0.008489488 -0.29191306 -0.36053365 0.022759812
0.23614717 0.13771911 0.114822015 -0.01565614 0.08924994 -0.042494524 0.025959374 -0.05531916
-0.009498355 -0.14814603 -0.26491988 0.031413924 -0.12895566 0.18839946 -0.09530418 -0.066497274
-0.09772416 -0.009368601 0.009460324 0.16110593 -0.22932535 0.017544506 0.2691948 -0.12676473
-0.016399397 0.036408175 0.061855778 -0.17049976 0.08465212 0.05553496 -0.060887974 -0.10998025
0.016058484 0.11200809 -0.09821313 0.049813382 -0.04668225 -0.20532265 -0.08946823 0.015133001
0.10606453 0.020350076 0.044763234 -0.040852822 -0.015312869 0.08928573 0.07491065 -0.06210503
-0.016412936 0.05108437 -0.15233639 0.04460868 -0.035816677 -0.044853654 -0.012736002 -0.04205865
0.08293183 -0.17970327 0.121366896 0.17885792 -0.023051837 -0.11350315 0.2591744 -0.008998113
-0.06948882 0.12534909 -0.08793369 -0.08206688 -0.11603219 -0.044009116 0.016419742 0.1482528
-0.1144063 0.15737511 0.031769823 0.12002715 -0.14979312 -0.16985346 -0.12614252 0.12494564
0.101198986 0.104546465 -0.012828458 0.0655627 -7.62432e-05 -0.07730893 -0.04986294 -0.08662415
0.0400602 -0.00911087 -0.04312132 -0.028044557 0.060152628 0.13816933 0.017654147 -0.113354035
-0.109316505 -0.028290793 -0.12862073 -0.013964827 -0.18586299 -0.041908212 -0.071253285 -0.072167754
-0.06841042 0.13347423 0.12683818 -0.098021425 -0.12204476 -0.06785476 0.14134853 0.012142964
0.029800877 -0.07732264 -0.02438086 0.0022903848 -0.04923385 0.009180266 -0.1032616 0.0982914
0.019606497 -0.02479608 -0.04985515 0.021930331 -0.003980724 0.11841639 -0.12379045 -0.07952103

layers.6.bias f4 [40]
00000000: 13f9 8ebd 2a38 1bbe 0b40 b93c 4dc6 28be
00000010: faab 4ebc 3691 ac3d 1535 15bc d83f 43be
00000020: 964e bbbc 2d39 1e3e 196d 03be 4ebe bfbd
00000030: 2714 23be a530 a63d f092 d0bd b4b3 03be
00000040: 7efe 073e f037 0e3e c78d 04be 6d33 5d3d
00000050: 1c2a f53d a9a1 20be de04 6dbe 5d79 4abc
00000060: ecc0 923d 00df 20bd 7a2c 9abd 432a af3d
00000070: 0ed8 cdbd 584f 6e3d aff9 303e 10e2 3e3d
00000080: 60fe 09be 1f0d e2bd 4a18 193e d998 adbd
00000090: 7005 243e 067f 9f3d c8ae 12be b083 333e
-0.06981101 -0.15158144 0.022613546 -0.16481896 -0.012614245 0.08426134 -0.009106894 -0.19067323
-0.022864621 0.15451498 -0.12834586 -0.093624696 -0.15925656 0.08114747 -0.10184276 -0.1286152
0.13280675 0.13888526 -0.12944709 0.05400412 0.11970922 -0.15686668 -0.23146388 -0.012358037
0.07165703 -0.03927517 -0.075280145 0.08552983 -0.10050975 0.058181137 0.17282747 0.04660231
-0.13475943 -0.11037659 0.14950672 -0.08476419 0.16017699 0.077879 -0.14324486 0.17530704

layers.8.weight f4 [40, 40]
00000000: 11c8 b73c 51de 943d f86c 3d3d 4013 47be
00000010: cff6 babd c5f4 13be a043 c43d 4fd4 393d
00000020: dc6a 39be dd2c e8bb 147d 2fbe 2791 443e
00000030: 4672 c1bb 8f99 8d3d f210 9abd c4a9 f4bd
00000040: af88 4c3d 6dd2 e1bd cb87 a23d 35f8 3d3e
00000050: 25cb 05bd 1351 a3bd d163 133d 206d c8bd
00000060: 13d4 8f3d 610c e6bb d33d 073e 00a2 4abd
00000070: 1ddf c0bd f2bf 0fbd 78f6 f9bd 93cf 743d
00000080: 3032 c3bd 1446 a1bd cf2e 183d 3204 673c
00000090: 2b38 3dbe b3c6 033e 3e47 033e d977 01be
000000a0: b946 63bc b6e5 653d 60b3 6a3c a08e 103d
000000b0: 7dc9 aabd 8c54 793c 8d13 8e3d 7ced fe3d
000000c0: 33d8 e1bd 9922 8f3d 4f77 f8bd a183 14be
000000d0: 2f9b 0c3e c6aa 183d 26d9 b63c 54b0 053e
000000e0: 5c9f 3bbe 885f 6d3d a526 fa3d 6688 3dbd
000000f0: 2ae8 8ebd 2045 cfbd 188c db3d f3d6 f93c
00000100: 73ac 033e 42ed 42bd 7dff e53b be54 19be
00000110: b9a4 433e 7f2c 27be d840 15be 0e0c d53d
00000120: 1fc1 f03d c8d4 9a3d ed3a f3bc 674f 60bd
00000130: a344 b13d 3675 93bd 218a 7f3d a5a8 063e
00000140: 3ec0 113e 5281 80bc 8f7b 093e d53a 983d
00000150: bc5a 163e 8c4c 19bd 0b4d d2bd 5a50 90bd
00000160: 306f 02bc b6b7 cd3c e84e 093e 41ee b03d
00000170: 20bf bcbc 7fad 0e3e 81a2 f3bd 546f abbd
00000180: 4d1a fc3c 308f e2bd 70e1 9e3c e442 8c3d
00000190: ae3d 683d e776 143d 3b03 f7bd 8b14 2c3d
000001a0: 1713 5d3d 76b1 4bbd f439 393d f298 75bd
000001b0: c247 70bc 2ca0 bd3d 1941 70bc 26c3 a1ba
000001c0: c40b f23d 2e4a e6ba b181 d4bd 6a25 033e
000001d0: 34b1 8ebd bb32 78bd 2d82 5a3d 15d8 8fbd
000001e0: aa2e a0bd 45e7 ed3d 1437 03be d1cf 17be
000001f0: 264f d3bc 4709 05bc e9ed 8d3b 12c1 adbd
00000200: 12f3 77bb e4ca 5f3d ca40 f53d 89df 483d
00000210: 3a20 343c 349f e4bd 4858 b8bd 7fa3 2aba
00000220: 51ad c2bd 2bca 0cbe 08a9 1e3e 9375 f53d
00000230: 7eaf bc3d 7ef6 21be 18a9 adbd 10ea 51bd
00000240: 6f96 41be 34b7 b23d 6aa3 a93d 740c da3d
00000250: 2018 a9bd 90df 923a 37d0 1cbd e2ea 4fbd
00000260: 7923 cdbd 7dfb e13b 8534 103d b9e5 16bd
00000270: d865 483c 993b a9bd a006 c5bd 53a1 1dbe
00000280: 1e23 ffbb 9801 a03d fae9 04bc f8fb 583d
00000290: 0166 bcbc 2ac9 80bb 8125 31bc 83ff 003d
000002a0: c8f7 a2bd 7d46 34be 8502 f73d b770 313d
000002b0: f304 afbd 23b7 4e3a 3282 61bd 6360 6a3d
000002c0: a921 4dbd 7069 cf3d 5c38 3ebc 1aef 2ebe
000002d0: 4857 93bb 6edb d1bd fde8 e33b 8152 0fbe
000002e0: 6a05 b73d a6b1 0a3e 2c3f fb3c 68ca a8bd
000002f0: 8e21 ad3d bd02 8b3d 9274 b63c 5af1 9dbd
00000300: 5cdf c9bc 9806 873c e424 c1bd a11c 04be
00000310: bc45 323e 13d8 343d 3d23 abbd 9b36 803d
00000320: fb4c 40be 917c 043d 1799 e03d 0bb0 8ebd
00000330: ae0f 233c 97a4 f13d bb08 0c3e b74d a7bd
00000340: 7586 cf3d 1882 7cbd 7842 79bb 26b6 093e
00000350: 381f 3ebe ff41 e8bd 0142 4d3d 63c2 43bd
00000360: 61a8 283d 0bc1 a1bd f0b4 fabd baae 803d
00000370: 584e c8bc 48c2 213c 9d7c e73d 71cb 95bc
00000380: ace9 413e d9c1 893d a860 a73d 9140 d6bd
00000390: 19f7 c73d dd7f 853d 1688 00bd 5ead 723d
000003a0: 5f43 1a3c 6cb4 3bbe 816b b7bb c033 bf3d
000003b0: 6534 f53d 61a5 aabd 7ed9 233d f2b7 8dbd
000003c0: 44fa acbc 1562 cd3c 0609 85bd 2523 1bbe
000003d0: 1abc 6c3d e2f8 19be c166 92bc cd89 afbb
000003e0: 99c8 303d ab05 553e c7b5 223d 8c55 333e
000003f0: 98db 91bd bf9b a0bd 0f15 26be dbc3 793d
0.022434266 0.07268966 0.0462465 -0.19440937 -0.09129106 -0.14448841 0.09583211 0.04536849
-0.1810717 -0.0070854262 -0.17137557 0.19195996 -0.005903515 0.069140546 -0.07522763 -0.11946443
0.04993504 -0.11026464 0.07936057 0.18551715 -0.032664437 -0.07974448 0.035983864 -0.09786439
0.07022872 -0.0070205186 0.13207178 -0.0494709 -0.094175555 -0.035095163 -0.12205213 0.05976827
-0.09531057 -0.078746945 0.037154015 0.014100121 -0.18478458 0.12868766 0.12820145 -0.12643375
-0.013871842 0.056127273 0.014324993 0.035292268 -0.08339212 0.015217911 0.06937323 0.1244764
-0.11027565 0.06989021 -0.12132131 -0.14503337 0.13731073 0.037272237 0.022320341 0.13055545
-0.1832251 0.057952434 0.12214402 -0.046272658 -0.069778755 -0.101206064 0.1072008 0.030498004
0.12858753 -0.047589548 0.007018982 -0.14973733 0.19105805 -0.16325568 -0.14575517 0.1040269
0.11755585 0.07560116 -0.029691184 -0.054763224 0.086556695 -0.072000906 0.06238759 0.1315027
0.14233491 -0.015686665 0.1342604 0.07433096 0.1468305 -0.037426516 -0.10268601 -0.07046576
-0.0079610795 0.025112014 0.13409007 0.08639193 -0.023040354 0.13933371 -0.118962295 -0.083708435
0.03077426 -0.11062467 0.019394606 0.06848696 0.056699447 0.036246207 -0.12061163 0.04201178
0.053973284 -0.049729787 0.045221284 -0.059960313 -0.014665546 0.09259066 -0.014663958 -0.0012341484
0.1181865 -0.0017569715 -0.10376299 0.12807241 -0.069673926 -0.060595255 0.0533468 -0.07023636
-0.078214005 0.11616377 -0.1281398 -0.1482537 -0.025794577 -0.008119888 0.0043313396 -0.08484091
-0.003783409 0.05463685 0.11975248 0.049041305 0.010994012 -0.11163178 -0.09001213 -0.0006509348
-0.09505714 -0.13748996 0.15494168 0.11985316 0.0921316 -0.15816686 -0.08479518 -0.05124861
-0.18905042 0.087263495 0.08283122 0.106469065 -0.082565546 0.0011205543 -0.038284507 -0.05076111
-0.100165315 0.006896435 0.035206337 -0.036840174 0.012231313 -0.082633205 -0.09620404 -0.15393572
-0.0077861687 0.07812804 -0.008112425 0.05297467 -0.022997858 -0.0039302306 -0.010812164 0.031493675
-0.07957417 -0.17605014 0.120610274 0.043320384 -0.08545866 0.0007885566 -0.055055805 0.057220828
-0.05008093 0.101275325 -0.011610117 -0.17083398 -0.0044964887 -0.10246931 0.0069552646 -0.13996316
0.089365795 0.1354433 0.030669771 -0.08241731 0.08453666 0.06787632 0.022272382 -0.0771205
-0.024642639 0.016482636 -0.094308645 -0.12901546 0.17409414 0.044151377 -0.083563305 0.06260415
-0.18779366 0.03234536 0.109666996 -0.06967171 0.009952469 0.11798971 0.13675205 -0.0816912
0.101330675 -0.061647505 -0.0038034003 0.1344839 -0.18566597 -0.11340713 0.050111774 -0.047792803
0.041176204 -0.07898148 -0.12241542 0.062833264 -0.02445142 0.00987298 0.11303065 -0.018285485
0.18936795 0.06726427 0.081727326 -0.10461534 0.09763927 0.065185286 -0.03137978 0.059247367
0.009415477 -0.18330544 -0.0055975323 0.093360424 0.11972884 -0.08332325 0.04000234 -0.069198504
-0.02111543 0.025071183 -0.06495862 -0.15150125 0.057796575 -0.15036348 -0.017871263 -0.0053570033
0.043160055 0.20802943 0.039724138 0.17513102 -0.07121962 -0.07842206 -0.1621897 0.060977798

layers.8.bias f4 [40]
00000000: c07c c63d d12f 043e eb1e 95bc 6002 dfbc
00000010: b54c 8ebd ae70 efbc e6e2 093e af2a 11bd
00000020: 88d2 8ebc e674 ce3b a03a 93bd 0509 f43d
00000030: 5051 0fbe 0498 b5bc 684a 9e3d 8cea 2e3e
00000040: 620c b8bc dc64 e13d bd22 053d c721 db3d
00000050: 4fcd 183d 2e10 40bd ab53 23be 1e92 0b3d
00000060: d5b3 95bc 8b99 823c 892e c73d 2be2 f2bc
00000070: e286 123e add6 053e ba7b d43c 2d55 f03d
00000080: b0ec 59bd a125 c03d 0d8e bdbd 9ded a0bd
00000090: 821f 0d3e 7035 ebbd daa8 1b3e b493 183d
0.09691763 0.12908866 -0.01820322 -0.027222812 -0.069482245 -0.029228535 0.13465461 -0.035441097
-0.017434373 0.0063005565 -0.07188916 0.11915783 -0.13995862 -0.022167213 0.077290356 0.1708166
-0.022466842 0.110055655 0.032503832 0.10699802 0.037305173 -0.04689043 -0.15949886 0.034074895
-0.018274227 0.015942356 0.09725673 -0.02964886 0.14309266 0.13070174 0.025937904 0.11734996
-0.05320424 0.09382177 -0.0925561 -0.07857821 0.1378155 -0.11484802 0.1520113 0.037250236

layers.10.weight f4 [40, 40]
00000000: e169 f4bb f662 9dbd aed7 a03d e0e1 07be
00000010: 32ba af3c ab74 7dbd 8e4e a53d d4a9 093e
00000020: adc5 aabd f4c2 d63d 5b76 363e b800 bcbd
00000030: f6ad 56bd 9c60 563d ee3c dc3c 2a72 de3d
00000040: f5f6 59bd 1f2c eb3c a842 7abd 3f5e c23d
00000050: ea6a 053e 2afc 5b3d 3951 15be 9c7a 2d3e
00000060: 7368 ba3d 242d 093e c688 66bc f804 983c
00000070: c432 febd 8572 a0bc 57c1 a8bd b203 c63d
00000080: b19e 85bd 6165 8dbd 2b02 c53d f50e 62bd
00000090: e5a0 7a3d f14d 46be 1136 a63c 5776 b03b
000000a0: bf2e dcbd f480 233e 2f1c 3dbe 3467 09be
000000b0: ce65 2fbd 36fb 8d3c d047 c73d 8764 04bd
000000c0: 587a 6cbd 7c12 bb3a e518 28be 2075 0d3e
000000d0: 802c d5bd ed4e 7ebd a323 8fbd ac22 a03c
000000e0: 2f40 10be b436 7a3d 3f03 dbbc e359 72bc
000000f0: 93c1 2abe a542 033e e623 133d 781b f33d
00000100: d37d 693d cbc6 d03b 07e5 383d ca50 1b3e
00000110: 5662 d1bd 1aaa 16be 90e8 bbbc f2da dfbd
00000120: baae f33d d066 01be 04d2 18be 3344 1fbe
00000130: 753f e1bc dacd afbd 2594 123e af35 223d
00000140: fa7b 0cbe 9a41 a7bd 3d14 b3bd a7bf d6bc
00000150: 3ed0 a9bd 35ee 42bd ac02 86bd 3d54 383e
00000160: 8ded 283d ec3b f3bd bf37 823c acd5 8b3d
00000170: 3040 da3d af89 e7bd 6649 20be f7f8 04be
00000180: 2345 eabd 68b1 6fbd 2d76 f7bc 74ee 9b3c
00000190: 96a1 143e 8fe2 01bc b514 1b3e ac08 8a3c
000001a0: 3701 fb3d d470 7cbd d343 1f3d c0db 4d3e
000001b0: f91e c83d 715c d83d 3327 d1bd dbd2 8d3d
000001c0: 06ed 0fbe 3868 c03d 0f60 eabd 02d4 143e
000001d0: 217a 8dbd 783f b3bc 8fe3 f6bd 93a8 fe3d
000001e0: 54cc 943c cb5f e03d fec1 7abd 8342 fe3c
000001f0: ebb4 2b3c 92da 173d 3ca7 26bb af5f 50be
00000200: 089a 0f3e 0a0d c63d 79a2 153d 185a 87bd
00000210: 74a7 edbd c389 3cbd 08bb 963d 5517 833e
00000220: fe63 e9bd 58fd 5bbe 25ed b93d f77a 97bc
00000230: 5c1a d0bd 1ae6 8e3d ac96 b8bd 76b6 10be
00000240: 4c7c 05be 3529 8bbc b1f7 17be ad44 4cbc
00000250: 384c 5c3e 3358 2cbe e4f3 24be a6bb 52bc
00000260: 907e 603c 61df d33d ec61 cdbd 74c3 c13c
00000270: ca6d 7b3e de27 0b3e c07a 5dbe 0dfe 29bc
00000280: 108b be3d d4d8 ac3d a006 c8bd 80ee 8bbd
00000290: b53c 04be d26f 9fbb 145b 26bd ac35 a7bd
000002a0: d8f5 8abd 254d 46bc 5c80 b73a 28ad 653d
000002b0: 1cca 8dbd 2e60 f53b bf50 c6bd 310f 763d
000002c0: 8602 82bd 82ff c73d 9994 073e 47ff 33bd
000002d0: ff8b a63d 276f bf3d 812a 9abd ef18 9b3d
000002e0: c61e 47bd 3cf8 03bd de4d e5bd f5e9 90bd
000002f0: 1301 debc c16b 8bbc 1683 203d 3c23 aebc
00000300: b9a1 1dbe 0950 543d df73 623d fef2 153e
00000310: f7e9 81bd 682a 6c3d abe5 83bd 9743 a83d
00000320: 2d5c 583d d178 633d 982b 89bc b3d9 16be
00000330: 11f1 73bd 04f7 893d 3024 f4bd 1df2 87bd
00000340: c7d4 78bc dd58 2bbd 871d 78bd 1fe3 fb3d
00000350: 0c05 3a3e 5932 19be 1730 333d 9f7e cdbd
00000360: e9f8 d03d c304 033d d194 053e cbe6 a9bd
00000370: dbe6 fd3d dc5c 09bd 6738 9d3d 552f 2f3d
00000380: 1aaa e5bc f61a 543d 0b85 103e 7d46 3dbe
00000390: 439a de3d 2ffb 213e dcc6 9dbd ca30 fbbc
000003a0: 2f1f 9b3b 3d7c 0f3d 946c a03d d26d 343e
000003b0: 49e1 a93d 3af9 053d 60f8 40be 99be 14bd
000003c0: 6a86 93bd fbf1 b4bd ee9d babc 742d 8ebd
000003d0: eee7 cdbd 7824 1d3d c4a6 26bd 7618 853c
000003e0: 1a24 bbbd 6739 1abe cfd1 07be 51b9 babc
000003f0: 53bb 2c3d 8cfb 0fbe 22f5 913a 801f cd3c
-0.007458911 -0.07684891 0.07853638 -0.13269758 0.02145109 -0.06187884 0.08071624 0.1344369
-0.08338485 0.10486403 0.17818587 -0.091798246 -0.052411996 0.052338228 0.026884522 0.10861619
-0.053214032 0.028707562 -0.061098725 0.09490632 0.13029066 0.05370728 -0.14581765 0.16941303
0.09101953 0.13396126 -0.014070695 0.018557057 -0.124120265 -0.019585857 -0.08240002 0.096686736
-0.065244086 -0.06904102 0.09619554 -0.055190045 0.061188597 -0.1936567 0.020289453 0.005385201
-0.107511036 0.1596716 -0.18467782 -0.13418275 -0.042821698 0.0173317 0.09730494 -0.032322433
-0.057733864 0.0014272477 -0.16415747 0.13814211 -0.10408878 -0.06208699 -0.06989219 0.019547783
-0.14086984 0.061087325 -0.026734946 -0.0147919385 -0.16675405 0.12818392 0.035922907 0.118704736
0.05700476 0.006371354 0.045140292 0.15167537 -0.10223834 -0.14713326 -0.022938043 -0.109304324
0.11898561 -0.12636876 -0.14923865 -0.1555336 -0.027496079 -0.08584185 0.14314325 0.039601978
-0.13719168 -0.081668094 -0.087440945 -0.026214434 -0.08291672 -0.047590453 -0.06543478 0.18000884
0.04124217 -0.118766636 0.015895722 0.06827864 0.10656774 -0.11305558 -0.15653 -0.12985598
-0.11438968 -0.058518797 -0.030207718 0.019034602 0.14514765 -0.007927551 0.15144618 0.016849838
0.12256091 -0.06163104 0.03888304 0.20103359 0.097715326 0.10564507 -0.10212555 0.06924983
-0.14055261 0.09394878 -0.11444103 0.14534 -0.0690806 -0.02188085 -0.12055122 0.12434497
0.018163837 0.10955771 -0.06122016 0.031037575 0.010480146 0.03707368 -0.002542927 -0.20349
0.14023602 0.09670456 0.0365319 -0.06608981 -0.11604205 -0.046029817 0.07359892 0.25603738
-0.11396025 -0.21483362 0.09078435 -0.018491251 -0.10161278 0.06977482 -0.090131134 -0.14132103
-0.13035697 -0.016987422 -0.1484058 -0.012467545 0.2151345 -0.1683052 -0.16108662 -0.012862122
0.01370205 0.103453405 -0.10028443 0.02365277 0.245536 0.13589427 -0.21628857 -0.010375512
0.09303868 0.08439794 -0.097668886 -0.068326 -0.12913783 -0.004865625 -0.040614203 -0.08164534
-0.06785172 -0.012103354 0.0014000046 0.056073338 -0.06923315 0.007488272 -0.0968337 0.06007308
-0.063481376 0.09765531 0.1324028 -0.043944623 0.08132171 0.093473725 -0.07527638 0.07573115
-0.048613332 -0.032219157 -0.111964926 -0.07075874 -0.027100122 -0.017019155 0.039187513 -0.021257035
-0.15393724 0.05183414 0.055286285 0.14643475 -0.063434534 0.05765763 -0.0644029 0.08216017
0.05282228 0.05553514 -0.01674442 -0.14731483 -0.05955607 0.067365676 -0.11920965 -0.06637976
-0.015187449 -0.041832794 -0.060575034 0.12299179 0.18165988 -0.14960612 0.043747034 -0.10033917
0.10203726 0.031986963 0.1304505 -0.082959734 0.12397548 -0.033535823 0.076767735 0.04276975
-0.028035212 0.051783524 0.14113252 -0.1848392 0.10869267 0.15818475 -0.07703945 -0.030662913
0.004733942 0.035030592 0.0783321 0.17620018 0.08294923 0.032708384 -0.18844748 -0.03631458
-0.07203372 -0.088352166 -0.022780385 -0.06942263 -0.10054003 0.038364857 -0.040686384 0.016247015
-0.09137745 -0.1506096 -0.1326363 -0.022793444 0.042170834 -0.14060801 0.0011135677 0.025039434

layers.10.bias f4 [40]
00000000: c378 55bd 434c dfbd 47a2 79bd c20c 083e
00000010: f29f e5bd 9450 b4bd 65a2 d43d 0389 323c
00000020: 81d9 00bd 3aff 00be 525d 423d f448 3a3d
00000030: fb55 bd3c 0886 02bd c2a5 273e 1a98 c3bd
00000040: 5c92 eebc 2531 8ebc 2ef8 043d ae72 96bd
00000050: 76d9 91bc 113c 933d 3b8c 193e e390 9cbc
00000060: 0d04 fb3d 58a4 05be 7e83 e93d 9182 cb3d
00000070: 762f a93d f9d5 99bc e6cc 97bd 44f8 d4bc
00000080: 2a29 0dbe 95c6 373e 1a2e 9c3b 17bc 323d
00000090: db5f 373e e39e 10be 3f30 21be cf9c 733d
-0.05211712 -0.10903218 -0.060945775 0.13286117 -0.11212148 -0.088044316 0.10382537 0.010896924
-0.031457428 -0.12597361 0.04745228 0.04547973 0.023112288 -0.031866103 0.16371825 -0.095504954
-0.029122524 -0.017357418 0.032463245 -0.07346092 -0.017803889 0.07189191 0.149949 -0.019112056
0.12256632 -0.13050973 0.11402033 0.09937013 0.082610056 -0.018778788 -0.07412128 -0.025997289
-0.13785234 0.17946847 0.004766238 0.043636408 0.1790766 -0.1412311 -0.1574106 0.059475716

layers.12.weight f4 [1, 40]
00000000: 408a 88bc 8f3c a4be a0de a03d 80c7 cb3e
00000010: f6b1 823c 9c88 493e 4983 b8bd 7471 8abe
00000020: 8e3e 573d 2397 c03c ee11 893e 312b 9a3e
00000030: a380 ac3d bee1 d5bd 01af e53e 888f 32be
00000040: a87c 1abd a5db 6a3e 3b98 643d 8ace 49be
00000050: 357d 8ebe 907f 40bd 5d1d e7be a241 fd3c
00000060: 7d06 a2bd 6efe 22bd 4d1e 003d 8d94 61bc
00000070: bf3a d8bd 3489 caba 95ab 30be 672a 27be
00000080: e519 7bbe 90f6 57be d1e9 4d3e 3a05 91bd
00000090: 7d8f 5ebe 5ee7 92bc 9a28 023f d0fa 07be
-0.016667485 -0.32077453 0.07854962 0.39800644 0.015953999 0.19681019 -0.09009416 -0.27039683
0.05254989 0.023509568 0.26771492 0.30111077 0.08422973 -0.104434475 0.4486008 -0.17437565
-0.037716538 0.2293535 0.05580924 -0.19707695 -0.278299 -0.046996653 -0.4513959 0.030915085
-0.07911394 -0.039793424 0.031278897 -0.013768327 -0.1055808 -0.0015452267 -0.17252953 -0.16324769
-0.24521597 -0.2109015 0.20108725 -0.07081075 -0.21734424 -0.01793259 0.50843203 -0.13279271
