PINN's/NAVIERSTOKES/Direct/Models/NavierStokesDirecto.pth (torch, 20210 bytes, 12 tensors)

layers.0.weight f4 [30, 3]
00000000: 7996 df3e 2422 8f3a 502e 02bf e0aa 2cbd
00000010: 6b5a e23c 32c0 e9b7 aa2c 513b 400c 083e
00000020: 2845 b934 0712 d63d 1cae f6bd 9040 b7bd
00000030: 4b98 f4bc 9aac 00be ad86 2ebe 9e06 7dbe
00000040: fe2f 003d 429b ad3e 73bb 4ebe e029 44bd
00000050: 698d 2d3e be35 663d be4b 00be 48d9 053f
00000060: 4909 7ebe 654e aabc 2962 e83e 9f11 16bd
00000070: cf67 f9bd 0eaf 2ebe 02e1 f53d d512 8c3d
00000080: d62c adbe 21a0 753e 75e8 13be 980c 03bf
00000090: 4fc9 94be a423 133c f311 813e a493 713e
000000a0: f0fb 7f3c 3b8f 83be 6a7c 7c3e d83a 4bbc
000000b0: 6da4 adbe ed5f b1be 8ccb ce3d b387 ad3e
000000c0: 085f 4abe fadf e53d 9888 2d3e a7b5 8d3d
000000d0: 0f38 6b3d 9fb6 0438 41a1 123d 2ed7 0fbe
000000e0: b30d c13d 1e84 12bd 6525 edbd ff99 2ebe
000000f0: 8aa5 ab3e eb55 893c ac8b adbe 9dfe 273c
00000100: 4c95 dd3d b29c c936 9f5e 81be 0b64 f93c
00000110: 8698 ad3e e370 983e 049e c7bd b47d 2dbe
00000120: 18a2 72be 4b01 103e ab18 033f 099e 093f
00000130: f1c6 873d 232e 02bf e145 733e a860 16be
00000140: 341a 03bf 9ba2 103f 86bb 443e 172d 15bf
00000150: 4ae6 d53d 7477 f5bd d981 b7bd 365b a93e
00000160: 6b7a afbd fb90 02bf
0.4366949 0.0010920209 -0.5085192 -0.042155147 0.027631005 -2.7865262e-05 0.003191749 0.13285923
3.4509253e-07 0.10452657 -0.120449275 -0.08947861 -0.029857775 -0.12565842 -0.17043562 -0.24709556
0.03129577 0.33907515 -0.20188694 -0.047891498 0.16948475 0.056203596 -0.12528893 0.5228467
-0.2480823 -0.020789335 0.4538739 -0.0366379 -0.12178003 -0.17058966 0.120058075 0.068395294
-0.3382327 0.23986866 -0.14444144 -0.5119109 -0.29059836 0.008980665 0.25209007 0.23591477
0.015624031 -0.25695214 0.24656835 -0.012404166 -0.3391451 -0.34643498 0.10097417 0.33892593
-0.19762814 0.11224361 0.16946638 0.06919413 0.05742651 3.164133e-05 0.035798315 -0.14046928
0.09426441 -0.035770528 -0.11579398 -0.17050932 0.33524734 0.016764602 -0.33895624 0.010253576
0.10819492 6.0085085e-06 -0.25267503 0.030443212 0.3390543 0.29773626 -0.09746936 -0.16942483
-0.23694646 0.14062993 0.51209515 0.5375677 0.06629742 -0.5085165 0.23757125 -0.14685309
-0.5121186 0.56498116 0.1921216 -0.58271927 0.10444315 -0.119856745 -0.08960313 0.330774
-0.08568271 -0.5100247

layers.0.bias f4 [30]
00000000: f92e 3dbd 5753 d3be 9899 b1be 488d f33e
00000010: 744f 75bf c50d 9abd ede0 8cbd e56c 553e
00000020: e7a3 fdbe 35be 6fbf afdc e13d 8fa1 983e
00000030: 408c 6abe 98f3 d1be e158 70bf 845c ea3d
00000040: 0f27 c6bd 1448 5b3e d91f db3e 45a7 e8be
00000050: bf52 08bf 132e c23f 0833 c9bc 73fd 873f
00000060: 6ed7 2f3f 2d49 39bf e443 46be e432 2fbe
00000070: 938d f43e 2883 8fbd
-0.046187375 -0.4127452 -0.34687495 0.47568727 -0.9582436 -0.075221576 -0.06878839 0.20842321
-0.4953911 -0.9364961 0.1102842 0.2981076 -0.22905064 -0.4100616 -0.9388562 0.11443427
-0.096754186 0.21414214 0.42797735 -0.45440117 -0.5325126 1.5170311 -0.024560466 1.0624222
0.68688095 -0.7237728 -0.19361836 -0.17109257 0.47764263 -0.07007438

layers.2.weight f4 [30, 30]
00000000: 4f06 bcbc dc57 14be 9a21 aabb 107f 403d
00000010: 290a f23c 5de5 19be f623 023e 84b4 823b
00000020: a118 20ba 5e89 6ebd 80bd dcba 60ef fe3c
00000030: 8422 ab3b 4ae6 803c 872c 69bc 2445 8ebd
00000040: 165b 7a3d 57f9 3b3f a76c 883b 3ebb 82bd
00000050: 0c1e 34bd 2faa ae3e 9a81 d43d fbb0 93bc
00000060: c957 8dbd 2b82 bdbc 3146 c43d 283c 0ebb
00000070: 9139 53bd 5afc df3c ba22 84bc d276 573d
00000080: ca9e cd3c d0e7 18bd 8032 7d3e bc69 0fbe
00000090: 644a 1b3f 327a bcbb a46a aaba 6c4d 34bd
000000a0: 7887 803c 722a b33c ec32 b53b b1dc 97ba
000000b0: 4fff b0bd 6b22 86bc 276c 9abe 45d2 763d
000000c0: 48e4 0d3c 71c9 033e c523 a93d c66e 31be
000000d0: 45a1 81bc 6d00 efbd 4bff 8a3d 9bef 9abc
000000e0: 9d07 54bd 7266 ebbb d83a ca3c 109c 5c3c
000000f0: 5553 42bc 7feb ccbc e905 023f 1c55 633c
00000100: df38 813d 05b3 ee3d 9c48 9abe 38e5 123b
00000110: d96d 09bc f984 0ebd aa93 83bc 1a34 813c
00000120: e4c6 2a3b 7ada 663b 7794 3bbe 9123 e9bd
00000130: 9f8f 61be 66de 043d fd75 533b bb2f 643d
00000140: 9570 ab3c 7bb6 113e f7a6 bbbd d7e7 973b
00000150: f295 b53c c73a 163d b17c 9abc 494a 49ba
00000160: c25c 4bbc 3991 443b 9792 44bb d9ca 123f
00000170: bf19 b83d 99b1 cf3d 7657 b13d d9ce 2abd
00000180: 4ff7 e7be c47e d2ba bc64 33bb c601 23be
00000190: d6af 04bc 2977 b63d 7341 d63b d0d0 c83b
000001a0: 6e42 b1bd d3a6 3abd 5b67 b3be 3dd3 843d
000001b0: 5e99 a5bb 6152 acbd ce02 133d 1fe0 023e
000001c0: ec73 0e3c a698 1d3d fadf bfbc dc50 f1bc
000001d0: 7e73 e53d 692a ecba ebdd ccbd 7dab 423c
000001e0: 197e 1cbd d82a d63e a9c5 5ebf 5aa5 ccbd
000001f0: 5fff 72bd 289e ebbd 37f3 d53e cd24 c73a
00000200: dcac 133b 768d 96bc 51b3 e8bc 2a22 eebc
00000210: 122f a13a 5e54 b43b 2f9f d63c 6431 c93d
00000220: 1bc1 3c3e 66e3 06bf f070 163b 7b99 e73b
00000230: 18a1 77bd 8783 903e 1099 1d3e ac24 963d
00000240: f887 67bd f31e 90bd cd66 0e3d 8ed8 7d3a
00000250: 1cfb d43d ea5e 903b 4801 6c3a eafe 25be
00000260: 36bf 1dbf 8048 17bd 310b c63c 4bdc f2bd
00000270: f623 393e 51db 30bb 2fea 403a 71c1 7b3c
00000280: c412 873b 1c1e 39bd 6175 64b9 9638 a7b9
00000290: 4389 d8bc 2fc9 8fbd d4f0 6fbd e8d7 543f
000002a0: 4b67 3b3b 7f0d 363d 7448 02be 6d1f be3e
000002b0: d954 093e 02ad dbbd 2b8f cbbc 77a1 04bc
000002c0: aa07 82bc 92da 723a ee1d 123d 52d1 b4bb
000002d0: 089f da3b f4d4 a33d 2953 d6bd 4c85 37bd
000002e0: 1e38 b23d 928d f43c 0fb6 b03e 3c71 70bb
000002f0: e7af 1cb9 3def a8bc 1ba9 db3b 2ead a3bd
00000300: 1c2d 823b 47d5 d03b 8aea 2fbc bc36 173e
00000310: 19b1 803e 2ef8 8ebe a86e 923b 4dc7 c53c
00000320: c6db 203e b3de 80be 0e5d 5cbd 0ecf 893d
00000330: 9e29 8cbd 35a6 0a3d f996 81bc 73ba 45ba
00000340: 176b 3e3d 9544 8a3c f61a 463c 1926 7bbf
00000350: 1c03 9a3f d5c4 a7bd 10f2 acb9 569f cc3d
00000360: 9798 cb3e 7cb3 f7b9 15bd 3bba fa59 013e
00000370: 0e09 ef3b b120 403d 7bd3 9fba 6cac 83bb
00000380: 275f ea3d eab4 b93b 2f77 a03e ccda 72bd
00000390: 3a26 08bb d6b4 d03d bf63 47bd 4489 85bf
000003a0: 6473 e73c b4ff 953d e2af 1f3d 40e3 da39
000003b0: 7e3a 183b 30c5 cf3a 1fab a63d 036d aa3a
000003c0: 2135 333d f439 b8be 09bd 07be 4974 7e3d
000003d0: e4e9 c93c 58b1 a33d 6b1d 943d 69d4 0c3a
000003e0: 1dbc a2ba 2445 99bd 333a b03a 53e9 523c
000003f0: ab40 6e3c ef9c 8ebc e0f4 9e3b 1c42 10be
-0.022952227 -0.1448664 -0.005191994 0.046996176 0.02954586 -0.15028901 0.1270903 0.0039888043
-0.00061071856 -0.058236472 -0.0016841143 0.031120002 0.0052226204 0.01573481 -0.014231808 -0.06946781
0.061122023 0.7342734 0.004163343 -0.0638337 -0.043973967 0.34114215 0.10376282 -0.018028727
-0.06901509 -0.023133358 0.095837004 -0.0021703336 -0.05156857 0.02734201 -0.01612984 0.05260355
0.02510013 -0.03733045 0.24726295 -0.14005178 0.60660386 -0.0057518715 -0.0013001752 -0.044019148
0.015689597 0.021870825 0.005529752 -0.0011586157 -0.08642446 -0.016373834 -0.3016064 0.060259122
0.0086603835 0.12869813 0.082587756 -0.17327413 -0.01582397 -0.11670003 0.067869745 -0.01891308
-0.051765073 -0.0071838433 0.024686262 0.013464943 -0.011860688 -0.025014637 0.5079027 0.013875272
0.063096754 0.11655239 -0.30133522 0.0022414457 -0.008388006 -0.03479478 -0.016061623 0.015771914
0.002605849 0.0035225437 -0.18318354 -0.11383737 -0.22027443 0.03243866 0.0032266371 0.05570958
0.020927707 0.14229767 -0.091627054 0.0046357918 0.022166226 0.03667715 -0.018858286 -0.0007678611
-0.012412252 0.0029993786 -0.00299946 0.5734077 0.08989286 0.10141296 0.0865926 -0.04170117
-0.4530587 -0.0016059508 -0.0027373275 -0.15918645 -0.008098563 0.08909447 0.006538564 0.006128408
-0.086552486 -0.045569252 -0.3503979 0.06485603 -0.005053683 -0.0841415 0.035891347 0.12780808
0.00869463 0.038475655 -0.02342223 -0.029457502 0.11203669 -0.001801801 -0.10003265 0.011881706
-0.038206194 0.41829562 -0.87020355 -0.09992476 -0.059325572 -0.11504775 0.4178712 0.0015193463
0.0022533452 -0.018378 -0.028405817 -0.029069025 0.0012297353 0.0055032214 0.026198952 0.09823874
0.18433039 -0.5269073 0.00229555 0.007067857 -0.060456365 0.28225347 0.1539042 0.07331213
-0.056526154 -0.07037153 0.034766007 0.0009683453 0.10399458 0.004405846 0.00090028765 -0.16210523
-0.6161989 -0.036934376 0.024175258 -0.11858424 0.18080124 -0.0026986192 0.0007359115 0.015365944
0.00412211 -0.04519473 -0.00021787501 -0.00031894882 -0.026432639 -0.070207946 -0.05857928 0.83141947
0.0028595503 0.044446465 -0.12722951 0.3713335 0.13411273 -0.10726358 -0.024848541 -0.008095137
-0.015872795 0.0009264137 0.035673074 -0.005518117 0.00667179 0.07999602 -0.1046508 -0.044804856
0.0870211 0.029852662 0.345139 -0.0036688587 -0.00014942848 -0.02062189 0.0067035086 -0.07992016
0.0039726626 0.006373081 -0.010737071 0.14766973 0.25135115 -0.2792372 0.0044687577 0.024142886
0.15708837 -0.25169906 -0.05379968 0.06728946 -0.06843875 0.033849914 -0.01581906 -0.0007542737
0.046488848 0.016878406 0.012091389 -0.9810501 1.2032199 -0.081918396 -0.00032986747 0.099913284
0.39764854 -0.00047245238 -0.00071616593 0.1263198 0.0072947806 0.046906177 -0.0012193763 -0.004018357
0.1144393 0.0056673186 0.3134093 -0.059290692 -0.0020774738 0.10190742 -0.04867911 -1.0432515
0.028253265 0.07324162 0.038986094 0.00041749515 0.0023228223 0.0015851613 0.081381075 0.0013002459
0.04375184 -0.35981715 -0.13255705 0.062122617 0.02464766 0.0799281 0.072321735 0.0005372228
-0.0012415681 -0.07483891 0.0013445079 0.012873012 0.014541785 -0.017408816 0.0048509687 -0.14087719

layers.2.bias f4 [30]
00000000: 87f2 8e3e 981e ccbe f9c0 5fbe bb89 ccbe
00000010: d0fe 16be f676 b9bf b602 c3be 1626 a63e
00000020: 5e2c d8bd d283 243e 446f c23e cc52 b33d
00000030: e50c c8be 5e4e 96be 6e4d dcbe 641b 41be
00000040: 639f 0bbe f6f2 9f3e 28dd a53e 325c fd3e
00000050: fa28 1cbf fb70 773d 82df aa3d 008f eb3d
00000060: 4f62 7cbe 82b7 443c 6475 383e 4c6c 90bc
00000070: 78fa 7d3f c52f 143e
0.2791941 -0.3986709 -0.21850957 -0.3994883 -0.14745641 -1.4489429 -0.38088006 0.32450932
-0.10555337 0.1606591 0.37975514 0.087560266 -0.39072338 -0.29356664 -0.43027824 -0.18858105
-0.1363502 0.31240052 0.3239529 0.49484402 -0.61000025 0.06041048 0.08343412 0.115018845
-0.24646877 0.012006642 0.18013531 -0.017629765 0.9921031 0.14471348

layers.4.weight f4 [30, 30]
00000000: 4caf aabd 5128 97bd db06 473e ea7b 493d
00000010: 2a5a 01bd 5338 523e 5f3f 4b3e 552e a9bd
00000020: df6a 2e3e 3d4d 633d 58c1 533c a50a 263e
00000030: f45a 2e3e 1954 e03d 2d12 943d 4868 39bd
00000040: 45e0 8bbd 230f a4be c1a7 ab3c c43d ea3d
00000050: 9e96 5a3e 6897 c3bd a6a2 2e3e 6479 d8bd
00000060: 93dc 9b3e 401a 0dbe 944f 97be b701 00b9
00000070: 8533 753d 9e34 babc b88a ed3d 76f7 18bc
00000080: 2808 02be dc17 0d3e eb27 26bc 6429 973e
00000090: 4948 f0bd 040f 85be 56bd d8bd 6551 3bbe
000000a0: 5290 13be 6590 803e aae0 eb3d 60aa 353d
000000b0: 78a7 ea3d f2a1 63be 9427 1fbd 0412 04be
000000c0: 797c c73c 2de9 18be ff9e e5bd 0d00 b0bd
000000d0: 0ea9 833e 261c a63d 1478 85be 4957 5d3d
000000e0: 146a 3ebe a456 55be 9a20 3dbc 8080 583e
000000f0: a596 823d 1e07 cdbd 6044 24bd e0ee 1abe
00000100: 024e b5be 7b7f 19bf a42a 5dbd dc6e 003f
00000110: e12b 793d 921f febb b97b 2a3e 3ef2 71be
00000120: 04f3 8cbe a62a cfbe 3d99 3abe ac50 fcbc
00000130: 08b9 57be 0ab6 39be bbc4 a63e 7a35 4c3e
00000140: b9d5 acbe 245d 0d3f 60a3 1e3e 22a1 1c3e
00000150: c14e 153e b4c7 7cbe 9336 a83e f760 71bd
00000160: e188 fc3e b249 5bbe ae35 2db9 ac0d 103e
00000170: 6110 32be e46e 18be eba0 113e 32d5 813d
00000180: ad7d c93c e1e7 a9be 4f00 d73d 8ae5 503d
00000190: b934 32bc c464 b4bd 02ca a63c 2c20 963d
000001a0: 2d30 8d3e c524 67be 7b7a 893d 4a3f c8bd
000001b0: bb09 8b3c eadf 4bbd 405b b1be 4283 d8bd
000001c0: 5125 453d 250f e23d cb67 17bd 019a 623d
000001d0: ea64 33be 1dbb 9f3d 7193 2dbd b6a4 86be
000001e0: f2c9 5cbe effe 163e c3f4 d83c 697b 60bd
000001f0: a98a 61be 3e55 a7bc c079 b73d 6dfc c93e
00000200: d0a0 41bd 25a1 5dbe 385a 85bc 1e39 663d
00000210: 365d dc3d 2b62 87be e266 2fbe 08bf fa3c
00000220: 62b6 7cbe 9321 0a3e ae54 273e c4ff 833e
00000230: e456 4bbd acfb 1d3e a423 64be ca57 e23d
00000240: 7cb2 c6bd 073d 483d 74f2 3f3e ec3e e03d
00000250: 0a79 963e cb16 613d 382d 9abc 554c 9d3d
00000260: b518 223e 2104 9abe 51e7 c0bd 8a87 21be
00000270: 670f 08bd 7eb5 c63e 190b c93d 5c29 c6bd
00000280: 6cf8 ae3d 5104 5dbe 19ed b03e b5e8 d8be
00000290: 9681 943c 910d 2abe f30f 83bd e03b 193b
000002a0: a4e0 7f3d 4b57 aa3e 092f 3c3e 7f5c 6c3e
000002b0: 566f 03bd 9fb9 0fbe 629b f33c 0135 ecbd
000002c0: f1b8 42bd d380 9f3e 0717 973e 0a89 63bc
000002d0: 882f 663e 914c 9a3d d2f7 c23c c80c 473d
000002e0: 6498 afbd 6913 88be 6cba a03d bf37 063f
000002f0: dfef 18bb c825 a3be 9516 0ebe 7e2e 393d
00000300: 3fc4 8bbe 0e11 12be aaa3 83be 9f9d c9bd
00000310: bb5d 4b3d 7679 71bd 1798 ba3e 0b16 1f3c
00000320: c4e9 6b3e c484 3e3d 71ef 0d3d b5b7 06bd
00000330: 27aa a8bd 0de5 04bc 30d8 d73b 024f 6cbe
00000340: 5b70 013e 57dd 393e 002b e13d 450f eb3d
00000350: 4d7b 0e3e 16dd 2abe fa1d 0abe 081d 3abe
00000360: c646 fcbd 9402 c03d 90d2 253e 1a73 2f3d
00000370: 5d02 6abe ff8a 8e3e b17e 86be 4b61 a6bd
00000380: 107b 0fbe 0bf5 afbd da8f b63d f740 bbbd
00000390: 6d4a 65bd 2c77 123e 823d a7be ce75 d83e
000003a0: 2dcd b8bd d52a d53d 286d 703e 5a10 52be
000003b0: 0671 8ebc f94f 263c 468d a13d 83e1 abbd
000003c0: a6db 823e 839f df3d bc85 303e 076b 79be
000003d0: 6c50 a0bd e1b0 07bf df5a 323d 3093 2fbe
000003e0: 6b8a d13d 978d 0dbe ded5 9dbd 5151 62be
000003f0: 2c13 123e b6df 26bd e04f 2c3e 6c1f f73d
-0.083342165 -0.073807366 0.19436209 0.04919044 -0.031580128 0.20529298 0.19848393 -0.0826079
0.17032956 0.055493582 0.012924515 0.16214998 0.17026883 0.1095354 0.07230029 -0.045265466
-0.068298854 -0.32042798 0.020954015 0.11437562 0.21346518 -0.09550363 0.17054233 -0.105700284
0.30441722 -0.13779545 -0.295529 -0.0001220767 0.059863586 -0.022730168 0.11598724 -0.009336343
-0.12698424 0.13778633 -0.010141353 0.29523766 -0.11732537 -0.2598802 -0.10582988 -0.18292768
-0.14410523 0.25110164 0.11517461 0.044351935 0.114577234 -0.22229746 -0.038856104 -0.12897497
0.024351345 -0.149327 -0.11211967 -0.0859376 0.25714916 0.08110838 -0.26068175 0.05403832
-0.18595153 -0.20833832 -0.011543417 0.21142769 0.063763894 -0.10011123 -0.04010427 -0.15130186
-0.35411078 -0.59960145 -0.053995743 0.5016916 0.06083286 -0.0077552283 0.16648759 -0.23627564
-0.27529156 -0.40462226 -0.18222518 -0.030800186 -0.21066678 -0.18135849 0.32571968 0.19942275
-0.33756807 0.55220246 0.1549201 0.15295842 0.14580823 -0.24685556 0.32854137 -0.058930364
0.4932318 -0.21414831 -0.00016518563 0.14067715 -0.1738906 -0.14886051 0.14221542 0.06339492
0.02459606 -0.33184722 0.10498106 0.051000156 -0.010876828 -0.08808282 0.020359997 0.07330355
0.27575818 -0.2257262 0.067128144 -0.097776964 0.016972413 -0.049774088 -0.3463993 -0.105719104
0.04813129 0.11038045 -0.03696422 0.05532265 -0.17518964 0.07799361 -0.04237694 -0.2629754
-0.21561411 0.14745687 0.026483899 -0.054805193 -0.22025551 -0.020426389 0.08958769 0.39450398
-0.047272503 -0.21643503 -0.016278371 0.056206815 0.10759966 -0.26442084 -0.1712909 0.030608669
-0.24678949 0.1348937 0.16340896 0.2578107 -0.049643412 0.15428036 -0.22279221 0.11051901
-0.09702012 0.048886325 0.18744832 0.109495014 0.2938922 0.054953378 -0.01882039 0.07680575
0.15829737 -0.30081275 -0.0941912 -0.1577436 -0.033217814 0.38810343 0.0981657 -0.096758574
0.085434765 -0.21583678 0.3455589 -0.4236504 0.018128198 -0.16606738 -0.063995264 0.0023381636
0.062470093 0.33269724 0.18377317 0.2308216 -0.0320886 -0.14035653 0.029737178 -0.11533547
-0.047539655 0.31152973 0.29509756 -0.013887653 0.22479069 0.07534135 0.02379981 0.048596174
-0.08573988 -0.2657731 0.07848057 0.5242881 -0.0023336334 -0.31864762 -0.13875802 0.045210354
-0.2729816 -0.14264318 -0.25710803 -0.09844517 0.049649935 -0.058953725 0.3644416 0.009709845
0.23038393 0.046513334 0.034652177 -0.03289004 -0.08235579 -0.008111251 0.006587051 -0.23077014
0.12640516 0.1815084 0.1099453 0.11477522 0.13914223 -0.166859 -0.13487998 -0.18175137
-0.123181865 0.09375492 0.16193604 0.04283438 -0.22852464 0.2784042 -0.26268533 -0.08124026
-0.14011788 -0.0859166 0.08914156 -0.091432504 -0.05597918 0.14303273 -0.32664114 0.42277378
-0.09023509 0.1040856 0.2347914 -0.2051405 -0.017387878 0.010150903 0.07888274 -0.08392622
0.25558203 0.10919096 0.17238516 -0.24357234 -0.07827839 -0.5300427 0.043543693 -0.17145991
0.10231479 -0.13823543 -0.077068076 -0.22101332 0.14265126 -0.04074069 0.16827345 0.1206654

layers.4.bias f4 [30]
00000000: ca7f 23be cb54 1b3e bd33 b53e 59be 55be
00000010: 2b7f eb3c 1cef 853d 921b 1e3f c6ca 0b3f
00000020: 8882 71bf f9cb a83e fe99 8a3e f463 e8bd
00000030: ab3d 12bf 28d0 503e d548 b53d 13d3 5dbe
00000040: 1961 84be 5142 c0be a0ce 8bbe c4f8 e6be
00000050: 0858 0bbf 8bee b8bd e891 bd3d 1bde d5be
00000060: 0c34 74be 84fa 5bbf 75d3 123f f357 fe3c
00000070: 915f 433d c6d7 8cbe
-0.15966716 0.15169065 0.35391036 -0.20873393 0.028747162 0.06539747 0.6176082 0.5460628
-0.943398 0.3296812 0.27070612 -0.113471895 -0.5712535 0.20391905 0.08851782 -0.2166255
-0.2585533 -0.37550595 -0.2730608 -0.45111668 -0.544312 -0.090298735 0.09256345 -0.41771016
-0.2384798 -0.8592913 0.5735391 0.031047797 0.04769856 -0.27508372

layers.6.weight f4 [30, 30]
00000000: 9478 05be 6261 60bd 7d91 c8bc b3bf 533c
00000010: dca3 e93d 9020 12bd ae84 d03c 646d 87be
00000020: ce05 313e 745c 133d 8cdc 6cbe 38ec d8bc
00000030: fb9b 0e3e fa27 303d c980 e33c dc34 163e
00000040: bc78 f63a b67a 0e3d c05a 103d 98e3 903e
00000050: 99e4 473e 3878 d7bc 92e2 77bd c3b3 cf3d
00000060: bdef a73d 27c0 923d 0d39 5bbd 5623 103e
00000070: 27c2 013e 69fc 3e3e dda8 bcbd 081c a13d
00000080: b3db 59bd 6399 3cbd cc80 2a3e d0b3 1e3e
00000090: 7251 783d f67a a13d 3db1 a6bc 5bd6 51bc
000000a0: 53ff 0cbd 5063 edbe 67aa cd3d bf50 33be
000000b0: 8efd f83d 6a9e 603e cacc fc3d 34b7 82be
000000c0: a6d9 24be 631c 373e bbdd a7bd e94c 163e
000000d0: 6a8f 8d3c a360 e9ba df7b ebbe 54cf 123e
000000e0: 4dd9 f03e 571a 8c3d c3a5 a03e d38c c6be
000000f0: abfd 14be 6281 853c 461b ad3e 93cf f93d
00000100: 9ed4 163e 9d28 f83d dc04 afbc 8ece a23c
00000110: dde9 49be 347c f8bd fa09 f9bc 7dc4 d33d
00000120: e78d 8b3b 4323 28bd 8baa f2bd 98d0 173e
00000130: a9b4 803e 44ce 623e efdd 8fbd 252b b43c
00000140: 445a a33d 4d41 ddbd a5b3 aebd 19b7 bc3c
00000150: 20a8 153c 5e49 373e abf7 b5be 65c1 9dbd
00000160: 0ca2 f9bd fc49 a4bc f33e 8fbc 1128 20be
00000170: 683d 72be e870 d9bb 9b07 663e ada2 063e
00000180: 3488 fe3e 25c6 0e3e 31ba dbbc 39cc 3e3d
00000190: bc73 e03d f4fb a1be 6f6e d0be c4ff 4d3e
000001a0: 220f 1abe 79e1 74bd 00ad 6abe 3d5c 493e
000001b0: d429 4bbe 85e2 92be 3a94 b6be ca26 84be
000001c0: 24f6 843e 2b9a 81be d688 8d3b 5517 a2be
000001d0: fdec d83d bc32 88bd a32d c5be 7790 af3d
000001e0: e8f0 17be 5e7e 0f3e b589 aabe 5997 a2bd
000001f0: 68f2 953e 7d4f 853e 48f6 003f 175f 0dbe
00000200: 3008 e33c 846c 983e 1f29 6e3d 2bab 523d
00000210: 4f31 903d bfa9 8f3e e5d0 71bd 0b1e 2cbe
00000220: b64a 1dbe b512 6cbe 17e4 623e 6dfe 41be
00000230: a347 62be 057b 7b3d c4ca 223d 4ff7 c6bd
00000240: d6e3 48be 7bc1 65be a35c 123f 7d35 083e
00000250: 5a53 10be 3bae c5be 8640 0bbe e42c 88bd
00000260: 6754 6c3e c647 143e ec67 163e 26ab 203e
00000270: 093e 8cbd 8969 683d f83b 203f 9c76 46bc
00000280: f35d cbbe 445b b2bd 90cd 46be 9423 06be
00000290: 10e7 ce3d 5569 a6bd ac04 913e bac3 733d
000002a0: 15e1 d2be 6950 38bd d255 68bc 748c f13e
000002b0: f778 253c 93a2 203e ed6f 81be 3e90 42be
000002c0: db34 ae3d 347d 863e 25a2 82be 6d10 eebe
000002d0: ebbc 1e3e 9b23 443e 6699 6d3e da06 8c3d
000002e0: 5599 7cbe d705 bcbe 3cf7 1bbe 704e f73d
000002f0: 8d5b 063e 8829 c2bd b90b 8cbe 93f1 9d39
00000300: 1dea b83e 8a7b 0dbe c7ae bd3d 1b28 573e
00000310: b339 133e c422 3fbe 26bf 35be e464 823e
00000320: b54d 9a3e 9f83 073d e9e5 3a3e 9adf 62be
00000330: 8cf5 64be c3f5 8b3e 3643 903d d1ef 2f3e
00000340: db0a 0fbc c7f9 60bd 9d45 13be 3541 2e3c
00000350: cc7d 48be 5a20 0ebe eeef 4c3e 3d34 fd3d
00000360: 6c3a c43d e589 5bbc 2b70 3fbe 7b69 b43d
00000370: f120 ae3e 6b89 4fbe 693b 293e a076 b1bc
00000380: 9eb2 a3be d8c0 043e db3c 0abe c832 ccbd
00000390: 830d ddbd e648 12be e0f3 173d cc4a bdbd
000003a0: 03c1 da3d 6b29 2ebe ddd7 cd3c c1bf 8e3d
000003b0: d429 4c3e 86c5 f9bd 408f a5be bd70 46be
000003c0: b5cb 2e3e aeda 9fbe c50a b5bc 09b0 133d
000003d0: ab87 8a3d ff04 a73d ccde 063d c0fd 873d
000003e0: 6513 523e 632c 57be 5317 83be 86dc 42bd
000003f0: faef 89bd 15b0 25bd 06be 56be 3618 af3e
-0.13034278 -0.05478037 -0.024483437 0.012924123 0.11408207 -0.035675585 0.025453892 -0.26450646
0.1728737 0.035976842 -0.23131007 -0.026479825 0.1392669 0.043006875 0.02777137 0.14668602
0.0018804292 0.034784995 0.035242796 0.2829864 0.19520797 -0.026302442 -0.06051881 0.10141709
0.08200023 0.071655564 -0.053521205 0.1407598 0.1267172 0.18650974 -0.092118956 0.07866675
-0.053188037 -0.04604472 0.16650695 0.1549828 0.060624547 0.07884781 -0.020348186 -0.012807454
-0.034423184 -0.46364832 0.10042267 -0.17511271 0.12157737 0.2193543 0.12343748 -0.25530398
-0.16098651 0.17881922 -0.081965886 0.14677776 0.0172803 -0.0017805289 -0.45992944 0.14336902
0.47040787 0.068409614 0.31376466 -0.38779315 -0.14549892 0.016297046 0.3380987 0.12197795
0.14729545 0.12117121 -0.021364622 0.019873884 -0.19718118 -0.12133065 -0.030400265 0.103402115
0.0042588594 -0.041049253 -0.11848935 0.14825666 0.25137833 0.22148997 -0.07024752 0.02199323
0.07976201 -0.10803471 -0.08530358 0.023036527 0.009134322 0.17899081 -0.35540518 -0.07702903
-0.12189111 -0.02005481 -0.017486071 -0.15640284 -0.23656237 -0.006635774 0.22463839 0.13147993
0.4971329 0.13942774 -0.026822181 0.04658148 0.109595746 -0.31637537 -0.40709254 0.20117098
-0.15044835 -0.05978534 -0.22917557 0.19664092 -0.19840175 -0.28688446 -0.35659963 -0.25810844
0.2596904 -0.25312933 0.0043192906 -0.31658426 0.10592077 -0.06650302 -0.3851138 0.08572476
-0.14837992 0.14013049 -0.33308187 -0.079390235 0.29286504 0.26037207 0.50375795 -0.13805805
0.027713865 0.2977029 0.058144685 0.05143277 0.07040655 0.28059193 -0.059037108 -0.16808335
-0.15360531 -0.23054011 0.22157322 -0.18944712 -0.2209764 0.061396617 0.039744154 -0.09715139
-0.19618163 -0.22437088 0.571726 0.13301654 -0.14094296 -0.3860949 -0.13598832 -0.06649187
0.23079072 0.14480504 0.1468808 0.15690288 -0.0684777 0.05674127 0.62591505 -0.01211324
-0.39720115 -0.08708814 -0.19414353 -0.1309951 0.101026654 -0.08125559 0.28323877 0.05951283
-0.4118735 -0.04499856 -0.014180617 0.4717747 0.010099641 0.15687017 -0.25280705 -0.19000337
0.08506175 0.26267397 -0.2551433 -0.46496907 0.15501754 0.19154207 0.23203048 0.06837244
-0.24667867 -0.36723205 -0.15231031 0.12075508 0.13120861 -0.09480578 -0.27352694 0.0003012536
0.36116114 -0.13816658 0.09261852 0.21011393 0.1437748 -0.18665606 -0.17748699 0.25467598
0.3013741 0.033084508 0.18251766 -0.2215561 -0.22359294 0.2733594 0.070440695 0.17181326
-0.0087306155 -0.054925706 -0.14382024 0.010635664 -0.19579238 -0.13879529 0.20013401 0.12363479
0.095814556 -0.013399576 -0.18695132 0.08809181 0.34009507 -0.20267265 0.1652657 -0.02166301
-0.31972212 0.12964189 -0.13499777 -0.09970623 -0.10793593 -0.14285621 0.03709781 -0.09242782
0.10681345 -0.17007987 0.025127346 0.06970168 0.19937831 -0.12195878 -0.32335854 -0.19378944
0.17069896 -0.31221527 -0.022099862 0.036056552 0.06764158 0.0815525 0.03292732 0.06640196
0.20515211 -0.21013026 -0.25603732 -0.04757359 -0.06735225 -0.040451128 -0.20970926 0.3419816

layers.6.bias f4 [30]
00000000: 2446 2abe 5f99 583e e530 b8bd e821 f7bc
00000010: a60b 803e 4224 a63d 6410 47bd 79d1 283d
00000020: e927 92ba 8421 18bf b453 d63d b394 293e
00000030: 8311 b5be 47f4 033d 2662 20be 15bd a53d
00000040: dd94 843e 50bd b8ba 7299 d73e 19d9 71be
00000050: 1de1 9c3e 5933 f8bd 23ce 403e 6de2 683e
00000060: 304f 923e 6c1d b2be fabf 03bc 936a dcbe
00000070: ba28 82be e478 6fbe
-0.16628319 0.21152256 -0.08993701 -0.030167535 0.25008887 0.081123844 -0.048599616 0.041215394
-0.001115081 -0.5942614 0.10465184 0.1656063 -0.35364923 0.032215383 -0.1566244 0.08092705
0.25894824 -0.0014094505 0.42109257 -0.23617972 0.30640498 -0.12119169 0.18828635 0.22742625
0.2857604 -0.34788072 -0.008041376 -0.4305006 -0.25421697 -0.2338596

layers.8.weight f4 [30, 30]
00000000: 8d53 08bc 5368 0bbe db52 2d3e 7cd6 95be
00000010: 76c3 533d 7eca 773d bd16 3fbd 4802 653e
00000020: 3ef3 c0bd c7bf c8bc 4539 9c3d 4dc5 bfbc
00000030: 3c8e e83d d116 4ebc 2c6a 0dbe 1e5f ffbd
00000040: a21b 0f3c f25a e93d 840d 4b3c 7ab1 83bd
00000050: 612e 273c 5642 e5bd 3fac c33d e263 05bd
00000060: f021 98bd eec8 a0bd d03d c83d 1999 15bd
00000070: 6133 053e 1742 84bc 1895 05be 1a18 c83a
00000080: ef65 333e c069 e63d 2b6c 47be 43a0 52be
00000090: c122 323e de3e ea3d a042 5bbd 9d64 5f3e
000000a0: 11d1 08be 42f2 68ba e872 2b3d c167 76be
000000b0: 871f 523e 30ef d63d df5a 99bd f19b 47bd
000000c0: 9c67 69be a2ea 4fbe a85f 363e 0be0 05be
000000d0: ec03 eb3d 8cfd 21be 3d6c 8a3d 7239 533e
000000e0: aa1a 333e 15db 64bd 3437 203e 8614 e8bd
000000f0: 79bc 86bc f76b 8c3e 9041 95be 180a 89bd
00000100: 95c8 a0bd 1e3a 57be 3489 6c3e f6fc 313e
00000110: 9358 3f3c aff5 883e 78b9 493e f8e0 603e
00000120: 72af 29be d821 97bd 68de 89be 9325 913d
00000130: 2270 503e 8846 14be b732 d63d 21f1 053d
00000140: 5aff 313e fcb5 e7bc 3702 803e 75ed b3bd
00000150: fae0 203e bc17 e0bd 49f9 e53d 6c2a 54be
00000160: adb2 a2bd 6e49 1abe b4fc 98bd 42d6 36be
00000170: a12e 1bbc 0a20 723d 90ac d13d 89d4 00bf
00000180: faa1 993d 0312 6b3e 0858 42bd 2814 883e
00000190: 6e75 ec3e ef8b 5a3e 3c62 0e3c 99ac b63e
000001a0: 43a3 10bf 6550 523e e063 b83e 055b 2fbd
000001b0: 21fe 123e d82c 783e a596 ecbc efc7 adbd
000001c0: 0d93 523e 4072 673d 8e34 5c3d 092b 5bbe
000001d0: a72a 033f b3b1 4ebe ff4b 203e 0861 b5ba
000001e0: 7f7d 983d 5c8f 37bd 9377 4e3d 0391 f7bd
000001f0: 0cda 44bc 6691 ef3d 6847 723b e292 46be
00000200: 960a 713d 47f5 74be 67ba 59bd 7623 23be
00000210: a5b5 313e 9bb1 b13d de71 92be 0912 73bd
00000220: f66a 6e3e cf38 743e dc33 d9bd b8a4 08be
00000230: d6c9 213e 3ef9 28be f636 fc3d 8dd9 763d
00000240: e140 1e3e 4f71 923b 3639 aa3e cefd 1a3e
00000250: 2644 b6bd eb62 d53d 3aa5 913d 81e5 e23d
00000260: ba45 61bd 9ba2 38be 08e4 8ebd f832 ee3b
00000270: a2a5 af3e 952c 43be 691d a43d a5b5 583e
00000280: 79f9 933d 8658 48bd 3b88 f93c 20fe 7a3e
00000290: 0059 82be 42a6 253d 41a8 8b3e 1306 a9be
000002a0: 0967 df3c ed31 1fbe eb64 d23d 6c99 fa3c
000002b0: 92a9 a43e 5b55 143e 256c 39bd e998 623d
000002c0: 60fb 1abd 1675 39be 5549 ebbd 6888 143e
000002d0: 75ca 9abd 452f 193e 2f87 953e 870b 22bd
000002e0: 1e25 3bbe 81fe 10be 3daf 953d b9ee d63d
000002f0: 4bb7 ab3c 43d1 093f 5363 3abe 2d21 663d
00000300: bf69 fd3c 288e 71be c428 4d3e 8fa6 86bc
00000310: d749 37be c6cc 31bd d71b 973c 09f2 3c3e
00000320: 2f19 9ebe 5cff 0fbe 11ad c2bd a1c3 4f3b
00000330: edfb 173c 34bf fbbc 2d64 47be 02b7 50be
00000340: fd84 b83e f93d a9be 6545 a03e b684 27bd
00000350: 08eb b3bc 7bf8 4ebd b7d7 20bd ff36 8dbc
00000360: a462 8a3d d0bc 4ebe 57f7 133e f90e 0bbe
00000370: 03e7 8dbe a20d 24bd 93f7 163d f5f2 8ebe
00000380: 484e 863e 7e16 cd3d ae65 45be 5105 14be
00000390: fdbb f8bd a754 963d 8846 9bbe 26da 273e
000003a0: 20f4 bb3d 7a9c 2d3d 59d5 42bd 38bc 9ebd
000003b0: e792 74be c19b de3e 97d5 17be 79b9 87be
000003c0: 2148 a3bd c983 2a3d c35d 01be 7a8a 07be
000003d0: bb67 efbd 274d 10be 5653 623d 7423 c53d
000003e0: dc5e 54be be25 38be fabd 103d ba19 a4bc
000003f0: 181c f8bd 4adb a83d 2eb7 ccbc eab9 bf3d
-0.008320701 -0.13614015 0.16926138 -0.292652 0.051700078 0.060495846 -0.046652544 0.22364151
-0.09421395 -0.024505509 0.07628111 -0.02340951 0.11355254 -0.012578682 -0.13810033 -0.12469314
0.0087346155 0.113942996 0.012393359 -0.06430335 0.010203929 -0.11194293 0.09554338 -0.03256596
-0.07428348 -0.07850824 0.09777415 -0.03652296 0.13007881 -0.016144795 -0.13045156 0.0015265972
0.17519353 0.11250639 -0.19474857 -0.20568947 0.1739607 0.11437772 -0.053530335 0.21815725
-0.13361003 -0.0008886197 0.04185763 -0.24063016 0.20519839 0.1049484 -0.074880354 -0.0487327
-0.2279343 -0.20304349 0.17809927 -0.13073747 0.114753574 -0.15819377 0.06758926 0.20627382
0.1749064 -0.055872995 0.15646058 -0.113320395 -0.016447293 0.2742612 -0.29151583 -0.06691378
-0.07850758 -0.21018264 0.23099214 0.17381653 0.011678833 0.26749942 0.19699657 0.21960819
-0.16570833 -0.07379502 -0.26927495 0.07087245 0.20355275 -0.1448003 0.10458892 0.03270066
0.17382565 -0.02828502 0.2500169 -0.08785526 0.15710822 -0.10942027 0.11229188 -0.20719308
-0.07944236 -0.15067074 -0.07470074 -0.1785517 -0.009471566 0.059112586 0.10237992 -0.503243
0.07501598 0.2295609 -0.047447234 0.26577878 0.46183342 0.21342443 0.008690413 0.35678557
-0.5649912 0.2053848 0.360137 -0.042811412 0.14354755 0.24235857 -0.028880427 -0.084854
0.20563908 0.05650544 0.053761058 -0.21403135 0.5123696 -0.20184974 0.1565399 -0.0013838122
0.074458115 -0.044814453 0.050407004 -0.12088206 -0.012014877 0.116976544 0.003696883 -0.19391969
0.058847986 -0.23921691 -0.053156283 -0.15931496 0.17354448 0.08676454 -0.286025 -0.05934337
0.2328299 0.23849796 -0.106055945 -0.13344085 0.1579965 -0.16501328 0.123151705 0.060266066
0.15454437 0.004469074 0.33246773 0.15135881 -0.08899717 0.10419258 0.071115926 0.11078931
-0.054998137 -0.18030779 -0.06977087 0.0072692595 0.34306055 -0.19059975 0.08013422 0.21163042
0.072253175 -0.048912548 0.030460468 0.24511003 -0.25458527 0.04044176 0.27276805 -0.33012447
0.02727081 -0.15546389 0.10273155 0.030590735 0.32160622 0.14485686 -0.04526915 0.055321608
-0.037837386 -0.18111071 -0.11488596 0.1450516 -0.07558147 0.14959438 0.292047 -0.039561775
-0.18275878 -0.14159586 0.07308815 0.104947515 0.020961424 0.53834933 -0.18201952 0.056183983
0.030934213 -0.23589385 0.20035082 -0.016436843 -0.17899261 -0.043408178 0.018445892 0.18451704
-0.3087859 -0.14062256 -0.09505666 0.0031702297 0.009276372 -0.030730821 -0.19471808 -0.20382312
0.36038962 -0.33055094 0.31302944 -0.040898047 -0.021962658 -0.05052994 -0.03926822 -0.017238138
0.067570955 -0.20189214 0.14449821 -0.1357993 -0.2771531 -0.040052064 0.0368572 -0.27919737
0.262316 0.10014056 -0.19277069 -0.14455153 -0.12145231 0.07340365 -0.3032725 0.16391811
0.091774225 0.042385556 -0.047566745 -0.07750744 -0.23884164 0.43478206 -0.14827572 -0.26508692
-0.07972742 0.041629586 -0.12633424 -0.13236418 -0.11689707 -0.14091931 0.055255257 0.09625903
-0.20739311 -0.17983148 0.035337426 -0.020031799 -0.121147335 0.08244951 -0.02498969 0.09361632

layers.8.bias f4 [30]
00000000: 53e1 003d 382e 12be e1b6 5dbb 043a 17be
00000010: acab 733e 6581 3f3e 7e4c 51be 8891 7bbe
00000020: 5b46 493d c47d 83be 194e 293b ab37 053d
00000030: 2737 d23d 389a 463e 7361 47bd 2971 d4bc
00000040: 0490 6fbe fb36 1e3e 281d 5abd 02d3 5b3c
00000050: fb79 b63d 6ab2 e33e cd30 71be 46d8 7a3e
00000060: 13be 4bbe 4471 d23d 4e0a 623e ee43 efbd
00000070: 35fd f4bc e409 4dbe
0.031464886 -0.14275444 -0.0033830928 -0.14768225 0.23795956 0.18701704 -0.20439336 -0.24567235
0.04913936 -0.2568189 0.0025833903 0.032523792 0.10264426 0.19394767 -0.04867692 -0.025932865
-0.23394781 0.15450661 -0.05325046 0.013417007 0.08909985 0.44472057 -0.23553772 0.24496564
-0.19896726 0.1027551 0.22074243 -0.116828784 -0.029905895 -0.20023304

layers.10.weight f4 [3, 30]
00000000: 24c4 71bd b012 85be f4c9 68be b432 983f
00000010: 39ed 58be 398b e3bc 1b80 543e 9e6f 513e
00000020: f1a9 92be 84a9 433e 1b02 38bd d4ed 07be
00000030: 2606 2dbd 161a 60be 2226 babe 6aca 4fbd
00000040: dc56 af3e 217d c3be 1f0e 263f 94ab 28be
00000050: 3ebc debc 9dc4 00bf 10bd 34bf a186 c73e
00000060: 6656 c03e 9f0c 3e3f d263 9c3d 426f ebbe
00000070: 3039 893d b0ff 13be 2845 09be d9af 403e
00000080: ac8e b43e 2f6a 773e 31e3 23bf a5ae 463c
00000090: 1f7e 113f a5e1 4abe 9d06 39be 8267 bdbd
000000a0: 4ccb 54be cb04 063f 1f26 243f eb3c 9cbe
000000b0: 8291 afbe 9d90 ecbd 75c9 013f 08dc 9d3d
000000c0: 5903 cb3e 93e3 09be eeb1 3f3e c840 a53c
000000d0: 313b 6b3e cfce d73d 4128 19be 097b acbe
000000e0: f598 2dbf 359e d63e b6be 2cbc 6252 02bd
000000f0: 5dc6 b2bd 2ca4 b23e 9f0d 5d3e 851d bd3e
00000100: a494 3cbb 5c16 cf3e 434e e73e 9b5f f6be
00000110: ba9b 123e 4005 483d d98e a3bd 1f2d 03be
00000120: f135 22bc a64c 37bc f37f 923d d231 0f3e
00000130: 5b3c c5bd 69f4 1e3d 1b22 113d 5b8e a6bd
00000140: 20ec b6bd e865 183f 6a0e 1a3e ab46 1abf
00000150: 420e 033d c43c 653d c975 de3d 5968 c43d
00000160: 3f81 7ebe cf8b 163f
-0.059024945 -0.2599082 -0.22733289 1.1890473 -0.21184243 -0.027776347 0.20751993 0.20452735
-0.2864528 0.19107634 -0.044923883 -0.13274318 -0.04224219 -0.21884951 -0.36357218 -0.050730146
0.34245956 -0.38181403 0.648653 -0.16471702 -0.02718937 -0.5030001 -0.70600986 0.389699
0.37565917 0.7423801 0.07636227 -0.4598332 0.06700361 -0.14453006 -0.13405287 0.1881708
0.352651 0.241616 -0.6401854 0.012126599 0.5683307 -0.19812639 -0.18068929 -0.09248258
-0.20780677 0.52351063 0.6412067 -0.30515227 -0.342907 -0.1155102 0.50698024 0.07707983
0.39650992 -0.13465719 0.18720219 0.020172492 0.22971798 0.105374925 -0.14956762 -0.33687618
-0.6781152 0.41917577 -0.010543516 -0.031816848 -0.08729241 0.34890878 0.21587227 0.36936584
-0.002877512 0.40446746 0.45176896 -0.48119816 0.14317217 0.04883313 -0.079862304 -0.12810181
-0.009900556 -0.011187708 0.071533106 0.13983849 -0.096306525 0.038807306 0.035432916 -0.08132621
-0.08931756 0.59530497 0.15044561 -0.6026408 0.03199602 0.055966154 0.108623095 0.09590215
-0.24853991 0.5880708

layers.10.bias f4 [3]
00000000: 2948 90bc c28b 3bbe 9858 003e
-0.017612534 -0.18315032 0.12533796
