BURGERS/EPOCHS_100_Nu_25%Nf/1000epochs.pth (torch, 15138 bytes, 9 tensors)

layers.0.weight f4 [30, 2]
0	0x3e1f7fd6	0.1557611
1	0xbe09eb24	-0.13468605
2	0xbef97151	-0.48719266
3	0x3f25ef6e	0.64818466
4	0xbec9d86c	-0.3942293
5	0xbe00fead	-0.12597151
6	0xbf0bf88a	-0.54676116
7	0x3ea5d0d7	0.32385895
8	0xbe2aa087	-0.16662799
9	0xbe252d00	-0.16130447
10	0x3f550946	0.83217275
11	0x3ed3bcd7	0.4135501
12	0xbf50b5ea	-0.8152758
13	0xbea42986	-0.3206293
14	0x3f5fcf6b	0.8742587
15	0xbe67d455	-0.22639592
16	0xbe9ca55c	-0.3059491
17	0x3eba7c4a	0.3642295
18	0x3eb7125b	0.35756192
19	0x3ea30019	0.31836012
20	0xbdea81e5	-0.11450557
21	0xbe1a7dc5	-0.1508704
22	0xbe3fa7ea	-0.18716398
23	0x3dbd3978	0.09239477
24	0x3eb84973	0.35993537
25	0xbeb04693	-0.34428844
26	0xbef86d78	-0.48521018
27	0x3f01a3f5	0.50640804
28	0x3e494267	0.19654237
29	0xbe09ab2e	-0.13444206
30	0x3f06161c	0.52377486
31	0xbdad01e8	-0.08447629
32	0x3e98ae3b	0.29820427
33	0xbe945045	-0.2896749
34	0x3e984cfc	0.29746234
35	0x3f11a5db	0.568937
36	0x3ece11f0	0.4024806
37	0x3e20a4fb	0.15687935
38	0x3e6b4317	0.22974811
39	0x3e1e33bc	0.15449423
40	0x3df0f4d4	0.11765447
41	0x3ee6ce43	0.4507924
42	0x3f91cf1d	1.1391331
43	0x3e77ce7b	0.2419986
44	0x3e47cb23	0.19511084
45	0x3e567f1b	0.20946924
46	0x3f08b45d	0.5340021
47	0xbec0ca01	-0.37654117
48	0xbf111a17	-0.56680435
49	0xbeb3c05a	-0.3510769
50	0xbe7683d4	-0.24073726
51	0x3e1dd7d4	0.15414363
52	0x3efd3665	0.49455562
53	0x3db4160b	0.08793267
54	0xbe0de3e7	-0.13856469
55	0xbe6ffeb5	-0.23437007
56	0xbf19cfe6	-0.6008285
57	0xbef7d130	-0.48401785
58	0xbebe33f3	-0.3714901
59	0x3e894312	0.26808983

layers.0.bias f4 [30]
0	0x3e63603b	0.22204678
1	0x3ef3e7ad	0.47637692
2	0xbf779379	-0.967094
3	0x3f2a7e2d	0.6659878
4	0x3e0d90e4	0.13824803
5	0x3e62b54c	0.22139472
6	0x3e5790b9	0.21051301
7	0xbeb01f9d	-0.3439912
8	0xbe70727a	-0.2348117
9	0x3e1fea04	0.15616614
10	0x3e689540	0.22713184
11	0x3e9f7994	0.31147444
12	0x3e468277	0.19385706
13	0xbeed9ceb	-0.4640878
14	0xbf019bed	-0.5062855
15	0x3f012a48	0.5045514
16	0x3f260407	0.64849895
17	0x3e9e83e0	0.30959988
18	0xbf08eb1b	-0.5348374
19	0xbf422e9f	-0.7585239
20	0x3ef9a131	0.48755792
21	0x3e8d9023	0.2764903
22	0x3e6df069	0.2323624
23	0xbecf0c74	-0.40439188
24	0x3f390c09	0.7228399
25	0x3f75ec2b	0.9606349
26	0xbf0a323f	-0.5398292
27	0xbec86425	-0.39138904
28	0x3efa3b5c	0.48873413
29	0xbf43b69b	-0.7645051

layers.2.weight f4 [30, 30]
0	0xbd304d68	-0.04304257
1	0xbcdf8071	-0.027282925
2	0xbef7061b	-0.48246846
3	0xbcc91303	-0.024545198
4	0xbd483181	-0.048875336
5	0xbf0610d3	-0.5236942
6	0x3dab446f	0.08362662
7	0x3d43cb7b	0.047801476
8	0xbde08865	-0.10963515
9	0xbe45cf41	-0.19317342
10	0xbdaa8af5	-0.08327285
11	0x3bc79a6c	0.0060914066
12	0x3da7c6fa	0.08192249
13	0x3d2388b4	0.039925292
14	0x3e6e1b7a	0.23252669
15	0x3e980596	0.29691762
16	0x3dbb3d8d	0.09142599
17	0x3e4b3fea	0.198486
18	0xbea2fa8b	-0.31831774
19	0xbc82da21	-0.015973153
20	0xbf152591	-0.58260447
21	0x3dc1af2f	0.09457242
22	0x3eb0be70	0.34520292
23	0xbd848a9e	-0.06471752
24	0xbcacad37	-0.021078689
25	0x3efc5ef2	0.49291188
26	0x3dbca6cb	0.09211501
27	0x3eac70bf	0.33679768
28	0x3eed62ca	0.46364433
29	0x3df7cba3	0.120993875
30	0x3d584805	0.05280306
31	0x3e4f7446	0.20259199
32	0x3e68f9bc	0.22751516
33	0xbb9795eb	-0.004626026
34	0x3db5b61f	0.088726275
35	0x3de1356f	0.1099652
36	0xbe05ee23	-0.13079123
37	0xbe80f9b3	-0.25190505
38	0xbe17dedf	-0.14831112
39	0x3e66d2a4	0.2254129
40	0x3d80a815	0.06282059
41	0xbd11e94e	-0.035622887
42	0x3e9ca119	0.30591658
43	0xbe48e053	-0.19616823
44	0xbe2cbdd9	-0.16869296
45	0xbef6a52d	-0.48172894
46	0xbf24e991	-0.64418894
47	0xbddd6948	-0.108110964
48	0xbe35b01a	-0.17742959
49	0xbd8081ac	-0.06274733
50	0x3ea7045e	0.3262052
51	0xbe2a602b	-0.16638248
52	0xbe949f9c	-0.29028022
53	0xbce3b493	-0.027796065
54	0x3e854e42	0.26036268
55	0xbf0959c5	-0.536526
56	0xbef2e9ae	-0.47443908
57	0xbe206a12	-0.15665463
58	0xbf15762f	-0.5838346
59	0x3da0492f	0.07826459
60	0xba26a903	-0.0006357582
61	0xbeafa464	-0.34305108
62	0xbd0821ec	-0.033235475
63	0x3cd9c568	0.026583388
64	0x3dc0f2ab	0.09421285
65	0xbe9b29ee	-0.30305427
66	0x3e2de024	0.16980034
67	0x3e82a1dd	0.25514117
68	0x3e97435e	0.29543585
69	0xbd9a6fb9	-0.07540841
70	0xbe274598	-0.16335142
71	0x3d0846f5	0.033270795
72	0xbe438340	-0.19093037
73	0x3c8d7610	0.01726821
74	0x3e22cf0a	0.15899292
75	0x3e813673	0.25236854
76	0x3ec8af71	0.3919635
77	0xbc06500f	-0.008197798
78	0x3e969b6f	0.2941546
79	0x3cf5edac	0.030020557
80	0xbb15be0e	-0.0022848877
81	0x3e1e3681	0.15450479
82	0x3e0b1611	0.13582636
83	0x3ea7d411	0.3277898
84	0xbd5ab935	-0.053399283
85	0x3d81fd32	0.06347121
86	0x3ebc6ad2	0.36800247
87	0x3d6565ce	0.05600529
88	0xbdf0bc68	-0.11754686
89	0xbd99c919	-0.075090595
90	0x3d0bec49	0.034160886
91	0xbd8d8155	-0.06909434
92	0x3da8d2a1	0.08243299
93	0x3e683480	0.22676277
94	0xbc2d8f35	-0.010593225
95	0xbce2e45c	-0.02769678
96	0xbe13c107	-0.14429103
97	0xbe0a5d96	-0.13512263
98	0xbc52c01c	-0.012863185
99	0x3d51251d	0.051060785
100	0x3c85f299	0.016351031
101	0xbe152dd9	-0.1456827
102	0x3d6d9f72	0.058013387
103	0x3d1d8e1e	0.03846561
104	0x3da092c3	0.078404926
105	0xbd0a41dc	-0.033754215
106	0x3eae7376	0.34072465
107	0xbe924a0f	-0.28572127
108	0xbdb2771d	-0.08714125
109	0xbc2824d6	-0.010262689
110	0x3b0a3902	0.0021091108
111	0x3ba11cae	0.004916749
112	0xbe05ed0c	-0.13078707
113	0x3de00f4e	0.10940419
114	0xbe0437e2	-0.12911943
115	0x3dded70b	0.1088086
116	0xbd15109e	-0.0363928
117	0x3e032d01	0.12810136
118	0xbc67b320	-0.014141828
119	0x3d50203a	0.050811984
120	0x3d8394fa	0.064248994
121	0x3e84ae0b	0.25914034
122	0x3c7da7de	0.015481917
123	0xbdf4aa70	-0.11946571
124	0x3cb27fb4	0.02178941
125	0x3e94b5ef	0.29045054
126	0xbe609e34	-0.2193535
127	0x3e98dfc8	0.29858232
128	0xbc6a4b37	-0.014300159
129	0x3dec3976	0.11534397
130	0x3e2729a1	0.16324474
131	0x3daeb8a2	0.0853131
132	0x3deefb81	0.11669064
133	0xbe1ae1f9	-0.15125264
134	0xbbfd4574	-0.0077292267
135	0xbdd6ba7b	-0.10484787
136	0xbe374ae5	-0.17899664
137	0x3c8db61e	0.017298754
138	0xbd3ca47f	-0.046055313
139	0x3daf7db1	0.085688956
140	0x3dccbf4e	0.09997426
141	0x3e387c09	0.18016066
142	0x3d939d22	0.07207705
143	0xbd8e72e0	-0.069555044
144	0xbda8e0e7	-0.08246022
145	0xbe677ad8	-0.22605455
146	0x3e7df1b9	0.24799241
147	0x3d8ef83e	0.06980942
148	0xbe9c5539	-0.3053377
149	0xbd7c65f1	-0.061620656
150	0x3e2b7181	0.16742517
151	0x3e25ad7d	0.16179462
152	0x3e1e56dc	0.15462822
153	0xbcd829dc	-0.026387148
154	0xbbe0e6cd	-0.006863451
155	0xbc8678c5	-0.01641501
156	0x3e88623c	0.26637447
157	0x3e4e6eb4	0.20159417
158	0x3ddb6a7c	0.1071367
159	0xbe11f338	-0.14252937
160	0xbd6a0e25	-0.057142396
161	0x3dd6beb6	0.10485594
162	0xbc56406e	-0.013076885
163	0x3e8f9993	0.28046855
164	0xbe63beb3	-0.22240715
165	0x3e11547b	0.14192383
166	0xbe375b42	-0.17905906
167	0x3e11b2b3	0.14228325
168	0x3d322def	0.043500837
169	0x3e8d71de	0.27625936
170	0x3d9a72e7	0.07541447
171	0x3d879317	0.06619852
172	0x3e95121f	0.29115388
173	0x3df232cc	0.11826095
174	0xbe897ee3	-0.2685462
175	0xbe097fba	-0.1342763
176	0x3e26b2bd	0.1627912
177	0x3bd606d1	0.0065315743
178	0x3e01a9c8	0.12662423
179	0xbe149139	-0.14508523
180	0x3de65818	0.11247271
181	0xbd6fe4e2	-0.05856789
182	0x3bd9e0ec	0.006649127
183	0x3db71b85	0.08940796
184	0xbe005c86	-0.12535295
185	0x3e17ab38	0.14811409
186	0xbcd0459f	-0.025423823
187	0xbd4a68d2	-0.04941637
188	0x3d41a13d	0.04727291
189	0xbe6be4b8	-0.23036468
190	0x3e5a10c2	0.21295455
191	0x3d38c223	0.04510702
192	0x3d305dd1	0.04305822
193	0x3e09fc2c	0.13475102
194	0x3e0dc7d8	0.13845766
195	0xbcb76d11	-0.022390874
196	0x3ccc71ea	0.024956662
197	0xbe5d7b5f	-0.21629094
198	0x3d990bf1	0.07472981
199	0xbe4058be	-0.18783852
200	0xbe13170b	-0.14364259
201	0xbdddea53	-0.108357094
202	0xbda07490	-0.078347325
203	0x3e8f193a	0.27948934
204	0x3dc526d7	0.09626549
205	0x3dc9a20c	0.09845361
206	0xbe235ee0	-0.1595416
207	0x3dc93529	0.098245926
208	0xbd933273	-0.07187357
209	0x3ccbd329	0.024880962
210	0x3e0dc5ac	0.13844937
211	0xbe7c7178	-0.2465266
212	0xbe88fe72	-0.26756626
213	0xbdccf924	-0.10008457
214	0xbe8c8fb8	-0.274534
215	0x3e851a51	0.2599664
216	0xbf129b9c	-0.5726869
217	0xbe991584	-0.29899228
218	0xbea089a1	-0.31355003
219	0x3dbfafca	0.09359701
220	0xbea7c798	-0.32769465
221	0xbdbb212a	-0.09137185
222	0x3e9ad405	0.30239883
223	0xbd454303	-0.04815961
224	0xbe99aab9	-0.30013064
225	0xbe377586	-0.17915925
226	0x3e388b19	0.18021812
227	0xbeab92a3	-0.33510312
228	0xbedc96fd	-0.43083945
229	0x3c440cba	0.011965925
230	0x3d88ee6a	0.06686099
231	0xbf53af4a	-0.82689345
232	0xbc2e71ec	-0.010647278
233	0xbdc38d81	-0.09548474
234	0x3ef8aa4b	0.48567423
235	0xbe1eee76	-0.15520653
236	0xbf2f928b	-0.6858298
237	0xbc511c5c	-0.012763109
238	0xbf21ea56	-0.63248193
239	0x3f0a01b1	0.5390883
240	0x3e6058c6	0.21908864
241	0xbd7e6cc3	-0.062115442
242	0xbe1ba138	-0.15198219
243	0x3d52badf	0.051447745
244	0xbe155bd6	-0.14585814
245	0x3e2b4984	0.16727263
246	0xbe1ebd61	-0.1550193
247	0x3e29c831	0.16580273
248	0x3cdbfc2a	0.02685364
249	0xbe1692c2	-0.14704421
250	0xbe085dd6	-0.13317046
251	0xbd67d975	-0.056603868
252	0x3caeef0d	0.021354223
253	0xbb478987	-0.0030446963
254	0x3ca9f543	0.020746833
255	0x3bb360fb	0.0054742075

layers.2.bias f4 [30]
0	0xbf3d6ace	-0.73991096
1	0x3f256b98	0.646173
2	0xbe0a890b	-0.1352884
3	0xbe63a28c	-0.22229975
4	0x3d93485d	0.071915366
5	0x3e3eb21d	0.18622632
6	0x3d5001d4	0.050782993
7	0x3e2bd073	0.16778736
8	0x3e0b89a5	0.13626726
9	0xbdf60889	-0.12013347
10	0x3e399577	0.18123423
11	0xbe123abd	-0.1428022
12	0x3e9eebf4	0.31039393
13	0xbcb22b16	-0.02174906
14	0x3d8aa032	0.06768836
15	0xbf80473e	-1.0021741
16	0xbe82b0d8	-0.25525546
17	0xbe0fdcf9	-0.14049138
18	0xbd4e030c	-0.050295874
19	0xbd8d3940	-0.06895685
20	0xbe6eac72	-0.2330797
21	0x3e7190d1	0.235904
22	0x3da81e35	0.082088865
23	0x3db4b5b2	0.08823718
24	0x3e88aba8	0.26693463
25	0xbe79f1a2	-0.24408582
26	0x3cd4c91b	0.0259748
27	0x3c2f735b	0.010708655
28	0x3d4df7cb	0.050285142
29	0xbe12204e	-0.14270136

layers.4.weight f4 [30, 30]
0	0x3dda776b	0.106673084
1	0xbe886e5f	-0.26646706
2	0x3e8d875d	0.27642336
3	0xbd09ef5a	-0.03367553
4	0xbe12c54a	-0.14333072
5	0x3c8ff4be	0.017572757
6	0x3da46cf7	0.08028596
7	0xbd97b927	-0.07408362
8	0xbd0dab0d	-0.034586955
9	0xbdbc01da	-0.09180041
10	0xbd89bd89	-0.06725604
11	0xbdb782e3	-0.089605115
12	0xbe4a6cc3	-0.19768052
13	0xbe2c18cd	-0.16806336
14	0xbe4c5649	-0.1995479
15	0x3ec5525a	0.38539392
16	0xbdc0466e	-0.093884334
17	0xbdab89e6	-0.083759114
18	0x3e539440	0.20662022
19	0x3e7891a5	0.24274309
20	0x3de7a78b	0.11311253
21	0xbd121bb7	-0.035670962
22	0xbe372881	-0.17886545
23	0x3c73fb85	0.01489151
24	0xbdf19115	-0.1179525
25	0xbe095469	-0.13411106
26	0x3d254502	0.040349014
27	0x3d73eef2	0.059554048
28	0xbb695764	-0.0035605067
29	0x3e3958db	0.18100302
30	0xbeaf41f2	-0.3423
31	0x3e809f19	0.25121382
32	0xbd90d13b	-0.070711575
33	0x3d34c67e	0.04413461
34	0x3b8d1d65	0.0043064826
35	0xbe7ae257	-0.24500404
36	0x3ccfb5a9	0.025355177
37	0x3cf861bb	0.030320039
38	0x3e0865e7	0.13320123
39	0x3e88a493	0.2668806
40	0xbd17157f	-0.036885735
41	0xbdb57138	-0.088594854
42	0xbbb5ebfd	-0.0055518136
43	0xbe10357a	-0.140829
44	0xbf3b7ea1	-0.73240095
45	0x3e409745	0.18807705
46	0xbde3359c	-0.110942096
47	0x3cc7d2dc	0.024392538
48	0xbe88df5e	-0.26732916
49	0x3ca6deef	0.020369975
50	0x3e286bdd	0.16447397
51	0x3e07dcfa	0.1326789
52	0xbd85bdec	-0.06530365
53	0xbdbe8177	-0.09302037
54	0xbe2c58fd	-0.16830821
55	0xbda532a4	-0.080662996
56	0x3d9c2f7a	0.07626243
57	0xbdcf8b05	-0.10133938
58	0xbe0e18a3	-0.13876586
59	0xbeb03af4	-0.34419978
60	0x3e0d44c8	0.13795769
61	0xbe56d8ae	-0.20981094
62	0x3ec66d8b	0.3875545
63	0xbe36d361	-0.17854072
64	0x3df5a76a	0.11994822
65	0x3e6a4655	0.22878392
66	0xbe209445	-0.1568156
67	0x3b9e9069	0.0048389924
68	0x3daaf303	0.08347132
69	0xbea1de55	-0.31614938
70	0x3e39ad7b	0.18132584
71	0xbe9bafc4	-0.30407536
72	0xbcda49c5	-0.026646504
73	0x3e34e613	0.17665891
74	0x3f43da5c	0.76505065
75	0xbe0ce656	-0.13759741
76	0x3e3c7bc6	0.18406591
77	0x3eb1b831	0.3471084
78	0xbd447fc3	-0.047973406
79	0xbe296edc	-0.16546196
80	0x3dfaea27	0.12251692
81	0x3df2c98f	0.118548505
82	0x3dcfa8eb	0.101396404
83	0x3e41efea	0.18939176
84	0x3e624d34	0.22099763
85	0x3e30dca6	0.1727167
86	0xbdd0ac27	-0.101890855
87	0xbc60c2a9	-0.013718286
88	0x3ecca150	0.39966822
89	0x3e89a47d	0.26883307
90	0x3e70469c	0.23464435
91	0xbdaa9852	-0.08329834
92	0xbdd6428a	-0.1046191
93	0xbd089642	-0.033346422
94	0xbab49c2f	-0.0013779456
95	0x3e0c5571	0.13704468
96	0xbdfaa78e	-0.1223899
97	0x3c4422a9	0.011971154
98	0xbe29ef50	-0.16595197
99	0xbddde714	-0.1083509
100	0xbc131f31	-0.008979605
101	0xbe187783	-0.1488934
102	0xbe200d6b	-0.15630119
103	0x3d1ab561	0.037770633
104	0x3ea4cbf3	0.3218685
105	0x3cfc11e1	0.030770244
106	0xbe034629	-0.12819733
107	0xbe0e04d4	-0.1386903
108	0x3e0a5f93	0.13513021
109	0x3ddc4334	0.107550055
110	0xbdf68d37	-0.12038653
111	0x3d727128	0.059189945
112	0xbcdce3a8	-0.026964024
113	0x3e12565f	0.1429076
114	0x3e178f2e	0.14800712
115	0x3dc61fb7	0.09674018
116	0x3c810821	0.015750946
117	0xbe1b3194	-0.15155631
118	0x3dcf664f	0.10126936
119	0x3d47d0e2	0.04878319
120	0x3ea00b31	0.31258538
121	0xbe32c8f3	-0.17459469
122	0xbceef226	-0.0291682
123	0x3e17c253	0.14820223
124	0xbe753392	-0.23945454
125	0x3e37b6f0	0.17940879
126	0x3df665a4	0.12031105
127	0xbb794e41	-0.0038041028
128	0x3d5fd581	0.054646973
129	0x3d26386f	0.040581163
130	0x3dfd624c	0.12372264
131	0x3a9fb7d8	0.0012185527
132	0xbe01ed07	-0.12688075
133	0xbd1b7f0c	-0.03796296
134	0x3e86d147	0.2633154
135	0x3d167879	0.036735985
136	0xbe67b4fe	-0.22627637
137	0x3e331270	0.17487502
138	0x3d30528e	0.04304748
139	0x3e2613f7	0.16218553
140	0xbd353bf8	-0.044246644
141	0x3e719599	0.23592223
142	0x3d7ac8e5	0.061226744
143	0x3d0807ae	0.03321045
144	0xbe00f605	-0.12593849
145	0x3e403984	0.1877194
146	0xbdf4ed35	-0.11959306
147	0x3d1184d0	0.03552705
148	0x3d9f70b8	0.07785171
149	0x3e8e99f4	0.27851832
150	0xbe34403b	-0.17602627
151	0x3e5fa7f1	0.21841408
152	0xbdf5217c	-0.11969277
153	0x3cee2806	0.029071819
154	0x3e3219e7	0.17392693
155	0xbd74429f	-0.059633847
156	0x3d547e1d	0.051878083
157	0xbd745737	-0.059653487
158	0xbd7cc591	-0.06171185
159	0xbe26eb76	-0.16300759
160	0xbe5fcb0a	-0.21854797
161	0xbc74d514	-0.01494338
162	0x3e1594e9	0.14607586
163	0xbeae68e5	-0.34064403
164	0xbe5fb502	-0.21846393
165	0x3d11962c	0.035543606
166	0xbd875190	-0.06607354
167	0xbe327cf4	-0.17430478
168	0x3d6199ce	0.05507832
169	0x3e40c29a	0.18824235
170	0x3d1eb9a7	0.03875127
171	0xbd267eca	-0.04064826
172	0x3b6941d8	0.0035592224
173	0xbdbe1389	-0.0928107
174	0xbdfe852d	-0.12427745
175	0xbdff8261	-0.1247604
176	0xbe183baf	-0.14866517
177	0x3d9bb13f	0.076021664
178	0xbe330a22	-0.17484334
179	0xbea67e58	-0.32518268
180	0x3d6d895f	0.057992335
181	0xbe033418	-0.12812841
182	0xbbe7cc2a	-0.007073899
183	0x3e397e2f	0.18114541
184	0xbe8deb23	-0.27718458
185	0xbe0d2402	-0.13783267
186	0x3d2abcf3	0.041684102
187	0xbd45726a	-0.048204817
188	0x3e13a47a	0.14418212
189	0x3dc6c2d8	0.09705132
190	0xbe7c3b18	-0.24631917
191	0x3d6afdc4	0.057370916
192	0xbdfee976	-0.12446873
193	0xbda8cb54	-0.08241907
194	0xbed82334	-0.42214358
195	0x3e3897bd	0.18026634
196	0xbdd65095	-0.104645886
197	0x3cc63bb9	0.0241984
198	0xbd54bdc5	-0.05193879
199	0xbd2127eb	-0.03934471
200	0x3dfd432d	0.123663284
201	0x3d77fa9d	0.060541738
202	0xbdbc34e1	-0.09189773
203	0xbe4e2ee0	-0.20135069
204	0xbe3d93d7	-0.18513428
205	0xbd930321	-0.07178331
206	0xbe14b367	-0.14521562
207	0xbe67a683	-0.22622113
208	0xbdef2e90	-0.11678803
209	0xbca01cd5	-0.019544998
210	0x3e4b25fb	0.19838707
211	0x3d713794	0.058890894
212	0x3dee6047	0.11639457
213	0x3e4cd687	0.2000371
214	0xbe033d87	-0.1281644
215	0xbe81c146	-0.25342768
216	0xbdd4a6da	-0.10383387
217	0x3cde6ed0	0.027152449
218	0xbdccdc8e	-0.10003005
219	0xbdbd64cc	-0.09247741
220	0xbcf0f8be	-0.029415485
221	0xbcef91f9	-0.02924441
222	0xbe209830	-0.15683055
223	0xbdd2defc	-0.10296437
224	0xbe8450f6	-0.25843018
225	0x3e497c70	0.19676375
226	0xbe0ab675	-0.13546164
227	0x3ba89009	0.0051441235
228	0x3dadfe08	0.08495718
229	0x3df79020	0.120880365
230	0xbcea85f2	-0.028628323
231	0x3dc3d3b6	0.09561865
232	0xbdcc0294	-0.09961429
233	0x3e0a10ff	0.13483046
234	0x3cb51b41	0.022107722
235	0xbdf814dd	-0.12113354
236	0xbd3bd16d	-0.04585402
237	0x3e05bdd0	0.13060689
238	0xbc51b38b	-0.012799154
239	0x3df2908b	0.11843976
240	0xbdac6451	-0.08417571
241	0x3e2da130	0.1695602
242	0x3b0f9775	0.0021910344
243	0x3e0da32c	0.13831776
244	0xbde34ac4	-0.11098245
245	0x3d72072c	0.05908887
246	0x3dad8e3a	0.08474393
247	0xbd916cfb	-0.071008645
248	0x3e62e87f	0.22159003
249	0x3e18f724	0.14938027
250	0x3d10ed11	0.035382334
251	0xbda93738	-0.08262485
252	0xbe12ae57	-0.14324318
253	0x3da9b1a4	0.082858354
254	0xbde117ed	-0.109908916
255	0x3d98f26e	0.07468115

layers.4.bias f4 [30]
0	0xbbf2d999	-0.0074111936
1	0x3e2b7353	0.16743211
2	0x3e7717ce	0.24130175
3	0x3dccd738	0.10001987
4	0xbe8cbd17	-0.27488014
5	0xbd6aa5f1	-0.05728716
6	0x3d582e76	0.052778684
7	0xbe011fc4	-0.12609774
8	0xbe26b701	-0.16280748
9	0xbe0cefab	-0.13763301
10	0x3e604081	0.21899606
11	0xbda285e2	-0.07935692
12	0x3db3cee0	0.08779693
13	0xbd44d16b	-0.04805128
14	0x3bca081c	0.0061655175
15	0x3de4c016	0.1116945
16	0xbb8ae9c9	-0.004239295
17	0x3e790cee	0.24321339
18	0x38584f0a	5.1572024e-05
19	0xbe885c6e	-0.26633018
20	0xbe9cc84a	-0.30621558
21	0x3c2f7710	0.010709539
22	0x3d61c710	0.05512148
23	0xbc804a62	-0.015660468
24	0x3caeba08	0.021328941
25	0x3caf5a8d	0.021405483
26	0xbe067071	-0.1312883
27	0xbe292ffa	-0.16522208
28	0x3db5cb05	0.088766135
29	0xbd815a05	-0.06315998

layers.6.weight f4 [30, 30]
0	0xbca27dc7	-0.019835366
1	0x3e619b01	0.22031786
2	0x3e0e3151	0.13886
3	0xbdf1c400	-0.11804962
4	0x3d3f1253	0.046648335
5	0x3e6b581c	0.2298283
6	0xbdd3eadf	-0.103475325
7	0x3d3d5b34	0.046229556
8	0xbdbc745f	-0.092018835
9	0x3db00abf	0.085958
10	0x3e95b01d	0.29235926
11	0xbcf3be7a	-0.029753912
12	0x3d99662b	0.0749019
13	0x3de26a4c	0.11055431
14	0x3d68f7c9	0.05687693
15	0x3e301383	0.17194943
16	0x3df586c7	0.11988597
17	0x3e0d9b7e	0.13828847
18	0xbdffccf4	-0.124902636
19	0x3ea82094	0.32837355
20	0xbe928914	-0.28620207
21	0xbe2fc61a	-0.17165413
22	0x3ddfb332	0.10922851
23	0x3e0647ee	0.13113376
24	0xbe060a91	-0.13089968
25	0x3e5a2a13	0.21305113
26	0xbe51aaf2	-0.20475367
27	0x3d4f1a1f	0.05056202
28	0x3e4b7050	0.19867063
29	0x3df2f4ce	0.11863099
30	0xbdc4e581	-0.09614087
31	0x3cd34930	0.025791734
32	0x3c8d4c75	0.017248372
33	0xbe0f4094	-0.13989478
34	0x3d9405b6	0.07227652
35	0xbdcce3d9	-0.10004396
36	0x3bf87b41	0.0075830524
37	0xbcae5eae	-0.021285381
38	0xbde39a73	-0.11113443
39	0x3da34c57	0.07973545
40	0x3de07274	0.1095933
41	0x3df6abe0	0.12044501
42	0xbd5252fa	-0.051348664
43	0x3e28df9f	0.16491555
44	0xbe14c91e	-0.14529845
45	0x3e03a8ca	0.12857357
46	0xbe168698	-0.14699781
47	0xbe3c5830	-0.18393016
48	0x3ddddeb1	0.10833491
49	0x3dab1b2f	0.08354794
50	0x3e70a550	0.23500562
51	0x3c8433e3	0.016138023
52	0xbd554d6f	-0.0520758
53	0x3d784d3f	0.060620543
54	0xbde6a0e1	-0.11261154
55	0xbdeb98eb	-0.11503776
56	0x3d9a9ace	0.07549058
57	0x3e2ec00b	0.17065446
58	0x3c9b9cdf	0.0189957
59	0xbd49a492	-0.049229212
60	0xbe9c7d4f	-0.30564353
61	0xbda62094	-0.081116825
62	0xbe1cb240	-0.15302372
63	0xbe06c340	-0.1316042
64	0xbd9df44a	-0.0771261
65	0x3e17d8d0	0.14828801
66	0x3dd95500	0.106119156
67	0x3d79bb50	0.06096965
68	0x3cc283a3	0.02374441
69	0x3e1600c7	0.14648734
70	0xbdaebdb6	-0.08532278
71	0x3b124ba4	0.0022322917
72	0x3d5d6cee	0.05405896
73	0xbc00f95f	-0.007871955
74	0xbddb8d9d	-0.1072037
75	0xbdda7fa7	-0.10668879
76	0x3ddbba14	0.10728851
77	0xbc51f7dc	-0.012815442
78	0xbe567fe5	-0.20947225
79	0x3d56ea0d	0.052469302
80	0x3e7989a8	0.24368918
81	0x3d8d4def	0.0689963
82	0xbdee5ee8	-0.11639196
83	0x3e0d8264	0.13819271
84	0x3e067654	0.13131076
85	0x3d6f16d0	0.058371365
86	0xbda96b29	-0.08272392
87	0x3dafd880	0.08586216
88	0xbdc406da	-0.09571619
89	0x3e22bcfa	0.15892401
90	0x3e0999a6	0.13437518
91	0x3a165a4d	0.0005735502
92	0xbda16a21	-0.078815706
93	0xbd347bb4	-0.044063285
94	0xbe4909b5	-0.19632609
95	0x3df7bfb3	0.120971106
96	0xbdb42421	-0.087959535
97	0x3db4f99f	0.08836674
98	0x3bbb860b	0.0057227663
99	0x3d01702f	0.031601127
100	0x3e3c7539	0.18404092
101	0xbe1384ae	-0.14406082
102	0xbe0ba51d	-0.13637204
103	0xbccb12fc	-0.024789326
104	0xbe5d2b87	-0.21598636
105	0x3c01220e	0.007881654
106	0xbdaacfaa	-0.0834039
107	0x3e01710a	0.12640777
108	0xbdf0d890	-0.11760056
109	0x3de4be8f	0.11169159
110	0xbe4d89ae	-0.20072052
111	0xbe294e5f	-0.16533802
112	0x3e018bbf	0.12650965
113	0xbd882491	-0.066475995
114	0x3e13fc79	0.1445178
115	0xbe0732a7	-0.13202916
116	0x3db86e89	0.09005458
117	0xbe615395	-0.2200454
118	0x3da9ca97	0.08290594
119	0x3e3ddb03	0.18540578
120	0x3e1e830d	0.1547968
121	0x3e31db0d	0.17368717
122	0xbe5731c9	-0.21015085
123	0xbd222e94	-0.0395952
124	0xbb08043c	-0.0020754477
125	0x3c5ed573	0.013600695
126	0x3dcd22e4	0.100164205
127	0x39f02333	0.00045802593
128	0xbb77e02e	-0.003782283
129	0x3e614973	0.22000675
130	0x3ead1ca8	0.33810925
131	0x3cf0cd76	0.029394846
132	0xbc74f8a5	-0.01495186
133	0xbce2c3e8	-0.027681306
134	0xbe32d3cf	-0.17463611
135	0x3e111622	0.14168599
136	0xbdf83fc1	-0.12121535
137	0x3cdd67fb	0.02702712
138	0xbd3b903b	-0.045791846
139	0x3e3e82a4	0.18604523
140	0xbe95621f	-0.29176423
141	0xbe2ed86e	-0.17074749
142	0x3dd520a1	0.10406614
143	0x3d0b9227	0.03407493
144	0xbe727ce1	-0.2368045
145	0x3dc43d01	0.09581948
146	0xbdcd2e7c	-0.10018632
147	0x3e3319d4	0.17490321
148	0x3de5c2e7	0.11218815
149	0xbd8fccb4	-0.07021466
150	0x3c929a4f	0.017895846
151	0xbdb84030	-0.08996618
152	0xbd8cb61f	-0.06870674
153	0x3d9d0eab	0.07668813
154	0xbe0d96d2	-0.13827065
155	0x3c39c43b	0.011338289
156	0xbd2accd8	-0.04169926
157	0xbcdce254	-0.02696339
158	0xbd653865	-0.055961985
159	0xbda5ac0f	-0.08089458
160	0xbc86af83	-0.016441112
161	0x3d8626fc	0.065504044
162	0xbe097f82	-0.13427547
163	0xbd8fe83b	-0.07026716
164	0xbe15ab6d	-0.14616175
165	0x3d4f226a	0.05056993
166	0xbe85f354	-0.26162207
167	0x3be35bae	0.0069384193
168	0x3e050164	0.12988812
169	0x3dd87217	0.10568636
170	0xbc12fada	-0.0089709405
171	0xbe8a5d2a	-0.27024204
172	0xbe09bce1	-0.13450958
173	0x3e1520a3	0.14563231
174	0xbe12fb25	-0.14353617
175	0x3cc7efa2	0.024406258
176	0xbd33f1c6	-0.043931745
177	0xbd2b2531	-0.041783515
178	0xbcc1f433	-0.023676014
179	0xbdd1b4f8	-0.10239595
180	0xbcad24c2	-0.021135692
181	0x3d2e8279	0.042604897
182	0x3cf65b27	0.030072762
183	0xbe380c52	-0.1797345
184	0x3db6ed38	0.08931965
185	0xbd4aab71	-0.049479906
186	0xbcf9ef3a	-0.03050958
187	0x3e1d3e40	0.15355778
188	0xbe2069bb	-0.15665333
189	0xbd460cae	-0.048351936
190	0xbe018b4a	-0.12650791
191	0x3c603ae6	0.0136859175
192	0xbdd123e8	-0.10211927
193	0xbd0c53fa	-0.034259774
194	0x3e5f9fac	0.21838254
195	0xba0e60e7	-0.00054313097
196	0x3d8f45d2	0.06995739
197	0xbe9f0bc4	-0.31063664
198	0x3df8dd96	0.12151639
199	0xbe467e8f	-0.19384216
200	0x3e21c442	0.15797523
201	0x3da3869d	0.0798466
202	0x3ce3b211	0.02779487
203	0x3e1209c2	0.14261535
204	0xbd8af6bb	-0.06785341
205	0x3d9144da	0.070932105
206	0x3e304b3f	0.17216204
207	0x3e14ee2c	0.1454398
208	0xbd8d33b8	-0.0689463
209	0x3d6debcb	0.058086198
210	0x3e29f26d	0.16596384
211	0xbe5d94b4	-0.21638757
212	0xbddb1977	-0.106982164
213	0x3e3273c9	0.17426981
214	0xbd24f03d	-0.04026817
215	0xbd957bfb	-0.07299038
216	0x3e4839df	0.19553326
217	0x3e1db7aa	0.15402094
218	0x3c891db6	0.0167378
219	0x3dfb63e9	0.12274916
220	0xbe81c053	-0.25342044
221	0xbde98122	-0.11401583
222	0xbcb346a0	-0.021884263
223	0x3d00de15	0.031461794
224	0x3e0d5bd7	0.13804565
225	0xbe2a8688	-0.16652882
226	0xbe7dad48	-0.24773133
227	0xbe101022	-0.14068654
228	0x3bcc3471	0.0062318374
229	0x3e98efef	0.29870555
230	0xbd684f2c	-0.05671613
231	0xbe5b11b0	-0.21393466
232	0x3cce7886	0.025203954
233	0x3d93229d	0.07184336
234	0x3e284822	0.16433766
235	0xbc94ff69	-0.018188195
236	0x3e046ee2	0.12932923
237	0xbc86277e	-0.016376253
238	0xbcdabe2c	-0.02670201
239	0xbd09e4a3	-0.03366531
240	0x3e7fd7b4	0.24984628
241	0x3d5dc979	0.054147217
242	0x3da32cb2	0.07967509
243	0xbdb8317b	-0.08993813
244	0xbe85277e	-0.26006693
245	0x3d81776d	0.06321607
246	0xbd004df3	-0.03132434
247	0x3e486cd8	0.1957277
248	0xbd7cb645	-0.061697263
249	0xbe420231	-0.18946148
250	0xbd8eb03d	-0.069672085
251	0xbe1b51a8	-0.15167868
252	0xbe10b042	-0.14129737
253	0xbe6c2313	-0.23060255
254	0x3e311a32	0.17295149
255	0xbe2ae332	-0.1668823

layers.6.bias f4 [30]
0	0x3e7109bb	0.23538868
1	0xbdd454b4	-0.10367718
2	0x3c6c3df8	0.014419071
3	0x3e62b38e	0.22138807
4	0x3db00a1c	0.08595678
5	0xbe0b3232	-0.13593367
6	0xbe2a4834	-0.16629106
7	0xbe595f1e	-0.2122769
8	0xbd9bb046	-0.07601981
9	0x3e0e742b	0.13911502
10	0x3c65cc3b	0.014025743
11	0x3dda0279	0.10645003
12	0xbdaf0096	-0.08545034
13	0xbdd6a225	-0.10480145
14	0xbe3cc361	-0.18433906
15	0xbdb0c4e9	-0.08631308
16	0xbd411814	-0.047142103
17	0xbc204870	-0.009782895
18	0xbd18f41e	-0.037342183
19	0x3e53f155	0.2069753
20	0x3de000f0	0.10937679
21	0x3eee59d3	0.46552905
22	0x3e09dec3	0.13463883
23	0x3d253cc2	0.040341146
24	0xbd966980	-0.07344341
25	0xbc958a4a	-0.018254418
26	0xbdd51956	-0.10405223
27	0x3db376b3	0.087628745
28	0x3cdf68d0	0.027271658
29	0xbdd7a33f	-0.105291836

layers.8.weight f4 [1, 30]
0	0xbe5ab593	-0.21358328
1	0xbc38a4c1	-0.011269749
2	0xbe9140a3	-0.28369626
3	0xbd804a96	-0.06264226
4	0x3eb48cc8	0.35263658
5	0x3dfdea0f	0.12398159
6	0x3e5f8b06	0.21830377
7	0xbe0d38c2	-0.13791183
8	0x3ee1401a	0.43994218
9	0xbe828779	-0.25493982
10	0xbe8d9eca	-0.2766021
11	0xbf02c649	-0.5108381
12	0x3d7f3b2a	0.062312283
13	0xbe51e3fc	-0.20497125
14	0xbe8567c9	-0.26055744
15	0xbecd0de4	-0.4004966
16	0xbed5de62	-0.41771227
17	0x3df1afb1	0.118010886
18	0xbe35271c	-0.176907
19	0x3dc1fc17	0.094719104
20	0x3d9f6042	0.077820316
21	0xbf5e51ed	-0.8684376
22	0x3e3d23ef	0.18470739
23	0xbd0eaf7d	-0.034835327
24	0xbd27c07c	-0.04095505
25	0xbd254add	-0.0403546
26	0x3e335138	0.17511451
27	0x3db9998a	0.090624884
28	0x3e332e49	0.17498125
29	0xbe882ffa	-0.26599103
