BURGERS/EPOCHS_100_Nu_25%Nf/5000epochs.pth (torch, 15138 bytes, 9 tensors)

layers.0.weight f4 [30, 2]
-0.12572476 0.07372797 0.83061594 -0.4601603 -0.74209 -0.49459493 0.53937215 0.17820697
0.69949293 0.56931084 -0.40143323 0.13555522 -0.35793597 0.41616592 0.39603162 -0.45251715
0.26483613 0.23148006 0.23748799 0.50635153 0.3896737 -0.34850597 -0.3374425 0.2972214
0.6307135 0.14767618 0.675011 -0.010852409 -0.41082308 0.05649581 0.17383519 -0.23948936
-0.43741247 0.2596053 0.9842485 0.37778255 0.19098236 -0.6249199 -0.5590798 0.3741774
-0.16399273 -0.22278252 0.5579064 -0.398268 -0.5584703 -0.5581443 1.1612861 0.06399096
1.2236881 0.09170066 0.34945363 0.20892197 -0.67723984 -0.0153472535 -0.4046732 -0.5595482
-1.1465982 0.06516249 0.6979023 0.090585046
00000000: febd 00be b1fe 963d 3fa3 543f 219a ebbe
00000010: 9cf9 3dbf 8c3b fdbe 4b14 0a3f e37b 363e
00000020: f811 333f 5bbe 113f a888 cdbe fdce 0a3e
00000030: 6243 b7be b313 d53e a8c4 ca3e 54b0 e7be
00000040: 9a98 873e 1c09 6d3e 0d30 733e 41a0 013f
00000050: 5083 c73e 606f b2be 43c5 acbe 672d 983e
00000060: 7176 213f 6d38 173e 85cd 2c3f 4dce 31bc
00000070: 6757 d2be 2768 673d da01 323e b33c 75be
00000080: 87f4 dfbe fcea 843e b6f7 7b3f b76c c13e
00000090: e190 433e c0fa 1fbf db1f 0fbf 2e94 bf3e
000000a0: b6ed 27be 1a21 64be f4d2 0e3f c9e9 cbbe
000000b0: e9f7 0ebf 8be2 0ebf 06a5 943f b10d 833d
000000c0: d0a1 9c3f 8ecd bb3d 96eb b23e a4ef 553e
000000d0: 975f 2dbf 0c73 7bbc 5331 cfbe 8d3e 0fbf
000000e0: bbc3 92bf e973 853d baa9 323f a784 b93d

layers.0.bias f4 [30]
-0.15407863 0.2662186 0.6108761 -0.5975922 -0.68053985 -0.11958725 -0.27308258 -0.605924
0.8656564 -0.10998492 -0.3744486 0.39680377 -0.60403246 -0.492646 1.0509641 0.5423625
0.16167212 -0.81846035 0.6599484 0.40998036 -0.28411043 -0.49576864 0.48275033 -0.44689497
-0.42139745 0.33965367 0.4541329 -0.56592655 0.42085335 -0.51919526
00000000: cac6 1dbe ce4d 883e 6062 1c3f cdfb 18bf
00000010: dc37 2ebf 29ea f4bd 7bd1 8bbe d61d 1bbf
00000020: a89b 5d3f c63f e1bd bab7 bfbe dd29 cb3e
00000030: dfa1 1abf 193c fcbe fe85 863f 45d8 0a3f
00000040: 608d 253e 9e86 51bf 61f2 283f f2e8 d13e
00000050: ec76 91be 63d5 fdbe 0d2b f73e 6bcf e4be
00000060: 68c1 d7be 16e7 ad3e 1c84 e83e 90e0 10bf
00000070: 177a d73e fbe9 04bf

layers.2.weight f4 [30, 30]
0.13143216 -0.056265652 -0.050822094 0.07453174 0.06886244 0.35888425 -0.023339018 -0.26574987
0.005263722 -0.005501471 0.2038283 -0.033970848 0.07227049 0.16731293 0.003404945 0.33504045
-0.0765521 0.20934467 -0.06851201 -0.26344332 -0.038224865 -0.25083917 0.21840182 0.3613906
0.07155861 0.30747783 -0.28866455 0.15998122 0.35249355 0.07195709 -0.048337918 -0.16560905
0.034791343 0.34295332 -0.046268277 0.31815538 0.046830732 -0.13382827 -0.28214747 0.03438015
0.2771294 -0.26432914 0.3390376 0.09955167 0.11206306 0.09511118 -0.23050405 0.16346005
0.068852834 -0.1493191 -0.040894873 0.042429365 0.07295198 0.19492285 -0.17379701 0.27532163
-0.11379715 -0.02385366 -0.002405682 0.12351931 -0.13852885 0.27638954 -0.15174127 -0.114766404
-0.035256833 -0.0045997263 0.032219272 -0.06956453 0.15056041 0.044340584 -0.10968889 0.07573041
0.055801902 -0.060297444 -0.26065996 0.15068638 0.2882438 -0.049465258 -0.08343195 -0.08825845
0.06863083 -0.060380314 -0.07963639 -0.04507572 -0.005760419 -0.11082038 -0.13079949 -0.28955987
0.09587754 -0.17776418 -0.19616286 0.07764081 -0.096783966 0.022818891 -0.07131369 -0.06291057
0.06553019 0.029472725 -0.035781104 -0.18551354 -0.1059594 -0.19964293 -0.065197945 -0.012404591
-0.01912967 0.13280629 0.15318535 -0.10823259 0.07538312 -0.28559324 0.27771786 0.14193562
-0.0724142 0.07065734 -0.02970136 0.110322125 -0.09633776 -0.19754389 -0.1686154 -0.28939572
0.04086022 -0.041978367 0.018394027 0.29932046 0.03118997 0.20279871 0.19889997 -0.040341612
-0.29666537 0.13516171 0.20402408 -0.19352752 0.26470557 0.03799849 -0.07617564 0.114830315
-0.07351458 0.20824207 -0.002139362 0.0006805362 -0.019054681 -0.09838767 -0.060296603 0.31934673
-0.15773308 0.25285217 -0.10149072 -0.25991982 0.032326043 -0.0796583 -0.46400997 0.19251348
-0.1125992 -0.8791288 0.13979475 -0.4298197 -0.5649616 0.47468302 0.11043696 -0.10799832
-0.1406024 0.3067233 -0.64904475 -0.11513826 -0.34187528 0.06580446 0.06630878 -0.53163785
-0.036543615 0.48381257 0.10859425 0.66605645 -0.13405609 -0.7211575 0.886359 -0.4706011
0.20481785 -0.2958659 0.5770056 0.60723835 0.3835198 0.10021132 0.037858877 -0.11167932
-0.13190983 -0.12722231 0.11230318 0.04518734 -0.051361017 0.05387147 0.07199822 0.030537168
-0.009320639 -0.20223448 0.10723345 0.048997477 0.13960588 -0.09831448 0.10353309 -0.03720707
-0.02359403 -0.04604942 -0.22946164 -0.103655316 -0.097197205 -0.04957388 0.06286198 0.05360843
-0.08140763 -0.11505906 0.083498806 -0.038019106 -0.026311476 -0.14946227 -0.10270258 -0.119816765
0.09377301 0.17429972 0.31177965 0.020482888 -0.019975657 -0.26818117 0.08069838 -0.048329815
0.007149919 -0.24175242 -0.122365735 -0.118808225 0.21465994 0.014474809 0.098618455 0.37802783
0.19657259 -0.18411708 0.12695508 -0.07995055 0.61359054 -0.0001841378 -0.19325842 -0.22839488
0.22284822 -0.15078144 -0.14394413 -0.023001341 -0.11350625 0.019928636 -0.080874465 -0.14436541
-0.099357694 -0.042522643 0.028511424 0.023087673 -0.093594335 -0.043039326 -0.11790834 -0.23127691
00000000: 2796 063e d076 66bd d42a 50bd 19a4 983d
00000010: c007 8d3d adbf b73e 7831 bfbc 5e10 88be
00000020: 4d7b ac3b af45 b4bb 5eb8 503e 0425 0bbd
00000030: 8d02 943d 1554 2b3e 7f25 5f3b 6c8a ab3e
00000040: 59c7 9cbd 735e 563e 0650 8cbd 0be2 86be
00000050: ad91 1cbd fe6d 80be baa4 5f3e 3008 b93e
00000060: 528d 923d bc6d 9d3e d7cb 93be 1ed2 233e
00000070: 097a b43e 3d5e 933d fbfd 45bd 6b95 29be
00000080: 5e81 0e3d 9497 af3e ce83 3dbd 43e5 a23e
00000090: 95d1 3f3d 470a 09be a275 90be 33d2 0c3d
000000a0: e8e3 8d3e 2656 87be 5696 ad3e bfe1 cb3d
000000b0: 5181 e53d a6c9 c23d 4109 6cbe 1262 273e
000000c0: b702 8d3d 1be7 18be 6281 27bd 6aca 2d3d
000000d0: d967 953d db99 473e d8f7 31be f5f6 8c3e
000000e0: 7b0e e9bd c068 c3bc a6a8 1dbb b1f7 fc3d
000000f0: 82da 0dbe ee82 8d3e 1062 1bbe a60a ebbd
00000100: 7869 10bd 4db9 96bb 5bf8 033d d977 8ebd
00000110: 822c 1a3e 799e 353d 92a4 e0bd 8c18 9b3d
00000120: 8990 643d 74fa 76bd 3975 85be 884d 1a3e
00000130: b194 933e 159c 4abd 5fde aabd d9c0 b4bd
00000140: 528e 8c3d 5951 77bd 6718 a3bd 51a1 38bd
00000150: e6c1 bcbb ccf5 e2bd 4df0 05be 3141 94be
00000160: 725b c43d d007 36be ebde 48be 2502 9f3d
00000170: ac36 c6bd afee ba3c e90c 92bd 42d7 80bd
00000180: b134 863d c970 f13c 358f 12bd 43f7 3dbe
00000190: 3e01 d9bd 326f 4cbe 8086 85bd a03c 4bbc
000001a0: d3b5 9cbc 5ffe 073e 9fdc 1c3e 0ca9 ddbd
000001b0: 7762 9a3d 4739 92be 0931 8e3e 9257 113e
000001c0: e54d 94bd ccb4 903d 4450 f3bc 91f0 e13d
000001d0: bb4c c5bd f248 4abe 84a9 2cbe ad2b 94be
000001e0: 0c5d 273d 82f1 2bbd 12af 963c 8840 993e
000001f0: 1c82 ff3c 77aa 4f3e 6fac 4b3e 3f3d 25bd
00000200: 86e4 97be d567 0a3e b0eb 503e 142c 46be
00000210: 7d87 873e 4ea4 1b3d f901 9cbd 282c eb3d
00000220: d08e 96bd 693d 553e 8a34 0cbb 0366 323a
00000230: 9018 9cbc 7a7f c9bd 92f9 76bd 6a81 a33e
00000240: c884 21be d775 813e 5eda cfbd 3614 85be
00000250: 5068 043d e423 a3bd b792 edbe 4122 453e
00000260: 699a e6bd 960e 61bf 5b26 0f3e 5411 dcbe
00000270: 53a1 10bf a709 f33e c62c e23d 392e ddbd
00000280: 13fa 0fbe d60a 9d3e cc27 26bf 9ccd ebbd
00000290: 470a afbe 7dc4 863d e6cc 873d 6b19 08bf
000002a0: c2ae 15bd 48b6 f73e aa66 de3d ad82 2a3f
000002b0: 0046 09be c79d 38bf 6ce8 623f a1f2 f0be
000002c0: c5bb 513e bc7b 97be a4b6 133f f973 1b3f
000002d0: b55c c43e 983b cd3d e911 1b3d 21b8 e4bd
000002e0: 5f13 07be 9146 02be 36ff e53d 5c16 393d
000002f0: ee5f 52bd 55a8 5c3d ce73 933d 1529 fa3c
00000300: 98b5 18bc 8e16 4fbe 369d db3d 94b1 483d
00000310: d8f4 0e3e 1a59 c9bd 2809 d43d 7166 18bd
00000320: 4448 c1bc 519e 3cbd fef7 6abe 3d49 d4bd
00000330: 540f c7bd fb0d 4bbd c8bd 803d 8394 5b3d
00000340: 0bb9 a6bd 16a4 ebbd 6c01 ab3d ecb9 1bbd
00000350: 2a8b d7bc a30c 19be bb55 d2bd 7e62 f5bd
00000360: 100c c03d a07b 323e 95a1 9f3e bbcb a73c
00000370: fda3 a3bc 0b4f 89be 3145 a53d 7cf5 45bd
00000380: de49 ea3b f28d 77be e39a fabd ba51 f3bd
00000390: d1cf 5b3e c027 6d3c 79f8 c93d dd8c c13e
000003a0: 534a 493e 3089 3cbe 8300 023e 1dbd a3bd
000003b0: 4514 1d3f 1d15 41b9 89e5 45be 59e0 69be
000003c0: 5332 643e 7366 1abe 1766 13be 4f6d bcbc
000003d0: f775 e8bd 6141 a33c 83a1 a5bd 87d4 13be
000003e0: 0c7c cbbd 392c 2ebd ca90 e93c 5c22 bd3c
000003f0: 63ae bfbd 014a 30bd ee79 f1bd dbd3 6cbe

layers.2.bias f4 [30]
-0.10474069 -0.0048876316 0.120185345 -0.016627515 0.00828368 0.36380905 -0.15349105 -0.30555037
-0.27880687 0.3277652 0.024116654 -0.6626364 -0.012603932 0.12834616 -0.27180365 0.1279293
0.24445753 0.03943797 -0.08141623 0.34303603 -0.1242124 -0.22269313 -0.3706675 0.24646993
-0.0044478835 0.35426122 0.1930971 0.03661087 0.49298826 -0.3262531
00000000: 4982 d6bd 6d28 a0bb bc23 f63d 6d36 88bc
00000010: 46b8 073c 2e45 ba3e c22c 1dbe 1971 9cbe
00000020: c6bf 8ebe d7d0 a73e 4a90 c53c 8aa2 29bf
00000030: b980 4ebc 2d6d 033e d929 8bbe e6ff 023e
00000040: 1353 7a3e b589 213d 8dbd a6bd 6ba2 af3e
00000050: 1263 febd ab09 64be 21c8 bdbe 9d62 7c3e
00000060: 8dbf 91bb ba61 b53e 3fbb 453e 48f5 153d
00000070: f568 fc3e a50a a7be

layers.4.weight f4 [30, 30]
0.07284276 -0.09242694 0.033579834 -0.09971198 0.08179944 -0.09112633 0.00062030513 -0.13822009
-0.1080902 0.16521458 -0.123734556 0.0058599385 0.11199633 -0.07641365 -0.1030745 0.02223565
0.17538172 0.14934777 0.0038005665 -0.0630312 -0.18378362 0.04372336 -0.10980324 0.18420438
-0.1861788 -0.1039494 0.047941636 -0.007837968 -0.10019018 -0.03226818 0.02216664 0.10112254
0.057289492 -0.017422665 0.15432468 -0.039307743 -0.19863854 -0.13298437 0.043690484 0.07190707
-0.057539698 -0.061461665 -0.09821972 0.1083689 0.08997173 0.12907158 0.0926546 -0.01288522
-0.22865415 -0.029204292 -0.023238245 -0.13710937 -0.25533018 0.18043187 0.11887578 -0.21888863
0.12748247 0.17639261 0.1442628 -0.02845901 -0.20598967 0.0711266 0.011180074 -0.13952628
0.022955975 -0.23292162 -0.24957481 -0.15162988 -0.061436545 0.19363943 0.25985098 -0.30885386
-0.2642926 -0.2172803 -0.62825227 0.17055479 0.28771013 -0.048710704 -0.23943229 0.4053722
0.0960603 -0.043413896 0.08330115 0.39420667 -0.18106051 -0.06600813 0.2666488 -0.26306114
0.13273522 -0.54178995 -0.1863297 -0.096830405 -0.055017725 -0.041316684 -0.21125394 0.1545358
0.08955022 0.12372814 -0.053669676 -0.05647541 -0.1394302 -0.04539965 0.07970112 0.029464731
0.011537755 0.12137682 0.10403228 -0.11150484 -0.14664699 0.13814 -0.097635075 0.1680331
-0.14790294 -0.034132186 -0.08384531 0.031029996 -0.09229798 -0.08435041 -0.07100123 0.0138668595
-0.15435353 -0.0009348586 0.025097806 -0.10835307 -0.013739296 0.010450923 0.003672025 0.035868637
-0.032660753 0.16550255 -0.118280426 -0.053747468 -0.020783607 -0.0610275 -0.029001482 0.1158269
0.13867916 0.21457008 -0.0862797 0.10783716 0.17044124 0.18820144 0.22202379 0.16757493
-0.0850663 0.11322984 0.0729631 0.0824262 -0.1913294 0.06987338 0.03410554 0.08633501
-0.3122677 -0.10063921 0.008026963 -0.36492452 -0.0715014 -0.003208898 0.2694745 -0.2176192
0.08832837 0.38366455 -0.1888519 -0.1962851 0.1349658 0.07354996 -0.11608319 0.14613979
0.018478755 -0.13650769 0.16884634 0.10922868 0.362682 -0.02537631 0.13243732 -0.3577747
-0.03507501 0.017326992 -0.24948539 -0.36104736 0.012028938 0.093833536 0.002872377 0.07231891
0.031771425 0.2819189 0.056704395 0.17240073 -0.14343254 0.18756834 0.06853978 0.13467908
0.12595224 0.19008587 -0.078378685 -0.10245578 0.2636494 -0.18017724 -0.12935804 -0.18478733
0.1346948 -0.15217982 0.25217885 -0.014988692 -0.14696619 -0.019959984 -0.2119742 -0.10187049
0.14441484 0.12221081 -0.12224223 0.053716667 0.048135236 -0.11120519 -0.0129744895 0.43688285
0.014725959 -0.06404069 -0.15534258 0.3084962 0.14169528 0.030651582 -0.02619072 0.3062274
0.38525143 -0.08732388 -0.0026092313 0.0204946 0.08725694 0.115780935 0.092478454 0.07055792
-0.14676252 0.21457237 -0.28983468 0.0901709 -0.23995584 -0.06671331 0.06563821 0.6289745
0.07595985 0.12022712 0.05520415 -0.053911645 0.15090774 -0.10293035 -0.03996737 -0.034838077
-0.07728143 -0.03727013 -0.035983037 0.16974267 0.1384586 -0.013646344 0.07123517 -0.034229994
00000000: 962e 953d 564a bdbd 028b 093d cb35 ccbd
00000010: 7786 a73d 71a0 babd f99b 223a 9189 0dbe
00000020: 655e ddbd 032e 293e 8b68 fdbd ba04 c03b
00000030: 555e e53d c27e 9cbd b918 d3bd 8a27 b63c
00000040: 4497 333e 9fee 183e ed12 793b 8016 81bd
00000050: c631 3cbe 4417 333d 85e0 e0bd 13a0 3c3e
00000060: a8a5 3ebe 6ce3 d4bd 735e 443d d26a 00bc
00000070: 8230 cdbd a42b 04bd d096 b53c 5619 cf3d
00000080: 63a8 6a3d fab9 8ebc 4a07 1e3e 2801 21bd
00000090: e767 4bbe 0e2d 08be cbf4 323d 0444 933d
000000a0: bfae 6bbd 3abf 7bbd 6c27 c9bd 84f0 dd3d
000000b0: 1943 b83d 572b 043e b2c1 bd3d 881c 53bc
000000c0: 5024 6abe d73d efbc 225e bebc 6666 0cbe
000000d0: a3ba 82be 22c3 383e 2575 f33d 5724 60be
000000e0: c48a 023e 44a0 343e a1b9 133e df22 e9bc
000000f0: f5ee 52be d3aa 913d a12c 373c fadf 0ebe
00000100: 2b0e bc3c 0183 6ebe 8a90 7fbe dd44 1bbe
00000110: e3a4 7bbd 6a49 463e 300b 853e 1822 9ebe
00000120: 5c51 87be ba7e 5ebe 24d5 20bf eaa5 2e3e
00000130: be4e 933e e084 47bd bd2d 75be f28c cf3e
00000140: 43bb c43d c5d2 31bd cb99 aa3d 75d5 c93e
00000150: ed67 39be 452f 87bd 3186 883e f3af 86be
00000160: beeb 073e bfb2 0abf 36cd 3ebe 054f c6bd
00000170: 445a 61bd af3b 29bd f452 58be a23e 1e3e
00000180: 1b66 b73d 2e65 fd3d bcd4 5bbd c252 67bd
00000190: cac6 0ebe fcf4 39bd 573a a33d 0560 f13c
000001a0: da08 3d3c 6994 f83d e00e d53d a65c e4bd
000001b0: a12a 16be 9274 0d3e e6f4 c7bd de10 2c3e
000001c0: de73 17be 31ce 0bbd 17b7 abbd 9e32 fe3c
000001d0: b906 bdbd e8bf acbd 1869 91bd d331 633c
000001e0: da0e 1ebe 4c11 75ba ea99 cd3c 37e8 ddbd
000001f0: c91a 61bc 593a 2b3c 5ba6 703b feea 123d
00000200: 48c7 05bd 8079 293e 023d f2bd 4e26 5cbd
00000210: 6242 aabc f9f7 79bd 8494 edbc a736 ed3d
00000220: e901 0e3e 42b8 5b3e 69b3 b0bd bbd9 dc3d
00000230: 2688 2e3e e1b7 403e 345a 633e c398 2b3e
00000240: 3e37 aebd 0ce5 e73d ae6d 953d 11cf a83d
00000250: dbeb 43be c619 8f3d 40b2 0b3d 69d0 b03d
00000260: 8de1 9fbe ee1b cebd 8683 033c 63d7 babe
00000270: 536f 92bd 604c 52bb 90f8 893e 91d7 5ebe
00000280: 81e5 b43d ae6f c43e 6462 41be f6fe 48be
00000290: 7a34 0a3e 5da1 963d 06bd edbd aba5 153e
000002a0: c260 973c acc8 0bbe 0ee6 2c3e 49b3 df3d
000002b0: 75b1 b93e fbe1 cfbc a69d 073e 3f2e b7be
000002c0: d0aa 0fbd 56f1 8d3c 1979 7fbe 33db b8be
000002d0: 0615 453c cc2b c03d 7d3e 3c3b f01b 943d
000002e0: c122 023d ad57 903e de42 683d d189 303e
000002f0: fbdf 12be ea11 403e 965e 8c3d 50e9 093e
00000300: a0f9 003e dfa5 423e 0185 a0bd 56d4 d1bd
00000310: 0efd 863e 6280 38be 6f76 04be e438 3dbe
00000320: 6fed 093e 07d5 1bbe 961d 813e 2193 75bc
00000330: 4e7e 16be 1f83 a3bc c40f 59be 7aa1 d0bd
00000340: 7ce1 133e a949 fa3d 225a fabd 0206 5c3d
00000350: 7429 453d 8cbf e3bd f492 54bc 1caf df3e
00000360: 2645 713c c427 83bd 2012 1fbe 37f3 9d3e
00000370: 9118 113e 0719 fb3c ec8d d6bc d6c9 9c3e
00000380: ad3f c53e ddd6 b2bd a3ff 2abb 4be4 a73c
00000390: c4b3 b23d 8e1e ed3d 5865 bd3d ac80 903d
000003a0: ea48 16be dcb8 5b3e 3665 94be 85ab b83d
000003b0: fcb6 75be fda0 88bd 536d 863d 7904 213f
000003c0: d690 9b3d a339 f63d bf1d 623d 75d2 5cbd
000003d0: 8f87 1a3e 26cd d2bd d3b4 23bd 5fb2 0ebd
000003e0: ba45 9ebd 90a8 18bd f362 13bd 06d1 2d3e
000003f0: 17c8 0d3e ea94 5fbc bfe3 913d c034 0cbd

layers.4.bias f4 [30]
0.1398351 -0.16205017 0.65905136 0.14336456 -0.19245207 -0.7222083 -0.08420751 0.2810886
-0.10933379 0.07019134 0.047727402 -0.23071642 0.20205235 -0.14756583 -0.14321531 -0.11512711
-0.023180425 0.06407616 0.04272286 -0.0026693367 -0.18536526 -0.012189007 0.19436888 -0.2258686
0.011822862 0.13656782 0.21618922 -0.0789552 0.057492457 0.021751763
00000000: ef30 0f3e 7bf0 25be 97b7 283f 29ce 123e
00000010: 2812 45be a5e2 38bf fd74 acbd d8ea 8f3e
00000020: 65ea dfbd 7ac0 8f3d cf7d 433d ed40 6cbe
00000030: d0e6 4e3e 7f1b 17be 09a7 12be c3c7 ebbd
00000040: e0e4 bdbc 5d3a 833d 2afe 2e3d 0af0 2ebb
00000050: 64d0 3dbe 67b4 47bc a308 473e 194a 67be
00000060: adb4 413c 6fd8 0b3e b560 5d3e 44b3 a1bd
00000070: 367d 6b3d c130 b23c

layers.6.weight f4 [30, 30]
-0.097107135 -0.22012787 -0.037427265 -0.06608009 0.02437416 0.25732884 0.22066455 0.20163678
-0.0473597 -0.048251685 0.09058927 -0.18914877 0.09787483 0.03399765 -0.107358396 0.17946732
0.17341836 0.05798605 0.2567174 0.25967535 0.30107132 -0.033778965 0.041942053 0.23963821
-0.2007395 -0.22802165 0.11483806 0.11756766 0.13163427 -0.007945037 0.19644274 0.20223077
0.815701 -0.07537157 -0.03196254 0.32028174 -0.046417207 -0.23019166 0.16482677 0.12050167
-0.22716542 0.033791527 -0.06300918 -0.14527425 0.24524692 -0.096386515 0.018466895 0.093366966
0.007997646 0.44510925 -0.19119173 -0.2725296 -0.052848883 0.16484518 0.06673558 0.091303386
0.08239609 0.04311064 0.17199743 0.15463321 0.08719292 0.0026113498 0.061015945 -0.0035949568
-0.013970134 0.13684721 0.16010535 0.19178955 -0.018415518 -0.18268907 0.23326275 -0.095883004
0.06593601 0.1327895 0.098606855 0.097647995 0.08852524 0.1345047 -0.07159585 0.16927046
0.24774748 -0.02862887 -0.12109905 0.0490886 -0.09340496 -0.100440286 -0.12269701 0.12535734
-0.10552417 -0.106875524 -0.09315695 0.098225795 0.27125332 -0.15757233 0.090856425 0.36616167
-0.092204854 -0.38140166 -0.08028623 0.0028914139 -0.33732116 0.19931899 -0.42700884 -0.23923695
0.11092657 0.057574395 0.079259776 0.09072072 -0.10683219 -0.013239991 -0.13639131 -0.22588041
-0.064407095 0.21105842 -0.103241384 0.11474227 0.08645086 -0.0705542 0.097266585 0.017029423
-0.07449871 0.13087997 -0.08282132 0.03259559 -0.010422141 -0.120322965 0.1287643 0.1847937
0.049387548 -0.12584983 -0.10326507 -0.015825545 -0.13746676 -0.019099561 -0.04486378 -0.17011416
0.15963167 -0.030068953 -0.15054756 0.11517526 0.15305689 0.031277902 -0.05064022 0.106494784
-0.058980335 -0.14850032 -0.012084025 0.17784825 -0.16897155 0.1045064 -0.12955292 0.09532414
-0.13035369 -0.05369165 -0.07645229 0.09744631 -0.06440251 -0.13507771 0.0180643 0.046641253
-0.009650308 0.15031785 0.11444851 -0.043249063 -0.08809012 0.057012755 0.026361749 -0.05555173
-0.14598735 0.20988534 0.016214667 0.12087743 -0.101502106 -0.07052377 0.025479717 0.2010545
0.13403429 0.14257556 -0.21991421 -0.25582626 -0.11465952 0.07014485 -0.31080958 -0.15067823
-0.0038887071 0.18087749 -0.16215084 0.08836209 0.17719299 -0.07751039 0.038459986 0.066615425
-0.11026197 0.31802553 0.17612025 -0.09319462 -0.013840249 0.118638195 0.17903772 -0.10657784
0.24137603 0.09414536 -0.091925085 0.0876839 0.08561875 0.25081134 -0.095783986 -0.11026441
-0.074382074 -0.1356737 -0.006977004 -0.15870537 -0.17248315 -0.1227615 0.024524944 -0.19810075
0.041995797 0.16676795 0.04724434 0.02759389 -0.09370687 0.18228565 0.11356189 -0.12906107
0.12048174 0.15171003 -0.039768405 0.032734785 -0.05353005 -0.0790287 -0.10858745 0.09656555
-0.13065042 -0.10367314 -0.07969453 -0.19001979 -0.10639234 0.06432907 -0.090131186 0.08572082
0.06811446 -0.10281869 -0.067361966 -0.12619762 -0.0048887637 -0.133475 -0.05038182 0.18486258
-0.16045769 -0.19440576 0.09331538 0.17341068 0.03510387 -0.020207644 -0.14876893 0.0942489
00000000: 1be0 c6bd 3369 61be 554d 19bd 0055 87bd
00000010: 52ac c73c 9bc0 833e e3f5 613e df79 4e3e
00000020: 3ffc 41bd 8fa3 45bd de86 b93d 37b0 41be
00000030: 9972 c83d 1f41 0b3d b8de dbbd 48c6 373e
00000040: 9594 313e c882 6d3d 7770 833e 2bf4 843e
00000050: 0526 9a3e d05b 0abd 6ecb 2b3d b863 753e
00000060: a88e 4dbe 827e 69be 3830 eb3d 50c7 f03d
00000070: 22cb 063e e72b 02bc 4928 493e 9515 4f3e
00000080: c8d1 503f 695c 9abd 27eb 02bd f8fb a33e
00000090: f81f 3ebd 5db7 6bbe 59c8 283e 94c9 f63d
000000a0: 0d9e 68be fc68 0a3d f50a 81bd c6c2 14be
000000b0: 0222 7b3e 4b66 c5bd e347 973c 2e37 bf3d
000000c0: 8f08 033c 5ce5 e33e c4c7 43be 0089 8bbe
000000d0: 1278 58bd 2dcd 283e aaac 883d 45fd ba3d
000000e0: 48bf a83d c894 303d 1820 303e 2b58 1e3e
000000f0: 3492 b23d 2e23 2b3b dbeb 793d 5e99 6bbb
00000100: fde2 64bc ad21 0c3e a8f2 233e 7b64 443e
00000110: 24dc 96bc d812 3bbe 6edc 6e3e 4f5e c4bd
00000120: 7509 873d f8f9 073e 64f2 c93d acfb c73d
00000130: b94c b53d 9abb 093e d8a0 92bd 3c55 2d3e
00000140: 84b1 7d3e 1887 eabc c702 f8bd 2111 493d
00000150: 1a4b bfbd a3b3 cdbd 9248 fbbd ad5d 003e
00000160: 0e1d d8bd 8ee1 dabd 12c9 bebd 9b2a c93d
00000170: b7e1 8a3e a45a 21be ef12 ba3d 8b79 bb3e
00000180: e6d5 bcbd 1447 c3be 1b6d a4bd e07d 3d3b
00000190: 5cb5 acbe 471a 4c3e e7a0 dabe 88fa 74be
000001a0: 782d e33d 21d3 6b3d f352 a23d c9cb b93d
000001b0: d6ca dabd 8cec 58bc 2aaa 0bbe 324d 67be
000001c0: dee7 83bd b31f 583e 3870 d3bd fffd ea3d
000001d0: 260d b13d b87e 90bd b433 c73d 4a81 8b3c
000001e0: c892 98bd 6605 063e 399e a9bd f482 053d
000001f0: a1c1 2abc e36b f6bd cada 033e 8f3a 3d3e
00000200: 994a 4a3d c7de 00be a37c d3bd 93a4 81bc
00000210: 16c4 0cbe af76 9cbc 15c3 37bd 6832 2ebe
00000220: 7c76 233e 2a53 f6bc 2429 1abe 02e1 eb3d
00000230: f2ba 1c3e 421d 003d 1f6c 4fbd f019 da3d
00000240: 5d95 71bd 7810 18be 13fc 45bc da1d 363e
00000250: e106 2dbe 7407 d63d 85a9 04be 4d39 c33d
00000260: 707b 05be c7eb 5bbd 0593 9cbd ee91 c73d
00000270: 77e5 83bd d051 0abe 95fb 933c e60a 3f3d
00000280: 531c 1ebc ecec 193e fb63 ea3d ee25 31bd
00000290: 9868 b4bd 3586 693d 98f4 d73c 368a 63bd
000002a0: b57d 15be 2fec 563e 9fd4 843c 968e f73d
000002b0: 56e0 cfbd c46e 90bd d7ba d03c 3be1 4d3e
000002c0: 4940 093e 54ff 113e 3131 61be a9fb 82be
000002d0: 9cd2 eabd 1aa8 8f3d 6f22 9fbe 654b 1abe
000002e0: aed9 7ebb f337 393e df0a 26be 2ff7 b43d
000002f0: 1472 353e c4bd 9ebd 3888 1d3d ab6d 883d
00000300: 07d1 e1bd 3ed4 a23e de58 343e d2dc bebd
00000310: 36c2 62bc 95f8 f23d aa55 373e 7c45 dabd
00000320: 472b 773e 48cf c03d 3843 bcbd 9e93 b33d
00000330: e258 af3d 586a 803e 652a c4bd 4fd2 e1bd
00000340: a155 98bd 0cee 0abe 5a9f e4bb a983 22be
00000350: 6c9f 30be 626a fbbd 89e8 c83c ecda 4abe
00000360: c903 2c3d 38c5 2a3e 4883 413d 950c e23c
00000370: 63e9 bfbd 17a9 3a3e 2393 e83d 9628 04be
00000380: 21bf f63d e059 1b3e 32e4 22bd e914 063d
00000390: 5342 5bbd cdd9 a1bd 1963 debd 29c4 c53d
000003a0: 39c9 05be 9552 d4bd e336 a3bd 8c94 42be
000003b0: 3ae4 d9bd f6be 833d b396 b8bd 668e af3d
000003c0: 987f 8b3d 9b92 d2bd 12f5 89bd f339 01be
000003d0: ec31 a0bb acad 08be 2b5d 4ebd 9e4c 3d3e
000003e0: 054f 24be 4e12 47be 221c bf3d 9292 313e
000003f0: 13c9 0f3d 808a a5bc e256 18be 9105 c13d

layers.6.bias f4 [30]
0.028333332 0.21824417 0.17001247 -0.26733357 -0.094581835 0.13479878 -0.22735848 -0.2252134
-0.07141993 0.10899749 0.02581914 -0.00078496564 -0.10349442 0.20202367 0.0702187 0.025327303
-0.06815384 0.17522463 0.18170618 0.083146416 -0.08932199 0.013166759 -0.07529545 0.18178011
0.023456037 0.15743533 -0.10000127 0.04643405 0.0016499107 0.08053225
00000000: 4e1b e83c 667b 5f3e c017 2e3e f2df 88be
00000010: 1fb4 c1bd b108 0a3e a9d0 68be 579e 66be
00000020: 9d44 92bd 133a df3d a982 d33c 27c6 4dba
00000030: e2f4 d3bd 4bdf 4e3e d2ce 8f3d 347b cf3c
00000040: 3e94 8bbd 166e 333e 2f11 3a3e ab48 aa3d
00000050: 73ee b6bd 64b9 573c 8034 9abd 9124 3a3e
00000060: e026 c03c ba36 213e 77cd ccbd a131 3e3d
00000070: d141 d83a 18ee a43d

layers.8.weight f4 [1, 30]
0.407299 0.8096598 0.22565152 0.15324062 0.08545987 0.017766193 -0.12841704 0.15415408
0.18085676 0.08924776 -0.2968545 0.033495363 -0.14067337 -0.6141519 0.071565434 -0.03178034
0.0590245 0.07941685 0.08304126 -0.17000915 -0.085195355 0.29270345 0.107735865 -0.05102266
-0.08945271 -0.0736601 0.31465203 0.054396197 0.029954068 0.024270326
00000000: 7f89 d03e dd45 4f3f 3111 673e 1ceb 1c3e
00000010: 9605 af3d 688a 913c c27f 03be 91da 1d3e
00000020: 8432 393e 88c7 b63d 50fd 97be 6f32 093d
00000030: ae0c 10be 0f39 1dbf e690 923d 1a2c 02bd
00000040: adc3 713d 4da5 a23d 8911 aa3d e116 2ebe
00000050: e77a aebd 3add 953e 9fa4 dc3d 23fd 50bd
00000060: fb32 b7bd 1bdb 96bd 121a a13e 8cce 5e3d
00000070: 3c62 f53c 90d2 c63c
