BURGERS/EPOCHS_100_Nu_25%Nf/50epochs.pth (torch, 15082 bytes, 9 tensors)

layers.0.weight f4 [30, 2]
0	0x3efb0a10	0.49031115
1	0xbd8e8a34	-0.06959954
2	0x3d561bee	0.05227273
3	0xbeebf714	-0.46086943
4	0x3ef775df	0.48332116
5	0xbf036cd5	-0.5133794
6	0x3f61f484	0.88263726
7	0x3e00bc4e	0.12571833
8	0xbf0f1b41	-0.5590096
9	0xbeb7525e	-0.3580503
10	0x3f088f5e	0.5334376
11	0xbdca86ba	-0.09888978
12	0xbe8d0cc4	-0.27548802
13	0x3e8e9b47	0.27852842
14	0xbe4d7e80	-0.20067787
15	0xbf2b981a	-0.67028964
16	0xbeae6d81	-0.3406792
17	0xbf04a33f	-0.51811594
18	0x3d185e6f	0.037199434
19	0xbe347fab	-0.17626826
20	0xbf77ded2	-0.9682437
21	0x3ede7eb3	0.4345604
22	0xbd98f910	-0.0746938
23	0xbdfb8727	-0.12281638
24	0xbecfed41	-0.40610698
25	0xbddbe415	-0.107368626
26	0xbea26223	-0.31715497
27	0xbe0b380c	-0.13595599
28	0xbedbd38a	-0.4293483
29	0x3ee726a8	0.4514668
30	0xbe8e2c3e	-0.2776813
31	0xbe2c2a02	-0.168129
32	0xbd4bad46	-0.049725793
33	0x3f519f14	0.8188336
34	0xbe9a6db3	-0.3016182
35	0xbe5ed4fb	-0.21760933
36	0x3e952812	0.29132134
37	0xbea09eae	-0.31371063
38	0x3e930af0	0.28719282
39	0x3e933ace	0.28755802
40	0x3ef4942f	0.47769305
41	0xbd3221d8	-0.043489307
42	0x3f34ce70	0.706275
43	0xbdc79993	-0.09746089
44	0xbee3aaf5	-0.44466367
45	0xbedb1ba0	-0.42794514
46	0x3f61b0eb	0.8816058
47	0xbe52d441	-0.20588781
48	0x3f2326f9	0.6373134
49	0xbf102988	-0.5631337
50	0xbf1d9f32	-0.6157104
51	0x3f0f730e	0.56034935
52	0xbf05712e	-0.52125823
53	0x3e16bdca	0.14720836
54	0x3f54fb80	0.8319626
55	0x3e9f28e3	0.31085882
56	0x3ee4b606	0.44670123
57	0x3f037669	0.51352555
58	0xbe8a81f8	-0.27052283
59	0x3d1d7eeb	0.038451117

layers.0.bias f4 [30]
0	0x3f1592d6	0.5842718
1	0xbea91124	-0.3302089
2	0xbd12570b	-0.035727542
3	0xbe6323ff	-0.221817
4	0xbf0692ab	-0.5256755
5	0xbe455299	-0.1926979
6	0xbf3c5336	-0.7356447
7	0x3e258546	0.16164121
8	0xbf25f2f2	-0.6482383
9	0xbf0c360f	-0.54769987
10	0xbf4cb60b	-0.79965276
11	0xbe81d071	-0.2535434
12	0x3c672c95	0.01410975
13	0xbeaf30d4	-0.3421694
14	0x3f38ed60	0.72237206
15	0xbed0a4ab	-0.40750632
16	0x3ebe71a5	0.3719608
17	0x3f464b24	0.77458405
18	0x3e0203a7	0.12696706
19	0x3e8478f5	0.25873533
20	0xbf14c95d	-0.58119756
21	0xbefc5e37	-0.4929063
22	0x3f305f22	0.6889516
23	0xbe6d8d0e	-0.2319834
24	0xbf5cfe2b	-0.8632533
25	0xbe8e78c1	-0.27826503
26	0xbf11a283	-0.568886
27	0xbe71278b	-0.2355024
28	0x3f01c302	0.50688183
29	0xbdcaa1af	-0.0989412

layers.2.weight f4 [30, 30]
0	0x3d5ad182	0.05342246
1	0xbcd64a65	-0.026158521
2	0x3dc023c7	0.09381824
3	0x3e0ed5e7	0.13948785
4	0x3eb6bcd9	0.35690954
5	0xbdef2051	-0.11676086
6	0xbe8d6f72	-0.2762409
7	0xbde7efaa	-0.11325009
8	0x3c38b83d	0.011274395
9	0xbe828fe1	-0.25500396
10	0xbd9e215d	-0.07721207
11	0x3dade2e2	0.0849054
12	0xbdc0712d	-0.093965866
13	0x3db16233	0.08661308
14	0xbcb81c67	-0.02247448
15	0xbdeee658	-0.11665028
16	0xbde39f37	-0.11114352
17	0xbd7263d5	-0.05917724
18	0xbe204566	-0.15651473
19	0xbe16eae3	-0.1473804
20	0x3d5b42fd	0.053530682
21	0xbe5be58f	-0.21474288
22	0x3dcc9c8f	0.09990799
23	0xbe5b33f6	-0.2140654
24	0xbe159764	-0.14608532
25	0xbd444a9b	-0.04792271
26	0x3e7fdc8f	0.2498648
27	0x3e45def5	0.19323333
28	0xbd8135be	-0.06309079
29	0x3e3b8b65	0.18314894
30	0xbe873d48	-0.2641394
31	0x3e468dd8	0.19390047
32	0xbe36a1e7	-0.17835198
33	0x3f382af3	0.71940535
34	0xbd541d7e	-0.05178594
35	0xbe3ae4f1	-0.18251397
36	0x3e3eac30	0.18620372
37	0x3e090b8f	0.13383316
38	0x3e352733	0.17690735
39	0xbe50ae31	-0.20378949
40	0x3dc2ef46	0.09518294
41	0xbe83e978	-0.2576406
42	0xbedaf611	-0.4276586
43	0x3d5cea69	0.05393449
44	0xbdd6714d	-0.10470829
45	0x3ebcddb6	0.36887902
46	0xbd83eccf	-0.06441652
47	0x3f2bc84c	0.67102504
48	0x3e86671a	0.26250535
49	0xbe62629f	-0.22107933
50	0xbdecb7b4	-0.11558476
51	0xbe99b3ef	-0.3002009
52	0x3e934647	0.28764555
53	0xbd913b7f	-0.07091426
54	0xbe4df929	-0.20114578
55	0x3dcfba9c	0.10143015
56	0x3dd8b617	0.10581606
57	0x3e27f37f	0.1640148
58	0xbe05d7a4	-0.13070542
59	0xbe93cd0a	-0.2886737
60	0xbeae72fc	-0.340721
61	0x3d9eba7a	0.07750411
62	0xbd5217de	-0.051292293
63	0xbc6bc493	-0.014390129
64	0xbedf5395	-0.43618456
65	0xbe10ecd8	-0.14152849
66	0xbe57effc	-0.2108764
67	0xbdb2edf9	-0.08736796
68	0x3e42fe15	0.19042237
69	0xbe8bd06a	-0.27307445
70	0xbd22661e	-0.039648168
71	0x3d61e198	0.055146784
72	0xbedbe060	-0.42944622
73	0x3e9e67d3	0.30938587
74	0xbc79ab4e	-0.015238596
75	0x3e1c733e	0.15278336
76	0xbdc2ba38	-0.09508175
77	0x3e1bb140	0.15204334
78	0x3d01ee53	0.031721424
79	0xbead28c0	-0.33820152
80	0xbe5e79a3	-0.21726088
81	0xbeac4599	-0.3364685
82	0x3e0518c9	0.12997736
83	0x3d65534e	0.05598765
84	0xbea0b080	-0.3138466
85	0xbd90e49b	-0.07074853
86	0x3f068857	0.5255179
87	0x3ed9889c	0.42487037
88	0x3d962fd2	0.0733334
89	0xbf017c25	-0.50580055
90	0x3e6317ac	0.22176999
91	0xbe063969	-0.13107838
92	0x3dcb4bdc	0.099265784
93	0xbe2e0fbb	-0.16998188
94	0x3e409e33	0.18810348
95	0x3d286d25	0.041119713
96	0x3e61b60f	0.22042106
97	0x3d7d6c67	0.06187096
98	0xbe8b9cec	-0.2726816
99	0x3e16b30c	0.14716738
100	0xbd84cc03	-0.06484225
101	0xbd4ba7e9	-0.04972068
102	0xbe13612a	-0.14392534
103	0xbe08e375	-0.13368018
104	0xbe1d1248	-0.15339005
105	0xbde26367	-0.11054116
106	0x3cc19de6	0.023634862
107	0xbe7d8a7f	-0.24759863
108	0x3e5312f6	0.20612702
109	0x3dae4b79	0.08510489
110	0x3b9275c7	0.0044696066
111	0xbdeb0b18	-0.11476725
112	0x3c7d657c	0.01546609
113	0xbc123336	-0.008923342
114	0x3e8ee0ff	0.27906033
115	0x3e33e9e2	0.17569688
116	0x3c7973ed	0.015225393
117	0x3da4b899	0.08043022
118	0x3ebed9e3	0.3727561
119	0xbd2d0384	-0.04223968
120	0xbeee0932	-0.4649139
121	0xbdc7b3ec	-0.09751114
122	0xbe8c1b27	-0.27364466
123	0xbe799169	-0.24371876
124	0xbe41f3fe	-0.18940732
125	0xbde53250	-0.11191237
126	0x3e0be560	0.13661718
127	0x3f6696fd	0.9007414
128	0x3e45797c	0.19284624
129	0xbf1a8eb2	-0.60373986
130	0x3f5adef8	0.85496473
131	0xbda87823	-0.08226039
132	0xbe7d5263	-0.2473846
133	0x3eb4957f	0.35270306
134	0xbe00edff	-0.12590788
135	0xbd96989b	-0.07353326
136	0x3ebf2228	0.37330747
137	0xb9a0cd86	-0.00030670705
138	0x3f197681	0.5994645
139	0xbeddc981	-0.43317798
140	0xbf27d80d	-0.6556404
141	0xbf1ff662	-0.62485325
142	0xbec68e93	-0.3878065
143	0xbc97224e	-0.018448975
144	0xbdad42e1	-0.08460022
145	0xbd91622f	-0.07098805
146	0x3efa984d	0.4894432
147	0x3ed82ad1	0.42220166
148	0x3eb32da2	0.34995753
149	0xbe5c47cd	-0.21511765
150	0xbd0c959b	-0.034322362
151	0x3ec47d75	0.38376966
152	0x3ca057b6	0.019573074
153	0x3e168a0d	0.147011
154	0x3e453883	0.19259839
155	0x3e082f9d	0.13299413
156	0xbe71fe6a	-0.23632208
157	0x3dd32204	0.10309222
158	0x3e694efb	0.22784035
159	0x3d670350	0.056399643
160	0xbe260d23	-0.16215949
161	0xbeaabab1	-0.3334556
162	0x3da2438e	0.07923041
163	0x3d8c558a	0.06852253
164	0x3e6d550a	0.23176971
165	0xbea56539	-0.3230379
166	0xbe056fdd	-0.13030954
167	0xbe42755f	-0.18990086
168	0xbeb33938	-0.35004592
169	0x3e74ca0d	0.23905201
170	0x3e529c57	0.20567451
171	0x3d77e5d8	0.06052193
172	0xbe1a4cd9	-0.15068378
173	0xbdfe223f	-0.12408876
174	0xbe306ab6	-0.17228207
175	0xbe8d2cf0	-0.27573347
176	0xbe286349	-0.16444124
177	0x3e57dcaa	0.2108027
178	0xbe722faf	-0.23651002
179	0x3ed2642d	0.41092053
180	0x3e71266a	0.2354981
181	0xbdfd3ab5	-0.12364713
182	0x3eb4c32c	0.35305154
183	0xbcbe7432	-0.023248766
184	0x3d732108	0.059357673
185	0x3dca3e10	0.09875119
186	0xbddb1333	-0.10697021
187	0xbe251de3	-0.16124682
188	0xbe2c6f2d	-0.16839285
189	0x3e2dc676	0.16970238
190	0xbe2164cb	-0.15761106
191	0x3e7182af	0.23585008
192	0x3e0dc9b9	0.13846482
193	0xbda560ed	-0.08075128
194	0x3da3db1b	0.080007754
195	0x3d4eaa72	0.050455518
196	0xbe05151d	-0.12996335
197	0xbe83dec2	-0.25755888
198	0xbe4f32f1	-0.20234276
199	0x3ed1938f	0.4093289
200	0x3d23be20	0.03997624
201	0x3e963530	0.29337454
202	0xbd6cf299	-0.057848547
203	0xbb559bad	-0.003259401
204	0x3df62c7a	0.12020202
205	0x3e56d874	0.20981008
206	0xbeb136a1	-0.3461199
207	0xbeb10c82	-0.34579855
208	0xbe5a53f0	-0.21321082
209	0x3eb28ccf	0.34873053
210	0xbd8779af	-0.06615006
211	0xbe8c0464	-0.273471
212	0x3e494f8a	0.19659248
213	0xbe028c7f	-0.12748908
214	0xbe38542f	-0.18000863
215	0x3e33ccdd	0.17558618
216	0x3d1e0247	0.03857639
217	0x3e3ccd21	0.18437625
218	0x3c5d7de9	0.013518789
219	0x3cdd4809	0.027011888
220	0x3eb3cb7f	0.35116193
221	0xbe19de21	-0.15026142
222	0x3dd09c14	0.101860195
223	0x3d7f2ed1	0.062300507
224	0xbe2fe9b0	-0.17178988
225	0xbdb2d6d5	-0.08732382
226	0x3ea44d0b	0.3209003
227	0xbcb82ba3	-0.022481745
228	0x3eb4e58b	0.35331377
229	0x3d8c63d7	0.068549804
230	0xbe4e50f3	-0.20148067
231	0xbe628f8c	-0.22125071
232	0xbead8e4f	-0.33897635
233	0x3c3ec6ef	0.011644109
234	0x3ee1626d	0.44020405
235	0xbea384b1	-0.31937173
236	0xbba56d8c	-0.0050484594
237	0xbd9cd30e	-0.07657443
238	0x3e292193	0.16516714
239	0x3dc6f3b3	0.09714451
240	0x3ed0ac56	0.40756482
241	0x3da6c72a	0.08143456
242	0x3d3db661	0.04631651
243	0x3d938a76	0.07204144
244	0xbe5eedac	-0.21770352
245	0xbd126419	-0.03573999
246	0x3d132a19	0.03592882
247	0x3e69947f	0.22810553
248	0x3dd259a1	0.102710016
249	0x3ddb4221	0.107059725
250	0x3dff3eec	0.12463173
251	0xbd775ebe	-0.060393088
252	0x3dafb4ec	0.0857943
253	0x3d354594	0.044255808
254	0xbca1dd2f	-0.019758789
255	0x3d0765c7	0.033056047

layers.2.bias f4 [30]
0	0xbdac5c9b	-0.084161006
1	0x3e798a5a	0.24369183
2	0x3d6b94f8	0.057515115
3	0x3d25755d	0.04039513
4	0x3f6d9822	0.9281026
5	0x3d67f53c	0.056630358
6	0xbe0778f9	-0.13229741
7	0x3e4c050f	0.19923805
8	0x3d8e3c67	0.069451146
9	0xbe716d36	-0.23576817
10	0xbd4f3d1d	-0.05059539
11	0x3eaa5ae4	0.3327247
12	0xbe4dd393	-0.2010024
13	0xbe28b424	-0.16474968
14	0x3d094874	0.033516362
15	0xbe372cac	-0.17888135
16	0xbc8aba67	-0.016934587
17	0xbd87db88	-0.06633669
18	0xbe22cbb0	-0.15898013
19	0xbc9c3c64	-0.019071765
20	0x3f294b16	0.661302
21	0x3e14e8d2	0.14541939
22	0x3ec8dda1	0.3923159
23	0x3d4852ab	0.048906963
24	0x3d9d7f91	0.07690347
25	0x3e998923	0.2998744
26	0xbe14f48f	-0.14546417
27	0x3d2daf41	0.042403463
28	0xbe1cf10c	-0.15326327
29	0x3e06c741	0.13161947

layers.4.weight f4 [30, 30]
0	0x3c85963f	0.016306994
1	0xbab05f60	-0.0013456158
2	0x3e4a840e	0.19776937
3	0xbd134282	-0.0359521
4	0xbe6c2bf6	-0.23063645
5	0xbd9d038c	-0.07666692
6	0xbd8d9306	-0.06912808
7	0x3d193b52	0.037410088
8	0xbd6647a1	-0.056220654
9	0xbe2bcf23	-0.16778235
10	0x3e23eadb	0.16007559
11	0x3d77814d	0.060426045
12	0xbe2d0dd1	-0.16899802
13	0xbe138eed	-0.1440999
14	0x3e823be1	0.2543631
15	0x3d340869	0.043953333
16	0x3d4095d5	0.04701789
17	0x3e7b4f7c	0.2454204
18	0xbae2b693	-0.0017296843
19	0xbd91a48e	-0.071114644
20	0xbd9fbadb	-0.07799312
21	0xbcaae927	-0.020863129
22	0x3dcefbf2	0.101066485
23	0xbe49729f	-0.1967263
24	0xbae6f994	-0.0017621987
25	0xbe51e904	-0.20499045
26	0xbd578384	-0.052615657
27	0xbdcbc335	-0.09949342
28	0xbde9f506	-0.11423688
29	0xbd0ce4c9	-0.034397874
30	0x3e67a4ad	0.22621413
31	0x3e20447e	0.15651128
32	0x3e4aa7c5	0.19790561
33	0xbd99e641	-0.075146206
34	0x3e91fd06	0.28513354
35	0xbdb00996	-0.08595578
36	0xbe30d3bc	-0.1726827
37	0xbe045da3	-0.12926345
38	0x3d3236d9	0.043509338
39	0xbed8330b	-0.42226443
40	0xbc9c7a2e	-0.019101229
41	0x3e9e6dd9	0.30943182
42	0xbe29089d	-0.16507192
43	0xbbdb43e8	-0.0066914447
44	0xbd14036b	-0.036136072
45	0xbd3b4ad7	-0.04572567
46	0x3ded8382	0.11597349
47	0x3dbad2c6	0.09122233
48	0x3d4ab595	0.049489576
49	0x3e6481fd	0.22315212
50	0xbe914431	-0.28372338
51	0x3dc5232f	0.09625851
52	0x3e83bfc7	0.25732252
53	0xbc6a827f	-0.014313339
54	0x3d1e1c6d	0.038601328
55	0xbd67eaf4	-0.056620553
56	0xbe26cb3a	-0.16288462
57	0xbe7c9c6c	-0.24669045
58	0x3daef2a2	0.08542372
59	0x3e7c7b27	0.24656354
60	0x3dd6789b	0.104722224
61	0x3cd27102	0.025688652
62	0x3de7271d	0.11286757
63	0x3e0bdecd	0.1365921
64	0x3e017a00	0.12644196
65	0x3d490d1d	0.04908477
66	0x3d93ddcd	0.072200395
67	0xbdd8ebdf	-0.10591864
68	0x3d67db35	0.056605536
69	0xbecc996d	-0.39960805
70	0xbe02966e	-0.12752697
71	0x3e22297a	0.15836135
72	0xbd1e3102	-0.038620956
73	0x3da19b03	0.07890894
74	0xbd6a346a	-0.057178892
75	0x3e158656	0.14602026
76	0x3d73c3ac	0.05951278
77	0x3e26bdfe	0.16283414
78	0xbdb5bd1a	-0.08873959
79	0xbd3c3107	-0.045945194
80	0xbeb83514	-0.35977995
81	0xbc69ba18	-0.01426556
82	0x3e299916	0.16562304
83	0x3dd1587c	0.10221955
84	0xbd86463f	-0.06556367
85	0x3e6bdbf2	0.23033121
86	0xbe097052	-0.13421753
87	0xbc5f520c	-0.013630401
88	0xbdf62e0c	-0.120205015
89	0x3e904c81	0.28183368
90	0xbdb500db	-0.08838054
91	0xbe53d70b	-0.20687501
92	0xbe692fab	-0.2277209
93	0x3d31764a	0.0433257
94	0x3d0ba511	0.034092966
95	0x3dd37e3e	0.10326813
96	0xbe03993f	-0.12851427
97	0xbda34bb7	-0.07973426
98	0x3db29c6b	0.087212406
99	0x3dea32a8	0.11435443
100	0xbd0dbb0e	-0.034602217
101	0xbd27215d	-0.040803302
102	0x3cfb5700	0.030681133
103	0xbb9d4acf	-0.0048001776
104	0x3e7e24ec	0.24818772
105	0x3df8412e	0.12121807
106	0x3dba51c0	0.09097624
107	0xbe23b2ec	-0.15986222
108	0xbda54066	-0.08068924
109	0xbdf474c4	-0.11936334
110	0x3d95d9f7	0.07316964
111	0x3d7b0dd6	0.06129249
112	0x3da2cd8f	0.079493634
113	0xbe1b3cf7	-0.15159975
114	0x3cec8458	0.0288717
115	0xbdaa05a0	-0.08301854
116	0xbd9f6395	-0.07782666
117	0x3d30ecbc	0.043194517
118	0xbdcb5334	-0.09927979
119	0x3cba66ac	0.022754036
120	0xbdec2882	-0.11531164
121	0x3e65797a	0.22409621
122	0xbb7aff75	-0.0038299237
123	0xbce26430	-0.027635664
124	0x3df0c82e	0.11756931
125	0x3e382ca8	0.17985785
126	0xbe784ce4	-0.24248081
127	0x3e404e49	0.18779863
128	0x3e22eea0	0.1591134
129	0x3d9807fa	0.074233964
130	0xbe0f6b2b	-0.14005725
131	0xbc8fd30f	-0.017556695
132	0xbe219d98	-0.15782773
133	0x3cadbdbe	0.02120864
134	0xbd838dcd	-0.06423531
135	0xbcbd070f	-0.023074655
136	0x3ceb0e8c	0.02869346
137	0x3dbe9731	0.09306181
138	0xbe06f7f6	-0.13180527
139	0x3d9f865d	0.077893
140	0xbbd648be	-0.0065394333
141	0xbe19b868	-0.15011752
142	0x3dbcc716	0.0921766
143	0x3ddad6e9	0.10685522
144	0x3c82f234	0.015984632
145	0x3d8e835d	0.06958649
146	0xbd90e4a7	-0.07074862
147	0xbd9e1636	-0.0771908
148	0xbe518b52	-0.20463303
149	0xbdbf6bab	-0.09346708
150	0xbe6c491d	-0.23074766
151	0x3e12d447	0.1433879
152	0x3c56a293	0.013100284
153	0x3dbf9352	0.09354271
154	0xbdb95453	-0.09049287
155	0xbe6e67c1	-0.23281766
156	0xbcb642cd	-0.02224865
157	0x3eb9f566	0.36320037
158	0x3d93d8c8	0.07219082
159	0x3cea1550	0.028574616
160	0x3e8cb25e	0.27479833
161	0xbd7390ff	-0.05946445
162	0xbcf16b90	-0.029470235
163	0x3b33c543	0.002743081
164	0xbb32f5a9	-0.002730707
165	0xbe4c4f52	-0.19952133
166	0x3dc00143	0.09375241
167	0x3dbbd56a	0.09171565
168	0x3cfd33c9	0.030908482
169	0xbca3ff24	-0.020019121
170	0x3e26f601	0.1630478
171	0x3d8e82ff	0.06958579
172	0x3dcf65f8	0.10126871
173	0x3cd87983	0.026425129
174	0xbd07da88	-0.033167392
175	0x3db04139	0.0860619
176	0x3d0e45bf	0.034734484
177	0xbd84152a	-0.06449349
178	0xbcdae0a6	-0.026718449
179	0xbe029785	-0.12753113
180	0xbe751923	-0.2393537
181	0xbe4cd476	-0.20002922
182	0xbe421b26	-0.18955669
183	0xbe43a4b2	-0.19105795
184	0xbea79c09	-0.32736233
185	0x3d3cf2e5	0.04613008
186	0x3eb7edec	0.35923707
187	0x3e66d91e	0.22543761
188	0x3d88b10e	0.066743955
189	0x3f37c4c6	0.7178463
190	0x3e1406c0	0.144557
191	0xbea05e63	-0.3132201
192	0x3eaba7b0	0.33526373
193	0xbc949205	-0.018136034
194	0x3dd0f4e9	0.10202963
195	0x3d0bd52d	0.034138847
196	0xbe28a44e	-0.16468927
197	0xbddcfae9	-0.10790045
198	0x3d9c3170	0.07626617
199	0xbf090125	-0.5351737
200	0x3f522726	0.82090986
201	0xbe94d1e9	-0.290664
202	0xbeb7fe18	-0.35936046
203	0x3d7f59fd	0.06234168
204	0xbd917ec5	-0.071042575
205	0xbbe0d940	-0.0068618357
206	0x3e765501	0.24055864
207	0x3ea0c1b3	0.3139778
208	0x3dd0493e	0.1017022
209	0xbf173406	-0.59063756
210	0xbe85df05	-0.26146713
211	0x3d08f694	0.03343828
212	0x3d4e0779	0.050300095
213	0x3d45e3d4	0.048312977
214	0xbe0af6c0	-0.1357069
215	0xbe19a14a	-0.15002933
216	0xbd31a224	-0.04336752
217	0x3d5df708	0.054190665
218	0x3dea44fe	0.114389405
219	0x3edbfae4	0.42964852
220	0x3dadd18a	0.08487232
221	0xbe8a4b04	-0.27010357
222	0x3dda760d	0.10667048
223	0xbdedaa26	-0.11604719
224	0x3d160e2a	0.0366346
225	0x3d4a7b09	0.04943374
226	0x3dc7d7e5	0.097579755
227	0x3c9ccf3e	0.01914179
228	0x3de7fdac	0.11327681
229	0xbe0f4d2c	-0.13994282
230	0x3eac4527	0.3364651
231	0x3d42e187	0.04757836
232	0xbd8cbdb6	-0.06872122
233	0xbd096cce	-0.03355103
234	0x3da3c717	0.07996958
235	0x3bdfe56c	0.006832769
236	0xbdd3e454	-0.103462845
237	0x3eb2cdc5	0.34922615
238	0x3ea1dc0b	0.31613192
239	0xbe6521d5	-0.22376187
240	0x3e361ec4	0.17785174
241	0xbd487b69	-0.048945818
242	0x3d1b2d81	0.037885193
243	0x3cc2776b	0.023738584
244	0x3d0d7489	0.034534965
245	0x3ea266a9	0.31718948
246	0x3e282e2d	0.16423865
247	0xbd9d6353	-0.0768496
248	0xbdf15970	-0.11784637
249	0xbc88c5fb	-0.016695967
250	0xbccf2052	-0.025283966
251	0xbde4abb2	-0.11165561
252	0xbdffd28d	-0.12491331
253	0xbe0225a8	-0.12709677
254	0x3e61e978	0.22061718
255	0xbdf40d3d	-0.119165875

layers.4.bias f4 [30]
0	0x3e02db17	0.12778889
1	0x3dfc311d	0.12314055
2	0xbc81091e	-0.015751418
3	0xbe02cc79	-0.12773313
4	0x3df1b302	0.11801721
5	0x3e74bdc4	0.23900515
6	0xbe0363ae	-0.12830994
7	0x3dd3e65c	0.10346672
8	0xbdb169dc	-0.08662769
9	0x3e0bc4fd	0.13649364
10	0x3d9750f6	0.07388489
11	0xbdb3e23a	-0.08783384
12	0x3daa0fdc	0.08303806
13	0xbdc02786	-0.093825385
14	0xbc5150b8	-0.0127755925
15	0xbea9e903	-0.33185586
16	0x3d6a3281	0.05717707
17	0xbd086af3	-0.03330512
18	0xbe4244f0	-0.1897161
19	0x3e0487a6	0.12942371
20	0xbe2df0e2	-0.16986421
21	0xbda8b3e3	-0.08237436
22	0x3c684239	0.014175945
23	0xbce2f62b	-0.027705273
24	0x3e625df2	0.2210615
25	0xbe28c28a	-0.16480461
26	0x3ce2fe78	0.02770923
27	0x3e0229a0	0.12711191
28	0x3c7406ac	0.014894169
29	0x3dba30e5	0.09091357

layers.6.weight f4 [30, 30]
0	0x3e0673be	0.1313009
1	0x3d3c18e6	0.045922183
2	0xbe1e9d35	-0.15489657
3	0xbd452885	-0.048134346
4	0x3e1fa58c	0.15590495
5	0xbc5b481b	-0.0133838905
6	0xbe3b607b	-0.18298523
7	0xbd75523f	-0.05989289
8	0xbcb2390b	-0.021755716
9	0x3de89a67	0.11357575
10	0xbd97dc33	-0.074150465
11	0x3cf2af89	0.029624717
12	0x3b335f9a	0.0027370215
13	0x3d9bbccb	0.07604369
14	0x3e66b6dd	0.22530694
15	0xbe0583d6	-0.13038573
16	0xbddc5596	-0.10758512
17	0xbe1c3f07	-0.15258418
18	0x3e5067cc	0.20352095
19	0x3dde59f2	0.108569995
20	0xbd8587f8	-0.065200746
21	0xbe2c622f	-0.16834329
22	0x3ddd22b4	0.10797635
23	0xbd30659e	-0.04306566
24	0x3df5901f	0.119903795
25	0x3d166768	0.03671971
26	0x3d02842c	0.03186433
27	0xbe193876	-0.14962944
28	0x3e1859b2	0.14877966
29	0xbca1fbd1	-0.019773396
30	0xbcfce248	-0.030869618
31	0x3dbbd6a7	0.09171801
32	0x3cc6972a	0.024242003
33	0x3d3589ad	0.04432075
34	0xbe202dc6	-0.15642461
35	0xbe3f84d0	-0.18703008
36	0xbdb52f12	-0.088468686
37	0xbd7cdafc	-0.061732277
38	0x3e31f87d	0.17379947
39	0xbde31ab2	-0.11089076
40	0x3d8e1bc0	0.06938887
41	0x3e3c7c6c	0.18406838
42	0xbe0c65d2	-0.13710716
43	0x3e284896	0.1643394
44	0xbdb5fbff	-0.08885955
45	0x3d548e0d	0.051893283
46	0x3cfe707c	0.031059496
47	0x3da00310	0.07813084
48	0x3d393e77	0.045225587
49	0xbdb70f7e	-0.08938502
50	0x3e656e9f	0.2240548
51	0x3c85a870	0.016315669
52	0x3dcb5c6f	0.0992974
53	0x3e29d4e6	0.1658512
54	0xbd6de8d7	-0.05808338
55	0x3e233a83	0.15940289
56	0x3c95fe08	0.018309608
57	0x3cea406e	0.028595176
58	0xbe5516dc	-0.20809501
59	0x3cf212f3	0.029550051
60	0xbe8109cf	-0.25202796
61	0xbe62b172	-0.22138003
62	0xbe583df1	-0.21117379
63	0xbbd2389a	-0.006415439
64	0x3e41aba6	0.18913135
65	0x3e4969af	0.19669221
66	0x3e6c7bac	0.23094052
67	0x3dd45b2f	0.103689544
68	0xbe035c25	-0.12828119
69	0xbe1c0058	-0.15234506
70	0x3dd3a306	0.10333829
71	0xbe56e4be	-0.20985696
72	0x3d89a19e	0.06720279
73	0xbc56b78a	-0.013105283
74	0xbd9a9a85	-0.075490035
75	0x3e930ab8	0.28719115
76	0x3e00d168	0.12579882
77	0x3def8e31	0.11697043
78	0x3f07da70	0.53067684
79	0xbe1d94e4	-0.15388829
80	0xbe8afed2	-0.27147537
81	0x3c8e5a16	0.01737694
82	0xbd10714c	-0.0352643
83	0xbd873d3c	-0.066034764
84	0xbe05d44c	-0.13069266
85	0xbe41c3b8	-0.18922317
86	0x3e24e7c9	0.16104044
87	0x3c4052c0	0.011738479
88	0xbd756262	-0.05990828
89	0x3e08c26e	0.13355419
90	0xbe1e9953	-0.15488176
91	0x3e3be1df	0.18347882
92	0x3d682221	0.056673173
93	0xbd205f87	-0.039153602
94	0xbd5c3a99	-0.05376682
95	0x3dc6a086	0.09698586
96	0xbe084a16	-0.13309512
97	0xbe37f165	-0.17963178
98	0x3e164581	0.14674951
99	0xbc4bc454	-0.012436945
100	0xbdea2606	-0.11433034
101	0xbdb40385	-0.08789734
102	0x3b7d5bd8	0.003865948
103	0xbdfeb626	-0.12437086
104	0x3d24c749	0.040229116
105	0xbd8a154a	-0.06742342
106	0xbc204d69	-0.009784081
107	0x3e2d9722	0.16952184
108	0x3b5167eb	0.003195281
109	0x3bd0ba83	0.00636989
110	0xbe241327	-0.16022931
111	0x3d3f2de0	0.04667461
112	0x3e0145bd	0.1262426
113	0x3cb6292a	0.022236425
114	0xbd11e883	-0.03562213
115	0xbdfc6ad8	-0.12325066
116	0x3e00f07c	0.12591738
117	0x3e1c8ba9	0.15287651
118	0x3dd1e4f4	0.102487475
119	0xbe59d5e0	-0.21272993
120	0x3db95697	0.09049719
121	0x3e66158c	0.22469157
122	0xbd7f257f	-0.06229162
123	0xbe403ee6	-0.18773994
124	0x3d98734c	0.07443866
125	0xbdfa66a4	-0.122266084
126	0xbe737975	-0.23776801
127	0x3d922c65	0.07137374
128	0xbe5f5153	-0.21808366
129	0xbdd5313f	-0.104097836
130	0xbe26bde3	-0.16283374
131	0xbe1130df	-0.14178799
132	0x3ddd7510	0.108133435
133	0x3e87b458	0.2650478
134	0x3e28f6aa	0.16500345
135	0x3cf343fc	0.029695503
136	0xbe29fa14	-0.16599303
137	0x3e3fd13d	0.18732162
138	0xbd091987	-0.03347161
139	0xbe0d2dcb	-0.13787
140	0x3d1abbe3	0.03777684
141	0xbc65f25c	-0.014034834
142	0xbdf8ad9e	-0.1214249
143	0x3d74a21e	0.05972492
144	0x3e5b093e	0.21390244
145	0xbcf18eb3	-0.02948699
146	0x3c5842f2	0.013199555
147	0xbdc16fe2	-0.09445168
148	0x3d034e84	0.0320573
149	0xb9d6ddc1	-0.0004098248
150	0xbde3213d	-0.11090324
151	0x3dcf2fcb	0.10116538
152	0x3ce889ed	0.02838608
153	0xbe1d39a7	-0.15354024
154	0x3e1f9794	0.15585166
155	0xbe4d4221	-0.20044757
156	0xbcb8e346	-0.02256931
157	0xbe0d4a65	-0.1379791
158	0x3d4570d5	0.048203308
159	0x3e0a37c1	0.13497831
160	0x3dfeda6e	0.12444006
161	0x3c8a6124	0.016892023
162	0x3dc22d46	0.094812915
163	0x3dd21ce8	0.1025942
164	0xbe2030db	-0.15643637
165	0xbda16425	-0.07880429
166	0x3cd3e3ff	0.025865553
167	0xbdeb1242	-0.11478092
168	0xbecae02f	-0.39624164
169	0xbd84506d	-0.064606525
170	0x3d9cc1a4	0.076541215
171	0x3d028166	0.031861685
172	0x3e851e42	0.25999647
173	0x3d4052f9	0.04695413
174	0xbcb852c8	-0.02250041
175	0xbd021519	-0.0317584
176	0xbce40ef5	-0.027839163
177	0xbdfc04ae	-0.1230558
178	0x3cfc8c48	0.03082861
179	0x3da97557	0.08274334
180	0xbdc6890e	-0.0969411
181	0xbddcd095	-0.10781971
182	0xbcbf05f3	-0.023318266
183	0x3d4b2dd1	0.04960424
184	0x3d5a6c09	0.053325687
185	0xbe02deb7	-0.12780271
186	0x3d07287d	0.032997597
187	0x3db3ba8b	0.087758146
188	0x3de2125c	0.11038658
189	0xbe1aa62b	-0.1510245
190	0x3dc07d12	0.09398855
191	0xbd569468	-0.052387625
192	0xbb775569	-0.0037740117
193	0xbc992479	-0.01869415
194	0xbcaf4523	-0.021395272
195	0x3d7568fc	0.059914574
196	0xbdc3574b	-0.09538134
197	0xbcd084f6	-0.025454026
198	0xbd842572	-0.064524546
199	0xbd846e56	-0.064663574
200	0xbd029d28	-0.031888157
201	0xbd2c1e45	-0.042021055
202	0x3e433bd7	0.19065796
203	0xbda49e0c	-0.080379575
204	0xbde15b65	-0.1100376
205	0x3e381e08	0.17980206
206	0xbc574180	-0.013138175
207	0x3d8ff00c	0.07028207
208	0x3dda754b	0.10666903
209	0xbb2252b3	-0.002476853
210	0x3cab9fdf	0.020950256
211	0x3e296b3f	0.16544817
212	0xbc672043	-0.014106813
213	0x3cc2c8a1	0.023777308
214	0x3d439bcc	0.047756
215	0x3d80f8b1	0.06297434
216	0x3d06a4ae	0.032871895
217	0xbd2c7036	-0.0420992
218	0x3dc67ac3	0.09691384
219	0x3da5c4e1	0.08094192
220	0x3e417d12	0.18895367
221	0xbd7c3c60	-0.061581016
222	0xbe3aa404	-0.1822663
223	0x3c37cff0	0.01121901
224	0x3d07da8c	0.033167407
225	0xbd90ff03	-0.070798896
226	0x3e22a80d	0.15884419
227	0x3c801c25	0.01563842
228	0xbe531e5d	-0.20617051
229	0xbd029f40	-0.031890154
230	0xbc704c38	-0.0146666095
231	0xbe0564f3	-0.1302679
232	0x3d1503fe	0.03638076
233	0xbc2e136d	-0.010624749
234	0x3dce94a5	0.100869454
235	0x3d0f2a5f	0.034952518
236	0x3d95984d	0.0730444
237	0x3e082441	0.1329508
238	0x3dcced5f	0.100062124
239	0x3df21f18	0.11822337
240	0xbdcfa5de	-0.101390585
241	0x3d33c1e8	0.043886095
242	0x3e1fe3e0	0.15614271
243	0xbe0ac8f8	-0.13553226
244	0x3e04d215	0.12970765
245	0xbd487d07	-0.04894736
246	0x3d81757a	0.06321235
247	0xbde94114	-0.11389366
248	0xbe315d75	-0.17320807
249	0xbc3539cd	-0.011061144
250	0xbddcd1b5	-0.10782186
251	0xbcd2c0bd	-0.02572667
252	0xbc409b4b	-0.011755775
253	0x3d2d0f61	0.042250995
254	0xbc9e6300	-0.019334316
255	0xbd9f7ab3	-0.07787075

layers.6.bias f4 [30]
0	0x3dd8abd0	0.10579646
1	0xbe3bdf66	-0.18346938
2	0xbd7cf4dd	-0.061756957
3	0x3d48d36f	0.049029764
4	0xbd8dbdd4	-0.069209725
5	0xbe28b3ed	-0.16474886
6	0xbd73ea16	-0.059549414
7	0x3e056054	0.13025028
8	0x3d11af35	0.03556748
9	0xbe90209e	-0.28149885
10	0x3e15bb38	0.146222
11	0x3cf6b8c3	0.030117398
12	0x3d6d0256	0.057863556
13	0xbe199736	-0.14999089
14	0xbc9307cc	-0.017948054
15	0x3d872f3a	0.066008046
16	0x3e3a2457	0.18177925
17	0xbe505b6b	-0.20347373
18	0x3e0e7b0f	0.1391413
19	0x3dee97a1	0.11650015
20	0x3e31dc63	0.17369227
21	0x3e46687b	0.19375794
22	0xbdceca5f	-0.10097193
23	0x3d197802	0.037467964
24	0xbb5ccb20	-0.0033690408
25	0xbe652103	-0.22375874
26	0x3e74eefa	0.23919287
27	0x3e348027	0.17627011
28	0x3cdbc95e	0.026829418
29	0xbdfe77cb	-0.124251924

layers.8.weight f4 [1, 30]
0	0xbe3dc377	-0.18531595
1	0xbdc9b6f2	-0.09849347
2	0x3efa9ec4	0.48949254
3	0xbb775ed7	-0.0037745738
4	0x3e0868a7	0.13321172
5	0xbe12b2d0	-0.14326024
6	0xbdec1bc3	-0.11528733
7	0xba887460	-0.0010410659
8	0x3cd0dbce	0.025495436
9	0x3ed2705f	0.41101357
10	0xbf14633e	-0.5796393
11	0xbd3e7bc4	-0.04650475
12	0xbe688978	-0.2270869
13	0xbd12f974	-0.03588243
14	0xbdd8c77d	-0.10584924
15	0x3da41ed4	0.080136925
16	0x3eddec53	0.43344364
17	0x3e0e8f4c	0.13921851
18	0x3d5eda4b	0.0544074
19	0xbd55d640	-0.052206278
20	0x3ec92f37	0.39293835
21	0x3e259e24	0.16173607
22	0xbe2bd403	-0.16780095
23	0xbe28fb3e	-0.16502091
24	0x3e5f9402	0.21833804
25	0xbe8aa3a3	-0.2707797
26	0x3f0ae8d6	0.5426153
27	0xbe3c9000	-0.18414307
28	0x3e28c13c	0.16479963
29	0x3da358bc	0.07975909
