BURGERS/ARCHITECTURE_100_Nu_45%Nf/20_9.pth (torch, 17502 bytes, 17 tensors)

layers.0.weight f4 [20, 2]
0.13696912 0.17873444 -0.2436216 0.19869946 -0.5459273 0.123338975 0.53354603 0.2526783
-0.6915185 0.13110349 0.2671142 0.4780757 0.3034515 0.16687287 -0.35962236 0.15391949
-0.13698749 -0.16437884 -0.96132797 -0.27053976 0.4223609 0.049310684 -0.40648574 -0.049351517
-0.9060726 -0.073210284 -0.29756024 -0.29155853 0.18047279 -0.27119166 -0.1475137 -0.5829187
-0.64301556 -0.47176054 0.030521473 -0.054832045 -0.12679961 0.69425327 0.4803927 0.06342182
00000000: a241 0c3e 2906 373e f177 79be df77 4b3e
00000010: e4c1 0bbf 2599 fc3d 7996 083f 0d5f 813e
00000020: 5b07 31bf fe3f 063e 31c3 883e 57c6 f43e
00000030: ff5d 9b3e b9e0 2a3e 6c20 b8be 129d 1d3e
00000040: 7346 0cbe ed52 28be 9719 76bf 3084 8abe
00000050: b03f d83e 00fa 493d e61e d0be d124 4abd
00000060: 60f4 67bf 46ef 95bd d159 98be 2947 95be
00000070: dccd 383e a2d9 8abe d50d 17be 293a 15bf
00000080: ab9c 24bf 998a f1be 2b08 fa3c 9197 60bd
00000090: c2d7 01be 95ba 313f 08f6 f53e 4de3 813d

layers.0.bias f4 [20]
0.44006586 -0.5841502 -0.51470494 -0.011618123 -0.07902149 0.98308563 0.8072593 0.28584465
0.60398835 0.7651572 0.38165376 -0.4403166 0.40767497 0.14259648 -0.86916226 -0.24099283
0.5974655 -0.9813079 0.43875647 0.0059616426
00000000: 5050 e13e de8a 15bf b4c3 03bf f159 3ebc
00000010: 05d6 a1bd 80ab 7b3f 8ca8 4e3f 3b5a 923e
00000020: fb9e 1a3f 58e1 433f 1f68 c33e 2d71 e1be
00000030: c6ba d03e d004 123e 6b81 5ebf d3c6 76be
00000040: 80f3 183f ff36 7bbf b0a4 e03e e259 c33b

layers.2.weight f4 [20, 20]
0.079321295 0.4675842 -0.04598776 0.3308544 -0.5050916 -0.64352924 -0.32199657 0.0961803
-0.06466828 0.17752087 -0.28538853 0.08012107 0.52718866 -0.12917754 0.43673763 0.6150309
-0.4854407 0.071406856 0.16991177 0.46860608 -0.116114594 -0.22202943 0.13839436 0.25446182
-0.29032353 0.29690588 0.21892661 0.33627832 0.22473891 0.6982049 -0.29166928 0.5986432
-0.018057074 -0.10244928 -0.025320912 -0.09179479 0.46856996 0.13328256 -0.37306422 0.043877337
0.010984565 0.46324497 0.40502325 0.51469374 -0.38695216 -0.16365081 -0.28688982 0.33217332
0.5055684 0.39634785 -0.41932607 0.19896375 -0.010332877 -0.08893517 0.23628213 0.1271513
0.0040969043 0.38995323 0.041633684 0.5086078 -0.12150788 -0.119340844 -0.5968622 -0.76891017
-0.1686273 -0.11747065 -0.24463248 0.562392 -0.12588647 -0.23667394 -0.13721003 -0.24155034
-0.028765144 -0.5387699 0.42924213 0.12980041 0.14143497 0.58974975 0.023231523 -0.13171165
-0.028918367 0.3809407 0.12823202 0.19552445 -0.09555197 0.1979417 -0.04687205 0.026746064
-0.036057588 0.00035409807 -0.16739821 0.0071567707 0.02874633 0.006756514 0.22597179 -0.20164084
0.063214585 0.34439927 0.24824113 0.20056185 -0.11904217 0.7036415 0.6116926 0.52729607
-0.9185621 0.12894435 0.37893328 0.20002599 -0.039773643 0.7330559 -0.73938257 0.6489889
1.0137268 -0.72430223 0.3485731 -0.06798525 -0.08960875 0.08349372 -0.34877655 0.7685817
-0.00071580615 -0.32677364 0.1818528 0.2779958 -0.05143123 0.46250057 -0.0048825075 -0.7075251
-0.1925621 0.12336886 0.2090037 0.038501903 0.052994143 0.446099 -0.6335276 -0.32741985
0.23493068 -0.34937075 -0.09732382 -0.12187447 0.116481684 0.38240886 0.18207118 -0.084908955
-0.21902247 -0.09872569 0.36275828 0.5150587 -0.089646004 0.29248732 -0.20427938 0.053608984
0.40237555 -0.19521728 0.34510043 0.060873296 -0.19754939 0.22423418 -0.30573788 0.4126009
-0.24916805 -0.07751979 0.010402788 -0.011322837 -0.15136203 -0.20069563 0.27099958 0.22087666
0.06407023 0.17156711 -0.2356309 0.24032213 0.1293306 -0.34289095 0.14771433 0.4859875
-0.1709958 0.25772613 -0.19503587 0.08112908 0.04033292 0.3366708 0.3270251 0.2964379
-0.25656998 0.058346387 0.122568145 0.1468006 -0.17005342 0.097121984 0.20209865 0.35358438
0.12381538 -0.03558975 0.010675491 -0.13808973 -0.11811175 0.27119514 0.132393 0.037434783
0.20617975 0.15743878 -0.1297447 -0.21746711 0.2026789 -0.29399872 -0.020195642 0.49148017
0.2795623 -0.23477152 -0.03321587 0.05831423 -0.082247436 0.10325239 0.21457548 0.25957316
-0.3817548 0.32636866 0.052581042 0.108116515 0.007637737 -0.1101961 -0.041799743 0.17841938
-0.13214275 0.2028736 -0.104402065 -0.2800945 -0.027050758 0.16379173 0.16149926 -0.033677172
-0.052686915 0.29328644 -0.1577105 -0.066081755 0.0073350943 0.016116535 0.20557392 -0.028474955
0.10629276 -0.21861976 0.14820856 0.19889578 0.07467411 0.3406907 0.12714218 -0.31905952
-0.21714672 0.18460365 0.29574353 -0.07207117 0.08738323 -0.13620548 -0.20766291 0.023780696
00000000: 3473 a23d 3267 ef3e a95d 3cbd bf65 a93e
00000010: af4d 01bf 55be 24bf bcdc a4be 2dfa c43d
00000020: ce70 84bd 08c8 353e 721e 92be 8416 a43d
00000030: d6f5 063f 1e47 04be 139c df3e aa72 1d3f
00000040: af8b f8be c23d 923d 5afd 2d3e 23ed ef3e
00000050: 7dcd edbd af5b 63be 40b7 0d3e d248 823e
00000060: 49a5 94be 0c04 983e 4c2e 603e ac2c ac3e
00000070: f521 663e 8ebd 323f ad55 95be ae40 193f
00000080: 6eec 93bc eed0 d1bd cd6d cfbc e8fe bbbd
00000090: 67e8 ef3e 397b 083e 4602 bfbe b9b8 333d
000000a0: 9bf8 333c 722e ed3e 355f cf3e f8c2 033f
000000b0: 981e c6be 1494 27be 39e3 92be 9f12 aa3e
000000c0: ee6c 013f 1bee ca3e e8b1 d6be 27bd 4b3e
000000d0: 3a4b 29bc a423 b6bd f1f3 713e f333 023e
000000e0: 533f 863b f3a7 c73e 1588 2a3d 1f34 023f
000000f0: 20d9 f8bd f968 f4bd f6cb 18bf 4cd7 44bf
00000100: a3ac 2cbe 7494 f0bd f080 7abe ecf8 0f3f
00000110: 62e8 00be a75a 72be c980 0cbe f958 77be
00000120: e1a4 ebbc d3ec 09bf a0c5 db3e 66ea 043e
00000130: 54d4 103e d7f9 163f 0950 be3c 6bdf 06be
00000140: 36e6 ecbc a90a c33e 414f 033e 9037 483e
00000150: c0b0 c3bd 3bb1 4a3e e8fc 3fbd 901a db3c
00000160: 1fb1 13bd 3da6 b939 706a 2bbe 5883 ea3b
00000170: 6c7d eb3c bf65 dd3b 2665 673e f07a 4ebe
00000180: a676 813d 1a55 b03e ec32 7e3e 1660 4d3e
00000190: 62cc f3bd d921 343f e397 1c3f e0fc 063f
000001a0: e326 6bbf fd09 043e 8b03 c23e 9dd3 4c3e
000001b0: b0e9 22bd 8da9 3b3f 2d48 3dbf 2324 263f
000001c0: cdc1 813f df6b 39bf 2c78 b23e da3b 8bbd
000001d0: cb84 b7bd c1fe aa3d d792 b2be c5c1 443f
000001e0: f0a4 3bba e04e a7be 9f37 3a3e 7755 8e3e
000001f0: 8ea9 52bd e0cc ec3e 71fd 9fbb 5d20 35bf
00000200: 002f 45be d0a8 fc3d 1105 563e 2cb4 1d3d
00000210: 6310 593d 1767 e43e dd2e 22bf 93a3 a7be
00000220: ab91 703e b9e0 b2be b651 c7bd 5299 f9bd
00000230: f38d ee3d 18cb c33e de70 3a3e bfe4 adbd
00000240: 6d47 60be b230 cabd 74bb b93e e3da 033f
00000250: 5398 b7bd e6c0 953e 9d2e 51be 1895 5b3d
00000260: 2b04 ce3e 0ae7 47be 01b1 b03e 4756 793d
00000270: 634a 4abe a59d 653e ad89 9cbe 6d40 d33e
00000280: e925 7fbe b2c2 9ebd 7570 2a3c 6c83 39bc
00000290: a6fe 1abe 2883 4dbe 75c0 8a3e 7e2d 623e
000002a0: 4137 833d 4aaf 2f3e 3a49 71be 0117 763e
000002b0: 3e6f 043e 678f afbe 6d42 173e 5bd3 f83e
000002c0: 8619 2fbe aef4 833e 7cb7 47be 0127 a63d
000002d0: 2234 253d 1d60 ac3e d56f a73e b5c6 973e
000002e0: 245d 83be 9ffc 6e3d 0205 fb3d e652 163e
000002f0: 7c22 2ebe e4e7 c63d f3f2 4e3e 0309 b53e
00000300: eb92 fd3d 8fc6 11bd 41e8 2e3c 6567 0dbe
00000310: 93e4 f1bd 17da 8a3e 0892 073e 3755 193d
00000320: c920 533e a237 213e cbdb 04be b3af 5ebe
00000330: 0f8b 4f3e 0087 96be 5571 a5bc 4aa3 fb3e
00000340: ca22 8f3e f267 70be 5d0d 08bd e7da 6e3d
00000350: 5871 a8bd fd75 d33d adb9 5b3e c6e6 843e
00000360: 5d75 c3be cb19 a73e 385f 573d 316c dd3d
00000370: fb45 fa3b 7eae e1bd 3536 2bbd 92b3 363e
00000380: 6e50 07be 19be 4f3e c0d0 d5bd 8c68 8fbe
00000390: 8d99 ddbc 05b9 273e 1060 253e 13f1 09bd
000003a0: 3cce 57bd a429 963e dc7e 21be df55 87bd
000003b0: 3b5b f03b d306 843c f881 523e 4f44 e9bc
000003c0: 05b0 d93d dcdd 5fbe fcc3 173e 56ab 4b3e
000003d0: bdee 983d 036f ae3e 8f31 023e c55b a3be
000003e0: b65b 5ebe bd08 3d3e b26b 973e 0d9a 93bd
000003f0: fbf5 b23d 7379 0bbe 96a5 54be bccf c23c

layers.2.bias f4 [20]
0.90257645 -0.09780726 -0.12483665 -0.20435068 -0.12681471 -0.5928782 -0.31881082 -0.24088389
0.08192969 -0.10702455 0.47959468 0.16860995 -0.0029448972 -0.4805575 0.105937324 -0.2728444
-0.36723024 0.38163486 -0.015417234 -0.02370545
00000000: 400f 673f 2c4f c8bd 5caa ffbd 4e41 51be
00000010: b7db 01be dec6 17bf 2c3b a3be 44aa 76be
00000020: c1ca a73d b02f dbbd 6f8d f53e 16a8 2c3e
00000030: 2dff 40bb a20b f6be abf5 d83d 43b2 8bbe
00000040: 9a05 bcbe a565 c33e 9198 7cbc ef31 c2bc

layers.4.weight f4 [20, 20]
-0.18881027 0.042149354 -0.24687243 0.22074169 0.0010448532 -0.03197877 -0.12851939 -0.11049935
-0.30532172 -0.0426107 -0.11653664 0.0124219 0.069203 0.028057141 -0.1148744 0.051205467
-0.019361287 0.01852041 0.22924 0.08686481 -0.6649763 0.10619082 -0.8353359 0.087835565
-0.23288937 -1.0160731 0.19351646 -0.3271378 -0.11750311 -0.4535863 0.033271722 -0.03540646
0.026656948 0.81387717 0.4515117 0.17925958 -0.18157586 0.26947725 0.3786147 0.3945568
0.041649833 0.114188746 -0.16122645 -0.093774155 -0.13663961 -0.12416536 0.15117794 0.025447099
-0.016255535 -0.16033374 -0.041636348 -0.18187255 0.05331112 0.057542033 -0.071334556 -0.0021488378
0.10990823 -0.15693817 -0.063215196 0.089059964 0.06555495 0.13048497 0.0003806472 -0.18497272
-0.021622041 0.22794649 0.044627946 0.24498709 0.1069407 0.18810084 -0.23767799 -0.025056949
0.06615753 0.0937438 0.16818152 -0.11081312 0.2580442 -0.32850713 -0.1887926 0.2768776
-0.067841925 0.040430248 0.16761453 -0.06353469 0.22261715 -0.27733436 0.22159767 -0.102312215
-0.024920834 -0.033879694 -0.047935642 0.3770729 -0.29184294 -0.17762026 -0.12493617 0.13949728
-0.07410017 -0.030605514 0.03847032 -0.11990893 -0.15397477 -0.0907869 -0.18992224 0.25392288
0.10740358 0.10347461 -0.15089627 0.07687895 -0.010755652 -0.18162985 0.24971259 -0.2652896
0.14203992 0.16888516 -0.110010885 -0.08968215 0.009421168 0.022981733 0.08281637 -0.0012735052
-0.039531633 0.23127148 -0.1357109 0.25722742 -0.072918765 -0.1900555 -0.45435584 0.2028585
0.14175132 -0.30971622 0.08958317 -0.10892149 -0.09182635 0.10511879 -0.100957245 -0.13743979
-0.057625555 0.05734669 -0.11440452 0.0053465366 0.62140286 0.11369572 0.62239 0.10360051
0.27181962 0.9431076 -0.25801638 0.54323083 0.15216279 0.04322801 -0.015004108 -0.046115946
0.01662695 -0.19112866 -0.11907648 -0.27665 0.11133309 -0.42198807 -0.050396476 -0.25404742
0.22372591 -0.15689556 0.09699758 -0.081138976 0.2534101 -0.106487274 -0.10437953 -0.15905571
0.24723114 0.1583081 0.22017106 0.22394213 -0.12986006 -0.2192429 -0.20074026 0.19298711
-0.29717225 0.072713904 -0.020289542 -0.15133251 -0.14482431 0.12451616 -0.15481906 0.064348154
0.2792999 -0.1781793 -0.43083674 -0.1726837 -0.11068928 0.2881689 0.4802504 -0.060405593
-0.018443093 0.026891634 -0.1010852 0.2414674 -0.06343395 0.3754473 -0.03193585 0.12800196
0.1546144 -0.15344444 0.005680252 -0.027865946 0.026604261 0.09546666 -0.22241029 0.047362633
0.3464318 0.040849376 0.18335977 0.070935644 -0.14452997 -0.093108825 -0.05205383 0.05612737
0.0707625 0.027347157 -0.06379553 -0.22200333 0.19296336 -0.2619536 0.13059029 -0.24452531
0.13347054 -0.26108652 0.2747719 -0.29010502 -0.1878901 0.22591884 -0.110082366 0.10542844
0.010337327 -0.15958929 -0.24594015 -0.012176507 0.046936277 0.2858979 0.0364197 0.096873224
0.010406578 -0.16351315 0.14217709 -0.23782074 0.16758318 -0.02907371 0.17850123 0.11933322
-0.15306304 0.25304842 -0.056721844 -0.009239311 -0.11284178 -0.17994446 -0.02858608 0.108623765
00000000: 7b57 41be cda4 2c3d 20cc 7cbe 1c0a 623e
00000010: 75f3 883a 2cfc 02bd 969a 03be 7c4d e2bd
00000020: 2153 9cbe 8f88 2ebd c3aa eebd 3a85 4b3c
00000030: 4dba 8d3d 17d8 e53c 4543 ebbd d3bc 513d
00000040: 909b 9ebc 1db8 973c e4bd 6a3e 2de6 b13d
00000050: e33b 2abf 937a d93d 93d8 55bf 22e3 b33d
00000060: 8d7a 6ebe af0e 82bf 2e29 463e 9b7e a7be
00000070: 78a5 f0bd 773c e8be ee47 083d 5d06 11bd
00000080: ac5f da3c 415a 503f 8b2c e73e d38f 373e
00000090: 06ef 39be ecf8 893e c9d9 c13e 5903 ca3e
000000a0: 0499 2a3d cadb e93d 8c18 25be aa0c c0bd
000000b0: 41eb 0bbe 694a febd 64ce 1a3e 6f76 d03c
000000c0: 542a 85bc 872e 24be e08a 2abd cc3c 3abe
000000d0: c35c 5a3d 32b1 6b3d da17 92bd 84d3 0cbb
000000e0: 9117 e13d 66b4 20be f876 81bd 1265 b63d
000000f0: ac41 863d da9d 053e 9a91 c739 7d69 3dbe
00000100: b520 b1bc ce6a 693e cbcb 363d e5dd 7a3e
00000110: ba03 db3d 829d 403e dc61 73be 3b44 cdbc
00000120: 997d 873d c0fc bf3d c737 2c3e fdf1 e2bd
00000130: 5f1e 843e 1632 a8be d952 41be e7c2 8d3e
00000140: b5f0 8abd 309a 253d 25a3 2b3e 7a1e 82bd
00000150: c0f5 633e c5fe 8dbe 80ea 623e 1189 d1bd
00000160: c726 ccbc 6fc5 0abd 2a58 44bd b30f c13e
00000170: 706c 95be 16e2 35be 89de ffbd 60d8 0e3e
00000180: d4c1 97bd 6ab8 fabc 0e93 1d3d d092 f5bd
00000190: 90ab 1dbe 7bee b9bd fa7a 42be 2e02 823e
000001a0: 68f6 db3d 7fea d33d 8d84 1abe b672 9d3d
000001b0: 7938 30bc 2dfd 39be a8b4 7f3e 0ad4 87be
000001c0: ea72 113e 3bf0 2c3e 634d e1bd 46ab b7bd
000001d0: 3e5b 1a3c 3044 bc3c a19b a93d beeb a6ba
000001e0: eceb 21bd 6ed2 6c3e ccf7 0abe 50b3 833e
000001f0: 6f56 95bd e99d 42be 54a1 e8be 23ba 4f3e
00000200: 4227 113e 2093 9ebe 6277 b73d 3b12 dfbd
00000210: 740f bcbd 8548 d73d acc2 cebd 04bd 0cbe
00000220: c608 6cbd 5de4 6a3d eb4c eabd 0032 af3b
00000230: 4214 1f3f 4dd9 e83d f354 1f3f 812c d43d
00000240: f12b 8b3e 806f 713f b91a 84be 2d11 0b3f
00000250: 90d0 1b3e db0f 313d cad3 75bc 13e4 3cbd
00000260: 3e35 883c 3bb7 43be 5fde f3bd 12a5 8dbe
00000270: 9a02 e43d d20e d8be 896c 4ebd 8112 82be
00000280: 6818 653e 3ba9 20be aba6 c63d 312c a6bd
00000290: f8be 813e 0016 dabd efc4 d5bd 80df 22be
000002a0: 292a 7d3e 851b 223e 8674 613e 1651 653e
000002b0: 09fa 04be 3681 60be db8e 4dbe 6a9e 453e
000002c0: f626 98be 07eb 943d 4136 a6bc e9f6 1abe
000002d0: d34c 14be 5402 ff3d e388 1ebe f7c8 833d
000002e0: 6600 8f3e a274 36be a296 dcbe ffd3 30be
000002f0: 10b1 e2bd e08a 933e 61e3 f53e db6b 77bd
00000300: f815 97bc d84b dc3c c205 cfbd 3b43 773e
00000310: a9e9 81bd a13a c03e 2acf 02bd f212 033e
00000320: 3d53 1e3e 8a20 1dbe 6821 ba3b 2047 e4bc
00000330: 2ef1 d93c 0684 c33d 86bf 63be 52ff 413d
00000340: 825f b13e ad51 273d aac2 3b3e b546 913d
00000350: aaff 13be d7af bebd 6636 55bd d0e5 653d
00000360: eeeb 903d 2507 e03c 3ba7 82bd d754 63be
00000370: 3098 453e c81e 86be 76b9 053e d864 7abe
00000380: 80ac 083e 22ad 85be e7ae 8c3e a588 94be
00000390: 4366 40be 4557 673e dd72 e1bd deea d73d
000003a0: e45d 293c 606b 23be bcd7 7bbe f97f 47bc
000003b0: 4140 403d 3661 923e d32c 153d 7865 c63d
000003c0: 5a80 2a3c fe6f 27be df96 113e 4887 73be
000003d0: ed9a 2b3e fd2b eebc 07c9 363e fa64 f43d
000003e0: 8fbc 1cbe 908f 813e 2a55 68bd 7b60 17bc
000003f0: 9719 e7bd 5c43 38be 5b2d eabc 2376 de3d

layers.4.bias f4 [20]
0.13304324 -0.18322434 0.20259088 -0.23036936 0.26053116 -0.08007399 0.05889225 0.18283918
0.04324004 -0.06337309 -0.037767563 -0.09880652 0.032490637 -0.04498862 -0.34892425 0.13154346
-0.1469698 0.26199925 0.1356593 0.08251831
00000000: 7d3c 083e 299f 3bbe fc73 4f3e f2e5 6bbe
00000010: 5764 853e d5fd a3bd 0039 713d 323a 3b3e
00000020: 781c 313d c0c9 81bd 29b2 1abd 135b cabd
00000030: e714 053d fd45 38bd 33a6 b2be 54b3 063e
00000040: 407f 16be c424 863e 46ea 0a3e 5cff a83d

layers.6.weight f4 [20, 20]
-0.2419206 -0.2182185 0.17305014 0.08892661 0.060878273 -0.091712 -0.15548332 -0.17725731
-0.21303244 0.12584077 -0.024920858 0.10750823 0.22715631 0.12176817 0.13336143 0.13170558
-0.11630281 0.137093 0.06989584 -0.10440059 -0.10797073 -0.9856992 -0.044570368 0.21079211
-0.17815176 0.07349807 -0.025303917 0.24464054 -0.17092043 -0.25618178 -0.118218966 -0.11687946
-0.07370796 -0.095264494 0.13866077 0.25826275 0.0093548205 -0.544393 -0.0051060086 0.23534812
0.028543478 -0.30227843 -0.03672339 -0.092294596 -0.00651877 0.06017382 0.061312135 -0.23410083
-0.21262541 0.047854297 -0.15799336 -0.19206426 -0.14390695 0.078974426 0.26562336 -0.042647917
-0.2728673 -0.01901347 0.09470589 -0.10841333 -0.14599815 -0.02392815 -0.068812735 0.2263228
-0.19650236 -0.038427643 0.3899552 0.2271857 -0.05448115 -0.08078762 -0.048875608 -0.37072077
-0.3292508 0.15041052 0.0795187 0.28183797 -0.088133074 0.1065023 0.26971787 0.29718333
-0.10929434 -0.40263775 -0.026114745 0.29245314 -0.10396631 0.06294877 -0.24593042 0.44214922
-0.14863709 -0.040450916 0.04668702 -0.23445684 0.028253198 -0.06545467 -0.043760106 -0.17809494
0.17481977 -0.11527606 -0.029332263 0.20029809 -0.059299145 -0.59895605 0.06799874 -0.02463252
0.07043703 0.26643258 -0.02295172 0.1606556 -0.20154677 -0.10415862 0.14108048 -0.2146079
0.1526466 0.1306759 0.008605085 0.16802482 -0.05953262 -0.16747715 -0.040999476 -0.0022438683
0.16426547 0.09226427 -0.17648554 -0.08335307 -0.2534234 -0.09289399 -0.10173851 -0.2728044
-0.16077086 0.108165376 0.11700038 0.19490328 0.20417136 0.38050747 0.11153631 -0.09978449
0.127796 -0.14862125 -0.16159362 0.21274939 -0.20937581 -0.108785205 -0.09200289 -0.006319525
0.2523543 -0.22089472 -0.32849824 -0.031608026 -0.022515737 -0.19044194 0.07190228 0.11815178
-0.081770755 -0.08527457 -0.07489966 -0.015050324 0.19440877 -0.26124465 -0.097785674 -0.24776433
0.2344731 0.01326665 0.11013916 -0.090730086 0.14837722 -0.05146236 0.09408754 0.13559218
-0.06636984 -0.016208854 0.21043862 -0.10817744 0.18510653 0.11770967 0.03124708 0.20245859
0.23837057 -0.14180551 -0.14211076 0.12246216 0.047373418 -0.027325962 -0.12591037 -0.31573942
0.045169707 0.1474397 0.09664086 -0.078344315 0.06392044 0.16841054 0.26247287 0.20932806
-0.061717458 0.042041767 0.03627148 0.21896133 0.028521614 0.018964496 0.09539227 -0.20945843
-0.13352367 -0.38685107 -0.020699656 0.041528836 -0.05243503 -0.038979415 0.019901555 0.06824067
0.09069946 -0.12368443 0.36334968 0.08716607 0.30231696 0.13192815 0.060434945 0.30727154
0.3730445 0.09025243 -0.1149856 -0.12868191 -0.015833722 0.12761623 0.027528167 0.045688454
0.19675161 -0.18015984 -0.2085596 0.024224374 -0.24921155 -0.039274532 -0.2479598 0.04883646
0.054821275 0.07105546 0.14533857 -0.25482196 -0.14703141 -0.20977604 -0.018533152 -0.32901046
-0.028998313 0.2388213 -0.15211391 -0.072520606 0.16062261 -0.15845415 0.07450079 0.043223992
0.08279334 -0.12352141 -0.1369653 -0.0780681 0.14846677 0.06210271 -0.17173442 -0.1051307
00000000: 09ba 77be ac74 5fbe 0e34 313e 281f b63d
00000010: 7f5b 793d 80d3 bbbd 0537 1fbe f182 35be
00000020: 2d25 5abe 67dc 003e d426 ccbc 462d dc3d
00000030: aa9b 683e 9761 f93d e68f 083e d4dd 063e
00000040: 2b30 eebd 1b62 0c3e 8d25 8f3d facf d5bd
00000050: c21f ddbd c856 7cbf 6b8f 36bd e3d9 573e
00000060: 6a6d 36be 2886 963d 294a cfbc 0d83 7a3e
00000070: c405 2fbe 422a 83be c91c f2bd 805e efbd
00000080: 33f4 96bd 081a c3bd 17fd 0d3e 043b 843e
00000090: f644 193c 575d 0bbf 4e50 a7bb 19ff 703e
000000a0: 03d4 e93c 3dc4 9abe 446b 16bd f304 bdbd
000000b0: 689b d5bb d378 763d 6f22 7b3d 21b8 6fbe
000000c0: 7aba 59be de02 443d 03c9 21be 7eac 44be
000000d0: 585c 13be 58bd a13d c9ff 873e 95af 2ebd
000000e0: 43b5 8bbe 23c2 9bbc 29f5 c13d cf07 debd
000000f0: 8a80 15be f804 c4bc b1ed 8cbd 2ac1 673e
00000100: ea37 49be 4e66 1dbd 35a8 c73e 5ea3 683e
00000110: a027 5fbd fb73 a5bd ca31 48bd 1dcf bdbe
00000120: 9093 a8be 3705 1a3e b3da a23d 114d 903e
00000130: 1d7f b4bd e11d da3d 7618 8a3e 6a28 983e
00000140: b6d5 dfbd 8926 cebe 97ee d5bc 6bbc 953e
00000150: 4aec d4bd 49eb 803d 2fd5 7bbe 6261 e23e
00000160: 5234 18be dcaf 25bd e43a 3f3d 7415 70be
00000170: 4073 e73c 190d 86bd cc3d 33bd 855e 36be
00000180: f403 333e db15 ecbd 374a f0bc f11a 4d3e
00000190: a9e3 72bd 2f55 19bf ec42 8b3d 23ca c9bc
000001a0: 4a41 903d da69 883e 3f05 bcbc e782 243e
000001b0: 4762 4ebe 1d51 d5bd 6777 103e 2cc2 5bbe
000001c0: 644f 1c3e e7cf 053e 58fc 0c3c b30e 2c3e
000001d0: 7ad8 73bd 217f 2bbe 11ef 27bd dd0d 13bb
000001e0: 3535 283e 0df5 bc3d a0b8 34be 04b5 aabd
000001f0: b6c0 81be 343f bebd 485c d0bd 05ad 8bbe
00000200: 1ea1 24be cf85 dd3d e59d ef3d ba94 473e
00000210: 4c12 513e e0d1 c23e 266d e43d d05b ccbd
00000220: f4dc 023e 2b30 18be cc78 25be fada 593e
00000230: 9d66 56be c7ca debd 036c bcbd 0514 cfbb
00000240: 9534 813e 3a32 62be ec30 a8be 6b77 01bd
00000250: ec72 b8bc 3603 43be 8141 933d 8ff9 f13d
00000260: 6d77 a7bd 6fa4 aebd fe64 99bd a295 76bc
00000270: 1813 473e dcc1 85be db43 c8bd efb5 7dbe
00000280: b719 703e 5d5c 593c a490 e13d b2d0 b9bd
00000290: 33f0 173e 32ca 52bd f8b0 c03d add8 0a3e
000002a0: e9ec 87bd 6ec8 84bc 397d 573e 228c ddbd
000002b0: 918c 3d3e c411 f13d e0f9 ff3c 4e51 4f3e
000002c0: 6a17 743e 7735 11be 7c85 11be 71cd fa3d
000002d0: a10a 423d b2da dfbc a6ee 00be 99a8 a1be
000002e0: df03 393d 6ffa 163e a5eb c53d fc72 a0bd
000002f0: b8e8 823d d073 2c3e d862 863e 185a 563e
00000300: 72cb 7cbd fd33 2c3d 6791 143d 6637 603e
00000310: 29a6 e93c 6e5b 9b3c 065d c33d 457c 56be
00000320: 6eba 08be 5811 c6be 5392 a9bc 241a 2a3d
00000330: 1dc6 56bd e1a8 1fbd 9608 a33c c4c1 8b3d
00000340: a3c0 b93d 434e fdbd f808 ba3e 2084 b23d
00000350: 4ac9 9a3e 2c18 073e a28a 773d b252 9d3e
00000360: b0ff be3e 44d6 b83d 927d ebbd 31c5 03be
00000370: b9b5 81bc d4ad 023e c082 e13c d123 3b3d
00000380: 4179 493e d27b 38be a690 55be 3272 c63c
00000390: 5031 7fbe 55de 20bd 2ce9 7dbe bd08 483d
000003a0: 468c 603d 8685 913d a2d3 143e 0678 82be
000003b0: 678f 16be 88cf 56be d6d2 97bc 0f74 a8be
000003c0: df8d edbc 928d 743e c0c3 1bbe af85 94bd
000003d0: 417a 243e ce41 22be df93 983d a40b 313d
000003e0: 8e8f a93d cbf8 fcbd a240 0cbe 2be2 9fbd
000003f0: ac07 183e 695f 7e3d 26db 2fbe c44e d7bd

layers.6.bias f4 [20]
-0.12877807 -0.31680566 -0.09095562 0.0892929 -0.010043706 -0.011060992 -0.15845297 0.32876945
-0.13206963 -0.24636532 0.18591149 0.00393566 0.067279525 0.092281416 0.011233999 -0.10568523
-0.07380966 0.06776925 0.052980315 -0.089059494
00000000: 66de 03be 5a34 a2be f146 babd 32df b63d
00000010: 5b8e 24bc 2a39 35bc 7f41 22be 7854 a83e
00000020: 433d 07be 3147 7cbe 955f 3e3e b5f6 803b
00000030: d9c9 893d 0afe bc3d cf0e 383c 7f71 d8bd
00000040: 8529 97bd 9bca 8a3d e301 593d d364 b6bd

layers.8.weight f4 [20, 20]
-0.24225587 -0.59320563 -0.26204792 0.015049095 -0.036372572 -0.39868566 0.15864544 -0.11607045
-0.08583334 -0.13182741 -0.4989118 -0.045660354 0.1593629 -0.12340581 0.3639364 -0.436752
-0.14247954 0.25327137 -0.0683237 0.2361591 0.26738212 0.36608285 0.21353947 -0.11332699
0.055365704 0.07847483 -0.009712985 -0.014589705 0.0029544558 -0.2247491 0.12923026 0.1411162
0.03259614 -0.2509648 -0.20990385 0.23468153 -0.06688264 -0.18918803 0.044433717 0.10258339
0.051586557 0.06965405 -0.08278471 0.19472109 0.15694627 0.061805535 -0.057588138 0.18140037
-0.1517949 -0.10919731 0.0119001875 -0.11453673 -0.15151145 -0.08212992 0.011635884 -0.15678541
0.048763383 0.010135292 -0.048391085 0.20124497 -0.065033264 -0.17829043 0.14430109 0.050136454
0.16973771 -0.18047698 -0.056601446 -0.11796035 -0.14095485 -0.17338583 0.10897434 0.23057885
-0.2015486 -0.18483405 -0.29654935 0.14082758 -0.25439233 0.07991015 0.15885022 0.031186651
-0.03440321 0.13296829 0.18511122 -0.14765877 -0.13108486 -0.10377005 0.06350837 0.14430436
-0.21454942 -0.09905927 -0.05397064 -0.018857647 -0.023359518 0.16397062 0.0010851108 0.02753821
-0.2189325 -0.06236952 0.15426886 0.13549818 0.050848663 0.078045525 0.18153073 0.18363653
0.15644325 0.03585092 -0.040687002 -0.034351315 -0.13019077 0.19589728 0.20764117 -0.24391332
-0.097888835 0.13302647 0.11381788 -0.08809568 0.054966412 0.046623435 0.12832336 0.035380095
-0.05935708 -0.106873 0.14759947 0.05031757 0.116142765 -0.012693076 0.24782185 -0.06417458
-0.15157853 -0.13154253 -0.18199413 -0.11324991 0.14004032 -0.1728103 -0.19773014 -0.02488663
-0.113149755 -0.05557301 -0.018648855 0.10817707 -0.07456858 0.16869019 -0.019926388 -0.14896108
0.16006657 0.16673326 0.18716156 0.06782371 -0.10207725 0.1905015 -0.056774803 0.18913884
0.0066354754 -0.23399597 -0.21686985 -0.038214754 0.1296198 -0.009034692 -0.040868305 -0.00021010065
0.19357856 -0.11242827 0.07525037 0.09439507 0.042570237 -0.11733906 -0.022460373 0.17870846
-0.21973045 -0.1518544 -0.097797744 0.1254178 0.18381123 -0.117949516 -0.19923168 0.16400035
-0.07420705 -0.09405801 -0.18537852 0.08423138 -0.0046360567 0.0942275 -0.06143996 -0.18643373
-0.039910853 -0.17369886 -0.1871816 0.1705089 -0.08653941 -0.22694796 0.09025328 0.27354333
0.011858005 -0.27321452 0.09983139 -0.17587054 0.08843721 0.0025427735 -0.0271275 0.100008845
-0.019704528 -0.08657532 -0.015799738 -0.04907384 0.15705214 0.11626969 0.16257836 -0.19321671
-0.10407799 -0.033464473 -0.22838444 -0.18709427 -0.16269481 0.007851761 -0.17969245 0.044054538
-0.22953853 -0.114663035 -0.075490974 0.18802775 0.07761956 0.18069065 0.14511198 0.25637975
0.022166071 0.2219618 0.22962013 -0.21967703 -0.15288508 -0.0068514366 -0.0064386665 0.01382279
-0.071903646 0.11591333 -0.1947987 -0.10481621 0.161017 -0.014818384 0.08262851 0.15025517
0.06895378 -0.14448842 0.06669174 -0.2289564 -0.15376593 -0.25653735 0.20700537 0.06178361
0.10983414 -0.13826133 0.050956693 0.30050343 -0.11147164 -0.31572095 -0.1203015 -0.15398453
00000000: ec11 78be 53dc 17bf 252b 86be 7b90 763c
00000010: 68fb 14bd 8720 ccbe f373 223e 58b6 edbd
00000020: 64c9 afbd c4fd 06be 5e71 ffbe 5a06 3bbd
00000030: 0730 233e 2fbc fcbd df55 ba3e f59d dfbe
00000040: 28e6 11be c9ac 813e 4ced 8bbd b1d3 713e
00000050: 4fe6 883e 366f bb3e 17aa 5a3e fb17 e8bd
00000060: 26c7 623d 69b7 a03d 3623 1fbc a809 6fbc
00000070: 8b9f 413b a124 66be f054 043e c480 103e
00000080: 8883 053d 757e 80be 09f1 56be 5b50 703e
00000090: c4f9 88bd 82ba 41be 2100 363d 3e17 d23d
000000a0: 6d4c 533d c8a6 8e3d 088b a9bd f764 473e
000000b0: 86b6 203e cd27 7d3d 8ae1 6bbd 05c1 393e
000000c0: 1f70 1bbe d7a2 dfbd 01f9 423c 3c92 eabd
000000d0: d125 1bbe bb33 a8bd 6fa4 3e3c 5b8c 20be
000000e0: 1dbc 473d 7f0e 263c bb35 46bd 2913 4e3e
000000f0: 2930 85bd c491 36be aac3 133e e25b 4d3d
00000100: b9cf 2d3e f5ce 38be ebd6 67bd 3295 f1bd
00000110: 7856 10be 0e8c 31be f02d df3d dd1c 6c3e
00000120: c262 4ebe 2345 3dbe 51d5 97be 1b35 103e
00000130: b63f 82be efa7 a33d a2a9 223e 267b ff3c
00000140: 61ea 0cbd d728 083e cc8d 3d3e dc33 17be
00000150: 1c3b 06be 6485 d4bd ad10 823d 86c4 133e
00000160: d8b2 5bbe 96df cabd 5110 5dbd 5a7b 9abc
00000170: 765c bfbc eae7 273e 473a 8e3a d097 e13c
00000180: d72f 60be 2f77 7fbd a8f8 1d3e 09c0 0a3e
00000190: b046 503d 55d6 9f3d 31e3 393e 370b 3c3e
000001a0: a932 203e 6ad8 123d 6aa7 26bd f7b3 0cbd
000001b0: bb50 05be 4c99 483e e39f 543e 6ac4 79be
000001c0: f179 c8bd 1738 083e 5919 e93d 826b b4bd
000001d0: 7624 613d 37f8 3e3d 3367 033e b8ea 103d
000001e0: 6920 73bd 3be0 dabd 5124 173e cc19 4e3d
000001f0: 42dc ed3d 9ff6 4fbc 03c5 7d3e f66d 83bd
00000200: 6737 1bbe 16b3 06be ab5c 3abe 92ef e7bd
00000210: bb66 0f3e 2ff5 30be c579 4abe 0cdf cbbc
00000220: 0fbb e7bd 86a0 63bd 7cc5 98bc f18b dd3d
00000230: 69b7 98bd 1fbd 2c3e aa3c a3bc 4189 18be
00000240: 7ee8 233e 20bc 2a3e 48a7 3f3e 28e7 8a3d
00000250: e10d d1bd d312 433e b28c 68bd 9dad 413e
00000260: 676e d93b a49c 6fbe 2113 5ebe 1387 1cbd
00000270: 0ebb 043e 3f06 14bc 8665 27bd 774e 5cb9
00000280: 7539 463e cb40 e6bd de1c 9a3d 3452 c13d
00000290: 215e 2e3d 764f f0bd d1fe b7bc 5aff 363e
000002a0: 0501 61be b87f 1bbe 2f4a c8bd 866d 003e
000002b0: 0339 3c3e 848f f1bd 6403 4cbe b5ef 273e
000002c0: def9 97bd 7ca1 c0bd ded3 3dbe 8081 ac3d
000002d0: 10ea 97bb 59fa c03d 78a8 7bbd 7ce8 3ebe
000002e0: 9079 23bd 1dde 31be 89ac 3fbe e399 2e3e
000002f0: 933b b1bd 0c65 68be b6d6 b83d df0d 8c3e
00000300: 1448 423c c6e2 8bbe 6674 cc3d 6817 34be
00000310: 911e b53d a9a4 263b 7e3a debc 70d1 cc3d
00000320: 646b a1bc 674e b1bd 746e 81bc a701 49bd
00000330: 47d2 203e ce1e ee3d f17a 263e 9ada 45be
00000340: d726 d5bd 0b12 09bd 9cdd 69be a495 3fbe
00000350: 7899 26be aca4 003c 4c01 38be 8872 343d
00000360: 260c 6bbe 74d4 eabd 039b 9abd 598a 403e
00000370: 01f7 9e3d f806 393e 3c98 143e 3544 833e
00000380: 9f95 b53c f449 633e 8a21 6b3e 04f3 60be
00000390: e88d 1cbe 0482 e0bb 73fb d2bb fc78 623c
000003a0: 3842 93bd f863 ed3d 4f79 47be e2a9 d6bd
000003b0: a4e1 243e cfc8 72bc 2339 a93d 7edc 193e
000003c0: a437 8d3d c6f4 13be ae95 883d 8c73 6abe
000003d0: d174 1dbe dd58 83be 37f9 533e d010 7d3d
000003e0: b9f0 e03d 6194 0dbe f7b7 503d 96db 993e
000003f0: 3e4b e4bd 2da6 a1be a260 f6bd 1fae 1dbe

layers.8.bias f4 [20]
0.027094742 -0.18200712 0.08977348 -0.22225095 0.05700739 0.099924 -0.1361951 0.10703449
0.08082976 -0.15411492 -0.17530705 -0.051151447 0.13092646 -0.18387954 0.26925358 -0.059649233
0.11074878 0.06932489 0.2152159 0.16600926
00000000: cbf5 dd3c 1360 3abe 29db b73d c195 63be
00000010: 9580 693d f4a4 cc3d ba76 0bbe e634 db3d
00000020: 138a a53d 4dd0 1dbe b183 33be 2e84 51bd
00000030: 9611 063e eb4a 3cbe 9bdb 893e c152 74bd
00000040: 42d0 e23d 35fa 8d3d 8f61 5c3e 55fe 293e

layers.10.weight f4 [20, 20]
0.023931922 -0.008487282 -0.049003895 -0.048243105 -0.14280596 0.1791378 -0.12197443 0.045206424
-0.1430073 0.112702414 -0.15642923 -0.17837107 0.11316749 -0.23547941 -0.15554926 -0.07248145
0.19579679 0.07752663 -0.062819906 0.13385284 -0.38653362 0.04859012 0.16607629 -0.016455382
-0.111844815 0.1537168 0.040380176 -0.18408158 -0.10763346 0.09752203 -0.13753213 -0.17509606
0.09568376 -0.25481912 0.07386466 -0.23453486 -0.08489299 0.07562717 0.008775588 -0.097065926
-0.060026668 -0.25876272 -0.13992044 0.13868454 0.01509723 0.13518648 0.063261114 -0.22450835
-0.16278122 -0.04431161 -0.0960116 -0.05960357 -0.055069514 -0.030247968 0.19131467 -0.10697689
-0.008719815 -0.19028029 -0.025864186 0.11666115 -0.13875327 0.19588956 -0.06671909 -0.087411135
-0.1399108 -0.098009825 -0.12004749 -0.025365267 -0.2281639 -0.22686109 0.15412909 -0.18021822
0.17485417 0.049883787 0.10888342 -0.16691706 0.15148538 0.08268837 -0.1128451 -0.0013423956
-0.024779748 0.044789888 0.07818584 -0.08254388 -0.121286824 0.0372666 0.23409706 0.085869305
0.11814115 0.22855186 0.03509606 0.1189399 -0.1917357 0.10441009 -0.19267496 -0.02339795
-0.056525655 0.20920011 -0.13829374 -0.11583981 -0.20576283 0.05528149 -0.1371044 0.27714846
-0.17829593 -0.21398039 -0.115916915 0.035938486 0.19270605 0.018172497 0.06606154 0.020802988
0.0401236 -0.15047868 -0.1136617 0.2191897 -0.09655161 0.12163291 -0.12587018 -0.07328927
-0.29196212 -0.06410163 0.17614052 0.054142784 0.00071778876 0.07937565 -0.024742132 -0.017032357
-0.13674955 0.024535459 0.083574735 0.19240277 -0.057746377 -0.2080107 0.121101685 -0.26127413
-0.045311816 0.14228144 -0.006213745 0.21311061 0.12488319 -0.017675307 0.036066607 -0.003910148
-0.089005694 0.114612296 -0.009771753 0.05619306 0.10557641 0.087830305 -0.2196278 0.17211857
0.13576788 0.16329992 -0.22990836 -0.05449401 -0.09948834 0.1832863 0.061876003 0.02853467
0.12955551 -0.17743845 -0.096220486 -0.30341724 -0.015994826 0.17117703 -0.20972618 0.008158333
-0.14810234 -0.12789872 -0.20179687 0.08082825 -0.055800967 -0.015711702 -0.01487462 -0.021755792
0.17447215 -0.10221657 -0.051462278 0.015997421 -0.37936026 0.20852448 0.049351368 -0.13972719
0.072375804 -0.026545784 -0.055168185 0.08873779 0.014481565 0.18185411 -0.276623 0.27254924
0.25428364 0.0033255685 -0.17379506 0.035644397 0.17032142 -0.14253478 0.057619814 0.073937446
-0.18131158 0.094362 0.17034246 0.041871145 0.052123234 -0.10698388 -0.15942138 -0.077130206
0.073151626 -0.110313185 0.08119541 -0.07233043 0.14076917 -0.065680765 -0.12555058 0.22450303
0.13175471 -0.13634177 -0.29352942 -8.83505e-05 0.23713857 0.09294601 -0.14615425 -0.21673736
0.04057308 0.11880434 0.039985348 0.24048299 -0.15861402 -0.058746 0.023174273 -0.061198294
0.17476247 -0.058214225 -0.094151385 -0.0029172758 -0.07693442 -0.109432064 -0.10492746 -0.1341855
-0.1239393 0.1944772 0.112886794 0.024033248 -0.12708715 -0.17957291 0.029735522 0.18839265
-0.030750787 -0.15998285 0.062174555 -0.041064832 0.08232461 0.038992897 -0.1094193 -0.015014936
00000000: e10c c43c 3e0e 0bbc 4fb8 48bd 909a 45bd
00000010: ba3b 12be e66f 373e bbcd f9bd 5f2a 393d
00000020: 8170 12be 86d0 e63d fc2e 20be e8a6 36be
00000030: 5bc4 e73d 8421 71be 4e48 1fbe 2871 94bd
00000040: f47e 483e 48c6 9e3d b9a7 80bd b810 093e
00000050: bce7 c5be 6f06 473d e70f 2a3e 70cd 86bc
00000060: e50e e5bd f067 1d3e af65 253d e27f 3cbe
00000070: ee6e dcbd a1b9 c73d 39d5 0cbe 624c 33be
00000080: d9f5 c33d a777 82be 5b46 973d e829 70be
00000090: 60dc adbd 6be2 9a3d 7cc7 0f3c 80ca c6bd
000000a0: 86de 75bd 8c7c 84be 4e47 0fbe 5203 0e3e
000000b0: 5f5a 773c 536e 0a3e 0b8f 813d 84e5 65be
000000c0: 1fb0 26be 1780 35bd bba1 c4bd df22 74bd
000000d0: 9290 61bd 96ca f7bc fee7 433e b316 dbbd
000000e0: 8edd 0ebc d6d8 42be 21e1 d3bc 0aec ee3d
000000f0: 5615 0ebe 4697 483e 05a4 88bd 9c04 b3bd
00000100: c744 0fbe 60b9 c8bd 75db f5bd d2ca cfbc
00000110: cca3 69be 464e 68be 04d4 1d3e 208b 38be
00000120: f90c 333e f152 4c3d 45fe de3d 4eec 2abe
00000130: fc1e 1b3e 8558 a93d 551b e7bd 52f3 afba
00000140: e6fe cabc 9a75 373d e61f a03d c40c a9bd
00000150: 3a65 f8bd dda4 183d 24b7 6f3e 3fdc af3d
00000160: fdf3 f13d 8009 6a3e e3c0 0f3d c396 f33d
00000170: 5d56 44be f5d4 d53d 964c 45be 0fad bfbc
00000180: 7287 67bd 8e38 563e e09c 0dbe 6c3d edbd
00000190: 7eb3 52be d86e 623d 1965 0cbe 67e6 8d3e
000001a0: 3593 36be ad1d 5bbe d965 edbd 3c34 133d
000001b0: bc54 453e 7dde 943c 464b 873d 076b aa3c
000001c0: a558 243d 1517 1abe 77c7 e8bd 4473 603e
000001d0: dabc c5bd ad1a f93d 1de4 00be af18 96bd
000001e0: 0f7c 95be b747 83bd 2e5e 343e d3c4 5d3d
000001f0: fd29 3c3a b38f a23d 03b0 cabc 7187 8bbc
00000200: 1308 0cbe 96fe c83c 3b29 ab3d 3b05 453e
00000210: 7787 6cbd c200 55be 2904 f83d b9c5 85be
00000220: e298 39bd 3ab2 113e ac9c cbbb ab39 5a3e
00000230: c2c2 ff3d cecb 90bc 94ba 133d b320 80bb
00000240: 9e48 b6bd dab9 ea3d b419 20bc b22a 663d
00000250: 7238 d83d 60e0 b33d 1ce6 60be da3f 303e
00000260: bc06 0b3e 1838 273e 196d 6bbe 1c35 5fbd
00000270: 8bc0 cbbd 67af 3b3e b171 7d3d 8ac1 e93c
00000280: 33aa 043e 6db2 35be 3f0f c5bd 8159 9bbe
00000290: 9507 83bc 0849 2f3e 76c2 56be 87aa 053c
000002a0: 24a8 17be e2f7 02be d7a3 4ebe 4889 a53d
000002b0: 8e8f 64bd d4b5 80bc aeb4 73bc 3439 b2bc
000002c0: d4a8 323e ec56 d1bd 1cca 52bd 060d 833c
000002d0: 823b c2be 7187 553e a924 4a3d a514 0fbe
000002e0: c439 943d 8b76 d9bc 09f8 61bd 29bc b53d
000002f0: 1644 6d3c f737 3a3e 88a1 8dbe 938b 8b3e
00000300: 7731 823e c8f1 593b 55f7 31be dcff 113d
00000310: bd68 2e3e a3f4 11be c102 6c3d 846c 973d
00000320: bea9 39be dd40 c13d 416e 2e3e 1481 2b3d
00000330: 2c7f 553d 5d1a dbbd 5c3f 23be 71f6 9dbd
00000340: 85d0 953d e1eb e1bd c749 a63d fa21 94bd
00000350: cb25 103e a383 86bd 5590 00be 1fe4 653e
00000360: b5ea 063e 2d9d 0bbe 7d49 96be d048 b9b8
00000370: 74d4 723e 7a5a be3d 76a9 15be 66f0 5dbe
00000380: f52f 263d b14f f33d adc7 233d 2c41 763e
00000390: b76b 22be a59f 70bd f9d7 bd3c 10ab 7abd
000003a0: eff4 323e 0a72 6ebd 71d2 c0bd c42f 3fbb
000003b0: cb8f 9dbd eb1d e0bd 35e4 d6bd ec67 09be
000003c0: e3d3 fdbd 0825 473e 3131 e73d 60e1 c43c
000003d0: 2223 02be f6e1 37be e997 f33c 01ea 403e
000003e0: 13e9 fbbc 8bd2 23be bfaa 7e3d 9933 28bd
000003f0: ce99 a83d 04b7 1f3d 3a17 e0bd 3501 76bc

layers.10.bias f4 [20]
0.013816234 0.1038069 -0.057964515 -0.038867027 0.047691863 -0.1255279 -0.043743722 -0.12794384
0.2442411 -0.17132892 -0.16296881 -0.17618753 -0.20233801 0.0075618764 -0.12490852 0.21011913
0.114597335 -0.3004351 -0.0039489544 -0.16640382
00000000: 7c5d 623c b698 d43d 336c 6dbd 0833 1fbd
00000010: 8b58 433d 638a 00be 9e2c 33bd b603 03be
00000020: 571a 7a3e d970 2fbe 4ce1 26be 816a 34be
00000030: b231 4fbe 9ec9 f73b 0ad0 ffbd 7829 573e
00000040: 02b2 ea3d a1d2 99be 3b66 81bb c365 2abe

layers.12.weight f4 [20, 20]
-0.187462 -0.18355215 -0.164221 0.10041611 0.07753099 -0.11408183 -0.11175134 -0.04389804
0.105598256 -0.04149987 -0.14591216 0.20621422 -0.117278546 0.14545876 0.06550995 -0.030885333
0.20202337 -0.17446055 0.034286935 -0.19044866 -0.067097604 -0.13209854 0.1661255 -0.18488772
-0.1291871 -0.0429419 0.19145651 0.20403744 0.04616183 -0.09908406 -0.08475425 0.100275315
-0.073868744 0.0045956005 -0.026606932 0.09679489 0.12637617 0.003635182 -0.13693446 0.109793425
-0.08603604 -0.180203 -0.1690913 -0.00628322 -0.21704504 -0.2311095 0.07022455 -0.12059571
-0.03219252 -0.18607394 0.15211833 -0.043968614 -0.16499543 0.15672153 0.07416878 -0.1400918
-0.22883382 0.22324672 0.2021384 -0.0459369 -0.20342925 -0.20229292 0.1937628 -0.1319844
0.002567721 -0.1833006 0.17667367 -0.20125309 0.19046272 -0.16728313 0.061276317 -0.02111221
-0.0636959 -0.14374948 -0.1240146 -0.08063214 -0.20765524 -0.17653638 -0.15778191 -0.18271767
-0.2837846 -0.20692392 -0.021957522 -0.11555323 0.1606166 -0.11369444 -0.124457784 -0.17134935
-0.07435635 -0.06135526 -0.017251104 0.13920137 -0.083352126 0.15009548 -0.21610178 -0.32339308
-0.1849413 0.24881142 -0.08505065 -0.079655096 -0.16589303 0.1604055 0.005546639 0.14235078
-0.002913376 -0.1365887 -0.13264193 0.1351383 -0.15920414 0.13501452 -0.06588915 0.17898558
0.03634983 0.056990284 0.21618815 -0.09950978 0.062414516 -0.20991765 0.17575133 0.085213505
-0.06478198 -0.07591315 0.06772766 0.16785522 -0.128756 -0.11001315 -0.06359165 0.14481972
-0.008884257 -0.21989061 -0.18194775 -0.16755763 -0.22128697 -0.004838213 -0.11674417 0.121014014
-0.15260492 -0.20301737 -0.19128186 -0.21529984 0.008882013 -0.1278929 -0.13008328 -0.07964716
-0.107393704 -0.06927871 0.07652655 0.19574569 -0.1804372 -0.21826303 0.09791534 -0.053094473
-0.058160793 -0.05763557 0.07273258 -0.2179779 -0.045950096 0.034469634 0.09280895 0.06674927
0.20113309 0.1500457 -0.11232629 -0.048578538 -0.21048 0.13162091 -0.052098557 0.15245801
0.053747106 0.13951063 0.061829608 -0.19081765 0.12118829 0.032585945 0.17866206 0.08094741
0.1772319 0.1379824 -0.07867096 0.2550783 0.12795816 -0.03978017 0.17982078 -0.12466447
-0.16727734 -0.13793321 -0.023787668 0.03962929 0.07773757 -0.21088254 -0.24790916 0.118538454
0.19609557 0.060435083 -0.10175895 -0.044273525 0.020383233 -0.17595208 -0.12981072 -0.30815825
-0.029034106 -0.15198234 -0.06835288 0.055727642 -0.029253734 -0.11801324 -0.09990683 0.09652302
-0.05182095 0.22225846 -0.11208205 -0.06384838 -0.23162115 -0.16258298 0.2595017 0.11652568
0.17035198 -0.021123648 0.10846508 0.008008125 0.11250634 -0.007967521 0.058222465 -0.2351669
0.09390187 -0.081879035 0.100545585 -0.00021452647 0.16751915 -0.036073618 -0.06635464 0.10765543
0.009816406 -0.09236976 -0.1366646 0.18901764 -0.032009132 -0.13715568 -0.26408923 -0.11801076
0.15476896 -0.22674231 -0.115379184 0.06602493 0.032811094 -0.04223065 -0.07601986 0.017752782
-0.2123504 -0.12448446 -0.014794453 0.098809406 -0.05658026 -0.14678653 0.16988595 -0.22046319
00000000: 0af6 3fbe 18f5 3bbe 8d29 28be f6a6 cd3d
00000010: 91c8 9e3d bca3 e9bd e3dd e4bd 6ece 33bd
00000020: e643 d83d c5fb 29bd ff69 15be d229 533e
00000030: bc2f f0bd 24f3 143e 152a 863d 3d03 fdbc
00000040: 37df 4e3e c9a5 32be 7570 0c3d f904 43be
00000050: 786a 89bd d744 07be ce1c 2a3e 3553 3dbe
00000060: a049 04be d9e3 2fbd 2d0d 443e 31ef 503e
00000070: 3014 3d3d 95ec cabd a393 adbd 255d cd3d
00000080: 7f48 97bd b196 963b c8f6 d9bc 663c c63d
00000090: c168 013e 3c3c 6e3b 8c38 0cbe 60db e03d
000000a0: aa33 b0bd 2387 38be 4526 2dbe 78e3 cdbb
000000b0: 0e41 5ebe f8a7 6cbe e4d1 8f3d e2fa f6bd
000000c0: 4edc 03bd 2b8a 3ebe e8c4 1b3e 6f18 34bd
000000d0: 90f4 28be 9c7b 203e cde5 973d 3a74 0fbe
000000e0: 6a53 6abe ca9a 643e 5efd 4e3e 5528 3cbd
000000f0: c24f 50be e025 4fbe c169 463e eb26 07be
00000100: 3647 283b 27b3 3bbe f1e9 343e 4a15 4ebe
00000110: a908 433e 454c 2bbe e0fc 7a3d 83f3 acbc
00000120: ff72 82bd 1033 13be 5efb fdbd 7722 a5bd
00000130: 93a3 54be f4c5 34be 9591 21be 571a 3bbe
00000140: 374c 91be dde3 53be 43e0 b3bc 2ca7 ecbd
00000150: ae78 243e a1d8 e8bd b9e3 febd 3476 2fbe
00000160: 2448 98bd a74f 7bbd 3052 8dbc ce8a 0e3e
00000170: 85b4 aabd a1b2 193e c949 5dbe c793 a5be
00000180: 4161 3dbe 6cc8 7e3e 092f aebd 3622 a3bd
00000190: dddf 29be 5741 243e 95c0 b53b 67c4 113e
000001a0: 57ee 3ebb e8dd 0bbe 49d3 07be b261 0a3e
000001b0: 6906 23be 3f41 0a3e e4f0 86bd ff47 373e
000001c0: 8fe3 143d a56e 693d 6d60 5d3e c9cb cbbd
000001d0: 5da6 7f3d a7f4 56be 28f8 333e 6b84 ae3d
000001e0: 6aac 84bd 5b78 9bbd cdb4 8a3d 3de2 2b3e
000001f0: 9dd8 03be 934e e1bd 573c 82bd 9f4b 143e
00000200: 468f 11bc 012b 61be 8350 3abe 3a94 2bbe
00000210: 0d99 62be df89 9ebb 9117 efbd 32d6 f73d
00000220: 7744 1cbe c9e3 4fbe 64df 43be 9077 5cbe
00000230: dd85 113c 5bf6 02be 8d34 05be 0d1e a3bd
00000240: 3bf1 dbbd ffe1 8dbd f4b9 9c3d 8f71 483e
00000250: 88c4 38be 5880 5fbe d687 c83d 9779 59bd
00000260: 033a 6ebd 4713 6cbd d2f4 943d 9935 5fbe
00000270: 2b36 3cbd 0830 0d3d 9e12 be3d d7b3 883d
00000280: d5f5 4d3e 94a5 193e 530b e6bd 4afa 46bd
00000290: 1288 57be a2c7 063e 4c65 55bd f41d 1c3e
000002a0: ed25 5c3d e0db 0e3e 0b41 7d3d b465 43be
000002b0: 9131 f83d d778 053d 30f3 363e c1c7 a53d
000002c0: 477c 353e 424b 0d3e 3e1e a1bd 9f99 823e
000002d0: 7707 033e 88f0 22bd f022 383e 1650 ffbd
000002e0: c04a 2bbe 5d3e 0dbe 5bde c2bc 5352 223d
000002f0: e034 9f3d 98f1 57be e6db 7dbe 4ac4 f23d
00000300: 47cd 483e c78a 773d ff66 d0bd 2858 35bd
00000310: bdfa a63c c82c 34be 1aed 04be ebc6 9dbe
00000320: efd8 edbc 42a1 1bbe 98fc 8bbd ab42 643d
00000330: 87a5 efbc edb0 f1bd f49b ccbd dcad c53d
00000340: 3442 54bd b997 633e 468b e5bd f1c2 82bd
00000350: 182e 6dbe 277c 26be 68dd 843e 04a5 ee3d
00000360: c070 2e3e 800b adbc f122 de3d 8334 033c
00000370: b969 e63d 358a 02bc ae7a 6e3d 98cf 70be
00000380: a04f c03d 32b0 a7bd d8ea cd3d 83f2 60b9
00000390: 248a 2b3e eec1 13bd f1e4 87bd 737a dc3d
000003a0: fed4 203c 5b2c bdbd cef1 0bbe d78d 413e
000003b0: 021c 03bd 8a72 0cbe b436 87be a0af f1bd
000003c0: c17b 1e3e 232f 68be ec4b ecbd 1438 873d
000003d0: ed64 063d 0cfa 2cbd 4db0 9bbd 486e 913c
000003e0: 6272 59be b5f1 febd 6f64 72bc 965c ca3d
000003f0: b4c0 67bd 354f 16be 95f6 2d3e 1ac1 61be

layers.12.bias f4 [20]
-0.07980726 -0.14549568 0.07021282 -0.1800786 -0.28842264 0.0049844147 0.2030373 -0.26177895
-0.18534683 0.24429321 0.11857767 0.09186637 -0.09934328 0.058433715 0.13886996 -0.07773105
0.20341758 -0.09658076 -0.08673066 -0.0015429537
00000000: fd71 a3bd d2fc 14be bdcb 8f3d 8666 38be
00000010: 22ac 93be 4d54 a33b 03e9 4f3e e407 86be
00000020: 8fcb 3dbe 0028 7a3e d9d8 f23d 6f24 bc3d
00000030: 7d74 cbbd 3158 6f3d ed33 0e3e 7531 9fbd
00000040: b34c 503e 22cc c5bd d89f b1bd ef3c caba

layers.14.weight f4 [20, 20]
0.12488671 -0.17116746 -0.25037995 -0.23738846 -0.2163595 -0.07151315 0.12516068 0.023580767
0.1026529 -0.2157249 -0.18232706 0.09881379 0.032645423 0.08850573 -0.12496553 0.11526073
0.33099797 -0.18830696 -0.24193716 -0.2172177 -0.040563963 0.1525702 -0.049473833 0.068713054
0.08006276 0.13512816 0.12737742 0.012823857 -0.0741496 -0.012814843 -0.22456595 0.03473195
-0.120120764 -0.1312781 0.13255839 0.24872172 0.10533022 -0.17928192 -0.16286424 0.031049298
-0.15969978 0.066144705 0.21838945 0.17246182 0.258765 0.08555601 0.06252379 -0.15230675
-0.117568396 0.06073711 -0.173628 0.056306828 -0.0057412228 0.026840603 -0.18189374 0.037285395
0.054223854 0.14150657 0.061809886 -0.13170213 -0.22311032 -0.09700299 -0.1363811 -0.07107188
-0.2562068 0.107237816 -0.006393486 -0.09489106 0.2359498 0.009143271 0.22190903 -0.123489425
-0.2017985 -0.096592166 0.07480538 0.087941304 0.21347992 0.07640921 -0.2216125 0.099938266
-0.1641887 0.016964793 -0.07764114 -0.12170514 -0.0684945 0.12446129 0.10996715 0.13265513
-0.16963962 0.057405666 -0.18530886 0.02336923 0.06865353 -0.16195814 0.017332574 0.03409766
0.006511542 0.0794311 0.1679276 0.18885943 -0.047041655 -0.10801232 -0.150783 0.11324634
-0.18101248 -0.25316516 -0.06999599 -0.14600988 0.18971586 0.15084657 -0.10910826 -0.048204474
-0.24797636 -0.18682268 0.068343036 0.059603337 0.19221242 -0.22828439 0.10574448 -0.13716969
-0.20954174 0.08695597 0.0848732 -0.20584701 -0.038161635 -0.16867241 -0.0050230054 0.16854231
0.2083212 -0.24398968 0.048601266 0.07422402 0.091927774 0.15553768 -0.09181266 -0.034404926
0.036540225 -0.151497 -0.30490187 -0.14538066 -0.2776881 0.22932908 -0.2513075 -0.13992919
-0.14765152 -0.046471637 -0.028231855 -0.13039374 -0.07620018 -0.082253 0.0960321 -0.024789438
-0.10587927 0.10601203 0.043817215 0.2546847 0.46614814 -0.12064686 -0.1627988 -0.11040946
-0.14988314 -0.17578517 0.02253908 -0.107175365 -0.22142895 0.13620874 0.20648588 -0.08189196
0.022263236 0.002906979 0.20356733 0.01745075 0.054453142 0.21278603 0.12337741 -0.14028655
0.106779434 -0.0273852 0.0034327703 0.05982655 -0.023267498 -0.12047698 0.18154727 0.16397141
-0.1955928 0.08467239 0.058780625 0.052602313 0.0032845852 -0.12173777 -0.16980803 -0.016005006
-0.16493475 -0.04878022 -0.08198102 -0.073087074 0.30329242 -0.15673392 -0.21482572 -0.03513039
0.11822687 -0.03796118 0.019360904 -0.21093757 0.034561377 -0.10516324 0.013327602 0.102371424
-0.15351182 -0.038313147 0.06635943 0.18453495 -0.084078126 -0.103636764 0.21055631 -0.11794197
-0.07278369 0.017426204 0.21345553 -0.18017416 -0.14545077 0.03171505 0.11189823 0.066382654
-0.17759418 0.085779056 -0.086496525 0.055866383 -0.30467516 -0.047894306 0.0047751353 -0.08184756
-0.085194744 -0.08702542 -0.20678651 0.007002273 -0.037937876 -0.09681672 0.28856874 0.0061019263
-0.13326395 -0.11516588 -0.07594911 -0.16053218 -0.15504807 0.109631695 -0.17719409 0.02259915
-0.013479051 0.07639304 -0.013152375 0.1202171 0.07062522 0.03526299 0.18718389 0.14207295
00000000: 9ac4 ff3d 8646 2fbe cd31 80be f615 73be
00000010: 588d 5dbe 7d75 92bd 1f2a 003e 742c c13c
00000020: af3b d23d fde6 5cbe f2b3 3abe e25e ca3d
00000030: 35b7 053d 7e42 b53d eeed ffbd d10d ec3d
00000040: 9178 a93e 8ad3 40be 60be 77be 516e 5ebe
00000050: 6626 26bd 5d3b 1c3e 13a5 4abd 6eb9 8c3d
00000060: f2f7 a33d 095f 0a3e 3a6f 023e 281b 523c
00000070: bfdb 97bd 59f5 51bc 9ef4 65be 1743 0e3d
00000080: e001 f6bd c46d 06be 63bd 073e e8b0 7e3e
00000090: 5fb7 d73d ae95 37be e2c5 26be 195b fe3c
000000a0: 5788 23be e076 873d 7ca1 5f3e d599 303e
000000b0: d97c 843e fd37 af3d 790c 803d 4df6 1bbe
000000c0: b3c7 f0bd 7ac7 783d 8acb 31be fda1 663d
000000d0: de20 bcbb d3e0 db3c 5a42 3abe 92b8 183d
000000e0: d519 5e3d 19e7 103e 5d2c 7d3d ecdc 06be
000000f0: 0877 64be 81a9 c6bd 7da7 0bbe 228e 91bd
00000100: 8a2d 83be 809f db3d 7380 d1bb 3e56 c2bd
00000110: d39c 713e a8cd 153c 1f3c 633e 06e8 fcbd
00000120: 44a4 4ebe 1dd2 c5bd 9033 993d 921a b43d
00000130: 7b9a 5a3e 6f7c 9c3d 63ee 62be 6fac cc3d
00000140: 1521 28be c0f9 8a3c 5102 9fbd 8b40 f9bd
00000150: d846 8cbd 90e5 fe3d 7536 e13d bfd6 073e
00000160: 02b6 2dbe 3422 6b3d 9bc1 3dbe d470 bf3c
00000170: 399a 8c3d 5bd8 25be 0bfd 8d3c fda9 0b3d
00000180: c65e d53b c6ac a23d 36f5 2b3e 5e64 413e
00000190: c0ae 40bd 9035 ddbd dc66 1abe b2ed e73d
000001a0: 565b 39be dd9e 81be 0f5a 8fbd 9d83 15be
000001b0: e044 423e 8677 1a3e 2774 dfbd 0e72 45bd
000001c0: 84ed 7dbe 724e 3fbe 6ff7 8b3d a122 743d
000001d0: 55d3 443e 62c3 69be 9090 d83d 3676 0cbe
000001e0: 1c92 56be f915 b23d 00d2 ad3d 8fc9 52be
000001f0: 604f 1cbd 76b8 2cbe 0698 a4bb 5b96 2c3e
00000200: 2752 553e 6ed8 79be 1f12 473d c302 983d
00000210: a144 bc3d 4545 1f3e 4708 bcbd 2eec 0cbd
00000220: 34ab 153d 0822 1bbe 191c 9cbe abde 14be
00000230: 222d 8ebe 3ed5 6a3e 60ab 80be 9949 0fbe
00000240: f631 17be 0b59 3ebd 7e46 e7bc f085 05be
00000250: d70e 9cbd 4374 a8bd 7aac c43d 3813 cbbc
00000260: 3bd7 d8bd d61c d93d ae79 333d 0866 823e
00000270: f8aa ee3e b315 f7bd bbb4 26be 5b1e e2bd
00000280: f77a 19be 0701 34be e0a3 b83c c27e dbbd
00000290: 45be 62be 4e7a 0b3e 0971 533e f9b6 a7bd
000002a0: 6461 b63c 0483 3e3b f473 503e e0f4 8e3c
000002b0: 420a 5f3d 95e4 593e 4cad fc3d 47a7 0fbe
000002c0: 2daf da3d ed56 e0bc 54f8 603b af0c 753d
000002d0: 7b9b bebc a3bc f6bd 87e7 393e 1fe8 273e
000002e0: 7b49 48be b868 ad3d f4c3 703d 8675 573d
000002f0: 3242 573b a751 f9bd 28e2 2dbe ee1c 83bc
00000300: a8e4 28be c5cd 47bd aae5 a7bd adae 95bd
00000310: 2549 9b3e db7e 20be 46fb 5bbe e2e4 0fbd
00000320: ee20 f23d 2f7d 1bbd c29a 9e3c 0500 58be
00000330: 3b90 0d3d d35f d7bd 045c 5a3c 1ca8 d13d
00000340: 3432 1dbe 3fee 1cbd 74e7 873d bbf6 3c3e
00000350: 2731 acbd 833f d4bd 139c 573e 8f8b f1bd
00000360: 9e0f 95bd 66c1 8e3c 1694 5a3e 937f 38be
00000370: 0cf1 14be a4e7 013d e62a e53d a1f3 873d
00000380: 40db 35be eeac af3d 1725 b1bd 26d4 643d
00000390: 62fe 9bbe d22c 44bd bd78 9c3b b29f a7bd
000003a0: 957a aebd 623a b2bd d8bf 53be 5373 e53b
000003b0: bf64 1bbd d847 c6bd 48bf 933e abf2 c73b
000003c0: 5876 08be 17dc ebbd 358b 9bbd 8c62 24be
000003d0: ecc4 1ebe 9586 e03d 5e72 35be da21 b93c
000003e0: 3dd7 5cbc f473 9c3d 0f7d 57bc 6234 f63d
000003f0: f5a3 903d ed6f 103d 22ad 3f3e 927b 113e

layers.14.bias f4 [20]
0.13476487 0.021599146 0.21566209 0.041622564 0.06674387 0.208639 -0.04139305 0.19516374
0.12975442 -0.026479203 0.116862394 -0.1463347 0.0075431657 -0.05670351 -0.13653606 -0.100054055
-0.095481806 -0.024793517 0.02465608 -0.06515362
00000000: cdff 093e b1f0 b03c 86d6 5c3e 6c7c 2a3d
00000010: 03b1 883d 76a5 553e c28b 29bd 01d9 473e
00000020: 58de 043e eaea d8bc 8d55 ef3d c3d8 15be
00000030: a92c f73b f141 68bd 1cd0 0bbe 24e9 ccbd
00000040: f78b c3bd c61b cbbc 8cfb c93c 436f 85bd

layers.16.weight f4 [1, 20]
-0.53266424 -0.30866838 0.31742364 -0.4117191 -0.07274648 -0.16768657 -0.25718355 -0.6307736
-0.07913381 -0.23670852 0.20992193 -0.016607158 -0.09772725 -0.37560377 -0.14843461 -0.27041733
-0.32658428 0.61240715 0.4856219 -0.07166618
00000000: af5c 08bf c809 9ebe 5a85 a23e d9cc d2be
00000010: 1bfc 94bd 07b6 2bbe 90ad 83be 617a 21bf
00000020: e810 a2bd b863 72be c6f5 563e bc0b 88bc
00000030: 3925 c8bd 234f c0be 3eff 17be 2474 8abe
00000040: 0e36 a7be b7c6 1c3f 6fa3 f83e b8c5 92bd
